Cifar/reek_cifar10_model_10Models_finalResult/0_model_.pt (torch, 47937 bytes, 12 tensors)

conv1.weight f4 [8, 3, 3, 3]
0	0x3e607092	0.21917942
1	0x3e6e31c2	0.23261169
2	0x3ccee5fb	0.025256148
3	0x3e7a6feb	0.24456756
4	0x3d056f2c	0.032576725
5	0x3dddceb4	0.10830441
6	0xbd2682e3	-0.040652167
7	0x3e2d9a0a	0.16953292
8	0x3e5e27fe	0.21694943
9	0xbd4ccfac	-0.05000274
10	0x3e82c374	0.25539744
11	0x3dfbd948	0.122973025
12	0x3e6850e1	0.22687103
13	0x3de91821	0.11381555
14	0x3e33ae5c	0.17546982
15	0x3d0906d7	0.03345379
16	0x3e580adb	0.21097891
17	0x3da808e2	0.08204819
18	0x3ce8fede	0.028441843
19	0x3e2b656a	0.16737905
20	0x3cfda875	0.030964116
21	0x3db3a77f	0.08772182
22	0x3d15d82c	0.03658311
23	0x3e75cb4a	0.2400333
24	0xbd79d7c3	-0.060996782
25	0x3bbef758	0.0058278255
26	0x3d0c9ac6	0.03432729
27	0xbd67be46	-0.056577943
28	0x3db19b4d	0.086721994
29	0xbe15f490	-0.14644074
30	0x3e5e6317	0.21717487
31	0xbdc8fe2a	-0.09814103
32	0x3e517928	0.20456374
33	0x3d1ebe40	0.038755655
34	0xbcdc52e3	-0.026894992
35	0x3e2129a3	0.1573854
36	0x3da4dfd6	0.08050506
37	0x3e602716	0.2188991
38	0x3d3fa398	0.046786875
39	0xbcb580d2	-0.022156153
40	0x3dec571f	0.115400545
41	0xbb2827d7	-0.0025658512
42	0x3da02db6	0.07821219
43	0x3e4f010d	0.20215245
44	0x3e134f56	0.14385733
45	0x3d061234	0.032732204
46	0x3e736b7a	0.23771468
47	0x3e0b2c95	0.13591225
48	0x3e5ad921	0.2137189
49	0x3c8a6c59	0.016897367
50	0xbd841b23	-0.064504884
51	0x3c484ac0	0.012224853
52	0xbd140050	-0.03613311
53	0x3e89cb42	0.26912886
54	0x3d6ee21c	0.058321103
55	0x3cd1dd5b	0.025618246
56	0xbc9a0950	-0.018803269
57	0x3ca8d702	0.020610336
58	0x3e0336b6	0.1281384
59	0xbe463084	-0.19354445
60	0x3b6172f6	0.0034400797
61	0xbe1d41c0	-0.15357113
62	0x3b9f9ceb	0.004871001
63	0x3c161933	0.009161281
64	0x3dbfc80d	0.093643285
65	0xbd26d924	-0.040734425
66	0x3e7fabe8	0.24967921
67	0xbd715ef7	-0.058928456
68	0xbdd12ee8	-0.10214025
69	0xbd9355ee	-0.07194124
70	0x3e44627b	0.19178192
71	0x3d42ea11	0.047586504
72	0x3e72ce6c	0.23711556
73	0xbe207ba7	-0.1567217
74	0xbe7b0180	-0.24512291
75	0xbdbc291a	-0.09187527
76	0xbde53382	-0.11191465
77	0x3d02ed43	0.03196455
78	0x3d9698f8	0.07353395
79	0x3e13716d	0.14398737
80	0xbe265e1a	-0.16246834
81	0xbe555818	-0.20834386
82	0x3c931c07	0.0179577
83	0xbe1acf02	-0.1511803
84	0x3d6d1605	0.057882328
85	0xbdfd3a34	-0.12364617
86	0x3d41cf94	0.047317103
87	0xbe386675	-0.18007834
88	0xbe219c44	-0.15782267
89	0x3c09db87	0.008414156
90	0x3c7e72ac	0.01553027
91	0xbdab81da	-0.083743766
92	0x3dc03da4	0.09386757
93	0x3e048c15	0.12944062
94	0xbe2b0b14	-0.16703445
95	0xbddbb1eb	-0.107272945
96	0x3e4e35f8	0.20137775
97	0xbd9b4330	-0.075811744
98	0xbd73914e	-0.059464745
99	0xbe5a78ce	-0.21335146
100	0xbe186e03	-0.14885716
101	0x3caf419c	0.02139359
102	0xbd195bf0	-0.037441194
103	0xbe32060c	-0.17385119
104	0xbc267211	-0.0101590315
105	0xbe040cda	-0.12895527
106	0xbe3f7ef1	-0.18700768
107	0xbde5bc63	-0.112175725
108	0xbe0db9c0	-0.13840389
109	0xbda559ba	-0.080737546
110	0x3e82a7d5	0.2551867
111	0x3d01ff0f	0.031737383
112	0x3d762b92	0.060100146
113	0xbe36f77a	-0.17867842
114	0xbe15af1f	-0.14617585
115	0xbda6245e	-0.08112405
116	0x3c45987f	0.012060284
117	0xbe6c6267	-0.23084413
118	0xbe0b435d	-0.13599916
119	0xbe2b7a6a	-0.16745916
120	0xbd956a85	-0.072957076
121	0xbe10495b	-0.14090483
122	0xbdb41e63	-0.08794858
123	0xbe53dd7f	-0.20689963
124	0xbe53a35f	-0.2066779
125	0xbe4444cf	-0.19166873
126	0xbde2bc08	-0.1107102
127	0xbe3d5cad	-0.18492384
128	0x3e0a3eb5	0.13500483
129	0xbdbf440f	-0.09339153
130	0x3df0c802	0.117568985
131	0x3c1381b6	0.0090030935
132	0xbe6245e6	-0.22096977
133	0x3da29a98	0.07939643
134	0xbde09d5a	-0.109675124
135	0xbe1f5179	-0.15558423
136	0xbe82b0cb	-0.25525507
137	0xbe8bdc0d	-0.27316323
138	0x3d62e127	0.055390503
139	0xbd5eb255	-0.05436929
140	0x3db0376f	0.08604323
141	0xbe18eb73	-0.14933567
142	0x3e0ed2fa	0.13947669
143	0xbdf6b795	-0.12046734
144	0xbda196db	-0.078901015
145	0xbc6d02c3	-0.0144659905
146	0x3d6c0773	0.05762429
147	0x3e3524ac	0.1768977
148	0x3e406230	0.18787456
149	0xbdee5f1a	-0.11639233
150	0x3d8ab36a	0.06772502
151	0xbd958e2b	-0.07302507
152	0x3c4e0a1a	0.012575651
153	0xbe070f17	-0.1318935
154	0x3e3b5d10	0.1829722
155	0xbe0055d4	-0.12532741
156	0x3e258b69	0.16166462
157	0x3df3f0dc	0.11911175
158	0x3e08410b	0.13306062
159	0xbd4de0cb	-0.050263207
160	0x3e5fcb7e	0.2185497
161	0x3dda22da	0.10651179
162	0x3c91c222	0.017792765
163	0xbe38423f	-0.17994021
164	0x3d91308c	0.07089338
165	0xbd50b2b4	-0.050951675
166	0xbde0ca88	-0.1097613
167	0x3e1aa539	0.1510209
168	0x3c3f1b4c	0.011664223
169	0xbe11dae3	-0.14243655
170	0xbe0695ab	-0.13143031
171	0x3c912040	0.017715573
172	0x3e080eca	0.13286892
173	0xbcc23b4c	-0.023709916
174	0xbdc7b551	-0.0975138
175	0xbd4fa699	-0.05069599
176	0xbdfb6b3f	-0.12276315
177	0x3d8b0b6b	0.06789287
178	0x3e180d23	0.14848761
179	0xbe36983d	-0.17831512
180	0x3dd072c7	0.10178142
181	0x3e1e130b	0.15436952
182	0x3db61afc	0.088918656
183	0xbcb6cf88	-0.022315755
184	0x3e17f495	0.14839394
185	0x3e1cb0c0	0.153018
186	0x3dd7b36b	0.10532268
187	0x3b031afe	0.0020005102
188	0xbc227d26	-0.009917533
189	0x3d4a0b3a	0.049327113
190	0xbd35c2e3	-0.04437531
191	0xbd98dbe1	-0.074638136
192	0x3cfeb03e	0.031089898
193	0x3d3862de	0.045016162
194	0xbe08c643	-0.13356881
195	0xbe3869ce	-0.18009111
196	0xbe1cd25c	-0.1531462
197	0xbe0c1df4	-0.13683301
198	0x3c5118ae	0.012762232
199	0xbca85c57	-0.020551844
200	0xbe854c65	-0.26034847
201	0xbe463e06	-0.19359598
202	0x3c5d49c7	0.013506359
203	0xbd85beb9	-0.06530518
204	0xbe236319	-0.15955772
205	0xbe90eca6	-0.28305548
206	0xbe823b69	-0.2543595
207	0xbe48407e	-0.19555852
208	0xbe0c64da	-0.13710347
209	0xbcc29aad	-0.023755396
210	0x3c8d9bd1	0.017286213
211	0xbd50a478	-0.0509381
212	0xbe9c14ad	-0.30484524
213	0xbe819dd5	-0.2531573
214	0xbe4617ec	-0.19345063
215	0x3d5f001b	0.05444346

conv1.bias f4 [8]
0	0x3dc9a588	0.09846026
1	0x3d41379e	0.04717218
2	0x3e14b86a	0.14523473
3	0xbcaead7e	-0.021322962
4	0xbe04003a	-0.12890711
5	0x3e1b9b54	0.15195972
6	0xbcd01387	-0.025399936
7	0x3db43546	0.087992236

conv2.weight f4 [10, 8, 3, 3]
0	0xbdce50f3	-0.100740336
1	0x3dc66221	0.09686685
2	0x3ded3b96	0.11583631
3	0x3d425708	0.04744628
4	0xbdf64950	-0.12025702
5	0xbe12a900	-0.14322281
6	0xbd14dc64	-0.036342993
7	0x3e0af466	0.13569793
8	0x3de6aa5b	0.112629615
9	0x3dd06942	0.10176326
10	0x3d59e863	0.053200137
11	0x3d0eeae9	0.034891997
12	0x3c3cec61	0.0115309665
13	0xbdef8319	-0.11694927
14	0xbdf9ad36	-0.121912405
15	0xbd6708e1	-0.056404952
16	0x3db553e3	0.08853891
17	0xbc0f4453	-0.008744317
18	0xb829a26a	-4.0444e-05
19	0xbd6ecbe8	-0.05829993
20	0x3c8e6c14	0.01738552
21	0xbd6d016e	-0.05786269
22	0xbda224fd	-0.07917211
23	0x3d29fae5	0.041499037
24	0xbcb190f6	-0.021675568
25	0x3d9f3908	0.0777455
26	0xbcbcf34a	-0.023065228
27	0xbd85c03b	-0.06530806
28	0x3c0c7954	0.008573849
29	0xbd18eec9	-0.0373371
30	0xbd147203	-0.036241543
31	0xbdd119e8	-0.10210019
32	0x3d8f9ed8	0.07012719
33	0xbdbd6ff6	-0.092498705
34	0x3d273f7c	0.040832028
35	0x3d24d421	0.040241364
36	0x3ddd47df	0.10804724
37	0xbd7c089c	-0.061531648
38	0x3dd866cb	0.10566481
39	0xbd5f1253	-0.054460835
40	0x3d6115a1	0.054952268
41	0x3df6a227	0.12042647
42	0xbcd95505	-0.026529798
43	0xbc739a3a	-0.014868313
44	0xbd19a06d	-0.03750651
45	0xbdd92231	-0.106022246
46	0x3d27cb85	0.040965576
47	0xbdde1d29	-0.108454056
48	0x3e08b364	0.13349682
49	0x3e05b1d6	0.1305612
50	0x3e26135e	0.16218325
51	0x3d0f19b8	0.034936637
52	0xbd260793	-0.040534567
53	0x3db54bf6	0.08852379
54	0x3dc385d9	0.09547014
55	0xbdaeabb6	-0.08528845
56	0x3bcb7f50	0.006210245
57	0xbdebdaa6	-0.11516313
58	0xbd4972e8	-0.04918185
59	0xbda16fe8	-0.078826725
60	0xbd1500bb	-0.03637765
61	0xbd31ad2c	-0.04337804
62	0xbdfe489c	-0.12416193
63	0x3e055985	0.1302243
64	0x3e04b007	0.12957774
65	0x3c5846c8	0.013200469
66	0x3b1cf2f0	0.0023948513
67	0xbd0bcb29	-0.034129295
68	0xbdbeb14b	-0.0931116
69	0xbdf121ac	-0.117740005
70	0x3cff22a8	0.031144455
71	0xbd9084e6	-0.07056598
72	0xbd89d5ae	-0.06730209
73	0x3bf5f2d6	0.007505755
74	0xbc9fdd41	-0.019514682
75	0xbd0c45c9	-0.03424624
76	0x3ba2bb08	0.0049661435
77	0xbbf691c8	-0.0075247027
78	0xbc59a43f	-0.013283788
79	0xbd353722	-0.044242032
80	0xbd84aa0e	-0.06477748
81	0x3ddb92a5	0.107213296
82	0xbd03be61	-0.03216398
83	0x3d542a84	0.05179836
84	0xbce33535	-0.027735332
85	0x3c84345e	0.016138252
86	0x3e08fb6a	0.13377157
87	0x3dbc76f2	0.092023745
88	0xbdab79ea	-0.08372863
89	0x3daac1dc	0.08337757
90	0x3e1b7c28	0.1518408
91	0x3d8759d5	0.06608931
92	0x3df2f611	0.1186334
93	0x3e323f88	0.17407048
94	0x3cc50e19	0.024054574
95	0x3d86fd39	0.06591267
96	0xbcad9583	-0.021189457
97	0x3ce90c66	0.028448295
98	0x3deff895	0.11717335
99	0x3dc1e936	0.094683096
100	0xbd03edf1	-0.03220934
101	0xbd44cce2	-0.048046954
102	0xbd314f75	-0.043288667
103	0xbd543297	-0.05180606
104	0xbd18fb03	-0.03734876
105	0xbd1661e1	-0.03671444
106	0x3df71536	0.120645925
107	0x3d685245	0.056719083
108	0xbdbf4ed7	-0.093412094
109	0xbda482f3	-0.08032789
110	0x3db0e0c8	0.086366236
111	0xbdcb9bed	-0.0994185
112	0x3c60d51d	0.013722685
113	0x3db128ea	0.08650382
114	0xbe0011c9	-0.12506784
115	0xbcb504ed	-0.022097075
116	0xbc0f9afe	-0.00876498
117	0xbcd0832b	-0.02545317
118	0xbd739493	-0.059467863
119	0xbdb07e13	-0.08617797
120	0xbde0a77e	-0.109694466
121	0xbdd6dbe7	-0.10491162
122	0x3dd084c7	0.10181575
123	0xbd4d25c2	-0.050084837
124	0xbdcfd5b2	-0.10148181
125	0x3d0aeb6e	0.03391593
126	0x3cdc407c	0.026886217
127	0x3d40b14f	0.047044095
128	0x3da5521d	0.080723025
129	0x3d6e3f6c	0.058165953
130	0xbe0c0438	-0.13673484
131	0x3b3bfc60	0.0028684363
132	0x3d686360	0.056735396
133	0xbd4fbd7d	-0.05071782
134	0xbdac15d6	-0.084026024
135	0x3e02974a	0.12753025
136	0xbc48a60c	-0.01224662
137	0xbce3f494	-0.027826585
138	0xbdb0f2c5	-0.086400546
139	0x3d488829	0.048957977
140	0x3dc52c58	0.096275985
141	0xbc1e370c	-0.009656679
142	0x3d2acd54	0.041699722
143	0xbd8c401e	-0.06848167
144	0xbda5d707	-0.08097654
145	0x3ccfc79a	0.025363732
146	0x3e0e843a	0.13917628
147	0x3da52cf4	0.08065215
148	0xbd6f8ad6	-0.058482014
149	0xbc0ac6fe	-0.008470295
150	0xbdef6f09	-0.116911
151	0xbdb2c3bd	-0.0872874
152	0xbb84d579	-0.0040537682
153	0x3dc77f48	0.09741074
154	0x3e00068c	0.12502497
155	0xbda22a7c	-0.079182595
156	0x3da0bb26	0.07848196
157	0xbdb46e3a	-0.088100865
158	0x3d22d550	0.039754212
159	0x3d99ca5e	0.075093016
160	0xbcafba0c	-0.021451019
161	0x3db006e6	0.08595066
162	0xbdd1bd70	-0.102412105
163	0xbd769f46	-0.06021049
164	0x3d34feee	0.044188432
165	0xbd2cd258	-0.042192787
166	0xbd33c105	-0.04388525
167	0xbd7fa1bb	-0.062410098
168	0x3db4c393	0.08826365
169	0x3d5be772	0.05368752
170	0x3d20c2dd	0.039248336
171	0xbe038036	-0.12841877
172	0xbe1c8c61	-0.15287925
173	0xbd2f7913	-0.042840075
174	0x3cd18bd6	0.025579374
175	0xbd8a832d	-0.06763301
176	0xbd44bd2e	-0.04803198
177	0x3ddea745	0.10871748
178	0x3d1897e2	0.03725422
179	0x3cedcb9e	0.029027756
180	0xbccd1f9d	-0.025039488
181	0xbdb06ec3	-0.08614876
182	0xbdcb5c2a	-0.09929688
183	0xbc1b7904	-0.009489302
184	0xbc52cead	-0.012866658
185	0x3da0ee9a	0.0785801
186	0x3d15cafc	0.036570534
187	0x3cc1f296	0.023675244
188	0x3e33bb81	0.17551996
189	0x3dc48276	0.09595196
190	0x3e07d704	0.13265616
191	0xbbfca958	-0.007710617
192	0xbcb50e17	-0.022101445
193	0x3d877624	0.066143304
194	0xbd5ef4b6	-0.054432593
195	0xbd61ded8	-0.05514416
196	0x3c355510	0.011067644
197	0xbcbfd8d2	-0.023418818
198	0xbd726481	-0.05917788
199	0x3dbe841d	0.09302542
200	0x3dfdebc2	0.12398483
201	0x3d5d1739	0.053977225
202	0x3bf08cbc	0.0073409956
203	0xbda4e4b1	-0.08051432
204	0xbd22c051	-0.03973419
205	0x3cf9866f	0.03045961
206	0x3d6b2c22	0.057415135
207	0xbcab52d0	-0.020913512
208	0xbd48c5be	-0.049016707
209	0x3d220c27	0.03956237
210	0xbd779573	-0.06044526
211	0x3dde220f	0.1084634
212	0xbcad77ec	-0.021175347
213	0x3d88566f	0.06657111
214	0x3d18cc70	0.03730434
215	0x3d8e47b0	0.06947267
216	0xbd28a1c7	-0.041169908
217	0x3d59648e	0.053074412
218	0xbcf8284d	-0.030292654
219	0x3e05d50b	0.1306955
220	0x3e08c3c2	0.13355926
221	0xbd2c1963	-0.0420164
222	0xbd4d9c68	-0.05019799
223	0x3df906ba	0.12159486
224	0x3dee00c0	0.11621237
225	0xbd9e17aa	-0.07719357
226	0xbcb07edd	-0.021544868
227	0xbe01cd95	-0.1267608
228	0xbd434837	-0.04767629
229	0x3d6bb39c	0.057544336
230	0x3d7d8972	0.061898656
231	0x3d784127	0.06060901
232	0xbb845b61	-0.0040392135
233	0x3e08c12c	0.13354939
234	0xbbcd3100	-0.006261945
235	0xbde609ec	-0.11232361
236	0xbd8d53ee	-0.06900774
237	0xbc4f45fc	-0.012650963
238	0x3c0fc9df	0.008776157
239	0xbdf30525	-0.118662156
240	0xbd240337	-0.04004213
241	0xbdf84d3f	-0.121241085
242	0xbe09d095	-0.13458474
243	0xbd943564	-0.07236746
244	0x3e08dca9	0.13365425
245	0x3dffae2b	0.12484392
246	0x3d0a3d9d	0.033750165
247	0x3cc67f65	0.024230668
248	0x3d9dc15a	0.077028945
249	0xbd82b7a1	-0.06382681
250	0xbdf89f5c	-0.121397704
251	0x3cd25703	0.025676256
252	0xbd0fa59d	-0.03507005
253	0xbcf81167	-0.030281736
254	0x3cc221c1	0.023697736
255	0xbc43b217	-0.011944315

conv2.bias f4 [10]
0	0xbde03747	-0.10948043
1	0x3db6b42f	0.08921086
2	0xbdb28810	-0.08717358
3	0xbd75acc8	-0.05997923
4	0xbd64456a	-0.05573026
5	0x3dc98e4a	0.098415926
6	0xbda91543	-0.082560085
7	0xbca628e3	-0.020283168
8	0x3deea4dd	0.11652539
9	0x3df2d497	0.118569545

conv3.weight f4 [20, 10, 3, 3]
0	0xbd5b5ada	-0.05355344
1	0xbe3c94f2	-0.18416193
2	0xbe30738c	-0.17231578
3	0xbe233d60	-0.15941381
4	0xbcb82654	-0.022479214
5	0xbddfdfc4	-0.10931352
6	0xbe459fa1	-0.19299175
7	0xbd9d25d7	-0.07673233
8	0xbe18cf03	-0.14922719
9	0xbbd25213	-0.0064184754
10	0x3ca85c96	0.02055196
11	0x3e0e3311	0.13886668
12	0x3d6fbe55	0.058531124
13	0x3d10576a	0.035239615
14	0x3d9fb7dd	0.07798741
15	0x3d025f52	0.031829186
16	0x3dfa25b9	0.12214226
17	0x3e039abb	0.12851994
18	0x3d033d96	0.032041155
19	0xbd386a75	-0.0450234
20	0x3d8ac3c9	0.06775624
21	0xbd1c2663	-0.038122546
22	0xbd915c9c	-0.07097742
23	0x3c52be4d	0.012862754
24	0x3d690aee	0.05689519
25	0x3d847262	0.06467129
26	0xbcd28612	-0.025698695
27	0xbce4e550	-0.027941376
28	0x3d3a39d0	0.04546529
29	0x3d48dad3	0.049036812
30	0xbd9da7a2	-0.07697989
31	0xbb4aae7c	-0.0030926755
32	0xbdc3ea7b	-0.09566208
33	0x3d55e55b	0.052220684
34	0x3d7ebd28	0.062192112
35	0xbd029304	-0.031878486
36	0xbc599607	-0.013280398
37	0x3de8676a	0.1134785
38	0x3d19e867	0.03757515
39	0xbd9d9912	-0.076952115
40	0x3e1cd598	0.15315855
41	0x3bfa1554	0.007631937
42	0xbd094c8d	-0.03352027
43	0x3d65d51b	0.056111436
44	0x3d516594	0.051122263
45	0xbda20e48	-0.0791288
46	0x3dfe1b7c	0.12407586
47	0xba55239f	-0.0008130613
48	0xbbbe4cc5	-0.0058074915
49	0x3de6d43f	0.112709515
50	0x3c80f2e8	0.015740827
51	0x3c4bf628	0.012448825
52	0x3d6922bc	0.05691789
53	0x3d332b32	0.043742366
54	0xbd7dc027	-0.06195083
55	0xbc896cb8	-0.016775474
56	0x3d91a21e	0.071109995
57	0xbde5e4ba	-0.11225267
58	0xbd538f12	-0.051650114
59	0x3d115158	0.035477966
60	0xbd318b7f	-0.043345924
61	0x3d3ee2c9	0.046602998
62	0xbd6b9d60	-0.05752313
63	0x3cf11c17	0.02943234
64	0x3d8148c9	0.06312711
65	0x3da86ce8	0.08223897
66	0xbdc0de12	-0.094173566
67	0xbd317acc	-0.04333
68	0xbd399204	-0.045305267
69	0xbd799600	-0.060934067
70	0x3d8db3a0	0.069190264
71	0x3cafe799	0.021472739
72	0x3d6a10a6	0.057144783
73	0xbd80a49b	-0.06281396
74	0xbcc21724	-0.023692675
75	0xbcfb3d52	-0.030668888
76	0x3d8c0fb1	0.068389304
77	0xbd931c92	-0.07183184
78	0x3c83db77	0.01609586
79	0xbd80a4f1	-0.0628146
80	0xbbdf910a	-0.00682271
81	0x3e10cc7d	0.14140506
82	0x3d908ff4	0.07058707
83	0xbd8709e3	-0.065936826
84	0x3d34937b	0.04408596
85	0x3c750d8a	0.014956841
86	0xbdbce3ea	-0.09223159
87	0x3e0a5cbc	0.13511938
88	0x3d0112d9	0.031512115
89	0x3c69d70f	0.014272465
90	0x3cee7321	0.029107632
91	0x3ca838d9	0.02053492
92	0x3dcae8e4	0.099077016
93	0x3e045183	0.12921719
94	0x3de672fe	0.11252402
95	0x3d6dba55	0.05803903
96	0x3e4f7452	0.20259216
97	0x3dd72512	0.105051175
98	0x3d645c97	0.055752363
99	0xbd27af5c	-0.04093872
100	0x3dcce23c	0.10004088
101	0xbc7ee8fa	-0.015558476
102	0xbd0929d0	-0.03348714
103	0xbd9a73da	-0.07541628
104	0xbd4c340b	-0.04985432
105	0xbdf340c4	-0.118775874
106	0xbe021af3	-0.12705593
107	0x3cabcb07	0.020970834
108	0x3e1ad921	0.1512189
109	0x3e206cc7	0.15666495
110	0xbc603f75	-0.013687004
111	0x3dc8ec74	0.09810725
112	0xbd104f06	-0.035231613
113	0x3ddd4ad7	0.1080529
114	0x3e0b21c4	0.135871
115	0x3e0fa663	0.14028315
116	0x3e0ddfb6	0.1385487
117	0x3dd47ead	0.10375724
118	0x3d049367	0.032367136
119	0x3db1cd9a	0.086817935
120	0xbd150dc2	-0.036390074
121	0x3d32e534	0.043675616
122	0xbd19f3bb	-0.037585955
123	0x3a982f5a	0.0011610792
124	0xbda739f6	-0.08165352
125	0xbc904db8	-0.017615184
126	0xbd8b46cf	-0.06800615
127	0xbd4edcaa	-0.05050341
128	0xbda65d5a	-0.08123274
129	0xbdd9a7c1	-0.106277
130	0xbc531bac	-0.012885015
131	0x3d540741	0.05176473
132	0x3ddd2e19	0.10799808
133	0x3d8a88bb	0.067643605
134	0xbd33d241	-0.043901686
135	0xbde22e67	-0.11044007
136	0x3cac58dc	0.021038465
137	0x3d415378	0.047198743
138	0xbe00bd28	-0.12572157
139	0xbbd389ed	-0.006455651
140	0x3d630b2e	0.055430584
141	0xbd0e83a8	-0.034793526
142	0xbddce222	-0.10785319
143	0x3d45cbe6	0.048290156
144	0x3d06ab9a	0.032878496
145	0x3da08aa2	0.07838942
146	0xbd64a5e1	-0.055822257
147	0x3d813f7c	0.06310937
148	0xbd6dfdf6	-0.058103524
149	0x3df8119c	0.12112734
150	0xbc481ddd	-0.012214151
151	0x3dc7f869	0.09764177
152	0x3d6e27fa	0.058143593
153	0x3cff46e8	0.03116174
154	0xbc8a7391	-0.01690081
155	0x3d7f5c40	0.062343836
156	0xbd57802e	-0.052612476
157	0xbdd1d597	-0.10245817
158	0xbd15ef85	-0.036605377
159	0x3daf316b	0.085543476
160	0xbcb61fc4	-0.022231944
161	0x3d0f37e0	0.034965396
162	0x3a7e2e3b	0.000969622
163	0x3de340ba	0.1109633
164	0x3dcd566e	0.10026251
165	0x3d198b03	0.037486088
166	0xbd6bd69c	-0.057577714
167	0xbdba3e1e	-0.09093879
168	0xbbd313c5	-0.0064415657
169	0xbd7d8020	-0.061889768
170	0x3db916de	0.09037565
171	0xbdae501f	-0.08511376
172	0x3d3afb9f	0.04565012
173	0x3dea3fe3	0.11437967
174	0x3d41cbe1	0.047313575
175	0x3cb419eb	0.021985015
176	0xbde8563d	-0.11344574
177	0x3dade8ea	0.084916905
178	0xbd1b03e2	-0.0378455
179	0xbdfb8981	-0.12282086
180	0x3e28a5b8	0.16469467
181	0x3ce7d8c5	0.028301606
182	0x3d83ddc9	0.064387865
183	0x3e18b8e8	0.14914286
184	0xbce61e00	-0.028090477
185	0xbd40b395	-0.047046263
186	0x3db3e78d	0.08784399
187	0x3d546e8c	0.05186324
188	0x3daa2f6c	0.08309826
189	0xbe2783bf	-0.16358851
190	0xbd0768f4	-0.033059075
191	0xbdcdd167	-0.10049706
192	0xbdf1a76c	-0.11799511
193	0xbe0623ba	-0.13099566
194	0x3c098803	0.008394244
195	0xbcbfcf1e	-0.02341419
196	0xbe02d136	-0.1277512
197	0x3d273732	0.040824123
198	0x3dbc13fa	0.09183498
199	0x3d990fcb	0.074737154
200	0xbbfe6cfc	-0.007764457
201	0x3d9f4da1	0.077784784
202	0x3e2247f8	0.15847766
203	0x3dfdd3c8	0.1239391
204	0xbd1200a3	-0.03564514
205	0x3df7efc0	0.121062756
206	0x3cf2059b	0.029543689
207	0x3dcace5e	0.09902643
208	0x3e07f318	0.13276327
209	0x3e0ca212	0.137337
210	0xbd79a78f	-0.060950812
211	0x3de05b95	0.10954968
212	0xbd81b24a	-0.06332834
213	0x3cb2a581	0.021807434
214	0xbd8279ec	-0.06370911
215	0xbc77d383	-0.015126112
216	0xbd25805f	-0.040405627
217	0xbd04e403	-0.03244401
218	0xbd063025	-0.032760758
219	0xbc3ba9f4	-0.011454094
220	0x3dad8dfe	0.084743485
221	0x3d18cc16	0.037304007
222	0x3d238e81	0.039930824
223	0x3cd45ad3	0.025922215
224	0x3d907d24	0.07055119
225	0xbd790782	-0.060798176
226	0xbcfc7330	-0.030816644
227	0xbc76a6bd	-0.015054402
228	0xbe2a9884	-0.16659743
229	0xbe0f87b1	-0.14016606
230	0xbd2a4717	-0.041571703
231	0xbdadaabb	-0.0847983
232	0xbd191007	-0.0373688
233	0xbd7e9b69	-0.06215993
234	0x3cee067f	0.029055832
235	0x3db6dbb5	0.089286245
236	0x3aac3369	0.001313788
237	0x3dd6453d	0.10462425
238	0x3dda6953	0.1066462
239	0xbd6a2bb9	-0.057170603
240	0xbda2bb05	-0.079458274
241	0xbd9df4a0	-0.07712674
242	0xbd31a851	-0.04337341
243	0xbd541a77	-0.05178305
244	0xbcff7262	-0.031182472
245	0xbd2ad9fa	-0.041711785
246	0xbd8272b0	-0.06369531
247	0xbd5268fe	-0.05136966
248	0xbd86158c	-0.065470785
249	0x3dc20881	0.09474278
250	0xbd4019f6	-0.04689976
251	0xbdb33777	-0.087508135
252	0x3dcbdc29	0.099541016
253	0x3d450b39	0.048106406
254	0x3e0820b4	0.13293725
255	0x3db51558	0.088419616

conv3.bias f4 [20]
0	0x3df805ad	0.121104576
1	0xbd88f215	-0.066867985
2	0x3d9243e2	0.07141854
3	0x3d5b36a6	0.053518914
4	0x3caa2638	0.020770177
5	0xbd680848	-0.056648523
6	0x3d83b72b	0.06431421
7	0x3da18433	0.07886543
8	0xbdc7c1ca	-0.09753759
9	0x3d7b7e92	0.061400004
10	0xbd17fe8f	-0.037108
11	0xbd4637c0	-0.04839301
12	0xbcfd2323	-0.030900544
13	0x3cfd7276	0.030938368
14	0xbd8a70b8	-0.06759781
15	0xbd838b5c	-0.06423065
16	0xbd6bc15f	-0.05755746
17	0x3d8814ab	0.06644567
18	0xbdb72ed0	-0.08944476
19	0xbce7d165	-0.02829809

conv4.weight f4 [25, 20, 3, 3]
0	0xbd926ea3	-0.071500085
1	0xbdb9a92f	-0.09065472
2	0xbd2eff37	-0.04272386
3	0x39aaf00d	0.00032603779
4	0xbdf216ff	-0.118207924
5	0xbd0a5b91	-0.03377873
6	0xbd626438	-0.055271357
7	0xbddc4417	-0.107551746
8	0x3cc44236	0.023957353
9	0xbd8d0cc4	-0.068872005
10	0xbc70673c	-0.0146730505
11	0x3c817ae2	0.015805665
12	0xbd25624a	-0.04037694
13	0x3dba1b40	0.09087229
14	0xbac4b7f0	-0.0015008431
15	0xbc456d6c	-0.012050014
16	0xbc1486ac	-0.009065311
17	0x3bcfa531	0.006336831
18	0xbd91afc5	-0.071136035
19	0xbdcc955f	-0.09989428
20	0xbc21ce52	-0.009875851
21	0x3c31dcff	0.010855912
22	0x3d980a39	0.07423825
23	0x3d6cb380	0.057788372
24	0x3ca9265c	0.020648174
25	0xbc3c38e6	-0.011488175
26	0x3c60429b	0.013687755
27	0x3dcafaff	0.09911155
28	0x3d8a1a52	0.067433015
29	0x3b712f27	0.0036801787
30	0x3c972095	0.018448154
31	0xbd980281	-0.074223526
32	0x3cfa3585	0.030543098
33	0xbbef2390	-0.0072979406
34	0x3da12ae5	0.078695096
35	0x3cc41b12	0.02393869
36	0x3d474bdb	0.048656326
37	0xbd251f8c	-0.04031329
38	0xbd24d81e	-0.040245168
39	0x3c07d85a	0.008291328
40	0xbd489634	-0.04897137
41	0xbd795adf	-0.060877677
42	0x3d64e440	0.05588174
43	0xbcb42a00	-0.021992683
44	0xbbe0ced1	-0.006860592
45	0x3d9c9bf5	0.07646934
46	0x3d83709d	0.06417964
47	0xbd1bb448	-0.038013726
48	0x3db43c3f	0.088005535
49	0x3e09258a	0.13393226
50	0x3cf44c29	0.029821472
51	0x3b57ca02	0.0032926803
52	0x3d53d9da	0.05172143
53	0x3d9ebe72	0.07751168
54	0x3d8f253a	0.06989522
55	0xbd3c8704	-0.0460272
56	0x3cf82fb1	0.030296179
57	0xbc0bfb8b	-0.008543859
58	0xbc8c348b	-0.017114898
59	0x3d938823	0.072037004
60	0xbd033f0f	-0.03204256
61	0x3d0c384e	0.034233384
62	0x3d9ce045	0.076599635
63	0xbd0fbeb3	-0.035093974
64	0xbd74f375	-0.05980249
65	0x3d295aa3	0.041346204
66	0x3da7019a	0.08154602
67	0xbc4bd6a4	-0.012441311
68	0x3d5671a2	0.052354462
69	0x3d0e5ed7	0.034758415
70	0x3cfdf777	0.03100179
71	0xbd7f6c20	-0.062358975
72	0x3d33055b	0.04370628
73	0x3c00fa3b	0.00787216
74	0xbc41c7d1	-0.011827425
75	0x3d8de5b4	0.06928578
76	0xbd499a31	-0.049219314
77	0x3d27db39	0.04098055
78	0xbd94c4fd	-0.07264135
79	0xbd340bdc	-0.043956622
80	0x3c28ca72	0.010302173
81	0x3ced2d7d	0.028952355
82	0x3cefdc8c	0.02927997
83	0xbd1dc3d9	-0.038516853
84	0xbd267f61	-0.04064882
85	0x3d287e3c	0.04113601
86	0x3cdcf75d	0.02697342
87	0xbd9fabef	-0.077964656
88	0x3dc6dbfd	0.09709928
89	0x3d8d5319	0.06900615
90	0xbc9ea729	-0.019366818
91	0x3cc2c412	0.023775134
92	0x3dc0a177	0.09405797
93	0x3cd13c02	0.02554131
94	0x3d8b76ea	0.068097904
95	0x3c865bd4	0.016401209
96	0x3d35aa5a	0.044351913
97	0x3dc148ac	0.09437689
98	0x3da98b10	0.08278477
99	0x3cc2a77d	0.023761505
100	0xbce7461d	-0.028231675
101	0x3b941d41	0.004520089
102	0x3d6583dd	0.056033958
103	0x3c161177	0.009159437
104	0xbc1ca13b	-0.009559925
105	0xbd4cad70	-0.04997009
106	0xbde978df	-0.114000075
107	0xbe16658b	-0.14687173
108	0xbe076dc9	-0.13225473
109	0xbdc5d498	-0.0965969
110	0xbd93af53	-0.07211175
111	0x3d4cfd8d	0.050046492
112	0x3b5167b8	0.003195269
113	0xbd3ad09f	-0.045609113
114	0xbde0827a	-0.109623864
115	0xbd521bb8	-0.051295966
116	0xbd8054a7	-0.06266146
117	0xbd574f5f	-0.05256593
118	0xbcf15e25	-0.029463837
119	0xbc2aa553	-0.010415393
120	0x3d332447	0.04373577
121	0x3d261005	0.04054262
122	0x3df14452	0.11780609
123	0x3cefc6de	0.029269632
124	0x3d35d9e0	0.044397235
125	0xbbc1a007	-0.0059089693
126	0x3b703c0b	0.0036656882
127	0x3b3bf93c	0.002868249
128	0xbd8cf2e4	-0.06882265
129	0x3c88fabc	0.016721122
130	0xbd49d64f	-0.049276646
131	0xbdba1b02	-0.090871826
132	0xbda4e4f3	-0.08051481
133	0x3cf6a3e3	0.030107444
134	0x3ce4042b	0.027834019
135	0x3dcf29cb	0.10115393
136	0xbcba0ab0	-0.022710174
137	0x3c73f6e1	0.0148904035
138	0x3d70fff2	0.05883784
139	0xbc3b240f	-0.011422171
140	0xbce23a1b	-0.027615597
141	0x3d9325b8	0.07184929
142	0xbc51469d	-0.012773183
143	0x3dd9f347	0.106421046
144	0x3d90d0b8	0.0707106
145	0x3d2b84cf	0.041874703
146	0x3db9f49a	0.09079857
147	0x3d9b2278	0.07574934
148	0x3d5d01e9	0.0539569
149	0x3d88ae18	0.06673831
150	0x3c969320	0.018380702
151	0x3c9170d1	0.01775399
152	0x3d37cced	0.044873167
153	0x3c949581	0.018137695
154	0x3d339dbf	0.04385161
155	0x3da05a4d	0.078297235
156	0xbca6d465	-0.02036495
157	0xbc80d037	-0.015724285
158	0xbbbee32c	-0.005825421
159	0x3c794494	0.015214104
160	0xbdb5df58	-0.0888049
161	0xbcf004e1	-0.029299201
162	0x3dc7d345	0.09757093
163	0x3d1624aa	0.03665606
164	0x3c97764f	0.018489031
165	0xbcf2e2a9	-0.029649096
166	0xbd4ab77a	-0.049491383
167	0x3d8d5e35	0.06902734
168	0xbd3efbc9	-0.04662684
169	0x3db318be	0.087449536
170	0x3db1ea3a	0.08687253
171	0xbd142a01	-0.03617287
172	0xbd016219	-0.031587694
173	0x3d178829	0.036995087
174	0x3cbf5d29	0.023359852
175	0x3d92b480	0.07163334
176	0x3dbc18e6	0.091844365
177	0xbdd75cbc	-0.105157346
178	0xbb38ed35	-0.0028217558
179	0x3c9f3058	0.019432232
180	0xba757aea	-0.0009364324
181	0x3dc6836a	0.09693034
182	0xbd655501	-0.05598927
183	0x3c9b62a6	0.018967938
184	0x3d26ae1c	0.040693387
185	0xbd81a327	-0.06329947
186	0x3d287ab7	0.041132655
187	0x3c33d659	0.010976397
188	0xbc59e9ee	-0.013300402
189	0x3d61bf1a	0.05511389
190	0xbcf42f50	-0.029807717
191	0xbd6906b3	-0.056891154
192	0xbaf52ba9	-0.0018705028
193	0xbd8840d7	-0.06652992
194	0xbd81ecb1	-0.063439734
195	0x3c870768	0.016483024
196	0x3dd187e9	0.10231001
197	0xbc605aa3	-0.0136934845
198	0x3b06286e	0.0020470875
199	0xbd5df922	-0.05419267
200	0xbdac4f46	-0.08413558
201	0x3ca72d59	0.020407366
202	0x3b766984	0.0037599513
203	0xbbb2920c	-0.005449539
204	0x3ddb5e94	0.10711399
205	0x3d7be0b4	0.06149359
206	0x3d8efe4b	0.06982096
207	0x3d025a76	0.03182455
208	0x3d553a55	0.052057583
209	0x3d37e02d	0.044891525
210	0xbdc8e677	-0.09809583
211	0x3d33874b	0.043830197
212	0x3bf996d2	0.007616856
213	0xbd7342f5	-0.059390027
214	0x3d13ddc0	0.03610015
215	0xbd6d3f3e	-0.05792164
216	0xbd9f9bea	-0.0779341
217	0x3d0eca70	0.03486103
218	0x3d50c008	0.050964385
219	0xbd77c585	-0.060491104
220	0x3ce45046	0.027870309
221	0xbd0f1184	-0.034928814
222	0xbd8fe21c	-0.07025549
223	0x3db79a8d	0.08965025
224	0xbcc10b6b	-0.023565015
225	0xbd3d667e	-0.046240322
226	0x39305172	0.00016815009
227	0x3d259818	0.04042825
228	0xbd4893eb	-0.04896919
229	0xbe2e223e	-0.1700525
230	0xbd5fe29e	-0.05465948
231	0xbcf694db	-0.030100277
232	0xbaea60d0	-0.0017881636
233	0x3d9af313	0.07565894
234	0xbd4b62ae	-0.049654655
235	0xbd8981cf	-0.06714212
236	0xbd31c2a0	-0.0433985
237	0x3d07a8fe	0.033120148
238	0xbc5ff11f	-0.013668328
239	0x3da3ef50	0.080046296
240	0x3d83aa8d	0.06429014
241	0x3b52b20c	0.0032149581
242	0x3dcca171	0.0999173
243	0x3d41a690	0.047277987
244	0x3d23170a	0.039816894
245	0x3b67a853	0.0035348132
246	0xbd81551f	-0.06315064
247	0xbd08ce2c	-0.033399746
248	0x3d263a60	0.040583014
249	0x3a18bda9	0.00058266014
250	0x3da7069e	0.08155559
251	0x3cdcca6b	0.02695199
252	0x3ce25dbe	0.02763259
253	0xbcab700d	-0.020927453
254	0xbd6bf375	-0.057605226
255	0xbb89453e	-0.0041891625

conv4.bias f4 [25]
0	0xbd74f58c	-0.059804484
1	0x3e01e8bd	0.12686439
2	0xbc3065d2	-0.010766463
3	0xbcd9fc77	-0.026609642
4	0xbda42b12	-0.080160275
5	0x3dc20501	0.09473611
6	0x3e0df6ba	0.1386365
7	0xbd33156c	-0.0437216
8	0xbbd86cfe	-0.0066047898
9	0xbd9a83d8	-0.075446784
10	0x3d3ca5a6	0.046056412
11	0xbc3bc204	-0.011459831
12	0x3d4eefaf	0.05052155
13	0x3bbd83e7	0.0057835463
14	0x3d6fd7ca	0.0585554
15	0x3ca4eb8d	0.02013185
16	0xbd0b0318	-0.033938497
17	0xbd103224	-0.035204068
18	0x3da0b78b	0.07847508
19	0x3d287e1a	0.041135885
20	0xbd0fe7c8	-0.035133153
21	0xbdad7e04	-0.08471301
22	0x3be1c347	0.006889734
23	0xbdc33a37	-0.09532588
24	0x3dca9e08	0.09893423

conv5.weight f4 [16, 25, 3, 3]
0	0xbc519934	-0.012792874
1	0x3d38c9f6	0.04511448
2	0xbcd0a8c2	-0.025471095
3	0x3d411fb4	0.047149375
4	0xbb86a163	-0.0041085943
5	0x3dea3421	0.11435724
6	0x3d16c714	0.03681095
7	0x3dc01cc7	0.09380489
8	0x3d3a8f4f	0.045546826
9	0x3d2321c4	0.039827123
10	0xbcce75ce	-0.025202658
11	0xbb81c46f	-0.0039601843
12	0x3c945fb8	0.018112049
13	0xbdbcc34b	-0.09216937
14	0x3c058a6d	0.008150679
15	0x3ce3ed74	0.027823187
16	0xbdab2ba0	-0.0835793
17	0x3cd2084f	0.025638727
18	0x3b778a60	0.0037771687
19	0xbd550c50	-0.052013695
20	0x3d661a7a	0.056177594
21	0x3b45b460	0.0030167326
22	0xbcc3c601	-0.023898127
23	0x3d2b4931	0.041817848
24	0x3c45f0a8	0.012081303
25	0x3db3330f	0.08749973
26	0xbc8bfc52	-0.01708809
27	0x3d6edb18	0.058314413
28	0xbd5a53ea	-0.053302683
29	0xbd82018f	-0.063479535
30	0xbc95368a	-0.018214483
31	0xbda53d45	-0.08068327
32	0x3c8208ae	0.01587328
33	0x3d345294	0.044024065
34	0xbd286501	-0.04111195
35	0xbd3a486a	-0.045479216
36	0x3d17c4a0	0.03705275
37	0xbc587027	-0.013210333
38	0x3d3427bb	0.043983202
39	0x3d77e736	0.060523234
40	0x3d351511	0.044209544
41	0x3dda50ac	0.10659918
42	0xbd83ab9b	-0.064292155
43	0x3d88c3df	0.066779844
44	0xbc63d724	-0.013906274
45	0xb9c68900	-0.00037867576
46	0x3d4cd0f3	0.050003957
47	0xbc9712f7	-0.01844166
48	0xbd12c456	-0.03583177
49	0x3d1d7c56	0.038448654
50	0xbcb85656	-0.022502106
51	0x3d7511aa	0.0598313
52	0xbd974a9f	-0.0738728
53	0xbcde8695	-0.027163783
54	0xbd656cb6	-0.056011878
55	0xbd391e42	-0.04519487
56	0xbcc7251f	-0.024309693
57	0xbd3428be	-0.043984167
58	0xbd8ee321	-0.06976915
59	0xbd3d0496	-0.04614695
60	0xbd1bf8a7	-0.03807893
61	0xbdde907c	-0.10867402
62	0xba6889f4	-0.0008870654
63	0xbd4d13ec	-0.050067827
64	0x3cadbe24	0.02120883
65	0x3d09fbe9	0.033687506
66	0x3d7b3fbe	0.061340086
67	0x3cb6d8f6	0.022320252
68	0x3a909966	0.0011032044
69	0xbc3ed688	-0.011647828
70	0xbd092d1a	-0.033490278
71	0x3d26229c	0.04056035
72	0x3d1736ba	0.036917426
73	0x3d469c8e	0.048489146
74	0xbce74230	-0.028229803
75	0xbd3ca76e	-0.04605811
76	0x3d2b6e02	0.04185296
77	0x3dbb2e05	0.09139637
78	0xbc2d40e8	-0.010574557
79	0x3d79d934	0.060998157
80	0xbb12f053	-0.0022421076
81	0x3cc00330	0.02343902
82	0xbc93b370	-0.018029898
83	0xbcb72584	-0.022356756
84	0xbc3f3da4	-0.011672411
85	0xba5e8ca5	-0.00084895856
86	0xbc60cf78	-0.013721339
87	0xbd84ff0f	-0.06493961
88	0xbd36caf1	-0.044627134
89	0xbc90c68d	-0.017672801
90	0x3d51d3ee	0.051227503
91	0x3d0dd441	0.03462625
92	0xbd3c61d5	-0.045991737
93	0xbd437f0e	-0.04772859
94	0xbc8803e0	-0.01660341
95	0x3dd05b7f	0.101737015
96	0x3c8734ec	0.016504727
97	0x3d76767a	0.06017158
98	0xbd5bb378	-0.05363795
99	0x3d7f16a2	0.062277444
100	0x3d5d22a8	0.05398813
101	0x3c1a42dd	0.0094153555
102	0xbcff6652	-0.03117672
103	0x3d3254c9	0.04353789
104	0x3b91cf15	0.004449735
105	0xbce266da	-0.027636934
106	0x3d3e797d	0.04650258
107	0xbcb7562f	-0.022379963
108	0x3c84e704	0.016223438
109	0xbc97bdfe	-0.018523213
110	0xbc80fe0a	-0.015746135
111	0x3b483160	0.0030547008
112	0xbc01eacf	-0.007929518
113	0xbd9057a5	-0.07047967
114	0x3ce0c7d0	0.027439028
115	0xbdc347d1	-0.09535182
116	0xbc8a9a84	-0.016919382
117	0xbd5de3ec	-0.05417244
118	0x3d91bb00	0.071157455
119	0x3cb14c67	0.021642877
120	0x3c9748bc	0.0184673
121	0x3d10db36	0.035365306
122	0x3ce8cf3a	0.028419126
123	0xbcd0d916	-0.02549414
124	0xbd1885f9	-0.03723714
125	0x3dae145c	0.08499977
126	0x3d255fc2	0.040374525
127	0xbca2183f	-0.019786952
128	0x3c20b972	0.009809839
129	0xbb8c67a8	-0.0042848177
130	0xbc33093a	-0.010927493
131	0x3d9b8cc2	0.07595207
132	0xbd23422e	-0.039858036
133	0xbd5195ef	-0.05116838
134	0x3caf5171	0.021401139
135	0xbd1f347a	-0.038868405
136	0xbd3465f1	-0.04404253
137	0xbc35bf2d	-0.011092943
138	0xbb281e80	-0.0025652945
139	0x3d750369	0.059817705
140	0x3d860d57	0.06545513
141	0x3d5e4602	0.054265983
142	0x3d4596f7	0.048239674
143	0x3bb1ef09	0.0054301065
144	0xb9e3de00	-0.00043462217
145	0xb9ce1cad	-0.00039312747
146	0xbd341e6f	-0.043974336
147	0x3bd04080	0.0063553452
148	0xbb94d5f5	-0.004542107
149	0xbc0cea0a	-0.008600721
150	0x3d658b9c	0.056041345
151	0x3daf65ac	0.08564314
152	0x3dd8c258	0.10583943
153	0x3d3061f6	0.043062173
154	0xbccb00ff	-0.024780748
155	0x3cb064c4	0.021532424
156	0xbc0904e0	-0.008362979
157	0x3d825183	0.063632034
158	0x3d9300d6	0.07177894
159	0xbc89185a	-0.016735245
160	0x3ddcfc94	0.10790363
161	0x3cc458d5	0.02396814
162	0xbc4fd168	-0.012684204
163	0x3c8d748e	0.017267492
164	0x3bd89cd7	0.0066104936
165	0xbc9a1934	-0.018810846
166	0x3d114190	0.035462916
167	0xbd8a6abc	-0.06758639
168	0xbb0590c0	-0.0020380467
169	0xbd11bec5	-0.035582323
170	0xbd177f26	-0.036986493
171	0x3c0fccb0	0.008776829
172	0xbcbb3313	-0.022851503
173	0xbbb2da0d	-0.0054581226
174	0x3c834578	0.016024336
175	0xbcec8921	-0.028873982
176	0x3ce53673	0.027980065
177	0x3d85dd99	0.06536407
178	0x3d16c52a	0.036809124
179	0x3d0e5ba6	0.03475537
180	0xbc97850a	-0.018496055
181	0xbc397767	-0.011319972
182	0xbd097f29	-0.033568535
183	0xbd050880	-0.03247881
184	0xbb7cb437	-0.0038559565
185	0x3d58b2ed	0.052905012
186	0xbd7f5b85	-0.06234314
187	0xbc62dfe6	-0.013847327
188	0x3d885d04	0.06658366
189	0x3d0e68a6	0.03476777
190	0xbaa82a32	-0.0012829958
191	0xbb126730	-0.0022339337
192	0xbc17fc88	-0.009276517
193	0x3dce1ffb	0.100646935
194	0x3dc0c566	0.09412651
195	0xbcfefb52	-0.031125698
196	0x3b9fd82f	0.004878066
197	0xbd2b0fe9	-0.04176322
198	0xbd34449e	-0.04401075
199	0x3d07a062	0.033111937
200	0xbbff33ab	-0.0077881417
201	0xbd00d6c7	-0.031454828
202	0x3db9ebd3	0.09078183
203	0x3db4df64	0.08831671
204	0x3ba84d00	0.0051361322
205	0xbccd33aa	-0.02504905
206	0x3ce4e93a	0.027943242
207	0x3d601296	0.054705225
208	0xbb6fe2c7	-0.0036603676
209	0x3cbe2f83	0.023216015
210	0x3ca92638	0.020648107
211	0x3d85b26b	0.06528171
212	0x3da1dfc1	0.07904006
213	0xbcffb096	-0.031212132
214	0x3d685fe9	0.056732092
215	0x3d47489a	0.048653223
216	0x3c1d5a48	0.009604044
217	0xbd83eed0	-0.06442034
218	0x3d6e34cb	0.058155816
219	0x3cf38fbc	0.029731624
220	0x3bbbec45	0.0057349526
221	0x3ca12f4e	0.019675877
222	0xbc87a2de	-0.016557153
223	0xbd1f43c4	-0.038882986
224	0xbb520d2b	-0.0032051306
225	0xbd83902e	-0.064239845
226	0x3d84b9ca	0.06480749
227	0x3c5a9684	0.01334155
228	0x3c49f201	0.012325765
229	0xbd60d620	-0.054891706
230	0xbd752be8	-0.059856325
231	0x3d175b05	0.036952037
232	0xbd77baf6	-0.060481034
233	0xba09d48e	-0.00052578084
234	0x3d4fde3a	0.05074904
235	0xbccc0c20	-0.024908125
236	0x3d73378a	0.059379138
237	0xbd91e7ff	-0.07124328
238	0xbd050a52	-0.032480545
239	0x3d6108d7	0.05494007
240	0x3d3ef4af	0.046620067
241	0x3cb9dde8	0.022688821
242	0x3d353ccb	0.04424743
243	0xbd83c770	-0.06434524
244	0x3cfa9002	0.030586246
245	0xbd059e4e	-0.032621674
246	0x3d1b482b	0.03791062
247	0x3cf7218c	0.030167364
248	0x3d254619	0.040350053
249	0x3c7a00b8	0.01525896
250	0x3dbd67d7	0.092483215
251	0x3d11edd3	0.035627197
252	0xbd8fed4d	-0.070276834
253	0xbdb66ad0	-0.089070916
254	0xbd397db0	-0.04528588
255	0xbd94ad70	-0.07259643

conv5.bias f4 [16]
0	0xbcb77b3b	-0.022397628
1	0xbd5cac77	-0.053875413
2	0xbd68736b	-0.056750696
3	0xbcd5dfe6	-0.02610774
4	0x3d01d056	0.031692825
5	0x3c8eff9b	0.017455867
6	0x3c225259	0.0099073285
7	0x3cda58eb	0.026653728
8	0x3d27a2d7	0.04092678
9	0xbd5ac3fe	-0.05340957
10	0x3d87a4fb	0.066232644
11	0x3d06c522	0.032902844
12	0xbd0e835f	-0.034793254
13	0x3d11eb33	0.035624694
14	0x3dde4e3c	0.10854766
15	0xbda9bdee	-0.08288179

classifier.1.weight f4 [10, 16]
0	0x3e013803	0.12619023
1	0x3e863577	0.26212665
2	0xbe397dee	-0.18114445
3	0xbd73f638	-0.059560984
4	0xbe76190a	-0.24032989
5	0x3e5e1e71	0.216913
6	0x3e253166	0.16132125
7	0x3e7822c3	0.2423201
8	0x3dccf78c	0.10008153
9	0xbd8548cd	-0.06508026
10	0xbb561c4a	-0.003267067
11	0xbe77da50	-0.24204373
12	0x3e009ad9	0.1255907
13	0xbdbded6b	-0.092737995
14	0x3d8344ee	0.06409632
15	0x3931c8ec	0.00016954885
16	0x3e05ebd7	0.13078247
17	0xbe23cb43	-0.15995507
18	0x3ca7c877	0.020481331
19	0x3e234b12	0.15946606
20	0xbe4f223f	-0.20227908
21	0xbe249bf3	-0.16075115
22	0xbdb777c1	-0.08958388
23	0xbe5118e4	-0.20419651
24	0x3e9e3584	0.30900204
25	0x3e55fb49	0.20896639
26	0x3e5d0416	0.2158359
27	0xbe9bb1b3	-0.3040901
28	0xbafdc6b2	-0.0019361584
29	0x3db11ffe	0.0864868
30	0xbcdf4c69	-0.027258115
31	0x3dafd741	0.08585978
32	0xbe25b737	-0.16183172
33	0x3cf37ad3	0.029721653
34	0xbe60026a	-0.21875921
35	0x3dedc31f	0.11609482
36	0x3de86202	0.113468185
37	0xbd7750d7	-0.06037983
38	0xbe4e505b	-0.2014784
39	0x3d6f1172	0.058366247
40	0x3dc76226	0.09735517
41	0xbe37c591	-0.1794646
42	0x3de688f1	0.11256588
43	0x3e5724d9	0.2101015
44	0xbe47ec6b	-0.1952378
45	0x3e0e6c49	0.13908495
46	0x3e448b96	0.19193873
47	0xbd9738cc	-0.0738388
48	0x3e57f045	0.2108775
49	0xbe3fd3db	-0.1873316
50	0x3d9f240c	0.07770547
51	0xbe12edef	-0.14348577
52	0x3e9e0551	0.3086343
53	0x3c8563bf	0.016282914
54	0xbe986d09	-0.29770687
55	0x3cf8749f	0.030329047
56	0xbd5d69fb	-0.05405615
57	0x3db7c63e	0.089733586
58	0x3d466a05	0.04844095
59	0x3dd8415c	0.10559341
60	0x3da13ae9	0.07872564
61	0xbe8f1760	-0.2794752
62	0xbe1d992b	-0.1539046
63	0xbe29a9a5	-0.1656862
64	0xbda66e7f	-0.08126544
65	0xbe820629	-0.25395325
66	0xbc37d4c8	-0.011220165
67	0x3d7acb46	0.061229013
68	0x3d7dd75e	0.06197297
69	0x3dacc536	0.084360525
70	0x3df37b2a	0.11888726
71	0xbca9185b	-0.020641496
72	0x3bd67def	0.006545774
73	0xbb3dde1c	-0.0028971499
74	0x3df203ee	0.11817156
75	0x3d7af4f8	0.061268777
76	0x3d9acc1b	0.07558461
77	0xbd547f14	-0.051879004
78	0x3ebaade8	0.36460805
79	0x3ccc3680	0.024928331
80	0xbd22d97a	-0.039758183
81	0x3dc5a95b	0.096514426
82	0xbe8903a2	-0.26760584
83	0xbaa10ba7	-0.0012286798
84	0x3e171c3e	0.14756867
85	0x3e006b29	0.12540878
86	0x3de1e741	0.11030436
87	0xbe8eef46	-0.27916926
88	0x3e7d79f9	0.2475356
89	0x3d8316d3	0.06400838
90	0xbe89de5a	-0.26927453
91	0x3e50bf54	0.20385486
92	0x3e51767d	0.20455356
93	0xbd6298f6	-0.055321656
94	0x3de99a00	0.11406326
95	0xbd9afe99	-0.07568092
96	0x3e600a34	0.21878892
97	0xbe6de2ef	-0.232311
98	0xbe726705	-0.23672111
99	0x3dda1d96	0.10650174
100	0x3daa18ae	0.083054885
101	0xbe951b90	-0.2912259
102	0xbe169a7e	-0.14707372
103	0x3e2d2e9c	0.16912311
104	0x3e108f99	0.14117278
105	0xbe30c1e2	-0.1726146
106	0xbdbd8350	-0.092535615
107	0x3d34c8d7	0.04413685
108	0xbc58ae8d	-0.01322521
109	0xbe028f7b	-0.12750046
110	0x3e9382af	0.2881064
111	0xbe9e8c25	-0.30966297
112	0x3e591281	0.21198465
113	0xbe34fa62	-0.17673638
114	0xbe807559	-0.2508953
115	0x3da8039c	0.082038134
116	0xbe318b0b	-0.17338197
117	0x3e4af7f0	0.19821143
118	0xbd9622e0	-0.07330871
119	0xbdc2090f	-0.09474384
120	0x3e01ee50	0.12688565
121	0xbe292609	-0.16518416
122	0xbe23db35	-0.1600159
123	0x3e74bb6f	0.23899625
124	0x3e453502	0.19258502
125	0xbd137f2b	-0.03600995
126	0x3e579cf7	0.21055971
127	0x3e575714	0.21029311
128	0x3d588c42	0.052868135
129	0x3bd2ad51	0.0064293523
130	0x3e81d412	0.2535711
131	0xbe3c1022	-0.18365529
132	0xbdc4a686	-0.09602074
133	0xbe07e5fc	-0.13271326
134	0xbd56ceaa	-0.052443184
135	0x3e5b79f8	0.21433246
136	0x3e4b643a	0.19862452
137	0x3c15d4d1	0.009144978
138	0x3e1d95ae	0.1538913
139	0x3d5fa9bd	0.054605234
140	0x3db6fb5a	0.0893466
141	0xbd72e568	-0.05930081
142	0xbbb83f7c	-0.0056228023
143	0x3e2d217a	0.16907302
144	0x3e8b7add	0.27242175
145	0x3d8d8b26	0.06911306
146	0x3e7ffe04	0.24999243
147	0xbdf44204	-0.11926654
148	0x3c8b54ca	0.017008204
149	0xbe98a0d7	-0.2981021
150	0x3e2bb754	0.16769153
151	0xbd29b32d	-0.04143064
152	0xbda486b9	-0.08033509
153	0x3e081f3a	0.13293162
154	0xbc4adb45	-0.0123813795
155	0x3d77ef89	0.060531173
156	0x3e1546b5	0.14577754
157	0xbe0e9b34	-0.13926393
158	0xbe9c33ee	-0.3050837
159	0x3da2c0d4	0.07946935

classifier.1.bias f4 [10]
0	0xbe237aa5	-0.15964754
1	0xbe3b4d2a	-0.18291155
2	0x3e27d739	0.16390695
3	0x3d9ef6e5	0.07761935
4	0x3d7976d0	0.060904324
5	0xbe4410a1	-0.19146968
6	0xbdd68146	-0.10473876
7	0xbe2cdc8e	-0.1688101
8	0xbd0b2da4	-0.033979073
9	0xbe3c12d7	-0.18366562
