Cifar/reek_cifar10_model_10Models_finalResult/1_model_.pt (torch, 51713 bytes, 12 tensors)

conv1.weight f4 [16, 3, 3, 3]
00000000: 4e53 7cbe 17bf 6abe ee9f 6abe 1d8d 0abe
00000010: 63b4 bd3c 6c0e e4bd 0ac6 203e 18a8 073e
00000020: f789 e9bd 9892 4cbc 5796 ddbd ba1c 033e
00000030: 5507 ea3d a4c8 a03d d4aa cbbd 6c1c 8f3d
00000040: ff36 a3bd 7cf4 ad3d a222 443e 3a2a 06bc
00000050: 2282 b9bd 3b02 65bd 2214 91bd 11a7 173e
00000060: 607c 70bc 8787 613e f9ce 553e f1e3 7b3e
00000070: e48a bc3d 4e46 563d 842a b63d a0ad f9bc
00000080: 93c5 8a3d 90b6 f13b 75f1 da3c d091 03be
00000090: bf63 583e e669 813c f506 1d3e 2880 3dbd
000000a0: a066 71be cd7a 84bd 4c30 f8bd 5f41 1fbe
000000b0: 0d25 8cbd 0ec4 363c ba4b 963d 0979 caba
000000c0: 7a30 eebd 456f 723d 8626 2ebe 14bc 28be
000000d0: c1ef 47bd 2c9e 0ebd 22f1 01be 7a99 4a3e
000000e0: b46a 243e 5796 543d fdda a2bc 72d2 2fbc
000000f0: 85d8 d2bd f6b9 8dbd 58cc 33be 5042 453d
00000100: f0dc 8b3d 53df 543e 9384 8ebe 55c4 e1bd
00000110: b0e3 f4bd 205a 9ebd aaa5 88bd d08e cbbd
00000120: 0ae7 4f3c b26a 3e3d 9a26 303e 1e6c 11be
00000130: d6aa 27bd a017 093e 63a1 d73d 0c52 92bc
00000140: 29ff eebc 1b17 093d d0b5 b33d 55e9 353d
00000150: fd8c 12be 539d 36be f98a 773d 1f2c d0bd
00000160: af6c 6c3d 7473 39be a604 083e 2bc1 d53d
00000170: d396 b3bb 428e 16be 12a6 98bc 5679 d93d
00000180: 9469 1b3e 7d8d 063b 774d 0cbc 81c1 593e
00000190: 119e aa3d f356 753e 319c 603e 3629 a4bd
000001a0: 637b d4bd 3cdf 13bc e641 ba3c 5af4 593e
000001b0: 91bf a2bd 51ae 153e e82e 443e 9151 853b
000001c0: 6d9e 43be 3084 28be d28e 073c 78cd 7d3c
000001d0: 65ef b03c f31e d83d 63ea c83d 1daf 52be
000001e0: a50d b83c cfc0 173d 1ed6 2dbe 1305 3fbe
000001f0: 0295 81be f12a 82be 6a04 0c3e c9f1 9b3d
00000200: 671a ccbd e836 41be 6815 61be 4aa5 113e
00000210: 447e 373d 9895 29bc 3181 29bd f8d8 aa3d
00000220: 6f37 233d 44d7 ea3d 9484 0a3d c645 a8bd
00000230: d281 6cbc a00e 13bc c56e 613d 8835 6d3e
00000240: 30b9 ddbd f74b 0e3e a538 ecbd 3d8d e73c
00000250: acac f1bd ce69 61ba 85f3 0fbe 2346 523e
00000260: 3be7 913e d15f c6bd 4151 40bc cf8e 17be
00000270: 25cf 40be 5708 d6bd 20ec 8e3d 03d1 78be
00000280: 604b 60bd e3ce cb3d 55ca b7bc fa34 b0bc
00000290: 35e0 803b 89f0 533e 5ea7 1fbe eeb7 12be
000002a0: 4103 513e 9fa4 1b3e 9e06 843e 9370 9b3d
000002b0: ebc0 4ebe 6515 ecbd 1586 65be f201 113d
000002c0: a1fd 823d 80a4 0bbe a07e afbd 3419 fb3d
000002d0: 44d0 1fbc cc5c 24be 69d8 5ebd 5a29 21be
000002e0: 47ee 663d e1e6 333c 86aa bd3d 8ed5 133d
000002f0: 929d 693d c500 10be 3cf9 4c3e 2192 89bc
00000300: 6085 8f3b 0c07 093d 2885 39be 5cdf 423c
00000310: 2cc6 123e b482 be3d 6d4e 053c 7c20 763d
00000320: e04b 583b 6db5 b3bc 28d5 ab3d 0f89 303d
00000330: f8d5 ceba 9703 24be 004d 83bd c3fc 333e
00000340: 96a2 4f3e 158c 83bd 6889 f73d 5409 4fbd
00000350: dff4 d83d e1bb cd3d cb5b 7fbd ffe2 433e
00000360: 2569 ec3d 09d1 023e c91d d83d 9f78 3d3d
00000370: 5e2b 553b c5b3 84bc c878 053c 2963 aebd
00000380: 33cb 293e 942e a3bd b3ad 4fbd 86a1 96bd
00000390: 1ea6 3abd 9443 203e f56b 243e 7a77 01bd
000003a0: 6deb 173e aeda 823e 90f7 dbbd 5929 1fbe
000003b0: 9bab 373e 57eb 57be dd5f 1dbe 5d22 dabd
000003c0: ae94 3cbe 4e0f 1ebe 3c98 973d 5417 fabd
000003d0: cad6 cc3d e4db 54be 4b2f 35be 9c3d 68be
000003e0: 1634 54be e296 8a3d bffc eabd 9a0b 71bc
000003f0: 0c70 22be 0cb1 f6bd 0034 0ebe 5f01 933d
-0.24641153 -0.22924457 -0.22912571 -0.13530393 0.023157304 -0.11135563 0.15700546 0.13247716
-0.11403268 -0.012486123 -0.10819691 0.12803927 0.1142718 0.07850769 -0.09944692 0.06987843
-0.07969474 0.08493897 0.19153836 -0.008188779 -0.09058024 -0.05591033 -0.07083918 0.14809825
-0.014678091 0.22024356 0.20879735 0.24598671 0.09206179 0.05231314 0.08894828 -0.030478299
0.067759655 0.0073764995 0.026726464 -0.12848592 0.211318 0.015797567 0.15334685 -0.046264797
-0.23574305 -0.06468735 -0.12118587 -0.15552281 -0.068430044 0.0111551415 0.073386624 -0.0015447448
-0.1163034 0.059188146 -0.17006883 -0.16477996 -0.04881263 -0.034818813 -0.12689641 0.19785109
0.16056329 0.051901188 -0.019879812 -0.010731326 -0.10295204 -0.06920235 -0.1755842 0.048158944
0.0682925 0.20788316 -0.2783552 -0.110237755 -0.119574904 -0.07732034 -0.06672223 -0.09939349
0.012689361 0.04648847 0.17202225 -0.142014 -0.040934406 0.13387918 0.10528829 -0.017861389
-0.029174404 0.0334693 0.08774912 0.044411976 -0.14311595 -0.17833452 0.06043527 -0.101646654
0.057720836 -0.18110448 0.13283023 0.104372345 -0.005480626 -0.14702705 -0.018633876 0.10618846
0.15176994 0.002053111 -0.008563391 0.21265222 0.0833093 0.2395895 0.21934582 -0.08015673
-0.10375097 -0.009025391 0.022736501 0.21284619 -0.07946695 0.14617278 0.19158518 0.0040685614
-0.19103403 -0.16456676 0.008273797 0.015490882 0.021598527 0.10552778 0.09810331 -0.20574613
0.022467444 0.03704911 -0.1697621 -0.1865428 -0.25308996 -0.25423387 0.13673559 0.07614476
-0.09965973 -0.18868601 -0.21980822 0.14223209 0.04479815 -0.010350607 -0.041382972 0.08342165
0.039847787 0.1146684 0.033817843 -0.08216433 -0.014435248 -0.008975655 0.05503728 0.23164952
-0.10826337 0.13896166 -0.115342416 0.02826559 -0.11800513 -0.0008598835 -0.14057739 0.20534568
0.28496727 -0.09686244 -0.011738122 -0.14800571 -0.1882902 -0.104508094 0.06978631 -0.24298482
-0.054759383 0.0995157 -0.022435347 -0.021509636 0.0039329776 0.20697226 -0.1559119 -0.14327976
0.20411398 0.15199517 0.257863 0.07589831 -0.2019078 -0.11527518 -0.2241443 0.035402246
0.06396032 -0.1363697 -0.08569074 0.122606665 -0.009754244 -0.16051024 -0.054405604 -0.1573843
0.056379583 0.010980339 0.092610404 0.036092333 0.057035036 -0.14062794 0.2001695 -0.016793313
0.004379913 0.033453986 -0.18117201 0.011894073 0.14333409 0.093022734 0.008136374 0.060089573
0.003300421 -0.021937096 0.08390266 0.04309946 -0.001578032 -0.16016994 -0.06411171 0.1757689
0.20276865 -0.06423203 0.12086755 -0.050546005 0.105935805 0.10045601 -0.0623434 0.19129561
0.11543492 0.12775053 0.10552556 0.04625761 0.003252707 -0.016199002 0.008146472 -0.08515007
0.1658142 -0.079678684 -0.05070276 -0.07355027 -0.045568578 0.15650779 0.16056807 -0.031608082
0.14835902 0.25557464 -0.10740578 -0.15543117 0.17936556 -0.21085869 -0.153686 -0.106510855
-0.18416092 -0.15435526 0.07402083 -0.12211481 0.10001905 -0.20787007 -0.17693822 -0.22679752
-0.20722994 0.0676706 -0.11473989 -0.014712239 -0.15863055 -0.12045488 -0.13887024 0.07177996

conv1.bias f4 [16]
00000000: 752c e0bd bd7a f0bc 632e 593e 4cfc 14be
00000010: fc06 a6bd 8e8b 0e3e fe5c 3dbe 4af1 413e
00000020: 0fe3 4e3e 9888 603e 7d51 353e 8ae3 753e
00000030: 9e57 a33c db95 c03d f231 d73d dfa7 303e
-0.109459795 -0.029355401 0.21209101 -0.14549369 -0.08106801 0.13920423 -0.18492505 0.189397
0.20203803 0.21927106 0.17706867 0.2401258 0.01993924 0.09403583 0.10507573 0.17251538

conv2.weight f4 [10, 16, 3, 3]
00000000: b65f d13d 48dc ac3d bd47 8a3d b288 e03d
00000010: 09a7 bd3d 7806 c53d eda5 183e 85ed af3b
00000020: 10ca a33d 78d0 30bd abe9 8dbd f497 113d
00000030: 85d8 e03c aa52 b6bd ab5c 523b 455c a6bd
00000040: f990 96bd a2d8 89bd 231d 573d fb57 d3bb
00000050: 6865 12bd 00f8 de3c 5617 1b3c a8ee 3d3d
00000060: 74e1 b33d 1905 47bd 556a d03a 2c1c 0e3e
00000070: a2d5 003e a927 cb3d d909 413d 3395 c93d
00000080: b022 8b3d 1820 693d 6016 f23d 3f7a 5b3c
00000090: 64bf 09bd 1663 443d 6248 5b3d 8365 b1bd
000000a0: 55e1 e2bc e480 8c3d 10f5 4a3d 4dc8 673d
000000b0: dc41 aabc ee2f f3bc 6bf7 a3bc 656b e7ba
000000c0: 393b 903d 85c3 cbbc 7ace 9bbc 6f74 52bd
000000d0: 6a56 cabc a641 3abd 3aa5 c33d 7971 993d
000000e0: 3b17 92bc 366d d43c 727e 44bd 3eda ec3c
000000f0: ec0a 7bbd 0ab8 93bd 1cdd 84bd 0773 f33d
00000100: 6c33 013e b83c fd3d dae9 183e fab4 dd3d
00000110: aa16 903d 9d4e aa3d 0ccf a73d 191d 633d
00000120: cf77 36bd 9dcb 313c 5895 fcbd d1d5 a23d
00000130: a050 4c39 045c f7bc f0a2 7a3d 6fec 3f3b
00000140: 8e6f 74bd 79b8 6cbc 6626 f9bb f32a 873c
00000150: 2cb0 203d 0891 b03b 3ab5 c63c baf1 813c
00000160: 720a 8c3d b819 613b fc96 383d 7cea 333d
00000170: 9666 223e 1318 613c fea6 133e 64a6 263e
00000180: 914e e73d 1b5d a13d d923 6f3d e10f a33d
00000190: 770c 84bc 0860 0e3d 70e1 9b3c fbf7 a13d
000001a0: 01e0 fdbb b803 e2bc 4cd9 4ebc ec83 383d
000001b0: e9b4 393d 054c 7cbd 4e49 e1b9 a474 cdbc
000001c0: 5e4b 07bd 799e 84bc 37d6 473d 3eab 2dbc
000001d0: f7c8 80bc ca45 e8bb 47f7 ab3c 6ebd 89bd
000001e0: 918f 40bd b428 2dbd f27c 603d 888a a83c
000001f0: 5a8b 81bd 3188 a63d 0d1d d63d 1bf4 803a
00000200: 4e62 d63d 526d 8f3d 83bd bb3d 6e70 003e
00000210: b823 013e 1f07 b23d afa0 d23a d51a 853c
00000220: 39e5 743c 17dd 13bd 0ea9 0ebe cf53 063a
00000230: cd1c 7fbd 743c d4bd ba29 0abe 2928 8c3c
00000240: d432 8b3d 7672 9fba 0287 43bd 1b5c ec3d
00000250: 8ae7 6c3d 2247 013e 62c9 c13d f748 2f3e
00000260: d3fd a53d 0d2b 07bc d75b 9a3d 9dd5 553d
00000270: 0879 e93d f073 133d 235f febc 45d3 2cbd
00000280: f265 08bc 0f8c 09bb 3a00 36bc e63f c83d
00000290: d3d1 51bc 43cb 723d 7831 b73d 3668 703d
000002a0: 181f 373d 44cf 863d e60f 89bc 6698 c4bc
000002b0: 10c8 a73d 006b 38bc 1453 42bc 10b7 63bb
000002c0: aa88 eb3d 660c 94bc 1978 bb3d ffe6 8f3d
000002d0: 20f2 493d 2cd3 89bc 2b8f 24bd a5b4 73bc
000002e0: 8df5 c13d 1d28 0abc 3b3a f03c ea8c 3c3d
000002f0: e6e6 c53c 2d0e 7a3b 5c0e acbd b095 4c3d
00000300: 3a8f b4bd 24e7 a5bd dd29 d5bd 08e2 2e3d
00000310: 4714 55bd 9edc 32bd 7eb1 023e d405 b03d
00000320: 2238 213e 8dc0 c93d 5044 903d 1772 343c
00000330: 374c 1e3c 3327 db3d 70d2 b03d 6518 b83d
00000340: f950 85bd 099f 943c 94b0 d23c ce53 283d
00000350: 77e5 e83c 7855 25bc 6614 a6bd 1589 aabc
00000360: bfd9 5c3d 79d0 c4bd dcd2 b4bd 2949 e63c
00000370: 877d 7abd a915 b9bd 8eee 35bd a1c7 aabc
00000380: a80d 67bd d11b 9f3d 4589 373c 74b5 a5bc
00000390: ece1 8abb 7c36 c83c e281 b03c 7737 dc3d
000003a0: 3733 ab3d 32fb e63d cc8f e43d 772d e93d
000003b0: 324b 12bd 3c43 0d3d 3f5e 2d3d 85fc e43d
000003c0: 02de 233d b487 833d 3814 f03c 6c8d 89bd
000003d0: c7ba 0f3c cd15 47ba eaa2 72bd fe89 883d
000003e0: 4477 afbd c355 dbbd e8ba bcbd 76bf eebd
000003f0: 1e87 5bbc 8011 38bd 9709 913d fabd 943d
0.102233335 0.08440453 0.06751964 0.109635726 0.09260375 0.096203744 0.14907046 0.0053688907
0.07997525 -0.04316756 -0.06929334 0.035545304 0.027446995 -0.08902486 0.0032098691 -0.08123068
-0.0735187 -0.067307726 0.05251802 -0.006449697 -0.03574124 0.027217865 0.009466013 0.04637018
0.08783236 -0.048588846 0.001590083 0.13877934 0.12581494 0.09919674 0.047128532 0.098429106
0.067937255 0.056915373 0.11820674 0.013395845 -0.03362979 0.04794606 0.053535827 -0.0866194
-0.027695337 0.068605214 0.049550116 0.056587506 -0.020783357 -0.02968594 -0.020015439 -0.0017655907
0.07042546 -0.024873504 -0.019019354 -0.05138057 -0.024699409 -0.045472763 0.09552999 0.07492346
-0.017833343 0.025930982 -0.04797215 0.02891266 -0.061289713 -0.07212837 -0.06487486 0.11887174
0.12617272 0.12365097 0.14932957 0.10825534 0.07035573 0.083157755 0.08193788 0.05544767
-0.044547852 0.010851768 -0.123331726 0.079509385 0.00019484991 -0.030195244 0.061190546 0.0029285213
-0.0596767 -0.014448279 -0.0076034544 0.016499972 0.03923051 0.005388383 0.024256337 0.015862335
0.0683793 0.0034347605 0.045065865 0.043924794 0.15859446 0.01373865 0.14419171 0.1627441
0.11294282 0.078790866 0.058383796 0.07962013 -0.016119225 0.03475955 0.019028395 0.07908627
-0.0077476506 -0.027589664 -0.01262505 0.045047686 0.045338545 -0.061595935 -0.0004296996 -0.025080033
-0.03303086 -0.016188847 0.048788276 -0.010599909 -0.015720828 -0.0070883976 0.020991934 -0.06725584
-0.047011916 -0.042275146 0.054806657 0.02057387 -0.06325407 0.08131445 0.1045476 0.0009838374
0.10467969 0.07003273 0.09167006 0.12542889 0.12611282 0.086927645 0.0016069616 0.016248146
0.014947229 -0.03609952 -0.13931677 0.0005124183 -0.062283326 -0.10363093 -0.1349248 0.017108994
0.06796804 -0.0012164849 -0.047736175 0.11541005 0.057838 0.12624791 0.09462239 0.17117678
0.08105054 -0.00825001 0.07537048 0.05220567 0.11400038 0.03599924 -0.031051224 -0.04219367
-0.008325087 -0.0020988022 -0.011108452 0.09777813 -0.012806374 0.059275877 0.08944982 0.058693133
0.044707388 0.065825015 -0.016731214 -0.02399845 0.08192456 -0.01125598 -0.011860628 -0.0034746565
0.11500676 -0.018072318 0.09153766 0.07026481 0.049303174 -0.016824327 -0.040175598 -0.014874612
0.09470663 -0.008432415 0.029324641 0.046032824 0.024157953 0.0038155422 -0.08401176 0.04994744
-0.08816381 -0.08100727 -0.104083754 0.04269603 -0.05202129 -0.04366743 0.1276302 0.085948616
0.15744069 0.09851179 0.070442796 0.011013529 0.009661726 0.10700836 0.08633888 0.08989028
-0.06509585 0.01814224 0.025718965 0.041095547 0.02842973 -0.010091178 -0.081093594 -0.020817319
0.053918596 -0.096100755 -0.08829281 0.028111057 -0.06115487 -0.090373345 -0.044416957 -0.020847144
-0.056409508 0.077689774 0.011202161 -0.020228125 -0.004238358 0.024440043 0.021546308 0.107527666
0.08359378 0.112783805 0.111602396 0.11385625 -0.035716243 0.034487948 0.04232621 0.11180977
0.040006645 0.06422368 0.029306516 -0.06716427 0.0087725585 -0.0007594496 -0.0592374 0.06666945
-0.0856767 -0.10709717 -0.09215337 -0.11657612 -0.013398914 -0.044938564 0.07081907 0.07262798

conv2.bias f4 [10]
00000000: 8764 2cbd 1b24 81bd 206f ddbd fa6e c2bb
00000010: 8e77 1d3e 9a85 b93d 3ac8 013e d27b 01bd
00000020: 487a c13c 5a7b 993d
-0.042088058 -0.06305715 -0.10812211 -0.0059336396 0.15377638 0.090586856 0.12674037 -0.031612225
0.023617879 0.074942306

conv3.weight f4 [20, 10, 3, 3]
00000000: 6e70 1f3d f68a 8dbd 37e2 cc3d 57ed a23c
00000010: f057 53bc b2e7 33bd 5c6e e33a 8817 96bb
00000020: a39a 20bd 6a96 6abd 4679 31bd 8d00 573c
00000030: 3a88 bdbc f8a3 aa3d 32af 14bd 4f67 1c3e
00000040: a426 973d d272 6b3d 30b5 e63d 5c6d c73d
00000050: 4e0b 0f3e d393 a03d 8b0f 6d3d 993b b73d
00000060: 24e9 e8bb 0823 cd3d 41c5 4e3d 5b57 083d
00000070: a808 1cbd baa3 e4bc eb6e 19bd 57f1 34bd
00000080: caa6 473b 5ce9 fa3d a8dc aa3c 6cdf 053e
00000090: 2994 bbbd 8bd8 a9bd 7a90 b63c 57e9 cbbc
000000a0: 062c 143d 4cc8 07bd 6df2 ba3d 0935 c73c
000000b0: 8ed3 44bd d916 9dbd 8f2d 773d c11b 983c
000000c0: 33bd 43bd 91e3 20bd 9d73 6cbd fb91 89bd
000000d0: 5430 363d 7990 71bd 1764 48bd 7943 d63c
000000e0: 3006 c1ba 9d55 2b3d c52e 91bb c496 afbd
000000f0: ff1b 533d 42fd 863d 7376 ce3c 18bd aa3d
00000100: f134 abbd dd5a c7bd 067a b43c d6e5 743d
00000110: 793e c23d b8cc 203d 6810 2d3c 1716 eb3d
00000120: 2d7d 54bc 0c47 97ba b5f3 dcbd 2531 b33c
00000130: 96b5 933d 87a4 fb3d af98 343d 124b b93d
00000140: 265f 213d ca7d f9bd 28b9 3ebd 88cd a6bd
00000150: 8f51 b7bc 6290 75bd da20 733d 9d2c 96bd
00000160: 658f 87bd 9ed6 23bd 682b 9b3d 0ed6 d8bc
00000170: be2f e03c 2ed4 323d 91f4 b93d 2e55 05bd
00000180: c363 b03c df90 cbbc b07d 143d 8f6d c9bd
00000190: 19a2 b8bd 4ca1 c53c 64a5 10bd cf1f d53d
000001a0: 6a0c d53d 5970 c53d b40d ac3d 941c cabd
000001b0: f0af 6d3d 5cb1 c33c b040 95bb d0f7 1f3e
000001c0: cfd8 e13d 377f 2c3e e858 bf3c f0ff f2bc
000001d0: c0e2 86bd 98ac f8bc 2d2d c1bd 3c6d a6bc
000001e0: 6331 a73d e89f e03d 7276 a3bc a939 f6bc
000001f0: fd7f fabc c6a4 413d 4f2a 9bbc 239e 1ebd
00000200: 305c 0cbe 738f 8a3d bcf0 933d 7ab9 603b
00000210: 63a1 393a 51f9 33bd dd41 cebc 365f ddbc
00000220: 7deb ab3b fa48 0bbd e7c5 943d d1cc 403d
00000230: daf1 e0bb fa75 dfbd 7818 57bd 9586 393d
00000240: 7080 b3bd cf80 063c 706d 213c 5133 3cbd
00000250: 4cd6 153d f54d 09bc e305 c73d 5a9e 56bc
00000260: ef6a a73d 0fb3 ee3d db5f 09bc b694 303d
00000270: 45bc fb3c 58a5 123e 5371 b03d 2807 8c3d
00000280: 3a71 eb3d de77 92bd a6c3 513a c6d1 323d
00000290: 320d 97bd 4e54 1e3e 6b2f 8a3d 038f 0f3e
000002a0: fc9d b23c 9857 413d 22bb 8cbc 223b 83bd
000002b0: 0f16 74bd d95b 643d 22c5 e93d 78ac 473d
000002c0: bb58 7e3d 2a17 8c3d 551e 4e3c c437 bbbd
000002d0: 530f 4a3d df2f 90bc 658c 6b3d fa4d 27bd
000002e0: 748f 5b3c d49b 00bd 26a7 d2bd 4f10 eabd
000002f0: 43bf b53d f75e 403d 8693 60bd 0393 873d
00000300: ea8b 803d a1d2 143e aeb7 203e 1853 113d
00000310: d9de b7ba bb78 cabb 423d 04be 9a26 2ebe
00000320: 5221 c7bb 9f17 f9bd e908 d7bc b424 04bd
00000330: d950 95bd 1014 23bd 7b2f 233c cdde b23d
00000340: 5c18 983d aeb5 2abd e745 533d bd8e 523d
00000350: 5afe 083e 0231 c03d cb9a 043e 2f13 ff3d
00000360: 598f debc 8901 be3c c606 f73d b731 ad3d
00000370: 7246 c03d ba68 953d fc6e 4b3c 0487 8a3d
00000380: a011 25bd 0bcd 0f3e 3187 3f3d 3dd7 fa3d
00000390: f5b2 80bc c1d1 30bd 76e5 6c3d 38f7 033d
000003a0: 6ad2 d9bb 9a03 bf3d eb28 ddbd 7824 1d3d
000003b0: 9ea3 1bbe f3d3 ccbb 8002 d1bd dbf2 a1bc
000003c0: 4d13 b13d e9b4 fdbc efa4 fcba 9be6 b3bc
000003d0: 7b84 3bbd 15b0 87bd 12cb c53d b293 ed3c
000003e0: 115c 8c3d c18c 66bd 0fb5 78bd a139 96bd
000003f0: 0fff d1bd 0bbb 8bbd 8d19 76bd eecf 2a3d
0.03892558 -0.0691127 0.100040846 0.019888563 -0.012899384 -0.043922134 0.0017351615 -0.004580442
-0.039209973 -0.057272352 -0.043328546 0.01312269 -0.023136247 0.08332056 -0.03629989 0.15273784
0.07380417 0.057482548 0.112650275 0.097376555 0.13969156 0.07840695 0.05787615 0.08946914
-0.0071078707 0.10016447 0.050481085 0.033286434 -0.038094193 -0.027910102 -0.037459295 -0.044175472
0.0030464404 0.12251541 0.02085717 0.1307351 -0.09159119 -0.082932554 0.022285689 -0.024891539
0.036174797 -0.033150002 0.0912827 0.024317281 -0.048053317 -0.076703735 0.060346182 0.018567922
-0.047787856 -0.039279524 -0.057727445 -0.06717297 0.044479683 -0.05897567 -0.048923578 0.02615522
-0.0014726575 0.041829694 -0.004430624 -0.08573678 0.05154037 0.06591274 0.025202965 0.08336848
-0.08359707 -0.09734128 0.022030842 0.0597895 0.09484572 0.039257735 0.010562994 0.11478823
-0.012969297 -0.0011541559 -0.10788671 0.02187402 0.07212369 0.122872405 0.044090923 0.09047522
0.03939738 -0.121821955 -0.046563298 -0.08144671 -0.022377757 -0.059952147 0.0593575 -0.07332728
-0.06619147 -0.039999597 0.075766385 -0.026469257 0.027366515 0.04365938 0.090798505 -0.032551937
0.021531945 -0.024849353 0.036252677 -0.0983535 -0.09015293 0.024124764 -0.03531398 0.10406458
0.104027584 0.09640569 0.08401051 -0.09868732 0.058029115 0.023888282 -0.0045548305 0.15621877
0.11027681 0.16845404 0.023357823 -0.029663056 -0.06586218 -0.030355737 -0.09432445 -0.020315759
0.08163717 0.10968 -0.01995394 -0.030056791 -0.030578608 0.04727628 -0.018941073 -0.03872503
-0.13707042 0.06765642 0.07223651 0.003429024 0.00070812384 -0.04393894 -0.02517789 -0.02702294
0.0052465783 -0.034005143 0.072643094 0.04707033 -0.0068647685 -0.10911174 -0.05251357 0.045294363
-0.08764732 0.008209421 0.009852752 -0.045947377 0.036581323 -0.008380403 0.0971792 -0.013099277
0.08174693 0.116552465 -0.00838467 0.04311057 0.030729422 0.14320886 0.08615365 0.068373024
0.11496206 -0.07151769 0.0008001871 0.043657087 -0.07375564 0.15461847 0.067473255 0.14019398
0.021803848 0.047202677 -0.017179076 -0.06407763 -0.05959135 0.055751655 0.11414553 0.048748463
0.06209634 0.06840356 0.012580474 -0.09141496 0.04933102 -0.017600952 0.057506938 -0.04084585
0.013400901 -0.03139861 -0.10285787 -0.11428892 0.08874371 0.046965566 -0.05482819 0.06619837
0.062766865 0.14533474 0.15695068 0.035479635 -0.0014028206 -0.006178943 -0.12913993 -0.17006913
-0.00607697 -0.121627085 -0.026249366 -0.032261565 -0.07290811 -0.039814055 0.009960051 0.08733902
0.07426521 -0.04167717 0.051580336 0.051405657 0.13378277 0.093843475 0.12949674 0.12454831
-0.027167963 0.023194091 0.12061839 0.08456748 0.093884364 0.07295366 0.012416597 0.067640334
-0.04030001 0.14043061 0.046759788 0.12248085 -0.015710333 -0.043168787 0.05783602 0.032218188
-0.0066473978 0.09326859 -0.1079882 0.038364857 -0.15199134 -0.0062508523 -0.10205555 -0.019769123
0.086462595 -0.030970054 -0.0019275228 -0.021960547 -0.04578064 -0.06625382 0.09657873 0.02900109
0.06853498 -0.056286577 -0.060719546 -0.073352106 -0.10253727 -0.06822785 -0.06008296 0.041702203

conv3.bias f4 [20]
00000000: 3035 673c 0dae a9bd 33aa 203e 0f55 013d
00000010: 1adf 803d dbc0 fdbd ce26 81bc f6b5 f63d
00000020: 8ddc 2ebe 2201 0ebd d2bd 0e3e d2c5 3abc
00000030: ee43 00bd 8f4f ef3d ab94 91bd 59be 5e3d
00000040: 34ad c6bc 5a3d 233e acd5 dbbd 80f8 143e
0.014111802 -0.08285151 0.15689926 0.03157526 0.06292553 -0.123903 -0.015765574 0.12046425
-0.17076321 -0.03466905 0.13939598 -0.011399703 -0.031314783 0.116850965 -0.07108434 0.05438075
-0.024252512 0.15941373 -0.10734114 0.1454792

conv4.weight f4 [25, 20, 3, 3]
00000000: fb2f cabb edea fabc bfd6 d6bd 7e05 bc3c
00000010: 625f 56bd b98d 97bd 72e6 aa3c e11c 27bd
00000020: edb3 0cbd bea0 92bc fbc2 423d b01c 1abd
00000030: bff8 3fbd c034 b03d 9ac1 29bd e78b 3f3d
00000040: e0de 483d 7ae4 153c 88b4 d8bd 460c 9dbd
00000050: 05ae 02be cbd6 dcbd c21e bbbd 6347 e4bd
00000060: c1ab cbbd 76d3 7bbd b971 c7bd 1d94 97bd
00000070: 59bf 44bd 645d 5fbd 592f d33c 0937 be3c
00000080: aee7 d23b 14fa a43d 4933 f43c 4877 643d
00000090: 030a bbbb ab72 81bd a513 ac3c ec6c 573c
000000a0: db2a a7bd b24a 1a3d f0cb 66bd 7b6b 2fbd
000000b0: cf86 0abe 3746 32bd 3bf5 553d c708 d0bd
000000c0: eb39 913d e0fe 423d 6e7a a13d f35f abbc
000000d0: 190e 4cbd 4c77 a83d ce80 65bd bd04 333b
000000e0: 0318 953d 94ef da3c 6337 993d 5c73 f33d
000000f0: cbee 053e 100f ce3d 74cc 043d 1566 3a3d
00000100: 1165 41bc a06f a33d 8d34 ab3c cf4f 5e3c
00000110: 1694 4ebd 3535 233d 2268 25bd 08c8 97bd
00000120: f70f 053c 4921 953c 7dc7 e0bd 48f9 563d
00000130: 7a8c ea3c fc9e 383d 122a 893c 864a b9bc
00000140: d0b4 50bc 77b5 c6bb cda5 8c3d 9152 d5bd
00000150: 383a dd3c ea35 cf3d 2fcc 4e3d 1ef1 92bb
00000160: d430 953d f842 a43d 3692 b23c 9fc4 f4bb
00000170: 902d b4bd 4026 5c3c bcd2 8bbc d655 103d
00000180: aacf 713d 4fba 1ebd 754e 9dba ab9b 403d
00000190: 8bf3 13bc 9685 943c 93b5 aebc d79e 383d
000001a0: 68ea 96bc 95eb 87bd 7fc5 82bd 1a3c 0f3d
000001b0: ce6d 20bd bf4e adbc c62a 063c 399b 6f3c
000001c0: 595e 873d f8e5 c03b 845a b2bd 1da9 b23c
000001d0: 041b acbd 8af6 a9bc 34e9 96bc 5996 93bd
000001e0: e3a9 79bd 80ec 333d 8586 8dbd fe63 8dbd
000001f0: 0fc8 713c d3f4 32bb 31cf 953d e765 55bd
00000200: aafb ebbd 46c8 1ebc 73b2 383d 2c93 163d
00000210: c2af 13bc 5a15 e7bc ead3 8c3d 8093 293b
00000220: 1242 0dbc e129 8cbd 0f36 a2bd e6b6 433d
00000230: 3f6e 783d 5aca 843d 64de 35bd a889 d4bc
00000240: 5375 95bd 2a2f 893d 0d19 8a3d 607c e5bc
00000250: 74d0 b93c 8994 7f3d e82e 693d 1e00 31bd
00000260: cacf 1cbd 787b bcbd 150e f6bd f215 06be
00000270: 74d4 cabd 53fe 2439 f313 5e3c 7490 16bd
00000280: 9ff5 df3c 6d4b 55bc 08bc 353d ca6e 73bd
00000290: debb c6bc cc41 4abc e038 be3d 6c14 573d
000002a0: 154b 003d 5ca3 5d3d 132a 2cbd 3d06 38bd
000002b0: 3fdf 78bc abbb 03bd 5950 eabc 9225 953d
000002c0: 37b3 e73d e2de fa3d 022c f53d 8c9d d43d
000002d0: 650d 9a3b 5197 e4bc a3ce 8a3c ccb2 ce3c
000002e0: af86 093c 28c6 8a3a 1624 e238 2eae 90bd
000002f0: 9e3b 063c 83fa 973c 70f3 913d 7d2c b33c
00000300: f0c4 a03d 84f6 b33b 10e0 8d3d 2f6b 46bd
00000310: 41ee 893c e3a1 c93d 7f43 6f3c e1c9 2cbd
00000320: 924b 983c 77b8 babd 80e7 9f3c 6a0d 32bd
00000330: 38e1 013d 88cc 5ebb b553 f83c a6ce 08bc
00000340: 26f1 a73c 8713 08bd e561 a93d 5b8a 873d
00000350: fe45 7dbc 20e1 08bc 3bca 993d 1d6d 23bb
00000360: 24d9 333d db45 a33b 9ee2 d03c f8a5 ca3d
00000370: b594 593d 39f0 553d 36a9 9fbc 118a f03d
00000380: 64a4 f4bc a873 b9bd 5fdc d9bd e05e d2bd
00000390: c871 1dbd 7338 e8bd 65a1 5a3c f54e 84bd
000003a0: 56f1 aabc e123 1fbc a856 183d 1833 093b
000003b0: 93fa b1bc 28fa cabb 27c4 1e3d ff7a 953d
000003c0: d0dd 4bbd 969d 413d eb6f c63d 79fa ca3c
000003d0: b0c0 5b3b 4959 363d 005f 21bd 516a 863d
000003e0: 57a4 4fbd 89cf 0d3d 2c83 9ebd 17dd c9bc
000003f0: 8966 a4bc 760c 313d 0d8b 4bbd dd4b f5bc
-0.0061702705 -0.0306296 -0.10490178 0.022951838 -0.052337058 -0.07400078 0.020861838 -0.040799025
-0.034351278 -0.017898913 0.04754923 -0.037625015 -0.046868082 0.08603811 -0.0414444 0.04676428
0.049040675 0.009148711 -0.105813086 -0.076683566 -0.12761696 -0.10783156 -0.09136726 -0.111464284
-0.09944869 -0.06148096 -0.09738488 -0.07401297 -0.048034046 -0.054532424 0.025779413 0.023219602
0.00643631 0.08055511 0.02980961 0.055777818 -0.0057079806 -0.06320699 0.021005461 0.013148528
-0.08162471 0.03766889 -0.056346834 -0.04282711 -0.13527988 -0.043523993 0.052235823 -0.10157924
0.07091125 0.04760635 0.0788468 -0.020919776 -0.049818132 0.08225879 -0.05603104 0.0027316057
0.072799705 0.026725568 0.07481267 0.118872374 0.13079374 0.10061467 0.032421544 0.04550751
-0.011803881 0.07980275 0.020899082 0.013568833 -0.050434195 0.039845664 -0.040382512 -0.074112
0.008121482 0.018204348 -0.10975549 0.052483827 0.028631438 0.045073494 0.016743694 -0.022618543
-0.012738422 -0.0060641128 0.068675615 -0.10416139 0.0270053 0.10117705 0.050487693 -0.00448431
0.07284704 0.08020586 0.021798234 -0.007469728 -0.08797753 0.013436854 -0.01706826 0.03523811
0.059035935 -0.038751896 -0.0012001531 0.047023457 -0.009030233 0.018130105 -0.021326816 0.045073356
-0.01842232 -0.066367306 -0.06385326 0.034969427 -0.039167218 -0.021155713 0.008188909 0.01462441
0.06609792 0.0058867894 -0.08708671 0.021809155 -0.0840359 -0.020747442 -0.018421747 -0.07206411
-0.060953032 0.043926716 -0.06910423 -0.069038376 0.01475717 -0.002730657 0.07314909 -0.052099135
-0.115226105 -0.009691304 0.045092057 0.036761448 -0.009014072 -0.028208423 0.06876357 0.002587527
-0.008621709 -0.06843925 -0.07920467 0.047781847 0.060652014 0.06483908 -0.04440154 -0.025944546
-0.072977684 0.06698449 0.06743059 -0.028013408 0.022682406 0.062397514 0.0569295 -0.043213002
-0.0382841 -0.09203237 -0.12014405 -0.13094309 -0.099038035 0.00015735002 0.013554561 -0.036758855
0.027338801 -0.013018471 0.044368774 -0.05943183 -0.024259504 -0.012344789 0.09288192 0.05250971
0.031321604 0.05411087 -0.042032313 -0.044927824 -0.015189945 -0.032161396 -0.028602766 0.072825566
0.113134794 0.12249543 0.119712844 0.10381612 0.004701304 -0.027904185 0.016944235 0.025231741
0.0083939275 0.001058762 0.00010783241 -0.07064472 0.008192925 0.01855207 0.0712651 0.0218718
0.07850063 0.0054920334 0.06927502 -0.048442062 0.016837241 0.098453306 0.014603495 -0.042184714
0.018590722 -0.09117215 0.019519567 -0.043469824 0.031708926 -0.0033996422 0.030313352 -0.00835005
0.02050073 -0.033221748 0.08270625 0.06618186 -0.015458582 -0.008354455 0.075092755 -0.0024936863
0.043908253 0.0049826927 0.025498684 0.09894937 0.053120334 0.052231047 -0.019489866 0.11745084
-0.029863544 -0.09055263 -0.106377356 -0.10272002 -0.03843859 -0.11338892 0.0133441435 -0.06460372
-0.020867031 -0.009713144 0.037192017 0.0020934995 -0.021725928 -0.0061943717 0.038761284 0.0729885
-0.049772084 0.047269426 0.096893154 0.024777638 0.0033531599 0.044518743 -0.03939724 0.06563247
-0.050693836 0.03462175 -0.07739863 -0.024641557 -0.020068424 0.043224774 -0.049693156 -0.029943401

conv4.bias f4 [25]
00000000: 8757 dcbd 745a dd3d 3767 bdbc 7e44 2cba
00000010: 1169 f53d dda9 1a3e 8cea 663d d0b2 03be
00000020: d5c4 a73d 61df a5bc 2085 453d fe2e c3ba
00000030: defb 083e 1037 3cbd 0338 683c dab1 853b
00000040: fec3 453d f96c 023d df0c abbd 60a9 6f3c
00000050: 6df5 033e 13d3 c53c d97d 393e bf1d f7bd
00000060: 7e5b ec3c
-0.10758882 0.10808268 -0.023120506 -0.00065714854 0.119829305 0.1510386 0.056376025 -0.1286118
0.081918396 -0.020248117 0.04822266 -0.0014891324 0.1337733 -0.04595095 0.0141735105 0.0040800394
0.048282616 0.031842206 -0.08352064 0.0146277845 0.12886591 0.0241485 0.18114413 -0.120662205
0.02885222

conv5.weight f4 [16, 25, 3, 3]
00000000: bb1b 44bd 8368 47bd 7b8a 1f3c a3e1 373d
00000010: 9da9 5f3a d53d 1cbc 2eb9 d1bb 4afb 34bc
00000020: c264 213d f0c3 3ebb f5b2 d7bc 5804 3e3d
00000030: a6f6 833d 9cf4 a43d c238 ad3c 9f51 8d3c
00000040: e902 803c 92f7 efbc ff3e 523d 4fd5 723b
00000050: fad6 4e3d a374 623d 3a64 f43b 1a63 8cbd
00000060: 10a9 e73c d9e5 8dbc 9cab 213c c4f2 c6bc
00000070: ed0c 373d ddd2 6e3d 732a 103d a7be 79bd
00000080: 9974 64bd 61a8 163d 6585 2abd 3979 61bd
00000090: b161 64bd ba8d 85bd 1723 303d dbe6 a93c
000000a0: c33c 9b3d 6a0a c7bc 3aac b7bc 7cfe bebb
000000b0: 6580 5dbd 681f 463c 415e 27bd cbbe 453c
000000c0: c240 b2bd a921 ccbc 66d6 353d ac55 8cbc
000000d0: 6822 913c b8f4 8dbd 4d60 0cbd 4a5c 433d
000000e0: f591 a43c 02d4 183d 67fc 333d d9be 9ebc
000000f0: a323 0fbd 1d37 793d d6e6 e4bc 6838 aebb
00000100: b514 69bd cf0d 383d 4549 00bd 575a d3bc
00000110: 3bda 3fbd ab92 143c 8876 7dbd 41e3 5c3d
00000120: 7be8 2b3d 72ca 7ebd 1093 8abd 444d 573d
00000130: f69e cbbc 958d 8bbd b1ea b53d f0f3 753d
00000140: e0ff 613c eb20 b938 d668 51bd e41b 20bd
00000150: f8a7 403c cd61 96bd 2fb5 8abc 4d4e aabb
00000160: 223b 03bd 188f 7f3d d869 87bd 8a88 8ebd
00000170: 76af 4bbd 27a3 543c abe3 8ebd 8a04 053d
00000180: 20e6 e43d 4dc4 e03d c828 703d 13b6 783b
00000190: 6de9 8bbd 7296 573c f7f7 893d 498d 553d
000001a0: 19a0 83bd d4db 9a3d e5be 353d a8f1 373d
000001b0: 1786 6cbc 9d03 91bd 5494 4e3d 8651 06bd
000001c0: 4d37 c4bc c3f5 5a3d baff cc3c 5656 b03d
000001d0: 0df3 183d 8da5 73bc ae65 b5bc b963 c03c
000001e0: eae6 2bbd bb11 0bbc 5b53 e8bc 8dd6 53bd
000001f0: 20e8 8bbd c0e1 8ebd e2ee dfbc 7497 19bd
00000200: 300c 7d3c 3f36 8bbd 0726 b1bd c7fe 59bd
00000210: 39a8 403c a981 813c c96a de39 8900 3d3a
00000220: 0720 3abd cfc7 13bd a301 1f3d 5c37 713d
00000230: 09e2 89bd 5752 873d f9c7 983d 1611 8ebd
00000240: cd88 ab3c 8b8c 453b d9ab f63c 4efe 9dbd
00000250: 3b8f 02bb 8abd 26bd 6859 303d ad9d c63d
00000260: e841 6bbc c378 213d 2be0 71bc 4dcc 60bd
00000270: 0d43 b9bd 54cb 10bb 261f 63bd 7f08 723d
00000280: 55c7 ac3d 840f 163d c532 6dbd edf4 bdbc
00000290: c30f 313d ee55 bbbb 6488 81bc 51f9 53bc
000002a0: 0405 23bd b5f9 c8bc fcd7 103d a305 a4bc
000002b0: 7f64 c1bc fff8 db3c 8156 153b 0410 823b
000002c0: a6b3 483d ddb7 293c 901b e63c a10a 15bd
000002d0: f354 ce3c 213f 3ebd bb6e 703d 6e69 aa3c
000002e0: 0ce2 3dbc f142 bfbc 1390 a13d 1b08 e33d
000002f0: b638 a13a 3723 213d 1fd3 03bd bf4e 2fbc
00000300: ee3b fa3d 5b5a 463d 981a 033c ee8c 583d
00000310: 06f7 603c 9e18 1fbd 7efa 3e39 a64e 00bc
00000320: 3be8 ffbb aaee 2c3d efc2 093d cf59 8cbd
00000330: 6a4e 80bc fe32 e13c 3d13 0f3d a66c b1bc
00000340: c037 81bc 0dcd c7bc 9b55 25bc e5b9 4dbd
00000350: 06af 6cbd 996b 333c 62a4 653c 69ce febb
00000360: 0895 5e3d e7db 7cbc e26e 4b3d 9800 1bbd
00000370: 48db 24bc 6df9 13bb cba2 41bd 0137 7d3d
00000380: 890f 2e3c c815 f23c 17ba 9c3c 806e 4e3d
00000390: 66db 4ebd dd46 85bd cdaf e7b8 c024 f1bc
000003a0: f392 ebba d698 6c3d 2d67 c63b e06d 6d3b
000003b0: fb4c 6ebd e02b 14b9 f63b 5abd d208 b6bc
000003c0: b2cf 3b3d e01e b2bb fcca e53c 4e6d a53c
000003d0: 33eb 0e3d ace5 683c f1cc 83bd 5997 85bc
000003e0: dc28 07bb 4e52 f7bc 82ad 56bd bc2a 30bd
000003f0: f02c fc3c 894b e2bc 9bba 52bc ee1f 853c
-0.04787801 -0.048683655 0.009737606 0.04489292 0.0008532049 -0.009536226 -0.006400249 -0.01104624
0.03940273 -0.0029108487 -0.02633045 0.04639086 0.06443529 0.08054468 0.021145228 0.017250834
0.015626388 -0.029292855 0.05132961 0.0037053411 0.050497986 0.055287015 0.007458237 -0.068548396
0.028278857 -0.017321514 0.009867575 -0.024285682 0.04469006 0.058306564 0.035196733 -0.060972836
-0.05577526 0.036781672 -0.04163112 -0.055047248 -0.05575723 -0.06521173 0.043002214 0.020739963
0.07579949 -0.024296958 -0.022420991 -0.0058286767 -0.054077525 0.012092449 -0.040861372 0.012069414
-0.08703758 -0.024918394 0.04439392 -0.017130695 0.017716601 -0.06931442 -0.034271527 0.047695436
0.020089129 0.03731156 0.04394188 -0.019378113 -0.034946095 0.060843576 -0.027942102 -0.0053167827
-0.056904513 0.044935044 -0.031319875 -0.025799913 -0.04683898 0.0090681715 -0.06188062 0.053927664
0.041969758 -0.062204786 -0.06766331 0.05256392 -0.024856072 -0.06814114 0.088826545 0.06004709
0.0137939155 8.827619e-05 -0.05112537 -0.0390891 0.011758797 -0.07342873 -0.016932098 -0.0051973225
-0.032038815 0.062392324 -0.06611985 -0.069596365 -0.04972788 0.012978352 -0.06977018 0.032475032
0.11176705 0.109749414 0.058632642 0.0037950322 -0.06831632 0.013158428 0.06736749 0.052136693
-0.064270206 0.0756146 0.044371504 0.044908196 -0.014436266 -0.07080767 0.050434425 -0.03279259
-0.02395215 0.053457033 0.025024284 0.08610217 0.037341166 -0.014871013 -0.022143211 0.023485051
-0.041968264 -0.008488114 -0.02836006 -0.051718283 -0.06831384 -0.06976652 -0.027335588 -0.037497953
0.0154448 -0.06797456 -0.08649831 -0.05322149 0.011758857 0.015808897 0.000424227 0.00072098576
-0.0454407 -0.036079224 0.03881992 0.058890685 -0.06732566 0.06607502 0.07460017 -0.06936853
0.020939255 0.0030143585 0.03011124 -0.077145204 -0.0019921798 -0.040708102 0.043054014 0.09698043
-0.014358975 0.039421808 -0.014762918 -0.054882336 -0.09045992 -0.002209385 -0.055449627 0.059090134
0.08436457 0.03663589 -0.057909746 -0.023188079 0.043227922 -0.0057170307 -0.015812106 -0.01293786
-0.039799705 -0.024533132 0.03536223 -0.020022219 -0.02360749 0.026852129 0.0022787156 0.0039691944
0.04899945 0.010358778 0.028089315 -0.03638709 0.025186991 -0.046446923 0.05869935 0.020802226
-0.011589538 -0.02334735 0.07888808 0.1108553 0.0012300226 0.039340224 -0.032183763 -0.010699927
0.12218462 0.048426013 0.008001946 0.052868776 0.01373077 -0.038841836 0.00018213128 -0.007831251
-0.0078096665 0.042219795 0.03363317 -0.06853067 -0.01566239 0.027490135 0.034930456 -0.021658253
-0.015773654 -0.024389768 -0.010091211 -0.05022611 -0.057784103 0.010950946 0.014016243 -0.007776071
0.054341346 -0.015433288 0.049666293 -0.037842363 -0.010062046 -0.002257909 -0.047274392 0.061820034
0.010623821 0.029551402 0.019131703 0.05039835 -0.050502203 -0.06507657 -0.00011047684 -0.02943647
-0.0017972871 0.057762943 0.00605478 0.003622882 -0.058178883 -0.00014130725 -0.05327984 -0.022221003
0.04585237 -0.0054358095 0.028050892 0.020193722 0.034892272 0.014214914 -0.06435574 -0.01630752
-0.002062372 -0.030190613 -0.052411564 -0.043009505 0.030783147 -0.027623909 -0.012861873 0.016250577

conv5.bias f4 [16]
00000000: 8900 63bd aa7c 6fbc 90e7 61bd 27b8 c93d
00000010: d8df acbd c814 543c 2b8c 54bd 4867 8dbd
00000020: 23b7 c33b f2de 8dbc f266 903d 96a6 02bd
00000030: e6ff e83d a998 063d 7759 a7bd 0258 82bd
-0.055420432 -0.014617125 -0.055152476 0.098495774 -0.08441132 0.012944408 -0.051891487 -0.06904465
0.0059727593 -0.017318223 0.07050885 -0.03189715 0.11376934 0.03286043 -0.08171361 -0.063644424

classifier.1.weight f4 [10, 16]
00000000: 8746 ac3c 2f6a 9f3d 3836 463e 80bf dfbd
00000010: ca85 8e3e 850f 21be eea4 c83d 4820 fdbd
00000020: cb55 62be fdcd 693e b360 1f3e 4e4d ee3c
00000030: cb4a febb 2328 31be 4d82 50be 27ec acbc
00000040: d405 d0bd 6c16 623e dcad 733d ec4a e2bd
00000050: a34e 1c3e 377d 9abe ac98 ec3d 962a 313e
00000060: 120e 01be 374f a83d 13bd 9abe b8d1 583e
00000070: 34f3 c63d c790 1f3e e9f9 df3c 570b 603e
00000080: 2eb2 463e 5090 01bd 559a b13c dae6 56be
00000090: 204b 093e 78ce 9c3d d64e 57be 8068 133e
000000a0: bf82 553b e921 58ba 8cf9 2e3d 0f43 7d3e
000000b0: 7d93 3f3e 5903 933e c70e 6dbe f1fc 61be
000000c0: f990 cc3d d8b6 98bd 1789 7fbe 230d 403d
000000d0: 7afe f6bd 9ecb 29bc 272c 2b3e 84f8 963b
000000e0: d4f9 543e 182f 49bd 1187 e0bc a38f 433e
000000f0: 66eb 6fbe 208b 853d aad7 f1bd d301 3dbe
00000100: 948f 3fbe 2925 5c3e 35f6 34be f10d 593e
00000110: 19ca 24be 10f6 333e e716 7bbe 2199 8fbe
00000120: fc22 603e 0057 953d 0426 2f3e 9b61 86be
00000130: a56c 413e ae11 533e 0791 46be 3573 99bd
00000140: 7a57 563e a670 ae3c a860 353c 0322 b4bc
00000150: 7362 03be f8e1 393d 5a3e 553d 9c70 cc3d
00000160: e38c 0dbe b40d 873d 3820 12be a76a e43d
00000170: 7208 b03d 6b08 223d 77ce 273e 337b 7fbe
00000180: feca 7a3d 1ac8 40bd 8917 afbc 63f4 293e
00000190: de87 00be 92b2 0f3e 5274 123e afee d2bd
000001a0: 9348 6abe 5d7c 59be f8c2 d63d 9d0a 52be
000001b0: 212b 0bbe 1e43 da3d c095 3d3d 4d2f ed3c
000001c0: ce6d 0dbe 0fc5 023e 5755 b63d 0e29 ffbd
000001d0: a6fb 243d 57bf 8fbd 881c 3ebd 8194 8c3b
000001e0: 8db8 103e a8fb 6bbd 63e3 88bd 0cd4 e03d
000001f0: ec6b c63d 3368 2dbd de26 8d3e f53c b0bd
00000200: e4bd 87be 2d8a 11be 56f0 fa3d a379 943e
00000210: be82 23be 346a 0dbe 8786 92bd eebc 523e
00000220: 25c1 31be 0b20 2f3e 3a57 54be ca3a 34be
00000230: babb 95bd a6c0 b43d 1112 19be efe8 57bd
00000240: a669 adbd 1477 09be d5af 713d 0ff8 783e
00000250: c86f 91bd fc8b 8bbe 1f2d 793e b5a9 08be
00000260: 5f3f a3bd 6ae0 053d 11da 93be 9bf3 9a3e
00000270: 0793 4fbe bc7c e3bd 4954 2ebd e925 b93d
0.021029724 0.07783925 0.1935662 -0.109251976 0.27836448 -0.15728576 0.09797083 -0.12359673
-0.2210304 0.22832485 0.15564232 0.029089596 -0.007760381 -0.17300467 -0.20362206 -0.0211087
-0.101573616 0.22078866 0.059491977 -0.110494465 0.15264373 -0.30173656 0.11552557 0.17301401
-0.12603024 0.08218234 -0.30222377 0.21173751 0.09714356 0.15582572 0.027340846 0.21879326
0.19403908 -0.031631768 0.021680037 -0.209865 0.13407564 0.07656568 -0.21026167 0.14395332
0.0032579151 -0.0008244799 0.042718455 0.24732612 0.18708606 0.28713492 -0.23150168 -0.22069146
0.09988589 -0.0745675 -0.2495464 0.04688753 -0.12060256 -0.0103634875 0.16716062 0.004607262
0.20798427 -0.049117178 -0.027408155 0.19097762 -0.23429641 0.065206766 -0.11808713 -0.18457727
-0.18707114 0.2149855 -0.17672046 0.21196724 -0.16092719 0.17574334 -0.24520455 -0.28046516
0.21888345 0.072919846 0.17104346 -0.26246342 0.18889101 0.20612213 -0.19391261 -0.07492677
0.20931807 0.02129395 0.011070408 -0.021988874 -0.12830524 0.045381516 0.052061416 0.09982416
-0.13823275 0.065944105 -0.14270103 0.11153155 0.08595361 0.03955881 0.16387354 -0.2494934
0.061228745 -0.04706583 -0.021373527 0.16597132 -0.12551829 0.14032963 0.14302185 -0.102994315
-0.22879247 -0.21238847 0.10486406 -0.20511861 -0.13590671 0.10657333 0.04628539 0.028953219
-0.13811418 0.12770484 0.08902996 -0.124590024 0.040279053 -0.07018917 -0.04641393 0.004290164
0.141329 -0.057613045 -0.066839956 0.10977945 0.09688553 -0.0423357 0.27568716 -0.08605377
-0.26512063 -0.14212866 0.12252872 0.2899905 -0.15967843 -0.13810045 -0.07154565 0.20579883
-0.17358835 0.17102067 -0.207364 -0.17600551 -0.073111966 0.08825807 -0.14948298 -0.052712377
-0.084674165 -0.13424331 0.059005577 0.24313377 -0.07101399 -0.27255237 0.24333619 -0.13345988
-0.079710715 0.03268472 -0.2887731 0.3026398 -0.2027093 -0.111077756 -0.04256085 0.09040434

classifier.1.bias f4 [10]
00000000: 244e 4e3e 610f f63c 39b2 5f3e 0f2c 1a3e
00000010: 838a 07bc 02bb bdbd 4fd5 353d a82a 5ebe
00000020: b684 2b3c bf18 8abd
0.20146996 0.03003663 0.2184533 0.1505587 -0.00827277 -0.092641845 0.04439288 -0.2169596
0.0104686525 -0.06743001
