Cifar/reek_cifar10_model_10Models_finalResult/2_model_.pt (torch, 58113 bytes, 12 tensors)

conv1.weight f4 [16, 3, 3, 3]
-0.062750846 0.034465417 -0.012588887 -0.17436205 -0.0931406 0.20519525 -0.22010143 -0.04258501
0.20987545 -0.03741859 0.068526946 0.11236971 -0.017857559 0.13333206 0.20685245 -0.09533432
-0.05158165 0.21555606 -0.21516834 -0.18137503 0.16993834 -0.18990083 0.03348491 -0.034451887
-0.21278846 0.13352473 0.07747423 -0.084332205 0.027183667 -0.013532583 -0.10792476 0.07611935
-0.05226682 -0.068406776 -0.19887787 -0.031122664 0.15429103 0.10084445 0.115145996 0.06808572
0.12816428 -0.027453642 -0.20247413 -0.12590319 0.020258315 0.18511233 0.19031507 0.024760973
-0.094945446 0.19239646 -0.15757129 0.18656272 -0.16437301 -0.042047773 0.1577549 0.121287175
0.27058244 0.01377177 -0.16438457 0.1358731 -0.02687663 0.18191269 0.13916944 -0.009761847
0.08622481 -0.10064357 -0.23375368 -0.19047916 -0.117005154 -0.1762989 -0.21335961 0.051136363
-0.0884666 0.09868625 -0.041908465 -0.13383473 -0.2271291 -0.22888969 0.09821541 0.034210287
-0.056758065 -0.062808774 -0.14590378 0.30873188 0.1865453 -0.10047939 0.12518212 -0.123747624
-0.103090875 0.07933257 -0.1830226 -0.22468503 -0.04665789 -0.22590455 0.009513806 -0.11841555
0.13666317 0.08428353 0.18368758 -0.20692663 0.0919873 0.23370522 -0.008154302 -0.037304573
0.1415379 0.064162046 -0.06411475 -0.14398335 -0.13445453 0.07432917 0.1329983 -0.004212183
-0.106133066 0.08367588 -0.12731667 -0.015852574 -0.19918396 0.109426424 -0.09753808 0.033213224
0.048439592 0.1947153 0.19030583 -0.21493056 0.04591668 -0.19278638 -0.07231388 0.085065946
-0.11696087 0.19779465 0.10057816 0.050964843 0.091665626 -0.17438732 0.034307986 0.0901363
-0.07449937 -0.06487347 0.07245788 0.16062914 -0.090432666 0.10854376 0.10842746 -0.117310375
-0.14095749 -0.004912915 0.123866715 -0.18923645 -0.15507394 0.11613426 -0.14102516 -0.15711077
-0.023859553 0.23269269 0.17909701 0.14303647 0.02304969 -0.08279341 -0.13213034 0.09117107
0.066190876 0.07075832 -0.07115861 -0.19025503 0.027189748 -0.05181557 -0.03435317 -0.0018227596
-0.12885393 -0.13521887 -0.07101175 0.032300837 -0.16487347 0.13269253 -0.23798393 -0.16893098
0.0014663754 -0.22770366 -0.14572702 0.05787426 -0.15490793 0.03467495 -0.13073584 -0.12202249
0.0015351925 -0.015426599 0.15494648 0.022508273 0.017134687 -0.047351304 0.22554605 0.07455186
0.16228841 -0.13400492 0.16547155 0.17553091 0.11776307 0.19475634 -0.09308414 -0.1456257
0.079386145 0.08306416 -0.1486334 -0.05051366 -0.010041944 -0.05199034 0.101316 0.101922005
0.017908208 -0.10239728 -0.14400837 0.11474786 0.0072025643 -0.12367891 -0.19127108 -0.13744806
0.16096836 -0.13650519 -0.2073693 -0.16627221 -0.10819599 -0.030406538 -0.1346113 0.088925324
-0.0307864 -0.12407777 -0.14994091 -0.096532054 0.15348785 -0.01528804 0.02132463 -0.19470455
0.11725532 0.026350861 -0.04739876 -0.011865024 -0.10591251 -0.16235638 -0.10010942 0.050041575
0.179826 -0.10457251 0.11748224 -0.11205024 0.14648351 0.053307146 -0.19698946 -0.1621365
0.07517914 0.08402943 0.040778257 0.049338825 -0.056738384 -0.10518903 0.051204722 -0.18174921
00000000: 8483 80bd 9c2b 0d3d 9e41 4ebc f78b 32be
00000010: 80c0 bebd b41e 523e 4562 61be 9f6d 2ebd
00000020: 97e9 563e 3c44 19bd db57 8c3d 1722 e63d
00000030: 044a 92bc 3388 083e 21d1 533e a43e c3bd
00000040: 4847 53bd baba 5c3e 1755 5cbe 60ba 39be
00000050: 5104 2e3e 5d75 42be 7927 093d 6c1d 0dbd
00000060: 38e5 59be b5ba 083e cfaa 9e3d 5db6 acbd
00000070: 48b0 de3c c4b7 5dbc a807 ddbd 76e4 9b3d
00000080: bc15 56bd da18 8cbd a4a6 4bbe f5f4 febc
00000090: 78fe 1d3e 8987 ce3d aad1 eb3d 8770 8b3d
000000a0: 7f3d 033e 76e6 e0bc 6155 4fbe c4ec 00be
000000b0: c4f4 a53c 168e 3d3e f4e1 423e 86d7 ca3c
000000c0: c272 c2bd 9403 453e 5e5a 21be 4c0a 3f3e
000000d0: 6651 28be 493a 2cbd 808a 213e 6965 f83d
000000e0: c889 8a3e fda2 613c 6e54 28be 5122 0b3e
000000f0: 612c dcbc 5247 3a3e 6f82 0e3e 27f0 1fbc
00000100: a296 b03d 371e cebd 205d 6fbe f80c 43be
00000110: 66a0 efbd b387 34be f17a 5abe 5d74 513d
00000120: fa2d b5bd 041c ca3d 36a8 2bbd f90b 09be
00000130: 8894 68be 0f62 6abe 2925 c93d 1620 0c3d
00000140: 257b 68bd e3a1 80bd cd67 15be 1b12 9e3e
00000150: bb05 3f3e 23c8 cdbd be2f 003e 656f fdbd
00000160: 4f21 d3bd 1d79 a23d 476a 3bbe d513 66be
00000170: 581c 3fbd 8653 67be cbdf 1b3c da83 f2bd
00000180: 6ef1 0b3e d89c ac3d 9918 3c3e 93e4 53be
00000190: d663 bc3d 6c50 6f3e 9f99 05bc aecc 18bd
000001a0: 50ef 103e 6467 833d 984e 83bd 5f70 13be
000001b0: 73ae 09be e439 983d b530 083e 5a06 8abb
000001c0: 4b5c d9bd 435e ab3d 4d5f 02be 42dd 81bc
000001d0: e1f6 4bbe f61a e03d 0bc2 c7bd 970a 083d
000001e0: 9868 463d 7363 473e 88df 423e c216 5cbe
000001f0: 2113 3c3d cb69 45be 4d19 94bd 0e37 ae3d
00000200: 2e89 efbd ae8a 4a3e ecfb cd3d 83c0 503d
00000210: 30bb bb3d 9792 32be 8886 0c3d 6199 b83d
00000220: 2093 98bd 62dc 84bd cc64 943d f77b 243e
00000230: c334 b9bd 314c de3d 370f de3d 6c40 f0bd
00000240: 2957 10be 85fc a0bb d5ad fd3d 33c7 41be
00000250: b4cb 1ebe cdd7 ed3d e668 10be a5e1 20be
00000260: 1c75 c3bc fe46 6e3e 3565 373e 2778 123e
00000270: b4d2 bc3c 978f a9bd 2d4d 07be e6b7 ba3d
00000280: 158f 873d bde9 903d 9bbb 91bd 37d2 42be
00000290: 09bd de3c 903c 54bd e9b5 0cbd aae9 eeba
000002a0: 49f2 03be d176 0abe 9c6e 91bd e24d 043d
000002b0: 97d4 28be 8de0 073e 0fb2 73be 3efc 2cbe
000002c0: 6533 c03a 262b 69be 7739 15be 8f0d 6d3d
000002d0: 2fa0 1ebe 5207 0e3d 9edf 05be ede6 f9bd
000002e0: 8338 c93a d9bf 7cbc 4aaa 1e3e 4563 b83c
000002f0: 0b5e 8c3c 71f3 41bd 8bf5 663e a5ae 983d
00000300: ef2e 263e 9638 09be 6071 293e 60be 333e
00000310: c42d f13d 356e 473e e6a2 bebd e71e 15be
00000320: 3495 a23d 8b1d aa3d 5b33 18be 69e7 4ebd
00000330: f786 24bc d3f3 54bd c37e cf3d 7cbc d03d
00000340: 3cb4 923c aab5 d1bd ee76 13be ed00 eb3d
00000350: 7d03 ec3b 5e4b fdbd 91dc 43be 2fbf 0cbe
00000360: e4d4 243e 04c8 0bbe 9e58 54be 4343 2abe
00000370: dc95 ddbd 2217 f9bc 8bd7 09be 7b1e b63d
00000380: c333 fcbc 7c1c febd 1c8a 19be 99b2 c5bd
00000390: eb2b 1d3e b07a 7abc feb0 ae3c a160 47be
000003a0: 8f23 f03d c3dd d73c 3425 42bd 8565 42bc
000003b0: a8e8 d8bd c040 26be 2b06 cdbd 65f8 4c3d
000003c0: 4f24 383e 1d2a d6bd 879a f03d 997a e5bd
000003d0: c6ff 153e 9858 5a3d 9bb7 49be 1c07 26be
000003e0: 85f7 993d 9f17 ac3d 1a07 273d 8217 4a3d
000003f0: 8266 68bd 596d d7bd 0bbc 513d 771c 3abe

conv1.bias f4 [16]
0.10846744 0.03880226 0.040500328 0.04816357 -0.065076396 0.1742933 0.04784261 0.1773524
0.06572711 0.2478455 0.11361788 -0.075974695 0.07850981 -0.17687242 0.16573352 -0.022709714
00000000: 2d24 de3d 1eef 1e3d ace3 253d 2a47 453d
00000010: c646 85bd f179 323e 9df6 433d de9b 353e
00000020: ef9b 863d 36cb 7d3e 7eb0 e83d 9f98 9bbd
00000030: c0c9 a03d 0b1e 35be 0cb6 293e b909 babc

conv2.weight f4 [10, 16, 3, 3]
0.07580944 0.08199775 -0.03945312 0.0014833849 0.022826618 0.020314798 0.06019111 -0.006590535
0.117848404 0.0027423415 0.05302852 -0.024388423 -0.03658939 0.08663313 -0.0712069 0.034676693
-0.025187423 -0.022742946 -0.01288752 0.030201733 -0.0032385269 0.0020733497 0.079558924 0.020939836
0.050234918 -0.016998755 -0.01392284 -0.06547218 -0.02191479 -0.0120488 0.026907023 0.0065562124
-0.046819422 -0.018934231 0.10008922 -0.0038709787 -0.07037534 0.03559227 -0.03205105 -0.020860024
-0.06970479 -0.061399844 0.032505676 0.040182427 -0.047465492 -0.0026513042 0.050730556 0.09510513
0.0007599756 -0.060322363 0.072218 -0.04483867 -0.018195352 -0.03154579 0.034651067 0.060205963
0.09115956 0.007471193 -0.036333688 0.08121846 0.06721565 0.047407128 0.051410817 -0.06700645
-0.021253662 0.07573806 -0.003047287 -0.09483874 0.07329949 0.03702531 0.044023942 0.04239668
0.04025465 0.0851753 0.0425548 -0.07174594 -0.02311176 0.046046127 -0.060219202 -0.03789194
-0.04303337 -0.05750523 0.051900793 0.07045105 -0.04781987 -0.022875682 0.0039042628 -0.023895564
-0.0042874846 0.014438224 0.11389848 -0.052635062 0.0498761 -0.0059532477 -0.0234733 0.042512633
0.068558 0.10732077 -0.031141125 -0.0041461685 -0.06276017 -0.044304777 0.013433922 0.059062034
-0.0058990144 0.057883613 0.0219003 -0.012117313 0.037495937 0.1035081 0.07033365 -0.022927342
-0.018643266 0.12086589 0.08641433 0.07420738 -0.013015326 -0.07601202 -0.05342968 0.03261532
0.08256587 -0.022557111 -0.08605563 -0.04886626 0.021506201 0.03483772 -0.019499423 0.019274596
-0.043268427 -0.032986343 -0.032084808 0.07782049 -0.010077949 -0.014765239 0.013562466 0.045523696
-0.049923718 -0.008341872 0.050151523 -0.014515567 0.026421858 -0.036368955 -0.010401034 -0.052905206
0.04427807 -0.10566171 -0.06431891 -0.062349457 0.009405257 -0.060612537 -0.07822377 -0.032562565
-0.06991096 0.11287961 0.08488083 0.09813617 -0.041303538 -0.0050885216 -0.042864025 0.103762545
0.07863897 -0.031921744 -0.05625765 0.053034227 -0.034409203 0.028248373 -0.07688104 -0.072665505
-0.03474619 -0.08375817 0.03227086 -0.051836915 -0.0068228957 -0.06787356 0.089357875 0.029073576
-0.037445813 -0.009161129 0.025598299 -0.033556093 0.11320642 0.030304804 0.12800778 0.07346303
0.08463345 0.03799036 0.022774346 0.084819846 0.105593935 0.032094754 0.03684242 0.089573786
-0.03239926 -0.007585834 0.018455425 0.0068704598 -0.034369696 0.045545224 0.03528065 -0.024423419
0.01738375 0.030702706 0.009907632 0.04147032 -0.06308969 -0.008929202 0.058939017 -0.049701765
-0.063865 -0.07772795 -0.06991216 -0.066522375 -0.09979853 -0.1007996 -0.048379634 0.041543655
0.0831907 0.026603485 0.05861104 0.042690054 -0.020040845 0.047253363 0.051887017 -0.0002437554
0.05026629 0.033768 -0.030536009 0.028815083 0.041907042 0.06681768 -0.0564206 -0.07632886
-0.045053132 -0.009579823 -0.05602883 -0.020043265 -0.0657146 -0.05380679 0.040478468 0.038009785
0.0070868745 0.054116655 -0.026104545 0.04172247 0.09136555 0.09570484 0.056999538 -0.034671266
0.048948925 0.08190189 0.043764398 -0.067334004 -0.023388103 -0.030373272 -0.05876314 -0.0758127
00000000: fb41 9b3d 70ee a73d 9899 21bd 236e c23a
00000010: e3fe ba3c 386b a63c f48a 763d 6af5 d7bb
00000020: 815a f13d dbb8 333b 6f34 593d 3bca c7bc
00000030: c2de 15bd b66c b13d ecd4 91bd 2609 0e3d
00000040: db55 cebc 6a4f babc 2d26 53bc a069 f73c
00000050: 773d 54bb 09e1 073b caef a23d 058a ab3c
00000060: 21c3 4d3d f940 8bbc a01c 64bc 4716 86bd
00000070: a586 b3bc 5468 45bc 1e6c dc3c 7fd5 d63b
00000080: b9c5 3fbd f61b 9bbc 94fb cc3d 3fb0 7dbb
00000090: f220 90bd 33c9 113d f647 03bd a4e2 aabc
000000a0: 63c1 8ebd 677e 7bbd ac24 053d 5496 243d
000000b0: 2d6b 42bd 81c1 2dbb d8ca 4f3d 7ac6 c23d
000000c0: 1939 473a 9514 77bd 08e7 933d c1a8 37bd
000000d0: 6b0e 95bc 2936 01bd 47ee 0d3d 879a 763d
000000e0: ddb1 ba3d e9d0 f43b a2d2 14bd dd55 a63d
000000f0: 5ca8 893d fa2d 423d 2694 523d ad3a 89bd
00000100: 291c aebc 8e1c 9b3d feb4 47bb d03a c2bd
00000110: 0b1e 963d daa7 173d 7352 343d 24a8 2d3d
00000120: 0fe2 243d 6370 ae3d f14d 2e3d 89ef 92bd
00000130: e054 bdbc dd9a 3c3d 69a8 76bd 9434 1bbd
00000140: c243 30bd 9b8a 6bbd ed95 543d a448 903d
00000150: c5de 43bd c865 bbbc a9de 7f3b a1c0 c3bc
00000160: 077e 8cbb 4d8e 6c3c 9b43 e93d dd97 57bd
00000170: e24a 4c3d 7613 c3bb 144b c0bc ba21 2e3d
00000180: 2368 8c3d feca db3d ac1b ffbc 95dc 87bb
00000190: 6788 80bd ed78 35bd f419 5c3c 08eb 713d
000001a0: 854c c1bb 5e17 6d3d 4268 b33c b287 46bc
000001b0: 5795 193d 0efc d33d 170b 903d 1fd2 bbbc
000001c0: c3b9 98bc 8988 f73d fff9 b03d 0afa 973d
000001d0: 3c3e 55bc 31ac 9bbd 15d9 5abd a497 053d
000001e0: 4b18 a93d b1c9 b8bc ef3d b0bd fd27 48bd
000001f0: c62d b03c ffb1 0e3d 41bd 9fbc c2e5 9d3c
00000200: 3c3a 31bd b01c 07bd 5c6b 03bd 5960 9f3d
00000210: fb1d 25bc e7e9 71bc 1b35 5e3c 0e77 3a3d
00000220: d07c 4cbd 59ac 08bc af6b 4d3d b3d2 6dbc
00000230: a772 d83c 9df7 14bd 1969 2abc 21b3 58bd
00000240: ec5c 353d 2b65 d8bd a2b9 83bd 2562 7fbd
00000250: 8218 1a3c da44 78bd c933 a0bd 5360 05bd
00000260: 7a2d 8fbd 6d2d e73d 00d6 ad3d 9efb c83d
00000270: e62d 29bd 9dbd a6bb 3092 2fbd 7581 d43d
00000280: 780d a13d 60c0 02bd 6c6e 66bd 6b3a 593d
00000290: aaf0 0cbd 2269 e73c cf73 9dbd a7d1 94bd
000002a0: 0552 0ebd 6789 abbd 732e 043d f252 54bd
000002b0: 9992 dfbb 4b01 8bbd 4301 b73d b52b ee3c
000002c0: c860 19bd 8f18 16bc 86b3 d13c 1d72 09bd
000002d0: c4d8 e73d c841 f83c 7914 033e c973 963d
000002e0: 4d54 ad3d c89b 1b3d 4491 ba3c 07b6 ad3d
000002f0: a241 d83d ca75 033d 14e8 163d 7672 b73d
00000300: 16b5 04bd 9692 f8bb d52f 973c 9821 e13b
00000310: 3dc7 0cbd a18d 3a3d 7182 103d 9f13 c8bc
00000320: 5e68 8e3c 3e84 fb3c 9f53 223c c8dc 293d
00000330: 2b35 81bd ca4b 12bc 0a6a 713d 1494 4bbd
00000340: a7cb 82bd d52f 9fbd 1b2e 8fbd e23c 88bd
00000350: 2c63 ccbd 0570 cebd b929 46bd ae29 2a3d
00000360: e35f aa3d 8def d93c 2112 703d c4db 2e3d
00000370: b32c a4bc be8c 413d 7b87 543d 9898 7fb9
00000380: 06e4 4d3d 5050 0a3d a726 fabc 9c0d ec3c
00000390: b8a6 2b3d b5d7 883d 4919 67bd 4e52 9cbd
000003a0: a289 38bd b1f4 1cbc 7d7e 65bd c631 a4bc
000003b0: 6095 86bd 8264 5cbd c0cc 253d 26b0 1b3d
000003c0: 0339 e83b 6da9 5d3d 33d9 d5bc 2ee5 2a3d
000003d0: dd1d bb3d e600 c43d 5978 693d 7503 0ebd
000003e0: ab7e 483d 2ebc a73d 4c42 333d 69e6 89bd
000003f0: 6898 bfbc 5ed1 f8bc 9eb1 70bd b043 9bbd

conv2.bias f4 [10]
-0.0032017136 -0.024967657 0.0019286054 0.042240355 0.006680171 0.054723874 -0.010648956 0.11449012
-0.005948206 0.0627436
00000000: d7d3 51bb f988 ccbc 42c9 fc3a 3904 2d3d
00000010: 56e5 da3b 2426 603d f578 2ebc cc79 ea3d
00000020: 2be9 c2bb b77f 803d

conv3.weight f4 [32, 10, 3, 3]
-0.019715609 0.07429718 0.0714987 -0.06237355 0.018064482 0.003740865 -0.06644224 -0.05795466
-0.052755572 0.088499784 -0.0057770372 -0.021835748 0.007645669 -0.06421786 -0.027904084 0.007113118
0.15435219 -0.018339666 0.09061149 0.016094629 0.10593904 0.00021868039 0.055377863 0.019477764
0.13546194 -0.0074965786 0.09287326 0.12754752 0.11067059 0.0055962354 0.062302772 0.124641456
0.12405679 0.027363632 0.03189366 0.101162486 -0.07063195 -0.022846537 0.008344739 -0.066768125
-0.026450614 -0.06491492 -0.0016018089 -0.05787785 0.09220161 -0.029799627 -0.02937982 0.024913844
-0.05637744 -0.011699245 -0.048570406 -0.031495392 0.06390522 0.053284705 -0.06502061 -0.049190022
-0.07278432 -0.0021437318 0.0018872351 0.0014314582 -0.003993541 0.0032188701 0.030787965 -0.025169192
-0.052199885 0.005643308 0.07626796 0.017506242 -0.096559554 -0.045016043 -0.10494922 0.059918027
-0.056346744 -0.050446782 0.05147653 0.111159846 0.074424215 -0.018913934 0.104516976 0.059653666
-0.06469511 -0.012536585 -0.10586641 -0.05597882 0.039775986 -0.08969589 -0.0036027634 0.083079815
0.02558632 0.11016154 0.012825437 0.044995952 -0.040977713 -0.0128003135 0.036242373 0.06788863
0.08968298 -0.03399709 0.04835267 -0.04120475 0.004200842 -0.00828522 -0.07427005 0.081381656
-0.0034651114 -0.038379196 -0.09402629 0.0040685474 0.017467145 0.13119155 0.057926495 0.0027787809
0.044769514 -0.057082683 0.13956517 0.07578171 0.07230227 0.06822873 0.0108068725 -0.01831828
0.03358235 -0.09762781 -0.07372694 0.03132749 0.080240436 -0.018293504 -0.044324122 0.021209016
-0.015718255 -0.051302582 0.0077362717 0.0062289424 -0.05099958 0.029120302 -0.042749647 0.12405326
-0.031291634 0.032534108 -0.02669727 0.030321527 0.11291185 -0.045986053 0.033173047 -0.033886064
-0.016402096 0.034496393 0.13174342 -0.074292906 -0.025592381 0.10446953 -0.034270644 0.030038025
0.03621054 0.07045712 0.07647569 0.017490877 0.015366569 0.024962986 0.049369182 0.0045037298
-0.010903387 -0.050070405 0.10150298 0.07082652 0.07451308 0.08248395 0.032749973 0.071224615
0.048863262 -0.023714982 -0.02317586 -0.07321344 -0.026152965 0.13273762 0.12677738 -0.052815896
-0.03952404 0.069646366 -0.09058782 -0.033130545 -0.10844813 -0.047802847 -0.050388183 -0.023469664
-0.037751038 -0.062223315 0.04194157 -0.04973478 -0.09858214 0.10649502 0.12258537 0.021982135
0.057596635 0.065921284 0.039491903 0.030403709 -0.039492644 0.0949572 0.033494312 0.091279164
0.042089764 -0.010278726 -0.017619291 0.057620913 0.107447535 0.16245365 0.16089053 0.11841006
-0.04544008 0.052158177 0.12159511 0.07476092 0.10777522 0.1327463 0.004805943 0.10385379
0.088387616 0.021207653 -0.036893994 0.07245892 0.13287304 0.070210055 0.091004476 0.08192809
0.14747782 0.044203416 -0.02842672 0.021467617 -0.06235969 0.0068442863 -0.08156849 0.029611094
0.058771696 -0.07185931 0.014659286 -0.023351494 -0.04717885 0.034118462 -0.001042118 -0.0548727
0.057408333 0.014971618 -0.07367587 -0.048303068 -0.0848649 -0.07620623 0.068658665 -0.04538069
-0.025400126 -0.0498655 -0.07056041 -0.118875176 -0.00034528732 -0.022192063 0.06406037 0.0070896163
00000000: a182 a1bc 1f29 983d e96d 923d 687b 7fbd
00000010: f7fb 933c 4d29 753b de12 88bd de61 6dbd
00000020: 3a16 58bd 603f b53d 4d4d bdbb e2e0 b2bc
00000030: 8588 fa3b a784 83bd 1b97 e4bc 2915 e93b
00000040: 800e 1e3e 113d 96bc 8492 b93d e2d8 833c
00000050: 91f6 d83d 924d 6539 e6d3 623d d58f 9f3c
00000060: 89b6 0a3e dca5 f5bb 5634 be3d d19b 023e
00000070: 43a7 e23d a060 b73b 3131 7f3d 0544 ff3d
00000080: 7c11 fe3d b229 e03c eda2 023d 472e cf3d
00000090: 7ca7 90bd a928 bbbc 5fb8 083c babd 88bd
000000a0: f5ae d8bc 1df2 84bd caf3 d1ba 5311 6dbd
000000b0: 33d4 bc3d 591e f4bc f3ad f0bc 1e18 cc3c
000000c0: 08ec 66bd 31ae 3fbc c3f1 46bd 5001 01bd
000000d0: bde0 823d 1041 5a3d 8729 85bd 7a7b 49bd
000000e0: f20f 95bd da7d 0cbb 1a5d f73a c49f bb3a
000000f0: 40dc 82bb aef3 523b 0b37 fc3c 9f2f cebc
00000100: 8ccf 55bd 80eb b83b 6032 9c3d 4069 8f3c
00000110: 04c1 c5bd be62 38bd 9eef d6bd 9b6c 753d
00000120: d8cb 66bd 49a1 4ebd 0ed9 523d c6a7 e33d
00000130: b96b 983d 65f1 9abc ff0c d63d 6757 743d
00000140: df7e 84bd 4066 4dbc 7dd0 d8bd 0c4a 65bd
00000150: 25ec 223d 7bb2 b7bd 571c 6cbb c025 aa3d
00000160: 679a d13c 609c e13d c821 523c ad4d 383d
00000170: 3fd8 27bd 68b8 51bc e272 143d 3209 8b3d
00000180: b6ab b73d 8840 0bbd 730d 463d 50c6 28bd
00000190: 38a7 893b bbbe 07bc e51a 98bd 6dab a63d
000001a0: ec16 63bb 8133 1dbd db90 c0bd 7351 853b
000001b0: 4217 8f3c 1457 063e 5544 6d3d 351c 363b
000001c0: 3d60 373d 88cf 69bd 2cea 0e3e 7133 9b3d
000001d0: 3613 943d 81bb 8b3d 4f0f 313c 3810 96bc
000001e0: a58d 093d 17f1 c7bd 26fe 96bd 4151 003d
000001f0: 1955 a43d 42dc 95bc 368d 35bd 88be ad3c
00000200: 92c3 80bc a822 52bd 8d80 fd3b 281c cc3b
00000210: f0e4 50bd b38d ee3c 411a 2fbd a30f fe3d
00000220: a82b 00bd 7c42 053d 3cb4 dabc da64 f83c
00000230: 543e e73d df5b 3cbd 76e0 073d 1dcc 0abd
00000240: b05d 86bc 174c 0d3d bfe7 063e e126 98bd
00000250: 1da7 d1bc 1ff4 d53d 605f 0cbd 4e12 f63c
00000260: 8151 143d d34b 903d 499f 9c3d 0749 8f3c
00000270: 10c4 7b3c 2d7f cc3c 5737 4a3d 0694 933b
00000280: 1fa4 32bc a016 4dbd cbe0 cf3d 7f0d 913d
00000290: 509a 983d 58ed a83d d624 063d 36de 913d
000002a0: d824 483d ec45 c2bc 4ddb bdbc eef0 95bd
000002b0: be3e d6bc 5fec 073e eed1 013e 7b55 58bd
000002c0: f6e3 21bd c1a2 8e3d 1b86 b9bd e5b3 07bd
000002d0: 0e1a debd ebcc 43bd d763 4ebd 7443 c0bc
000002e0: d5a0 1abd e0dd 7ebd ecca 2b3d b2b6 4bbd
000002f0: 6fe5 c9bd 101a da3d 0a0e fb3d e113 b43c
00000300: 73ea 6b3d bd01 873d 43c2 213d 3311 f93c
00000310: 0ac3 21bd ec78 c23d 5531 093d 92f0 ba3d
00000320: 5166 2c3d 1a68 28bc 5556 90bc e803 6c3d
00000330: 740d dc3d 405a 263e 7dc0 243e f980 f23d
00000340: 611f 3abd d0a3 553d db06 f93d 411c 993d
00000350: 41b9 dc3d a5ee 073e 2c7b 9d3b 4cb1 d43d
00000360: 9104 b53d acbb ad3c 281e 17bd 5865 943d
00000370: df0f 083e 4aca 8f3d 8e60 ba3d eac9 a73d
00000380: 6d04 173e a40e 353d 27df e8bc dbdc af3c
00000390: e06c 7fbd 0946 e03b 610d a7bd f792 f23c
000003a0: 97ba 703d f92a 93bd 802d 703c a24b bfbc
000003b0: 9c3e 41bd cdbf 0b3d ad97 88ba 32c2 60bd
000003c0: 0025 6b3d 844b 753c 60e3 96bd 70d9 45bd
000003d0: a6cd adbd 0312 9cbd ea9c 8c3d 1ae1 39bd
000003e0: ed13 d0bc c43f 4cbd fa81 90bd d474 f3bd
000003f0: ae07 b5b9 21cc b5bc 1532 833d 0350 e83b

conv3.bias f4 [32]
0.0961938 -0.010419039 -0.042742845 -0.0077532353 -0.057358038 0.06705211 -0.13982232 0.08171584
-0.024462296 0.13664073 0.1277954 -0.0038842524 -0.025839413 0.17165725 0.05733253 -0.08719534
-0.047358017 -0.068081126 -0.15040502 0.05680878 0.02273125 0.054714322 0.062753215 0.09012894
0.0022360482 0.10454254 0.09934337 0.054465864 0.10824757 -0.02672941 0.10403312 0.039592277
00000000: 4101 c53d 9eb4 2abc 1f13 2fbd da0e febb
00000010: 43f0 6abd 9e52 893d 952d 0fbe a25a a73d
00000020: 2765 c8bc 8ceb 0b3e ccdc 023e f18e 7ebb
00000030: 2dad d3bc ebc6 2f3e 84d5 6a3d 7893 b2bd
00000040: 7bfa 41bd 1e6e 8bbd c603 1abe 53b0 683d
00000050: e336 ba3c 201c 603d c284 803d 8695 b83d
00000060: aa8a 123b 661a d63d 8974 cb3d 9917 5f3d
00000070: e7b0 dd3d a3f7 dabc 510f d53d 832b 223d

conv4.weight f4 [20, 32, 3, 3]
0.07459732 0.019520942 0.0645223 -0.012453636 0.042601928 -0.023749337 -0.12809649 -0.11015606
0.0067211133 -0.015992878 -0.02983974 -0.0033170108 -0.038826484 -0.012205483 -0.030721508 0.04889224
-0.019738017 -0.022913527 0.037340287 0.035706557 0.077599764 -0.026524404 -0.040983293 0.0029861766
-0.119869314 -0.07091983 0.01929908 -0.019505605 0.020085074 0.035003006 -0.043877613 -0.010179515
0.00984667 -0.06961771 -0.041596 0.017561512 0.09126319 0.03487237 0.04976564 -0.001171604
-0.026949389 0.0078653935 -0.0077187857 0.0034407156 0.015788866 0.07104755 -0.043385115 0.03705415
0.015925914 0.0134291025 0.04807105 0.08009313 0.03671408 0.094002664 0.001824253 -0.013867882
0.048788417 0.032049485 0.045550473 0.015300616 -0.07435012 -0.058805447 -0.04815948 0.027994031
0.031220758 0.04569329 0.02717849 0.06644561 0.008504391 0.017657371 0.0064902534 -0.019079959
0.00026034308 0.0374734 -0.013235437 -0.06422905 0.021108085 0.023174101 -0.008908066 -0.0056340015
0.0025194078 -0.014767197 0.026584223 0.02095116 -0.01115113 -0.047260914 0.018615387 -0.028383289
-0.013099215 0.025706988 0.04405986 0.005641438 -0.049751207 0.03981966 -0.022151062 -0.04237778
0.046656333 0.0045074243 0.011983743 0.033906072 -0.039024115 0.016658265 0.056896266 -0.014474687
0.072874255 0.038781922 0.0074670934 0.07473888 0.045289665 0.001396766 0.05075346 0.05354879
-0.02341512 -0.010773313 -0.024508262 0.062115077 0.05914339 -0.009824244 0.027960524 -0.02477142
0.058128003 0.029333495 0.02225533 -0.009124473 0.06661245 0.030385325 -0.0154813165 -0.026143895
-0.04337311 0.09679833 -0.0268386 0.026621073 0.038734686 0.011083551 0.013479494 -0.0051008123
-0.017703354 -0.042585086 0.033389542 0.058692787 -0.0011618991 0.04874771 0.027955499 -0.018354215
-0.02918433 0.0021518501 0.033960026 -0.06338096 0.067452595 -0.017517088 -0.042494744 -0.029211508
-0.08642087 0.09138542 0.055830408 -0.007547005 0.022496117 0.0051951143 -0.09220523 -0.06837441
-0.06262899 -0.08420201 0.055904046 -0.00029808623 0.017900897 0.0013131085 -0.008727818 -0.039936
0.0048981137 -0.06861133 -0.07790892 -0.0064232787 -0.028959256 -0.04448999 0.011662323 -0.09209874
-0.053760823 -0.020470157 -0.080070056 -0.042280357 -0.005790607 0.008932085 0.030330168 -0.0026443033
-0.00022507561 -0.004541589 0.08507477 0.07854628 0.09229642 -0.025188519 0.009554254 -0.043529082
0.06927074 0.021126948 -0.040714506 -0.01943182 -0.014095277 0.010985191 -0.010572392 -0.045450345
0.022015959 -0.06934581 -0.04446936 0.011556308 -0.073783554 -0.038915455 -0.04772403 0.057929534
0.05204732 0.017893279 -0.028479518 -0.029326327 0.022241283 0.022225449 0.06417807 -0.014017076
0.023358664 -0.0071857637 -0.062384855 -0.047859848 0.035244428 -0.017516572 -0.07526168 -0.11076621
-0.057364367 -0.018067552 0.054477517 0.011662468 0.03987501 0.060911834 0.06626305 -0.059054937
-0.0075640916 0.0011712514 0.00037013364 -0.007079611 0.07338398 0.09945805 0.09108719 0.042674735
0.09058377 0.023933943 0.100034945 0.030312356 0.03252851 -0.05825025 -0.0440928 -0.029078484
-0.010522905 -0.12647617 -0.13316314 0.0005721296 -0.020890342 0.03859286 0.03239334 -0.0033656647
00000000: 7bc6 983d 62ea 9f3c 4524 843d 560a 4cbc
00000010: 5c7f 2e3d f88d c2bc ba2b 03be 8099 e1bd
00000020: c93c dc3b 7f03 83bc 7872 f4bc 3562 59bb
00000030: 8508 1fbd 82f9 47bc acab fbbc 3b43 483d
00000040: 9fb1 a1bc 26b5 bbbc 21f2 183d 0a41 123d
00000050: a0ec 9e3d b549 d9bc 19de 27bd bbb3 433b
00000060: 0b7e f5bd 6a3e 91bd 1b19 9e3c 38ca 9fbc
00000070: 7489 a43c 505f 0f3d 03b9 33bd fbc7 26bc
00000080: ed53 213c bb93 8ebd 9160 2abd 29dd 8f3c
00000090: 32e8 ba3d 55d6 0e3d 0ed7 4b3d 8290 99ba
000000a0: f7c4 dcbc dadd 003c deed fcbb a17d 613b
000000b0: a757 813c 6181 913d 97b4 31bd 18c6 173d
000000c0: 1077 823c bd05 5c3c 26e6 443d de07 a43d
000000d0: 8161 163d 7884 c03d c61b ef3a 1d36 63bc
000000e0: 5dd6 473d 5246 033d 2293 3a3d 6faf 7a3c
000000f0: e044 98bd fbdd 70bd e042 45bd bd53 e53c
00000100: adc2 ff3c e328 3b3d 6da5 de3c a314 883d
00000110: 0056 0b3c 31a6 903c 31ac d43b 934d 9cbc
00000120: a87e 8839 b57d 193d 72d9 58bc 858a 83bd
00000130: ddea ac3c 9dd7 bd3c 23f3 11bc 6e9d b8bb
00000140: a61c 253b 1df2 71bc 28c7 d93c c4a1 ab3c
00000150: 3bb3 36bc a994 41bd 4c7f 983c 1284 e8bc
00000160: 179e 56bc 7697 d23c 1d78 343d d0db b83b
00000170: ecc7 4bbd f119 233d 2576 b5bc 5394 2dbd
00000180: b61a 3f3d 04b3 933b 7657 443c 18e1 0a3d
00000190: c0d7 1fbd ea76 883c 0f0c 693d 3d27 6dbc
000001a0: 193f 953d cbd9 1e3d 85ae f43b b310 993d
000001b0: a881 393d b113 b73a dce2 4f3d fa55 5b3d
000001c0: 11d1 bfbc 8d82 30bc 8dc5 c8bc 616c 7e3d
000001d0: 5740 723d def5 20bc 780d e53c 6fed cabc
000001e0: a117 6e3d cc4c f03c cf50 b63c d07e 15bc
000001f0: 1c6c 883d a5ea f83c 59a5 7dbc b92b d6bc
00000200: 01a8 31bd 343e c63d a0dc dbbc 7014 da3c
00000210: 43a8 1e3d c897 353c 18d9 5c3c b724 a7bb
00000220: a006 91bc b36d 2ebd 79c3 083d d967 703d
00000230: dd4a 98ba aeab 473d ee02 e53c 945b 96bc
00000240: fa13 efbc 0e06 0d3b ab19 0b3d e0cd 81bd
00000250: 9624 8a3d ff7f 8fbc f80e 2ebd f94c efbc
00000260: 6dfd b0bd 4728 bb3d 6dae 643d de4c f7bb
00000270: c749 b83c c73b aa3b 18d6 bcbd e207 8cbd
00000280: a143 80bd 1a72 acbd a4fb 643d 7548 9cb9
00000290: e7a4 923c 9c1c ac3a 1fff 0ebc ee93 23bd
000002a0: 5b80 a03b 1984 8cbd b68e 9fbd 5e7a d2bb
000002b0: f63b edbc 233b 36bd 5413 3f3c 449e bcbd
000002c0: 4f34 5cbd 08b1 a7bc c5fb a3bd 2b2e 2dbd
000002d0: 22bf bdbb e157 123c f976 f83c 0c4c 2dbb
000002e0: 4602 6cb9 9cd1 94bb ae3b ae3d dfdc a03d
000002f0: e805 bd3d 2758 cebc 7289 1c3c 8d4b 32bd
00000300: d1dd 8d3d 6c12 ad3c 41c4 26bd 7b2f 9fbc
00000310: e0ef 66bc 3bfb 333c d337 2dbc 242a 3abd
00000320: d05a b43c 2d05 8ebd 8125 36bd ab56 3d3c
00000330: d51b 97bd d065 1fbd 467a 43bd 8547 6d3d
00000340: 922f 553d ed94 923c e14d e9bc c43d f0bc
00000350: 5a33 b63c 2512 b63c cb6f 833d e1a7 65bc
00000360: ab5a bf3c 8e76 ebbb 4387 7fbd b008 44bd
00000370: 765c 103d ea7e 8fbc cc22 9abd 65d9 e2bd
00000380: e6f6 6abd 6702 94bc d123 5f3d f013 3f3c
00000390: fa53 233d b07e 793d ecb4 873d 97e3 71bd
000003a0: 33dc f7bb ad84 993a 7f0e c239 15fc e7bb
000003b0: 574a 963d aab0 cb3d ec8b ba3d b4cb 2e3d
000003c0: fc83 b93d 1e11 c43c 1fdf cc3d 9e51 f83c
000003d0: 9d3c 053d d097 6ebd a79a 34bd 0036 eebc
000003e0: 4368 2cbc f882 01be eb5b 08be f8fa 153a
000003f0: 3922 abbc 8c13 1e3d e1ae 043d 7c92 5cbb

conv4.bias f4 [20]
-0.040365376 0.004805795 0.11393018 -0.011519245 0.041810706 0.026111688 0.016077086 0.051770136
-0.07379929 -0.06426464 -0.03306512 -0.013748528 0.0132609755 0.09783282 -0.017387103 0.09217502
0.03012869 -0.023020433 -0.02879532 0.056696437
00000000: 2a56 25bd ee79 9d3b 3a54 e93d 37bb 3cbc
00000010: b441 2b3d 2ee8 d53c 18b4 833c ec0c 543d
00000020: 1524 97bd 2e9d 83bd 4b6f 07bd 8241 61bc
00000030: 9044 593c 935c c83d 666f 8ebc 42c6 bc3d
00000040: 71d0 f63c 5995 bcbc 2ae4 ebbc 863a 683d

conv5.weight f4 [16, 20, 3, 3]
0.051525094 0.008479661 -0.038996004 0.05533223 0.03776468 0.04688592 -0.02279309 -0.015546823
-0.087415375 -0.043043703 0.015729228 -0.028657435 0.030053562 -0.03574174 0.09563061 0.054143243
-0.093683556 0.13200694 0.051141817 -0.023690388 0.054570068 -0.06699854 -0.00036037838 0.016404578
0.06257716 0.081022836 -0.043883644 -0.013531522 -0.032758124 0.029554421 -0.072981074 0.043731187
0.05137075 0.019565435 0.08333401 0.11065513 0.007603229 0.023868704 0.012077033 -0.07792016
-0.086040355 -0.0068712737 -0.031542286 0.002738128 -0.027772997 0.016965898 -0.07873035 -0.019322908
-0.036454268 0.06621991 0.032283377 -0.0046168733 -0.031758185 -0.041210804 -0.06980653 -0.04570681
-0.079337604 0.039091393 0.08268504 -0.020457853 -0.024265433 0.07830025 -0.014640061 0.021691324
-0.068346076 0.056337744 -0.03167323 0.013808828 -0.073540926 -0.009012901 -0.0013072742 -0.03218473
-0.079594664 -0.023916868 0.07209468 -0.020187072 0.034781188 0.09857345 0.051362477 0.12071285
0.12403582 -0.0024602914 -0.0056518153 0.06874794 -0.04909771 0.012490544 0.0067442656 0.0074402033
0.037494358 -0.010118877 0.02024111 -0.014863268 -0.019781282 0.04026121 0.043280657 0.0093385745
-0.070153505 -0.05972318 -0.029276123 -0.077437095 0.09629379 0.029014595 -0.051878422 0.01082655
0.044158354 -0.022076648 0.019182555 -0.007610406 0.05695116 0.03608759 0.07742483 0.0062690736
0.08105925 -0.022328312 0.031740505 -0.018270573 0.080506235 -0.060630534 -0.046923343 -0.038168177
-0.06607506 -0.05252204 -0.037594464 0.05375609 0.006088336 0.0478598 0.06428191 -0.060394228
-0.04107135 -0.06528761 0.051667873 -0.07036236 -0.05843885 -0.014126035 0.025249384 0.044266474
-0.013895444 0.0058415895 0.028380748 0.05795934 0.09558239 0.047337066 -0.025962833 0.07570121
0.039800994 -0.04842152 0.041588042 -0.057877045 0.076125756 0.052321177 -0.032442406 -0.0030631106
-0.02087899 -0.05766232 0.029795643 0.029161967 -0.042574227 -0.027351873 0.05426883 0.03768415
0.1018526 0.013171713 -0.037834153 -0.018294128 0.04641032 -0.058186084 -0.040424522 0.011448845
-0.03720739 0.09865643 0.023728432 -0.001994567 -0.06786889 0.04712161 0.034214832 -0.0065880525
0.010409042 -0.09133162 -0.063680276 -0.0066999346 -0.007740314 0.0461242 0.037945855 -0.015281158
0.07363899 0.037889544 0.025414614 -0.07003455 0.040605642 0.061128024 0.042596642 0.115337215
-0.05406799 0.12106079 0.07545929 0.0032071846 0.105697416 0.1307932 -0.041388273 0.020181352
0.033928107 0.05309871 0.08654734 -0.04161277 -0.0102751665 0.051712237 0.04600475 0.026898963
0.021968402 -0.06783156 0.020089196 0.064881705 0.044334028 -0.04210545 -0.0012128396 0.0016980948
0.010081794 0.058682337 -0.03854656 -0.0067747924 0.020557258 0.07346706 -0.021706466 -0.023906326
0.048875224 -0.041551072 0.014643357 -0.0075205155 0.019090062 -0.024016276 0.02512768 -0.06061143
-0.005097711 0.08782446 -0.054412555 -0.001657164 0.0020850473 -0.002143466 -0.026273632 0.051390547
-0.031608213 0.016836965 0.07782491 0.057205018 -0.0060020634 -0.029894039 -0.058418795 -0.020529678
-0.0022038515 0.010381717 -0.017369894 0.037168298 -0.014146997 0.008062673 0.06669354 -0.010656541
00000000: fa0b 533d 47ee 0a3c 46ba 1fbd 0ca4 623d
00000010: 23af 1a3d 730b 403d 93b8 babc 1ab8 7ebc
00000020: d506 b3bd 984e 30bd 95da 803c ffc2 eabc
00000030: e332 f63c ee65 12bd fbd9 c33d 4ec5 5d3d
00000040: 2add bfbd d42c 073e 157a 513d 5812 c2bc
00000050: dd84 5f3d 8836 89bd 2bf1 bcb9 e562 863c
00000060: 7428 803d 4def a53d 56bf 33bd 51b3 5dbc
00000070: 622d 06bd 1d1c f23c 1a77 95bd 791f 333d
00000080: 236a 523d b147 a03c 05ab aa3d 289f e23d
00000090: 8224 f93b 4d88 c33c bfde 453c 9b94 9fbd
000000a0: ed35 b0bd 6c28 e1bb 7c32 01bd 2a72 333b
000000b0: 3284 e3bc 11fc 8a3c 613d a1bd 134b 9ebc
000000c0: 1251 15bd 4e9e 873d 933b 043d 2449 97bb
000000d0: df14 02bd a9cc 28bd baf6 8ebd 1037 3bbd
000000e0: c17b a2bd 4c1e 203d c656 a93d 3a97 a7bc
000000f0: 4dc8 c6bc e25b a03d dedc 6fbc 01b2 b13c
00000100: 07f9 8bbd 68c2 663d cabb 01bd 6c3e 623c
00000110: a09c 96bd d9aa 13bc d858 abba 23d4 03bd
00000120: 8702 a3bd 4fed c3bc 60a6 933d 5c5f a5bc
00000130: b876 0e3d e1e0 c93d 7661 523d 4c38 f73d
00000140: 7e06 fe3d d73c 21bb dd32 b9bb b8cb 8c3d
00000150: ae1a 49bd 23a5 4c3c 00ff dc3b f3cc f33b
00000160: af93 193d a5c9 25bc afd0 a53c 1085 73bc
00000170: 5b0c a2bc f0e8 243d 0f47 313d d200 193c
00000180: a4ac 8fbd 4ba0 74bd 7bd4 efbc 5797 9ebd
00000190: ae35 c53d 04b0 ed3c 787e 54bd d861 313c
000001a0: 64df 343d 16da b4bc bc24 9d3c b660 f9bb
000001b0: 9f45 693d 95d0 133d e990 9e3d cd6c cd3b
000001c0: 6402 a63d dde9 b6bc 5502 023d 2bac 95bc
000001d0: 74e0 a43d b957 78bd b132 40bd 3c56 1cbd
000001e0: 5c52 87bd 5a21 57bd a7fc 19bd 592f 5c3d
000001f0: aa80 c73b a308 443d 3ca6 833d f05f 77bd
00000200: 6f3a 28bd 83b5 85bd b1a1 533d 241a 90bd
00000210: 935d 6fbd e370 67bc ccd7 ce3c c350 353d
00000220: b7a9 63bc ce6a bf3b be7e e83c c666 6d3d
00000230: b3c0 c33d 83e4 413d 02b0 d4bc 3c09 9b3d
00000240: 5e06 233d a555 46bd 3958 2a3d 7b10 6dbd
00000250: d2e7 9b3d bb4e 563d 54e2 04bd 78be 48bb
00000260: 6a0a abbc 532f 6cbd fe15 f43c 14e5 ee3c
00000270: 5062 2ebd 0911 e0bc fe48 5e3d b25a 1a3d
00000280: 1998 d03d 2bce 573c fcf7 1abd 91dd 95bc
00000290: bf18 3e3d 8854 6ebd 2f94 25bd f093 3b3c
000002a0: c766 18bd 620c ca3d 2162 c23c 48b7 02bb
000002b0: d8fe 8abd 9702 413d da24 0c3d 97e0 d7bb
000002c0: b08a 2a3c 130c bbbd ce6a 82bd 208b dbbb
000002d0: 76a2 fdbb bbec 3c3d 1d6d 1b3d d25d 7abc
000002e0: 0ad0 963d 1132 1b3d 4f32 d03c 466e 8fbd
000002f0: 1a52 263d 6161 7a3d d179 2e3d eb35 ec3d
00000300: 6676 5dbd b8ee f73d 668a 9a3d a12f 523b
00000310: e377 d83d a7ee 053e c086 29bd 5d53 a53c
00000320: 33f8 0a3d 087e 593d bb3f b13d 2772 2abd
00000330: 2c59 28bc 36d0 533d 7a6f 3c3d 375b dc3c
00000340: 14f7 b33c 46eb 8abd 1992 a43c b3e0 843d
00000350: 9997 353d c476 2cbd 25f8 9eba 9b92 de3a
00000360: 1c2e 253c e45c 703d ffe2 1dbd 14ff ddbb
00000370: b267 a83c e675 963d c2d1 b1bc 33d7 c3bc
00000380: 6331 483d 7531 2abd b1ea 6f3c a86e f6bb
00000390: c362 9c3c c8bd c4bc 90d8 cd3c b143 78bd
000003a0: b30a a7bb 4fdd b33d b3df 5ebd 3235 d9ba
000003b0: 4aa5 083b 6479 0cbb cd3b d7bc e57e 523d
000003c0: 9d77 01bd aded 893c ab62 9f3d cf4f 6a3d
000003d0: f5ac c4bb 58e4 f4bc 8c48 6fbd db2d a8bc
000003e0: 7e6e 10bb 1418 2a3c 4f4b 8ebc c93d 183d
000003f0: cec8 67bc 4d19 043c 9f96 883d c698 2ebc

conv5.bias f4 [16]
-0.07842447 0.075033374 -0.06693098 0.02386225 0.029102772 0.05306807 0.07162258 0.08966976
-0.027469892 -0.06093651 -0.14689408 0.020015009 0.055743363 -0.0464765 -0.012325619 -0.052075665
00000000: 029d a0bd 19ab 993d 1c13 89bd c47a c33c
00000010: f068 ee3c e85d 593d dcae 923d c7a4 b73d
00000020: 8a08 e1bc 9098 79bd 676b 16be 84f6 a33c
00000030: 2753 643d 245e 3ebd 65f1 49bc 4b4d 55bd

classifier.1.weight f4 [10, 16]
0.20508091 0.21695219 -0.22299162 -0.16280307 0.14513414 -0.07724011 0.1961383 -0.15905128
-0.024523078 0.21703231 0.019408727 0.18573186 -0.20701331 -0.02699057 -0.16958113 0.13556252
0.10135973 -0.22402535 -0.026948992 -0.1229077 -0.2518128 0.10396162 0.19459167 -0.26124305
0.15268618 0.23616102 0.12855187 0.092588104 -0.12929837 0.011594084 0.27709892 -0.19757031
-0.13919117 0.013014831 0.13339064 -0.12089105 0.20738205 0.08056183 -0.21412677 -0.14979157
0.11971283 0.14027622 -0.17404766 0.07689467 0.058740288 0.2543182 -0.24999182 -0.15682706
0.10870737 0.14578722 0.09521155 -0.10420464 -0.23122019 -0.2118304 0.22233024 0.20134798
0.113105655 -0.1052272 0.13400747 -0.03922966 -0.023809653 -0.028161887 -0.1877197 0.047017016
-0.21599784 0.05958799 0.074835464 0.059661638 0.0039101047 0.21594965 0.13131304 -0.10053338
0.078757204 -0.004359673 -0.1438478 0.30440623 -0.051904958 -0.045614425 -0.1149506 -0.15278912
0.16754442 0.14061715 0.18413033 0.0701047 -0.10669621 0.17871153 -0.04482192 -0.12138489
-0.12427509 -0.006248852 0.08564184 0.06330336 -0.14698836 0.22316511 -0.14856592 -0.18813871
0.12056971 -0.08965668 -0.11229864 0.13729806 -0.03198195 0.0558083 -0.012012559 -0.11542544
0.11751508 -0.09762475 -0.16995618 0.1663188 -0.17629728 0.23317546 0.075836286 -0.06395655
-0.2544739 0.0009964284 0.25400305 0.0899835 0.17953277 -0.24635771 0.097995944 -0.1273275
-0.21151514 0.070492804 -0.08634206 0.15480419 0.18546829 0.07582049 0.19451879 0.1528679
0.11813297 -0.15554945 -0.12214821 -0.2068404 -0.18433134 0.2341094 0.26572272 -0.112346135
0.008188131 -0.06863235 -0.23865134 -0.23486024 0.18771929 -0.18721044 0.18138744 0.11583381
0.2120875 -0.020566406 -0.21444356 -0.19943744 0.2780928 -0.11834872 -0.12931466 -0.09798755
0.10768746 -0.19265142 0.21054566 0.06761743 0.046188183 0.0068512917 -0.107654504 0.21533185
00000000: bb00 523e b728 5e3e ea57 64be d9b5 26be
00000010: 0b9e 143e 1030 9ebd 7ad8 483e 57de 22be
00000020: 9fe4 c8bc b83d 5e3e 0dff 9e3c 7e30 3e3e
00000030: 4cfb 53be 541b ddbc ada6 2dbe e7d0 0a3e
00000040: b195 cf3d e766 65be 22c4 dcbc 08b7 fbbd
00000050: 9bed 80be d4e9 d43d 0a43 473e a6c1 85be
00000060: c459 1c3e 32d4 713e 1aa3 033e d59e bd3d
00000070: cb66 04be 1df5 3d3c e9df 8d3e df4f 4abe
00000080: 2188 0ebe 283c 553c 8e97 083e ba95 f7bd
00000090: f65b 543e 9afd a43d 0c44 5bbe f662 19be
000000a0: 002c f53d 92a4 0f3e 8d39 32be f47a 9d3d
000000b0: a899 703d ff35 823e dbfd 7fbe 4697 20be
000000c0: f8a1 de3d 3f49 153e 46fe c23d 3e69 d5bd
000000d0: fcc4 6cbe 12ea 58be 8aaa 633e 2a2e 4e3e
000000e0: f0a3 e73d 5c81 d7bd 4139 093e 48af 20bd
000000f0: 760c c3bc c2b3 e6bc 9839 40be ea94 403d
00000100: 8a2e 5dbe 8912 743d 5643 993d c35f 743d
00000110: 5620 803b e821 5d3e ed76 063e 72e4 cdbd
00000120: 754b a13d 96db 8ebb d64c 13be 22db 9b3e
00000130: 4b9a 54bd 31d6 3abd 386b ebbd c074 1cbe
00000140: c490 2b3e f1fd 0f3e a98c 3c3e 0e93 8f3d
00000150: 8b83 dabd 2800 373e 3197 37bd a498 f8bd
00000160: f083 febd 2bc3 ccbb fd64 af3d 31a5 813d
00000170: 1e84 16be 6585 643e aa21 18be 6fa7 40be
00000180: 41ed f63d ec9d b7bd d4fc e5bd dd97 0c3e
00000190: 81ff 02bd 3e97 643d 53d0 44bc 2c64 ecbd
000001a0: bfab f03d 7cef c7bd fe08 2ebe 7a4f 2a3e
000001b0: 4687 34be 8cc5 6e3e 0e50 9b3d a7fb 82bd
000001c0: 674a 82be 979a 823a b00c 823e 4549 b83d
000001d0: 70d7 373e 3245 7cbe 19b2 c83d 2462 02be
000001e0: 6d97 58be 885e 903d 1bd4 b0bd fd84 1e3e
000001f0: 66eb 3d3e c647 9b3d ef2f 473e 6789 1c3e
00000200: b3ef f13d 5b48 1fbe d728 fabd f8cd 53be
00000210: 5bc1 3cbe 60ba 6f3e cf0c 883e bb15 e6bd
00000220: 8327 063c 1e8f 8cbd 0461 74be 347f 70be
00000230: 7c39 403e 18b4 3fbe a1bd 393e 473a ed3d
00000240: 772d 593e e17a a8bc 1897 5bbe 5439 4cbe
00000250: 2e62 8e3e d060 f2bd 106b 04be b2ad c8bd
00000260: 3e8b dc3d 6a46 45be 4899 573e 027b 8a3d
00000270: d22f 3d3d cd80 e03b f779 dcbd f47f 5c3e

classifier.1.bias f4 [10]
0.27306038 -0.15420154 0.230426 -0.016427802 -0.100700274 0.062072147 0.12557648 0.0642927
0.24618937 0.0109261125
00000000: 92ce 8b3e 02e7 1dbe cbf4 6b3e 9993 86bc
00000010: f23b cebd 5d3f 7e3d 1f97 003e e4ab 833d
00000020: 1119 7c3e 7003 333c
