Cifar/reek_cifar10_model_10Models_finalResult/3_model_.pt (torch, 71233 bytes, 12 tensors)

conv1.weight f4 [16, 3, 3, 3]
0	0xbe23407c	-0.15942568
1	0xbd754984	-0.059884563
2	0xbdbdeee7	-0.09274083
3	0x3db80406	0.089851424
4	0xbd9ef919	-0.07762355
5	0x3cbae2e1	0.022813262
6	0xbc6fb01f	-0.014629393
7	0x3dc60c6c	0.09670338
8	0xbd11b48d	-0.035572577
9	0x3e1edc28	0.1551367
10	0xbdda7145	-0.10666136
11	0x3e1d2644	0.15346628
12	0x3e48ae21	0.19597675
13	0xbd844386	-0.064581916
14	0xbd85f222	-0.06540324
15	0xbd97a69c	-0.07404825
16	0xbdf4d535	-0.119547285
17	0xbd11c2aa	-0.035586037
18	0xbd879a64	-0.066212445
19	0xbdd53271	-0.104100116
20	0xbd426ec0	-0.0474689
21	0xbd38b0cd	-0.045090485
22	0xbe39c1e8	-0.18140376
23	0xbe250a49	-0.16117205
24	0xbd192dac	-0.03739707
25	0xbe4d82ed	-0.20069475
26	0x3d73f52b	0.059559982
27	0x3d9e5390	0.07730782
28	0xbd3d774a	-0.04625634
29	0x3daac245	0.08337835
30	0xbd00e7cf	-0.03147107
31	0x3cf6777c	0.030086271
32	0xbde11e2b	-0.10992082
33	0x3e37ba05	0.17942055
34	0x3c0ec3c7	0.008713669
35	0xbde30142	-0.11084224
36	0x3e4d291b	0.20035212
37	0x3df59ceb	0.1199282
38	0xbe1c4366	-0.15260085
39	0x3d0fe736	0.03513261
40	0x3e82b823	0.2553111
41	0xbdf66e27	-0.12032729
42	0xbdaac8e0	-0.08339095
43	0x3dff6bca	0.12471731
44	0xbd470661	-0.048590068
45	0xbdc5d67c	-0.0966005
46	0xba9dc3d9	-0.0012036517
47	0xbe5eed72	-0.21770266
48	0xbd45586f	-0.04818004
49	0x3b65291f	0.0034967137
50	0xbdc949b8	-0.09828514
51	0x3dd74047	0.10510307
52	0x3d6807e7	0.05664816
53	0xbda08089	-0.07837016
54	0xbde88f58	-0.11355466
55	0x3e395b08	0.18101132
56	0x3e1669a8	0.14688742
57	0x3db5bf3b	0.08874365
58	0x3e06290b	0.13101594
59	0x3e1e684b	0.15469472
60	0x3e02e54c	0.12782782
61	0xbddcf37b	-0.10788628
62	0x3d31f4c1	0.043446306
63	0xbd0e88f8	-0.034798592
64	0x3de056cd	0.10954056
65	0x3dd9e697	0.10639685
66	0x3c2f1095	0.010685106
67	0x3e584e75	0.21123679
68	0x3c505872	0.0127163995
69	0x3ce3ad81	0.027792694
70	0xbdc73784	-0.09727386
71	0x3e258262	0.16163018
72	0x3e235c0c	0.15953082
73	0x3e0250cb	0.12726133
74	0x3e5afe49	0.21386065
75	0x3d5549c2	0.052072294
76	0x3e138784	0.14407164
77	0xbd33d6c9	-0.043906007
78	0xbc10a4d4	-0.008828361
79	0x3d2a94e6	0.041645907
80	0x3e3a41cf	0.18189166
81	0x3e19a9ea	0.15006223
82	0xbde48fdc	-0.111602515
83	0xbe4bc5f0	-0.19899726
84	0x3e0928cf	0.13394473
85	0xbdf2b37f	-0.118506424
86	0x3dfd238d	0.123602964
87	0x3e57d658	0.2107786
88	0xbe1b4f13	-0.15166883
89	0xbe058f47	-0.13042937
90	0x3e20e29d	0.15711446
91	0xbb34d4c1	-0.0027592632
92	0xbe650014	-0.22363311
93	0x3e4026aa	0.18764749
94	0xbd7dc0d7	-0.061951485
95	0xbe649520	-0.22322512
96	0x3e5b5fd2	0.21423271
97	0xbe1d7983	-0.15378384
98	0xbdb4c47b	-0.08826538
99	0x3e17d3a7	0.14826833
100	0x3d786d75	0.06065126
101	0xbe2e51f3	-0.17023449
102	0x3dfe2fcb	0.124114595
103	0x3e11ab41	0.14225484
104	0xbd5d5e9d	-0.05404531
105	0x3e806943	0.25080308
106	0x3e63b884	0.22238356
107	0x3e107f21	0.14110996
108	0xbe193e12	-0.14965084
109	0xbdac48af	-0.08412301
110	0x3e80f7f3	0.2518917
111	0x3db633fa	0.088966325
112	0xbd1cfed1	-0.03832895
113	0x3e79a18e	0.24378034
114	0x3e0d1f03	0.13781361
115	0xbd173398	-0.036914438
116	0x3e4bbff2	0.1989744
117	0xbd9d1038	-0.07669109
118	0x3dee42af	0.11633813
119	0x3e82bf1e	0.25536436
120	0x3d130567	0.035893824
121	0x3c753928	0.01496724
122	0xbca9c9ba	-0.020726074
123	0xbd877bec	-0.06615433
124	0xbe115ac2	-0.14194778
125	0xbdca1035	-0.098663725
126	0xbe2377b6	-0.15963635
127	0xbbd3deb1	-0.006465756
128	0xbd50a16e	-0.0509352
129	0xbe214ece	-0.15752718
130	0xbdf4b3ff	-0.11948394
131	0xbd6f150d	-0.058369685
132	0xbe4bb93f	-0.19894885
133	0xbc8532b6	-0.016259532
134	0x3e4ca92e	0.19986412
135	0x3e3179f6	0.1733168
136	0x3e2f5017	0.17120396
137	0xbd4e992c	-0.050439045
138	0xbe594fcf	-0.21221851
139	0xbda0de28	-0.07854873
140	0xbd522210	-0.051302016
141	0xbdf73dcf	-0.12072336
142	0x3d566030	0.052337825
143	0x3e2c7bf9	0.16844167
144	0xbd973b21	-0.07384325
145	0x3e30daa7	0.17270909
146	0xbe4af8bb	-0.19821446
147	0xbdd30a06	-0.10304646
148	0x3e000371	0.12501313
149	0x3d5a0b22	0.053233273
150	0x3dd1d18e	0.102450475
151	0xbe1dea6f	-0.1542146
152	0xbdddfe85	-0.108395614
153	0xbc9a5d2a	-0.018843252
154	0x3e43a17f	0.19104575
155	0xbe35e80c	-0.177643
156	0x3da3c30d	0.07996187
157	0x3e13cb33	0.14432983
158	0x3ddf5d94	0.109065205
159	0x3e0028ae	0.12515518
160	0xbb8ea5b6	-0.0043532504
161	0x3d370083	0.044678222
162	0x3d1efcde	0.03881537
163	0xbd71a72d	-0.058997322
164	0x3e2b2054	0.16711551
165	0xbe4a6f0a	-0.1976892
166	0xbcf50733	-0.02991066
167	0x3e26b591	0.162802
168	0xbe5e5068	-0.2171036
169	0xbe185b2c	-0.1487853
170	0xbdc17a86	-0.094471976
171	0x3e5e1f46	0.21691617
172	0x3e3cb1d4	0.18427211
173	0x3e11dc3d	0.1424417
174	0x3d552e84	0.052046314
175	0xbd2381fc	-0.039918885
176	0x3e22ce1f	0.15898941
177	0xbe1e151a	-0.15437737
178	0x3c72db97	0.014822862
179	0xbe5beff5	-0.21478255
180	0x3c8a9c78	0.016920313
181	0xbdc1971a	-0.094526485
182	0x3e453728	0.19259322
183	0xbdd54404	-0.104133636
184	0xbe3f3a90	-0.18674684
185	0x3df3f01c	0.119110316
186	0xbd03a777	-0.03214213
187	0x3de3d606	0.11124806
188	0xbdc813b4	-0.09769383
189	0x3e438cc3	0.19096665
190	0x3d319ed8	0.043364376
191	0x3e3e3692	0.18575504
192	0x3dbb0e5b	0.091335975
193	0x3d5320b8	0.051544875
194	0x3df02b45	0.11727003
195	0x3e01c098	0.12671125
196	0x3e253a7b	0.1613559
197	0xbdb31b6f	-0.08745467
198	0x3d246441	0.040134672
199	0xbe3f3451	-0.18672301
200	0xbdb58602	-0.088634506
201	0x3b8a061f	0.0042121555
202	0xbdbefb04	-0.09325221
203	0x3dbf5beb	0.09343704
204	0xbd8578ed	-0.065172054
205	0xbd13773e	-0.03600239
206	0xbe274dbf	-0.16338252
207	0xbe4d3521	-0.20039798
208	0xbe2e4630	-0.17018962
209	0xbe52c55f	-0.20583104
210	0x3df98f21	0.12185503
211	0xbdb3c4fe	-0.08777808
212	0x3dc74689	0.097302504
213	0x3c542c2d	0.012949985
214	0xbe30b815	-0.17257722
215	0xbe2d6fba	-0.16937152
216	0x3d74d7b0	0.059776008
217	0xbe32dc52	-0.17466858
218	0xbdae03fd	-0.084968545
219	0x3dab43a6	0.08362512
220	0x3d3e9f2a	0.04653851
221	0x3d02ce91	0.03193528
222	0xbda8f66a	-0.08250125
223	0xbe1ea54f	-0.15492748
224	0xbbfcb4cf	-0.0077119838
225	0x3d952813	0.07283034
226	0xbd32dec1	-0.043669466
227	0x3ddfa3cd	0.109199144
228	0x3c87522c	0.016518675
229	0x3e5758ea	0.21030012
230	0xbd440c4d	-0.047863293
231	0xbdcdeefc	-0.10055348
232	0xbda6d4e1	-0.08146072
233	0xbe26601a	-0.16247597
234	0x3e0d8bc3	0.13822846
235	0x3d5f5239	0.054521773
236	0x3e215be3	0.15757708
237	0xbdbeea6d	-0.09322057
238	0x3ddfb737	0.10923617
239	0x3e594e8d	0.21221371
240	0xbdfd65c7	-0.12372928
241	0x3d7656aa	0.060141243
242	0xbd98d8a0	-0.07463193
243	0xbd8a9642	-0.06766941
244	0xbdffbc54	-0.124870926
245	0x3b8dc805	0.0043268227
246	0x3c0a4da6	0.008441364
247	0x3e069277	0.1314181
248	0xbe1c141c	-0.15242046
249	0x3d7a7409	0.061145816
250	0x3d8bbc50	0.06823027
251	0xbe42e822	-0.19033864
252	0xbdf8a876	-0.121415064
253	0x3e106b31	0.1410339
254	0x3c0caa8b	0.0085855825
255	0xbe69185e	-0.22763202

conv1.bias f4 [16]
0	0x3e81a1db	0.25318798
1	0x3d984879	0.07435698
2	0xbd976eea	-0.07394202
3	0xbd8351ec	-0.0641211
4	0x3dc256fb	0.094892465
5	0xbdfb8354	-0.12280908
6	0xbd8fef85	-0.070281066
7	0x3c5c3cd3	0.013442236
8	0x3e1dffcb	0.15429609
9	0xbcbd1171	-0.023079606
10	0xbcc312e2	-0.023812715
11	0xbd60925c	-0.05482708
12	0x3e3a1ba4	0.18174607
13	0xbc87856a	-0.016543109
14	0xbc8ae2c6	-0.016953837
15	0xbd270974	-0.0407805

conv2.weight f4 [25, 16, 3, 3]
0	0x3da0764f	0.078350656
1	0x3dad240f	0.08454143
2	0xbce7ef6f	-0.028312413
3	0x3dcae730	0.09907377
4	0xbd0c0840	-0.034187555
5	0x3ca5ecb8	0.020254478
6	0x3d877e14	0.06615844
7	0x3dade7ab	0.08491453
8	0xbc01bda5	-0.00791875
9	0x3d4517d0	0.048118412
10	0x3b1cf33f	0.0023948697
11	0x3dc5f2dd	0.09665463
12	0x3ba808c9	0.0051280004
13	0x3d44864b	0.047979634
14	0x3d60fa7b	0.054926377
15	0xbc878612	-0.016543422
16	0x3d9971b7	0.074923925
17	0x3da059dd	0.0782964
18	0x3b8ab5ee	0.0042331135
19	0xbda041ac	-0.07825026
20	0xbd0ecdf5	-0.034864385
21	0xbc997b17	-0.018735452
22	0x3ce16281	0.02751279
23	0x3ae7dd01	0.0017689766
24	0x3d1471ef	0.036241468
25	0xbc2d1030	-0.010562941
26	0xbc6504ac	-0.013978165
27	0xbd8da96c	-0.0691708
28	0x3c891513	0.016733682
29	0xbbfdb17f	-0.0077421064
30	0x3d5485f1	0.05188555
31	0xbc8ba36a	-0.017045695
32	0x3ccc4efc	0.024940006
33	0x3be39505	0.0069452547
34	0xbcece422	-0.028917376
35	0x3dbbcfb3	0.09170475
36	0xbc9e2669	-0.019305425
37	0xbd579993	-0.052636694
38	0x3d623dcb	0.05523471
39	0xbd9d081b	-0.076675616
40	0x3dd3fde3	0.103511594
41	0x3d245cba	0.040127493
42	0xbd869126	-0.065706536
43	0xbcd5dfec	-0.02610775
44	0x3d702e80	0.058638096
45	0x3d37d364	0.044879332
46	0x3d990d21	0.07473207
47	0xbc0716a1	-0.008245141
48	0x3d345322	0.044024594
49	0x3d8d1889	0.06889445
50	0xbadb5093	-0.0016732387
51	0xbc7cca8a	-0.015429148
52	0xbdaf7842	-0.08567859
53	0xbcb57056	-0.022148293
54	0x3ca24665	0.019808957
55	0xbc97e251	-0.018540533
56	0xbd6a6d95	-0.05723341
57	0xbb7ab0db	-0.0038252387
58	0x3d78ec65	0.06077232
59	0xbc9f53d8	-0.01944916
60	0xbd684853	-0.0567096
61	0x3dc9c6ea	0.09852393
62	0x3d862e15	0.06551758
63	0xbccb67c3	-0.02482975
64	0x3ca71585	0.020396003
65	0x3d5cac9f	0.05387556
66	0x3d9a5966	0.07536583
67	0xbd7405e6	-0.059575938
68	0xbbe4c7bf	-0.0069818194
69	0x3d68c619	0.056829546
70	0x3d23f574	0.040029004
71	0x3c627478	0.013821714
72	0xbcdc1182	-0.026863817
73	0xb905f362	-0.00012774536
74	0xbdce811b	-0.10083219
75	0xbdaac410	-0.08338177
76	0x3d52edb4	0.051496223
77	0xbd630b87	-0.055430915
78	0xbd82269a	-0.06355019
79	0x3c7d231f	0.015450268
80	0xbda675fe	-0.08127974
81	0x3c894843	0.01675809
82	0x3d9c90ed	0.0764483
83	0x3d38a15b	0.045075756
84	0x3d2b63d0	0.041843235
85	0x3d9bcbe5	0.07607249
86	0x3d23df6c	0.040007994
87	0xbd0f4830	-0.034980953
88	0x3d889d28	0.066706
89	0xbd2cca49	-0.0421851
90	0x3cda09a9	0.026615934
91	0xbd8be6a7	-0.06831103
92	0x3d6dc5cd	0.058049966
93	0x3d943d94	0.072383076
94	0x3d678636	0.056524478
95	0x3d0d198e	0.0344482
96	0xbb06ac5d	-0.0020549514
97	0x3d368776	0.04456278
98	0xbd1066b6	-0.035254203
99	0x3d40c6a7	0.04706445
100	0xbd849daa	-0.064753845
101	0x3d698471	0.05701107
102	0xbd2eec5a	-0.04270587
103	0x3d68376b	0.056693476
104	0x3b363693	0.0027803525
105	0x3c47c093	0.012191909
106	0x3da62a1e	0.08113502
107	0xbd2d48c4	-0.042305723
108	0xbbd31acf	-0.006442405
109	0x3d426374	0.047458127
110	0x3ca423ec	0.02003666
111	0xbd8af4c3	-0.06784966
112	0xb848ff16	-4.7921283e-05
113	0x3de3ce93	0.11123385
114	0x3c641960	0.0139220655
115	0x3d4e00cc	0.05029373
116	0x3cb8640e	0.022508647
117	0x3d8648d0	0.06556857
118	0x3ccad9ac	0.024761997
119	0x3d867fdf	0.06567358
120	0xbc9667e3	-0.018360084
121	0xbcdbb789	-0.026820915
122	0xbd3fcfbd	-0.046828974
123	0x3cb59259	0.02216451
124	0x3d25f032	0.04051227
125	0x3d6bdb8b	0.05758242
126	0x3d00808c	0.03137259
127	0xbd5a61c0	-0.053315878
128	0xbd928abb	-0.07155367
129	0x3ba50b99	0.005036783
130	0x3a1c9db3	0.0005974427
131	0xbd242106	-0.040070556
132	0x3b34691b	0.0027528468
133	0x3daff2b0	0.08591211
134	0xbcce0dfd	-0.025153155
135	0xbd7cd625	-0.06172766
136	0xbd2a38e8	-0.041558176
137	0xba0d52e1	-0.0005391073
138	0xbdb3a101	-0.087709434
139	0xbe00f7e7	-0.12594567
140	0xbd6b9a19	-0.057520006
141	0xbd6e497c	-0.05817555
142	0xbda19cf0	-0.078912616
143	0xbd1795d4	-0.03700812
144	0x3d8078dd	0.06273053
145	0xbbcc7d6b	-0.006240537
146	0xbcfb33b6	-0.030664306
147	0x3cf49309	0.029855268
148	0x3b541357	0.003236016
149	0x3ca7fa57	0.020505114
150	0x3dc389b7	0.095477514
151	0xbc14ccfe	-0.009082077
152	0x3d2e4533	0.042546462
153	0x3d4b1313	0.049578737
154	0x3cd0c8ba	0.025486339
155	0x3d4d217a	0.050080754
156	0xbca2c250	-0.019868046
157	0xbd69971f	-0.057028886
158	0x3d61155f	0.05495202
159	0x3d3aff55	0.04565366
160	0xbd2a988e	-0.041649394
161	0xbd69fd06	-0.057126068
162	0x3d76c262	0.06024397
163	0xbd0293b1	-0.03187913
164	0x3d6843b0	0.056705177
165	0xbdc3c1b4	-0.0955843
166	0xbd0e8775	-0.03479715
167	0x3c910adb	0.017705372
168	0x3d8be85f	0.06831431
169	0xbceb207f	-0.028702019
170	0x3d8cb62a	0.068706825
171	0xbc5ccb22	-0.013476165
172	0x3d8cd407	0.068763785
173	0xbd7a0333	-0.061038207
174	0x3d0dc1c9	0.034608636
175	0x3aa39aa8	0.0012482004
176	0x3d5b9fe9	0.0536193
177	0xbd91ef0e	-0.07125674
178	0xbcb20b26	-0.021733832
179	0x3db6c8fa	0.08925052
180	0xbd1eb41a	-0.038745977
181	0x3d81979d	0.06327746
182	0xbd44f72b	-0.04808728
183	0xbd72cb5f	-0.05927598
184	0x3d4d4e02	0.050123222
185	0x3ccd258e	0.025042322
186	0x3d26b287	0.0406976
187	0xbd67daaf	-0.056605037
188	0x3905c4af	0.00012757139
189	0xbd701abe	-0.058619253
190	0x3c60daa2	0.013724001
191	0xbda587f0	-0.08082569
192	0x3cb259fb	0.021771422
193	0xbd9cc0a9	-0.076539345
194	0x3d8fcfb5	0.07022039
195	0x3d7c7613	0.06163604
196	0xbd9202b7	-0.07129424
197	0xbcd5379f	-0.026027499
198	0x3c464eac	0.012103718
199	0xbcf64434	-0.030061819
200	0x3dd1dfd9	0.10247774
201	0x3d89fb5a	0.06737395
202	0xbd2c3dd4	-0.04205115
203	0xbc272436	-0.010201504
204	0xbda702a7	-0.08154803
205	0xbc238872	-0.009981262
206	0x3c569d20	0.013098985
207	0x3dbde02b	0.09271272
208	0x3d0961aa	0.033540405
209	0x3d84ca4d	0.06483898
210	0x3d4fd1d7	0.05073723
211	0x3cc50941	0.024052264
212	0x3b8eeb76	0.004361565
213	0x3c82f831	0.015987488
214	0xbdcfe6df	-0.10151457
215	0xbddbc408	-0.10730749
216	0xbd40de42	-0.04708696
217	0xbcc6add5	-0.024252811
218	0xbca2b696	-0.019862454
219	0xbd1595d7	-0.03651985
220	0x3da1200e	0.07867442
221	0xbcaf2cf4	-0.02138374
222	0xbdbaf6db	-0.09129115
223	0x3c988f46	0.018623006
224	0xbc606581	-0.013696075
225	0x3d7b769e	0.06139242
226	0x3c642452	0.013924675
227	0x3d7fa500	0.062413216
228	0x3d0612cc	0.03273277
229	0xbd55229c	-0.05203496
230	0x3d339eb4	0.043852523
231	0x3b8f011e	0.004364147
232	0x3d44fd75	0.048093278
233	0xbd892479	-0.0669641
234	0x3df61f12	0.12017645
235	0x3d629dfd	0.05532645
236	0xbbfea017	-0.007770549
237	0xba8ad775	-0.0010592776
238	0xbccce6ad	-0.025012339
239	0x3dcb1272	0.099156275
240	0x3df0c2f7	0.117559366
241	0x3d9b6a6c	0.07588658
242	0x3df500f7	0.11963075
243	0x3d1fb70d	0.03899293
244	0x3da99604	0.08280566
245	0x3cffc6c0	0.031222701
246	0x3dae1f5b	0.08502074
247	0x3deb86e0	0.11500335
248	0x3d9889d8	0.074481666
249	0x3dc6b010	0.0970155
250	0xbd4f908b	-0.050674956
251	0x3c0ab588	0.008466132
252	0x3d32a028	0.04360977
253	0xbd1a58e7	-0.03768244
254	0x3aa5c2c3	0.0012646544
255	0x3d13fcb4	0.03612967

conv2.bias f4 [25]
0	0x3d67f2fc	0.056628212
1	0x3c6733d0	0.014111474
2	0xbd7507be	-0.059821837
3	0xbd9c2ce4	-0.0762575
4	0xbc2b7140	-0.010464013
5	0xbb8d679e	-0.0043153306
6	0x3d31b805	0.043388385
7	0x3df39efe	0.1189556
8	0x3c01ec2d	0.007929844
9	0xbc9540c3	-0.018219357
10	0x3d1e553e	0.038655512
11	0xbcfc9696	-0.030833524
12	0xbca9b73f	-0.020717261
13	0x3e156527	0.14589368
14	0x3d19d08e	0.03755241
15	0x3c4ba3a9	0.012429156
16	0x3d9d27b6	0.0767359
17	0x3db3830f	0.08765232
18	0xbd1d499b	-0.038400274
19	0x3cc9b349	0.024621623
20	0xbd879bcd	-0.066215135
21	0x3d76ca32	0.060251422
22	0x3d7ce191	0.061738554
23	0x3dce33c8	0.1006847
24	0x3d574272	0.0525536

conv3.weight f4 [20, 25, 3, 3]
0	0xbd196f50	-0.03745967
1	0xbb1eb1cb	-0.002421486
2	0x3c9df40b	0.019281408
3	0xbb787590	-0.003791187
4	0x3da29c09	0.079399176
5	0xbbd329f0	-0.0064442083
6	0xbc5d755f	-0.013516753
7	0xbb58e3ba	-0.003309472
8	0x3d89b409	0.06723792
9	0x3d477b57	0.04870161
10	0xbd2aa6e7	-0.041663077
11	0x3d236fcd	0.039901543
12	0x3d19d52d	0.037556816
13	0x3d95a289	0.07306392
14	0x3c52a2d2	0.012856202
15	0x3dbb9b1b	0.091604434
16	0x3cd7130f	0.026254205
17	0x3d60299e	0.05472719
18	0xbcccc2a0	-0.024995148
19	0x3d13e084	0.036102787
20	0xbcbc41a5	-0.02298052
21	0x3de8396a	0.11339076
22	0x3cbb9eda	0.022902895
23	0x3c792d0b	0.015208493
24	0x3dbeb80f	0.0931245
25	0x3dcb4093	0.09924426
26	0xbcb97e14	-0.022643127
27	0xbda5e4af	-0.081002586
28	0x3d431077	0.047623124
29	0x3d945870	0.072434306
30	0x3d36e86d	0.044655252
31	0x3c9de49f	0.019274054
32	0x3da948ca	0.082658365
33	0x3c1fc74e	0.009752108
34	0xbc28f81e	-0.010313062
35	0x3d0f1e8f	0.034941252
36	0xbd0c1863	-0.034202944
37	0xbd82427a	-0.06360336
38	0x3d5a0d36	0.053235255
39	0x3c633034	0.013866473
40	0x3bd87e2d	0.006606838
41	0xbbb650f9	-0.005563852
42	0xbc734679	-0.014848345
43	0x3d0344ed	0.032048155
44	0x3d54603c	0.05184959
45	0x3d31b50f	0.04338556
46	0x3d4302df	0.04761016
47	0xbcb5ca87	-0.0221913
48	0x3daf72f9	0.08566851
49	0x3beb24dd	0.0071760253
50	0xbc88815b	-0.016663244
51	0x3d00d3a3	0.031451833
52	0x3c258445	0.010102336
53	0xbc9df43f	-0.019281505
54	0x3c04b1a7	0.008098996
55	0xbcd30c02	-0.025762562
56	0xbc17d606	-0.009267336
57	0xbc96accf	-0.018392948
58	0xb8f227fd	-0.000115469076
59	0xbce42157	-0.027847929
60	0x3ca35aac	0.019940697
61	0x3d3cefdf	0.046127196
62	0x3d9e70f3	0.07736387
63	0xbdd9d9f1	-0.10637272
64	0xbd4b3115	-0.049607355
65	0xbd96ba0a	-0.07359703
66	0xbd65239e	-0.05594217
67	0xbca684ea	-0.02032705
68	0xbd800872	-0.06251611
69	0x3c06c24a	0.008225033
70	0xbd63116e	-0.055436544
71	0xbd004a76	-0.03132101
72	0xbc5c7883	-0.013456467
73	0x3dcf9b74	0.10137072
74	0x3d8f75f7	0.07004922
75	0x3cd6fec3	0.026244527
76	0x3ca62b07	0.020284189
77	0xbd3eaf38	-0.04655382
78	0x3dad90bb	0.08474871
79	0x3ddaf64c	0.10691509
80	0x3cbc1867	0.022960855
81	0xbd46e07d	-0.048553932
82	0x3d05f68d	0.032705832
83	0xbc75382c	-0.014967006
84	0xbc8235d2	-0.015894804
85	0x3d8dd8b2	0.06926097
86	0x3d885001	0.066558845
87	0xbb77d2e5	-0.0037814912
88	0x3d3c3d74	0.045957044
89	0xbc26022a	-0.010132352
90	0xbda1be8b	-0.07897671
91	0xbd57d0dc	-0.05268942
92	0x3d1b373b	0.03789447
93	0x3c46c6ab	0.012132327
94	0xbc150b2b	-0.009096901
95	0x3d1eded4	0.038786724
96	0xbccea3f5	-0.025224665
97	0x395eb88c	0.00021240319
98	0xbd2ea32f	-0.042636093
99	0xbbe98108	-0.0071259774
100	0x3b42db7a	0.002973287
101	0xbd21c4fc	-0.0394945
102	0x3d78bfc5	0.06072976
103	0xbc288de7	-0.010287738
104	0x3c061b62	0.0081852395
105	0xbd3b0a0b	-0.045663875
106	0xbc5329b5	-0.012888362
107	0xbc3c5fcf	-0.011497452
108	0xbc4c19bd	-0.012457308
109	0xbd9b567e	-0.075848565
110	0x3d40be7b	0.047056656
111	0xbd4376f6	-0.047720872
112	0xbd554ed0	-0.052077115
113	0xbc60a35e	-0.013710825
114	0xbc1494f3	-0.009068715
115	0xbd82aee3	-0.06381013
116	0x3b8a182f	0.0042143087
117	0xbd08f0f2	-0.03343291
118	0x3cab8596	0.020937722
119	0x3c3dc3e2	0.011582347
120	0xbb8efe5b	-0.0043638176
121	0x3cec345a	0.028833557
122	0x3d83c66f	0.064343326
123	0x3d3e194b	0.04641084
124	0x3d0162cd	0.031588364
125	0xbcb21396	-0.021737855
126	0x3c8797a9	0.01655181
127	0xbc70e843	-0.014703813
128	0x3d343325	0.043994088
129	0x3cc1857c	0.02362322
130	0xbcf009d6	-0.029301565
131	0x3b2a55b1	0.0025991017
132	0x3c85cd82	0.016333345
133	0x3d849deb	0.06475433
134	0x3d102e11	0.035200182
135	0x3d837e3b	0.06420561
136	0xbb5e8279	-0.003395228
137	0xbd6cf36e	-0.05784934
138	0x3d784721	0.06061471
139	0x3d9702f0	0.07373607
140	0x3d055534	0.03255196
141	0x3d0c70bf	0.03428721
142	0x3d79c633	0.060980033
143	0x3caa8efe	0.020820137
144	0xbd154747	-0.03644493
145	0xbd82a49e	-0.063790545
146	0x3b897332	0.0041946406
147	0x3dccd71a	0.10001965
148	0x3d635d58	0.05550894
149	0x3d15c77d	0.0365672
150	0x3d138479	0.036015008
151	0x3d26a30e	0.040682845
152	0x3d6145ce	0.05499821
153	0x3b6c2584	0.0036033103
154	0xbc2ff706	-0.010740047
155	0xbd03eddf	-0.032209273
156	0xbd1d1b2b	-0.038355988
157	0x3d91923e	0.071079716
158	0x3cab2eb2	0.02089629
159	0xbd23b17c	-0.039964184
160	0x3daac8db	0.083390914
161	0x3cd8059b	0.02636986
162	0xbc810fbe	-0.015754577
163	0xba841376	-0.0010076601
164	0xbc8e9bc3	-0.017408257
165	0xbd0c0ba6	-0.034190796
166	0x3ce051a2	0.027382676
167	0x3c4211d3	0.01184507
168	0x3d819117	0.06326502
169	0xbb357148	-0.002768593
170	0x3c180084	0.009277467
171	0xbc3c141a	-0.011479402
172	0xbcef6c56	-0.029226463
173	0x3d1f5363	0.038897883
174	0xba701df5	-0.00091597374
175	0x3bce176d	0.0062894137
176	0x3c762781	0.015024067
177	0x3da8d4cc	0.08243713
178	0x3d077f91	0.03308064
179	0xbc900ffc	-0.017585747
180	0x3c0b0ed3	0.008487421
181	0x3bbb556f	0.0057169716
182	0x3bac88bb	0.005265323
183	0x3db81416	0.08988206
184	0x3d7e9008	0.062149078
185	0xba859a3c	-0.001019306
186	0x3d930723	0.071790956
187	0x3dbf7735	0.09348909
188	0x3d535e2d	0.051603485
189	0xbd9f5a59	-0.07780904
190	0xbc47d6fb	-0.012197251
191	0xbcefc8ef	-0.029270617
192	0xbccbb308	-0.024865642
193	0xbd305333	-0.043048095
194	0x3d10b7aa	0.035331406
195	0xbd148b70	-0.03626579
196	0x3d28da77	0.04122397
197	0x3bd7ab6a	0.0065817134
198	0x3d148195	0.03625639
199	0xbd820cea	-0.063501194
200	0x3c8755e1	0.016520442
201	0x3d4d8ce9	0.05018321
202	0xbd0d1e6d	-0.034452844
203	0x3d406ff4	0.046981767
204	0xbd922074	-0.07135096
205	0x3c846be1	0.016164722
206	0xbd38bb10	-0.04510027
207	0x3d8cd814	0.06877151
208	0x3bffe45d	0.0078092054
209	0xbd35f21a	-0.04442034
210	0x3d4e0a37	0.05030271
211	0x3c12e911	0.0089667
212	0xbcaf5aed	-0.021405661
213	0x3d986bcd	0.07442436
214	0x3dc6abd7	0.097007446
215	0x3d965337	0.07340091
216	0x3b86780e	0.004103667
217	0x3d603ee5	0.05474748
218	0x3ca6a354	0.020341553
219	0x3dba8ddd	0.091090895
220	0x3d969d81	0.0735426
221	0x3bb2864d	0.005448139
222	0x3d676631	0.05649394
223	0x3d73c94a	0.059518136
224	0x3d366c7c	0.044537053
225	0xbcacd89a	-0.021099377
226	0xbd7af2f5	-0.061266858
227	0x3d42f09a	0.047592737
228	0xbd93aa8d	-0.07210264
229	0xbd70982a	-0.058738865
230	0xbcd85e10	-0.02641204
231	0xbcb44eec	-0.02201029
232	0x3d3c9998	0.046044916
233	0x3ad65346	0.0016351722
234	0xbd6a1425	-0.057148118
235	0x3d265ce4	0.04061593
236	0x3c8bec40	0.017080426
237	0xbd984713	-0.07435431
238	0x3d512709	0.051062617
239	0xbd932937	-0.071855955
240	0xbcf7d586	-0.030253183
241	0x3d59c240	0.053163767
242	0x3c526b40	0.012842953
243	0x3d0c5b1f	0.034266587
244	0xbcfe5d6e	-0.03105041
245	0xbd9d699d	-0.0768616
246	0xbd21ae03	-0.03947259
247	0x3c628b33	0.013827133
248	0x3cacfdd9	0.021117138
249	0x3c79887e	0.015230296
250	0xbd16d768	-0.03682652
251	0x3c9bed19	0.019033955
252	0x3d7f8991	0.062387053
253	0xbd2c2729	-0.042029534
254	0x3c3a02fb	0.01135325
255	0xbd0f9536	-0.035054408

conv3.bias f4 [20]
0	0x3cc8b238	0.024499044
1	0xbc9316af	-0.017955152
2	0xbdb8d563	-0.09025075
3	0xbbe54aaf	-0.0069974284
4	0x3d45ea9d	0.048319448
5	0x3d7d21d8	0.061799854
6	0x3cad32e5	0.021142432
7	0x3b21b461	0.0024674165
8	0xbdd63389	-0.10459048
9	0x3d215edc	0.039397106
10	0xbdbbac93	-0.09163775
11	0x3c8cce48	0.017188206
12	0x3d555b1c	0.05208884
13	0xbd6544ce	-0.05597382
14	0x3d832473	0.064034365
15	0xbd95f907	-0.07322889
16	0x3decace6	0.11556415
17	0x3dacf82c	0.084457725
18	0x3ba2bc6e	0.00496631
19	0x3c31a9c2	0.010843696

conv4.weight f4 [25, 20, 3, 3]
0	0x3cb9ef64	0.022697158
1	0x3d002287	0.031282928
2	0xbd5c96ef	-0.05385488
3	0xbd5e7aab	-0.054316204
4	0x3dacc2d1	0.08435596
5	0xbcb17902	-0.021664146
6	0x3b9e74b6	0.0048356904
7	0x3d8927eb	0.06697067
8	0xbd612e58	-0.054975837
9	0xbc11cbcd	-0.008898688
10	0xbcb684eb	-0.022280177
11	0x3cb21fc9	0.021743672
12	0x3ca9d3b1	0.020730825
13	0x3da57fda	0.080810264
14	0xbd827c5a	-0.063713744
15	0xbd275176	-0.04084917
16	0x3c6e2d40	0.014537156
17	0xbd7e9bf7	-0.06216046
18	0xbce1e81a	-0.027576495
19	0x3bd38e75	0.006456191
20	0xbc646fdf	-0.013942688
21	0xbc8b08c7	-0.016971959
22	0x3cd6f755	0.026240984
23	0xbc19856e	-0.009370191
24	0x3d824237	0.06360286
25	0xbc40ecd8	-0.011775218
26	0x3becf813	0.007231721
27	0xbce2e578	-0.02769731
28	0x3d310703	0.043219578
29	0x3d28c9cb	0.04120807
30	0xbc8c10a1	-0.017097773
31	0xbd54662b	-0.051855247
32	0xbd93e7b9	-0.07221932
33	0x3af2fa99	0.0018537819
34	0x3ba727e7	0.0051011923
35	0x3d10c57b	0.035344582
36	0xbd5b8e22	-0.053602345
37	0x3d067149	0.03282288
38	0x3df3b2af	0.118993156
39	0xbe064f21	-0.13116123
40	0xbd908b9d	-0.07057879
41	0xbd4afde7	-0.049558546
42	0xbd4ae244	-0.04953219
43	0xbdf370bb	-0.11886736
44	0xbdc7fd30	-0.097650886
45	0x3d73f1e8	0.05955687
46	0x3d841f91	0.06451333
47	0x3d852d49	0.06502778
48	0xbca88da7	-0.020575358
49	0x3d4b8f36	0.049697123
50	0x3c156020	0.009117156
51	0x3da37459	0.07981176
52	0x3dc00a45	0.09376959
53	0xbd6e1338	-0.058123797
54	0x3d8c4254	0.068485886
55	0x3db6afd8	0.08920258
56	0x3d1a1b06	0.037623428
57	0x3d35353d	0.044240225
58	0x3d80e6e4	0.06294039
59	0xbc9cdd4a	-0.019148488
60	0x3d3bdbe1	0.04586399
61	0x3dd18e64	0.10232237
62	0x3d6fd340	0.058551073
63	0x3c925456	0.01786248
64	0x3dcb5638	0.09928554
65	0xbd21a4ba	-0.039463736
66	0x3cec7314	0.028863467
67	0x3b44d884	0.003003628
68	0xbced9d4a	-0.029005665
69	0x3d62d185	0.055375595
70	0x3c92931d	0.017892415
71	0xbd5663f5	-0.05234142
72	0xbda8ebb8	-0.08248085
73	0xbd2b5369	-0.041827593
74	0xbd1ab243	-0.03776766
75	0xbd65e265	-0.05612411
76	0xbd5663aa	-0.05234114
77	0xbcb4b889	-0.02206065
78	0xbd987a88	-0.07445246
79	0xbda50787	-0.08058076
80	0x3cb60cf7	0.022222979
81	0xbd0ffc7e	-0.035152905
82	0x3d20d6dd	0.03926741
83	0x3d8094ec	0.062784046
84	0x3cfeb21a	0.031090785
85	0x3d9c8f2d	0.07644496
86	0xbd8ec173	-0.06970491
87	0x3ca787cc	0.020450495
88	0x3c0fb57c	0.008771297
89	0xbbb6560d	-0.0055644573
90	0x3d171513	0.036885332
91	0x3d85b2a9	0.06528217
92	0x3d03828c	0.03210692
93	0x3d35cdef	0.044385847
94	0xbce70cca	-0.02820434
95	0xbd16bd39	-0.03680155
96	0xbd21c514	-0.03949459
97	0x3da2a26a	0.07941134
98	0x3bb7ad30	0.0056053624
99	0x3d943414	0.072364956
100	0x3cab7c9a	0.020933438
101	0xbc946969	-0.01811667
102	0xbd09d3d8	-0.033649296
103	0x3d407575	0.046987016
104	0x3d85cf05	0.065336265
105	0xbce1305c	-0.02748888
106	0x3dfa35f4	0.12217322
107	0xbd45fecd	-0.0483387
108	0xbd0173e9	-0.03160468
109	0xbd70791b	-0.058709245
110	0x3c0e84ae	0.0086986255
111	0xbd9b7bed	-0.07591996
112	0xbcac6908	-0.021046177
113	0xbdce4276	-0.1007127
114	0xbc0c68a4	-0.00856987
115	0xbd156fba	-0.036483504
116	0xbdb79834	-0.08964577
117	0x3d4a2ad9	0.04935727
118	0xbd199cca	-0.03750304
119	0xbce33d46	-0.027739178
120	0xbd9c65d5	-0.076366104
121	0xbd7038ae	-0.058647804
122	0xbdfb2e11	-0.12264646
123	0x3da9e81d	0.08296225
124	0x3c21dfe3	0.009880039
125	0xbdbe0132	-0.09277572
126	0x3c6e54ab	0.014546554
127	0xbaf7d3ac	-0.0018907688
128	0x3c53476e	0.012895448
129	0xbd78a3ab	-0.06070296
130	0x3dae4bea	0.08510573
131	0x3cddab2d	0.027059162
132	0xbce5b610	-0.028040916
133	0x3dcf112d	0.10110698
134	0xbd08f484	-0.033436313
135	0xbd0fc982	-0.035104282
136	0x3dce821d	0.10083411
137	0x3c8f4266	0.017487716
138	0x3c7814ca	0.015141675
139	0x3c95bc88	0.018278375
140	0xbd0946d0	-0.033514798
141	0x3b865797	0.004099797
142	0xbbd41d42	-0.0064732144
143	0xbde0391f	-0.10948395
144	0xbca4002d	-0.020019615
145	0x3d8cacf6	0.06868927
146	0x3db4977d	0.088179566
147	0x3c8382b7	0.01605354
148	0x3dc897a6	0.0979455
149	0xbca4f62b	-0.020136913
150	0xbb83e771	-0.0040253927
151	0x3d6c6e67	0.057722475
152	0x3d420952	0.04737217
153	0x3d3c5f2e	0.045989208
154	0xbb53efe5	-0.0032339033
155	0xbceaa254	-0.028641857
156	0xbd82c276	-0.06384747
157	0xbc706258	-0.0146718845
158	0xbcdd9a93	-0.027051246
159	0x3dc8a089	0.09796245
160	0xbc2832d9	-0.010266029
161	0xbd159697	-0.036520567
162	0x3d5e1ab1	0.054224674
163	0x3cb81ed8	0.022475645
164	0xbd07093c	-0.03296779
165	0xbd314a7d	-0.04328393
166	0x3d794094	0.060852602
167	0x3cbb5fb1	0.022872778
168	0xbd1dbe58	-0.038511604
169	0x3d998a46	0.07497077
170	0x3d2d8274	0.042360738
171	0x3c6bfc56	0.014403423
172	0xbd536a86	-0.05161526
173	0x3caaeacd	0.020863915
174	0xbe11f5e5	-0.14253958
175	0xbd281040	-0.041031122
176	0xbdc959ff	-0.098316185
177	0xbc8ab469	-0.01693173
178	0xbcfaa3c1	-0.030595662
179	0xbd77cfc0	-0.06050086
180	0x3d97a4da	0.0740449
181	0x3d5d3543	0.054005872
182	0x3d591238	0.05299589
183	0x3db26d54	0.08712259
184	0x3c83d06d	0.016090596
185	0xbd964999	-0.073382564
186	0x3d5db35c	0.05412613
187	0xbcfad084	-0.030617006
188	0x3be2f584	0.0069262404
189	0x3da85f91	0.08221353
190	0xbcae7930	-0.021298021
191	0xbd5b5f43	-0.053557646
192	0x3d056532	0.03256721
193	0x3ce46b91	0.027883323
194	0x3bf06a69	0.007336904
195	0xbd2d8a83	-0.042368423
196	0xbcabef7d	-0.02098822
197	0xbc51faa1	-0.012816102
198	0x3d96204e	0.073303804
199	0xbdab57ed	-0.0836638
200	0x3d4b33e8	0.04961005
201	0x3d1fbfd3	0.039001297
202	0xbd71f771	-0.05907387
203	0xbccee306	-0.025254738
204	0x3c90921b	0.017647794
205	0x3c94aaec	0.018147908
206	0x3c651880	0.013982892
207	0xbce5113b	-0.027962318
208	0xbc20685b	-0.009790505
209	0xbdb233d4	-0.08701292
210	0xbd4fab6a	-0.050700583
211	0xbd5a02f4	-0.053225473
212	0xbd9e670c	-0.077344984
213	0xbc7431c3	-0.014904442
214	0xbd54b26c	-0.05192797
215	0x3b996863	0.0046816333
216	0x3dae356c	0.08506283
217	0xbbb27e05	-0.0054471516
218	0x3c0fc1ea	0.00877426
219	0xbcf33678	-0.029689059
220	0xbdab2c1f	-0.08358025
221	0x3cadbe8a	0.02120902
222	0x3d0ad314	0.033892706
223	0xbd5cce3b	-0.053907614
224	0x3db40824	0.08790615
225	0x3d1e1792	0.038596697
226	0x3d5ae6dc	0.05344282
227	0x3d1bdcad	0.03805225
228	0x3d1dcaba	0.038523413
229	0x3cacb1ce	0.021080878
230	0x3d22b33c	0.039721712
231	0x3c323fcb	0.010879467
232	0x3ce1cbbc	0.027562968
233	0x3dad4a7f	0.084614746
234	0x3d666341	0.056247
235	0x3dbcd027	0.092193894
236	0xbc1a44e1	-0.009415836
237	0x3d860628	0.06544143
238	0x3db7e7d8	0.089797676
239	0xbde0f489	-0.109841414
240	0x3d8f8d96	0.07009427
241	0xbbef6941	-0.0073062484
242	0x3ceec52d	0.029146755
243	0x3c0c4a1a	0.008562589
244	0xbda207d3	-0.079116486
245	0xbda982bc	-0.08276889
246	0xbbb0acfa	-0.005391714
247	0xbc96bb58	-0.01839988
248	0xbd8ef822	-0.06980921
249	0x3d87631b	0.066107
250	0xbd439b17	-0.047755327
251	0x3d1355cc	0.035970494
252	0xbda26249	-0.07928903
253	0xbdb96d23	-0.09054019
254	0x3d69526f	0.05696338
255	0x3cd9ed03	0.026602274

conv4.bias f4 [25]
0	0x3cb0ce31	0.021582695
1	0x3d7daf52	0.061934777
2	0x3cce59f1	0.025189372
3	0xbd9b38f4	-0.07579222
4	0xbd9bb2c6	-0.07602458
5	0x3d50e13a	0.050996043
6	0x3ca9e0e1	0.020737113
7	0xbcd0343b	-0.02541553
8	0xbcc4d5ec	-0.024027787
9	0xbc1852c9	-0.009297081
10	0x3e05e821	0.13076831
11	0xbc678a06	-0.014132028
12	0x3d98211d	0.07428191
13	0xbd876078	-0.06610197
14	0x3dec04ff	0.115243904
15	0x3dae8980	0.0852232
16	0xbd08cfa0	-0.03340113
17	0xbccb9ba3	-0.024854487
18	0xbdde3586	-0.108500525
19	0xbe11cb25	-0.1423765
20	0x3d8f7bba	0.07006021
21	0xbdc4f404	-0.09616855
22	0x3baed93b	0.0053359545
23	0xbccf6527	-0.025316788
24	0x3da0d9b8	0.078540266

conv5.weight f4 [16, 25, 3, 3]
0	0xbbd08e30	-0.0063646063
1	0x3da03e1c	0.078243464
2	0x3c041650	0.00806196
3	0x3d34a046	0.04409816
4	0x3d4edc48	0.050503045
5	0xbc710d7c	-0.014712688
6	0xbcc12264	-0.023575969
7	0xbd153608	-0.03642848
8	0xbcaeec83	-0.021353012
9	0x3cc473b8	0.02398096
10	0xbd51c643	-0.051214468
11	0x3d69b851	0.057060543
12	0xbc6713c4	-0.014103834
13	0x3bb5e911	0.0055514653
14	0x3d0ff65c	0.035147056
15	0xbc845816	-0.016155284
16	0xbcc9fd77	-0.024656994
17	0x3cb3d7ce	0.02195349
18	0xba35c680	-0.0006934181
19	0x3bd38ec1	0.0064562266
20	0x3d4b0666	0.04956665
21	0xbd3effbc	-0.046630606
22	0x3bc99e52	0.0061529065
23	0x3ca1e492	0.019762311
24	0x3d537104	0.051621452
25	0xbd1d3689	-0.038382087
26	0x3c8c9dd6	0.017165106
27	0x3d279b6a	0.0409197
28	0xbc956b07	-0.018239511
29	0x3c4eb525	0.01261643
30	0x3cf44969	0.029820161
31	0x3cef9bfb	0.029249182
32	0x3c9b175f	0.018932043
33	0x3bbcab5b	0.005757732
34	0x3d322e02	0.043500908
35	0xbd570138	-0.052491397
36	0xbd2bbc67	-0.04192772
37	0x3d27c66e	0.04096072
38	0x3d5d709b	0.054062467
39	0xbd4b8a7c	-0.049692616
40	0x3c0d3bfa	0.008620257
41	0xbc2fbafc	-0.010725733
42	0x3d801674	0.062542826
43	0x3d04ebef	0.032451566
44	0x3b1f93d7	0.0024349594
45	0x3cb5053c	0.022097223
46	0x3cd5a091	0.02607754
47	0x3d876375	0.06610767
48	0xbcafbb69	-0.021451669
49	0x3d89a832	0.06721534
50	0x3d833058	0.06405705
51	0x3d8ca75a	0.06867857
52	0x3d814ff3	0.06314077
53	0x3c5ae3ac	0.013359945
54	0x3ceb0aac	0.028691612
55	0x3d9e4d85	0.077296294
56	0xbc949146	-0.018135678
57	0xbc080567	-0.008302069
58	0xbd3a42d9	-0.045473907
59	0xbdfb6bb8	-0.12276405
60	0xbd2c2db5	-0.042035777
61	0x3d4b66ce	0.04965859
62	0xbd5ba7f7	-0.05362698
63	0x3c80c1ec	0.01571747
64	0x3d3db662	0.046316512
65	0x3d80ae73	0.062832735
66	0xbd520b06	-0.051280044
67	0xbb9b0921	-0.004731313
68	0x3c719572	0.014745103
69	0xbd826a3e	-0.0636792
70	0x3d4b6f8b	0.049666923
71	0xba8310e0	-0.0009999536
72	0xbd6923d6	-0.05691894
73	0x39296ce0	0.00016157655
74	0x3c49fdb8	0.012328558
75	0xbd6e549e	-0.058186166
76	0x3d5a9bf1	0.053371374
77	0xbbe317b6	-0.006930317
78	0x3ca0a73e	0.019610997
79	0x3d039880	0.032127857
80	0x3d1e754f	0.038686093
81	0xbd753dbd	-0.05987333
82	0x3c8eadfe	0.01741695
83	0x3c0364af	0.00801961
84	0xbccaf441	-0.024774672
85	0x3d18ca74	0.03730245
86	0x3d49876d	0.049201418
87	0xbd299369	-0.041400347
88	0x3d9f3e34	0.07775536
89	0x3c61ecd5	0.013789375
90	0x3c3c1d18	0.011481546
91	0x3d9b91f1	0.075961955
92	0x3bec1bfd	0.007205485
93	0x3cc8343f	0.024438975
94	0xbd96c497	-0.07361715
95	0x3da46888	0.0802775
96	0xba1efc10	-0.0006064782
97	0xbcad4d3d	-0.021154994
98	0xbc0ed976	-0.008718839
99	0x3bda7ca0	0.0066676885
100	0x3c9b05bf	0.018923638
101	0x3d39bd12	0.045346327
102	0x3d3c1346	0.045916818
103	0x3d99d031	0.075104125
104	0xbcd2bf77	-0.025726063
105	0xbd74e54c	-0.059788987
106	0xba5a4728	-0.0008326643
107	0xbd3a78ba	-0.04552529
108	0xbd41cf03	-0.047316562
109	0xbd546015	-0.051849443
110	0x3d5dea5b	0.054178577
111	0xbc927b21	-0.017880978
112	0x3c0d2cac	0.008616608
113	0xbc3a5504	-0.011372808
114	0x3ba14125	0.004921096
115	0x3b9a9314	0.00471724
116	0x3ce47668	0.027888492
117	0x3c62d810	0.013845459
118	0x3d1d7263	0.038439166
119	0x3ceb8661	0.0287506
120	0x3d01b9d1	0.03167135
121	0x3d31c9b5	0.043405253
122	0xbd741e40	-0.05959916
123	0xbced8247	-0.028992785
124	0x3c7f4387	0.015580065
125	0x3d496fc5	0.049178857
126	0x3cb663fc	0.022264473
127	0x3d1b96a6	0.037985466
128	0xbd83503e	-0.06411789
129	0x3d6690bf	0.056290384
130	0xbd5ae2c6	-0.053438924
131	0x3d02293b	0.0317776
132	0x3cb8a9bd	0.022541875
133	0xbcdb121f	-0.02674204
134	0x3d92659c	0.07148287
135	0x3c647d60	0.013945907
136	0x3d8061c6	0.06268649
137	0x3da93959	0.08262891
138	0xbd16bfd2	-0.036804028
139	0xbcb1cb73	-0.021703457
140	0x3d7feb56	0.062480293
141	0xbc1d6ba8	-0.009608187
142	0xbd300f3c	-0.04298328
143	0x3bc81df7	0.0061070877
144	0xbd405c07	-0.046962764
145	0x3db26706	0.087110564
146	0xbb2edc0a	-0.0026681446
147	0xbd30e5a9	-0.04318777
148	0x3d3061d7	0.043062057
149	0x3d8ecbcf	0.06972467
150	0x3ca28fce	0.019843962
151	0x3d45972d	0.048239876
152	0xbc9c8559	-0.019106554
153	0xbd46e7fe	-0.04856109
154	0x3d508bba	0.050914504
155	0xbc88922d	-0.016671265
156	0xbc75fde8	-0.015014149
157	0xbd87acd0	-0.06624758
158	0x3bb8189a	0.005618167
159	0xbcedf442	-0.029047135
160	0xb9e25c8d	-0.00043175035
161	0x3ba38394	0.0049900506
162	0xbd3413c2	-0.043964155
163	0x3da0662d	0.078319885
164	0x3d91da8d	0.071217634
165	0xbc40f357	-0.011776767
166	0xbd1532a8	-0.036425263
167	0x3c9b3e64	0.018950649
168	0xbade92c7	-0.0016980999
169	0xbd16291b	-0.036660295
170	0x3cc78cfb	0.024359217
171	0x3d210e7a	0.039320447
172	0x3d74b826	0.05974593
173	0x3d5c10a8	0.053726822
174	0x3d22917e	0.039689533
175	0x3d847ffa	0.06469722
176	0x3d3ed32a	0.0465881
177	0x3d1ceda8	0.038312584
178	0xbd5cedf8	-0.053937882
179	0x3d4a6e22	0.049421437
180	0x3cc01d4c	0.02345147
181	0xbd8429a1	-0.064532526
182	0x3d009721	0.031394128
183	0xbd3b0193	-0.0456558
184	0x3d75dcc8	0.060025007
185	0xbd73a2a7	-0.05948129
186	0xbb968172	-0.004593068
187	0x3d1efba6	0.03881421
188	0xbba317e7	-0.0049772146
189	0x3baa18e0	0.0051909536
190	0x3cf6e364	0.030137725
191	0x3d8391b5	0.06424276
192	0x3cd5bfa3	0.026092356
193	0x3c7481c7	0.014923519
194	0x3db951e5	0.09048823
195	0x3ce20059	0.027588056
196	0x3d555731	0.052085105
197	0x3c8b1d1d	0.016981656
198	0x3b7e8d80	0.0038841665
199	0x3d1de8da	0.038552143
200	0x3d083de5	0.033262152
201	0x3c3b9f19	0.011451506
202	0x3d8882a4	0.06665543
203	0x3d772698	0.06033954
204	0xbd7aef88	-0.06126359
205	0x3cb8a7b9	0.022540914
206	0x3c57c6ae	0.0131699275
207	0x3ccb93dc	0.024850778
208	0xbd07b2ef	-0.03312963
209	0x3d0ff506	0.035145782
210	0xbd2cb535	-0.042165
211	0xbc8ac677	-0.016940339
212	0xbd1cafdd	-0.038253654
213	0xba4f82c1	-0.0007915907
214	0x3cb30d0e	0.02185681
215	0x3c8f3b56	0.017484348
216	0x3d3220f4	0.043488458
217	0x3cf5764e	0.029963639
218	0xbd074600	-0.03302574
219	0xbc05dd0f	-0.00817038
220	0x3d600ca7	0.054699566
221	0x3d709540	0.058736086
222	0xbd3d9298	-0.04628238
223	0x3d500c70	0.05079311
224	0xbce8b3eb	-0.028406104
225	0x3cb8a1e6	0.022538137
226	0x3ca11c2b	0.019666752
227	0xbc03edf8	-0.008052342
228	0xbd3b3b0a	-0.0457106
229	0xbd3ded57	-0.046368923
230	0x3d57dc0f	0.0527001
231	0x3c84f009	0.016227739
232	0xbd4020f1	-0.046906415
233	0xb9e11d58	-0.00042937207
234	0x3d7d350e	0.061818175
235	0xbd4698d8	-0.048485607
236	0x3d4c8adc	0.049937114
237	0x3d3f4260	0.04669416
238	0x3db739dd	0.089465834
239	0x3ba1eaca	0.004941319
240	0x3df37728	0.118879616
241	0x3d351db8	0.044217795
242	0xbae7ecf8	-0.0017694524
243	0x3b1e9660	0.0024198517
244	0xbb038d60	-0.002007328
245	0x3cbc74d0	0.02300492
246	0xbd11fb0e	-0.035639815
247	0xbc5cb514	-0.013470907
248	0xbd8aeade	-0.067830786
249	0x3de23541	0.110453136
250	0xbd9d9d7a	-0.07696052
251	0xbd722f7d	-0.05912732
252	0x3d68240b	0.056675
253	0x3d4479c2	0.04796768
254	0xbbc44158	-0.005989235
255	0xbc08e147	-0.008354492

conv5.bias f4 [16]
0	0xbbe4a3a8	-0.006977517
1	0x3c2570da	0.010097707
2	0x3b530589	0.0032199344
3	0xbd5a032b	-0.053225677
4	0xbcc0bc86	-0.023527395
5	0x3c88d86d	0.016704762
6	0x3d0a6d19	0.03379545
7	0xbd77b8ad	-0.060478855
8	0x3c8fdb1b	0.017560532
9	0x3cce1c53	0.02515999
10	0x3d032371	0.03201622
11	0xbbbbd443	-0.0057320907
12	0xbd83718a	-0.0641814
13	0x3da753da	0.0817029
14	0xbcb3c52d	-0.021944607
15	0x3dadcdde	0.08486532

classifier.1.weight f4 [10, 16]
0	0xbd56ba80	-0.052423954
1	0x3d312439	0.043247435
2	0xbe6cbd5b	-0.23119108
3	0xbe56cfa8	-0.20977652
4	0xbe80323e	-0.25038332
5	0x3e73c052	0.23803833
6	0x3d26ea61	0.040750865
7	0xbe61a455	-0.22035344
8	0x3da10f66	0.07864265
9	0x3daed37e	0.08536433
10	0x3c13a3c6	0.009011215
11	0x3e46fb72	0.19431856
12	0x3e3b3b92	0.18284443
13	0xbe38099e	-0.17972419
14	0xbe5c778a	-0.21529976
15	0x3d51bb75	0.051204164
16	0xbdc8827e	-0.097905144
17	0xbd9d83e4	-0.07691172
18	0xbe4b1ebf	-0.19835947
19	0x3e3f4eb4	0.18682367
20	0x3e3b748e	0.18306181
21	0x3c8a14d6	0.016855638
22	0x3e75a82e	0.23989937
23	0x3d54c49f	0.051945325
24	0x3e83db3f	0.2575321
25	0xbe33f1d4	-0.17572719
26	0xbd73d8dd	-0.05953299
27	0x3d2f9b78	0.042872876
28	0x3e1ceb16	0.15324053
29	0xbe8e159f	-0.2775087
30	0x3e3dc149	0.18530764
31	0xbe649ac5	-0.22324665
32	0xbd28d9aa	-0.041223206
33	0x3e33c5f1	0.17555977
34	0xbe3ca9a4	-0.18424088
35	0xbe34ee1e	-0.1766896
36	0x3e097598	0.13423765
37	0xbe4fb95f	-0.20285557
38	0x3e502ad4	0.20328838
39	0xbe36f7ed	-0.17868014
40	0xbe7e6325	-0.24842508
41	0xbe0cd0c1	-0.13751508
42	0x3e332ccf	0.17497562
43	0x3e32df18	0.17467916
44	0x3dee904d	0.11648617
45	0x3e64037d	0.22266956
46	0xbd1f982a	-0.038963474
47	0x3e52e148	0.2059375
48	0x3e1aa676	0.15102562
49	0x3e3081a6	0.17236957
50	0x3e45f5d1	0.19332053
51	0x3ca0d5d7	0.019633217
52	0x3e1ab725	0.15108927
53	0x3d43f957	0.04784521
54	0xbe0aaa7b	-0.13541596
55	0xbd8d6e3c	-0.06905791
56	0xbdfb6e20	-0.12276864
57	0xbe07583d	-0.13217254
58	0xbde33d92	-0.11095728
59	0xbe9d424d	-0.30714646
60	0xbe7d5ba8	-0.24741995
61	0xbcc3f343	-0.023919707
62	0xbde79909	-0.11308486
63	0x3e1b008c	0.15136927
64	0xbdabf271	-0.083958514
65	0xbe1dc141	-0.15405752
66	0xbe3d9f1c	-0.18517727
67	0xbdb74d3b	-0.089502774
68	0x3e097d15	0.13426621
69	0xbe0cf0d4	-0.13763744
70	0xbcc96b76	-0.024587374
71	0xbd01418d	-0.031556655
72	0xbdd3cfaa	-0.10342343
73	0x3e375185	0.17902191
74	0xbe6480d1	-0.22314765
75	0xbe312556	-0.17299399
76	0x3ea48a7c	0.32136905
77	0xbdc5c43a	-0.09656568
78	0x3dbbaff6	0.09164421
79	0x3e30c3f6	0.17262253
80	0xbdde1831	-0.10844458
81	0xbe661615	-0.22469361
82	0x3e09e23f	0.13465212
83	0xbbf618ad	-0.007510266
84	0x3df686e6	0.120374486
85	0xbe826449	-0.25467137
86	0xbc82c040	-0.015960813
87	0xbdf1b875	-0.118027605
88	0x3c19f053	0.009395677
89	0x3c037199	0.008022689
90	0x3e89ccd3	0.2691408
91	0x3debbde8	0.11510831
92	0xbe46a2f7	-0.19398104
93	0x3e408a84	0.1880284
94	0xbe193150	-0.14960217
95	0x3e325e29	0.17418732
96	0xbe6b810e	-0.22998449
97	0xbcba88db	-0.022770336
98	0xbd23be9d	-0.039976705
99	0x3d7b548c	0.061359927
100	0x3d861cd4	0.06548467
101	0xbe74228b	-0.23841302
102	0x3e09754b	0.1342365
103	0xbe8b1a77	-0.2716863
104	0x3e0466e4	0.12929875
105	0x3e5d75ff	0.21627043
106	0xbe8548d1	-0.26032117
107	0x3c7d556e	0.015462263
108	0x3abd7317	0.0014453855
109	0x3e85fc79	0.26169184
110	0x3e183daf	0.1486728
111	0xbdf00bfc	-0.11721036
112	0xbd3ebd81	-0.046567444
113	0xbe7098f0	-0.23495841
114	0x3e466fe6	0.19378623
115	0x3e7b7b4e	0.24558756
116	0x3e340041	0.17578222
117	0xbe251288	-0.1612035
118	0xbe3fa3c2	-0.18714812
119	0xbe38a60b	-0.1803209
120	0xbe210542	-0.15724662
121	0x3df9e636	0.122021124
122	0x3d728d64	0.05921687
123	0x3d7972ec	0.060900614
124	0xbd776e3a	-0.060407855
125	0xbe3a0984	-0.18167692
126	0x3e6ee9aa	0.23331323
127	0xbe53bf24	-0.20678383
128	0xbe4b7f30	-0.19872737
129	0x3d79f8c2	0.06102825
130	0xbe22d86c	-0.15902871
131	0xbd5a9672	-0.053366132
132	0xbe11d463	-0.14241175
133	0x3e75469c	0.23952717
134	0x3e2c89d4	0.16849452
135	0x3e05c906	0.13064966
136	0x3e267811	0.16256739
137	0xbe173685	-0.14766891
138	0x3e5427f0	0.2071836
139	0x3c723b8f	0.014784708
140	0xbda809bb	-0.08204981
141	0xbd96adc7	-0.07357364
142	0x3d9c814f	0.07641851
143	0x3e23f0ca	0.16009822
144	0x3d836d75	0.06417362
145	0xbdb3c9c2	-0.087787166
146	0x3ddb6000	0.1071167
147	0x3d7c8324	0.061648503
148	0xbd5c572e	-0.05379408
149	0x3e33a107	0.17541896
150	0x3ce5bb11	0.028043302
151	0x3e911098	0.28332973
152	0x3c3bf8ba	0.011472875
153	0xbe46b416	-0.19404635
154	0xbe453e75	-0.19262107
155	0x3e04f7c2	0.12985137
156	0xbd412d22	-0.047162183
157	0x3ddbfe83	0.10741904
158	0x3debb06d	0.1150826
159	0xbe373b95	-0.17893822

classifier.1.bias f4 [10]
0	0xbdbe7ec6	-0.09301524
1	0x3e29e42e	0.1659095
2	0x3dc2f562	0.09519459
3	0xbe1f9262	-0.15583184
4	0x3da410cb	0.080110155
5	0xbe687083	-0.2269917
6	0x3cc0b03e	0.023521539
7	0xbdc29c21	-0.095024355
8	0xbbf37c7f	-0.0074306126
9	0x3d3c5aca	0.04598502
