Cifar/reek_cifar10_model_10Models_finalResult/4_model_.pt (torch, 120513 bytes, 12 tensors)

conv1.weight f4 [16, 3, 3, 3]
000000 fe c9 1d be 5d 68 25 3d 66 6e 89 3d 43 84 03 3e
       -0.15409085 0.04038273 0.0671051 0.12843423
000010 55 93 3d 3e 36 c5 03 3d 80 2b 13 be a5 cc 0d 3e
       0.18513234 0.032170497 -0.14372063 0.13847597
000020 3a c0 34 3e 64 dc 4d be fb d6 45 3d d6 e8 57 be
       0.17651454 -0.20103604 0.048300724 -0.21084914
000030 c0 38 fa bd d6 52 45 bd a2 b3 3f be 87 5a ef bd
       -0.122178555 -0.0481747 -0.18720868 -0.116871886
000040 7d 7d 28 3e eb 3b 61 3d e6 c0 b1 bc 36 62 29 be
       0.1645412 0.054988783 -0.021698426 -0.16541371
000050 92 04 a0 3d 21 0b 76 3d 52 91 28 be 73 a2 2a be
       0.07813372 0.060069207 -0.16461685 -0.16663532
000060 4a 5d 26 3e b0 7d 94 bd 40 d0 34 be 40 81 99 bc
       0.16246524 -0.072505355 -0.17657566 -0.018738389
000070 f7 fb 95 bc 6e a2 3a be bb fd 09 3e 02 a7 16 3e
       -0.018308623 -0.18226025 0.13475697 0.14712146
000080 de 84 af bd 13 40 60 bc a1 68 e9 3d e2 c9 57 3e
       -0.08570264 -0.0136871515 0.113969095 0.21073106
000090 17 7d 36 bd f5 7a 2c 3d fc 7a ab bd 4d 36 16 be
       -0.04455289 0.04210945 -0.08373067 -0.14669152
0000a0 07 f1 17 3e 70 97 88 3d a9 48 f3 3c 29 0c 23 3e
       0.14838038 0.066695094 0.029697733 0.15922607
0000b0 73 7f 22 be 74 71 6b bd 81 0e 2d 3e 69 bc 02 be
       -0.1586893 -0.057481244 0.16900064 -0.12767185
0000c0 ef 5a 8c 3d 74 7c 45 bd 8d 08 a7 bd 38 52 a2 3d
       0.06853282 -0.04821439 -0.08155928 0.07925838
0000d0 97 fa 25 be b6 56 ea 3d 2f 4b 76 3d 2e d3 1f be
       -0.16208874 0.1144232 0.060130294 -0.15607902
0000e0 63 15 c1 3c 97 bb 2b 3d 24 d8 4f 3d bf 05 07 be
       0.023569768 0.041926946 0.050743237 -0.13185786
0000f0 6e de e2 3d 67 a3 de 3d 2f fe a7 3d 6a b7 2b 3e
       0.11077581 0.1087101 0.082027785 0.16769186
000100 2a b8 28 be 25 ef 18 3b 04 80 26 3e 9b 3e e0 bd
       -0.16476503 0.00233359 0.16259772 -0.10949441
000110 74 fc e4 3c 9a 3c 7d 3d 7f e1 78 bc b5 39 38 be
       0.02795241 0.061825372 -0.015190481 -0.17990763
000120 2a 78 20 3d 8d b6 aa 3d 3b c7 0a bd c7 62 c1 bc
       0.039177097 0.083356 -0.033881407 -0.023606671
000130 3e 8b 0b 3e ed 6a 3f be c2 37 1a 3e 12 e5 21 be
       0.13627335 -0.18693133 0.15060332 -0.1581004
000140 da 31 05 be e3 a8 ac bc 85 0e 6e bd b7 c3 22 3e
       -0.13007298 -0.021076625 -0.058119316 0.15894972
000150 d8 4c a2 3c 48 c6 ce bd a6 25 44 3c 80 4b 24 be
       0.019812033 -0.10096413 0.011971867 -0.16044426
000160 b3 16 df bd 6e 65 81 3e 61 40 07 bd 1e a8 32 be
       -0.108930014 0.25272697 -0.03302038 -0.17446944
000170 ae 75 6d 3d 75 91 1b bc 10 3a f8 bc 65 8e 33 3e
       0.057973556 -0.009495129 -0.030301124 0.17534788
000180 e6 6e 9c bd bc ab 0a 3e f1 ec 56 bd 59 9b 3a be
       -0.0763834 0.13542074 -0.05247206 -0.18223323
000190 1d 71 24 be 88 4c c3 3d 9a 02 4e 3d b3 48 74 bd
       -0.16058774 0.095360816 0.05029545 -0.059639644
0001a0 62 23 01 3e 0b be d3 bd f5 84 53 3c e9 e3 93 bd
       0.12611154 -0.10338982 0.012910117 -0.07221205
0001b0 9c 50 60 3e 64 4d 23 3e 2b e6 b6 bd 1b 71 55 3d
       0.2190575 0.15947491 -0.0893062 0.05210982
0001c0 fd c8 00 be b0 e7 05 be 13 8c 57 be 5a 52 55 be
       -0.12576671 -0.13076663 -0.21049528 -0.20832196
0001d0 1d e2 4f 3e eb f0 28 3e 78 6d 45 3e fd 54 33 3e
       0.20301099 0.16498153 0.1928004 0.17512889
0001e0 45 58 0a be fe 46 19 bd 69 af 0c 3d b8 26 5f be
       -0.13510235 -0.03742122 0.03434697 -0.21792114
0001f0 36 f0 01 be 34 ad ff 3d d6 25 a4 bb f3 18 7c 3e
       -0.1268929 0.12484208 -0.005009393 0.24618892
000200 8e 69 d4 3c 2b 07 bf bc 1e b0 27 be 25 84 22 be
       0.025929239 -0.023318848 -0.16375777 -0.15870722
000210 e1 c0 b9 bd b0 1e c4 bd 78 e8 35 3e 2b bf c0 3c
       -0.09069992 -0.09576166 0.17764461 0.023528656
000220 4a f1 23 3e a2 e1 2a 3e 37 ee 7b 3c 70 a5 b8 3c
       0.16010013 0.16687635 0.015376619 0.022539824
000230 a0 c2 7d 3d 11 c9 8b bc 05 28 3a 3e ad 3c df 3d
       0.061953187 -0.01706365 0.18179329 0.10900245
000240 c5 54 8a bc 1f 80 2d 3e c5 24 2d 3e 08 67 67 3d
       -0.016886124 0.16943406 0.16908558 0.056494743
000250 fc 86 c3 bc f8 87 88 bd bd 74 1d 3e 65 03 a7 bd
       -0.023868077 -0.06666559 0.15376563 -0.08154944
000260 df 45 89 bb 68 d6 d6 3b fa a9 3f 3d 07 3f 07 bc
       -0.0041892375 0.006556321 0.04679296 -0.008254773
000270 37 43 26 be 12 fc 2f be fb 6c 36 be 92 f8 21 bd
       -0.16236578 -0.17186001 -0.1781501 -0.039543696
000280 a6 5a e1 bc f9 cf 8d 3d 6c e7 fe bd e8 69 9c 3d
       -0.027509045 0.06924433 -0.12446484 0.076373875
000290 18 88 77 3c 8d 8e 70 be 4c 5a db 3d 9e 34 8d be
       0.015108131 -0.23491879 0.10710582 -0.27579206
0002a0 c5 a7 17 3d 67 1b a3 3a b5 d7 3d bd be 28 96 3d
       0.037025232 0.001244408 -0.046348292 0.0733199
0002b0 2d b0 c5 3d fe e2 0f 3e dc 75 1c be 87 ac fd bd
       0.096527435 0.14051434 -0.15279335 -0.123864226
0002c0 db 25 db bd 32 94 80 bd 91 02 98 3d 46 2d 76 bd
       -0.1070058 -0.06278266 0.074223645 -0.06010177
0002d0 3e bd cf 3d bf 07 74 bd 96 25 00 3e 55 ea b6 bb
       0.10143517 -0.0595777 0.12514338 -0.005582134
0002e0 fd 65 0d 3e 05 00 03 3e 73 6a 16 3e b1 6a f9 bd
       0.13808437 0.12792976 0.14689045 -0.12178553
0002f0 5e 09 29 3e ca 9b ff bc 3e c9 32 3e e3 bc 07 be
       0.1650748 -0.031202216 0.1745958 -0.13255648
000300 4f 76 b2 bd b5 28 11 be fd a9 22 3e 56 4f 27 3d
       -0.08713972 -0.14175685 0.15885158 0.040847145
000310 08 39 9b 3b ff f0 07 3e 7c ad a2 bd a9 6e fd 3d
       0.0047370233 0.13275526 -0.07943246 0.123746224
000320 2e 6c 60 bd fe 21 fe 3d 8f 8a d8 bc cb 2d cf 3d
       -0.05479067 0.12408827 -0.026433257 0.10116156
000330 a4 92 2c be 93 82 30 3e 55 dd ed 3d 04 f3 24 bb
       -0.16852814 0.1723731 0.11614481 -0.0025169263
000340 73 67 20 3e 87 ab 3f 3d 3c 1a 41 bd 76 b2 aa 3b
       0.15664463 0.04679444 -0.04714416 0.0052092625
000350 99 32 e6 bd 8a 98 ca bd 60 a8 f3 3b ec c7 24 be
       -0.112401195 -0.09892376 0.0074358433 -0.16091889
000360 2b d7 ca 3d 89 65 d0 bc bc ac 8d bc 9a c6 04 3e
       0.09904321 -0.02543904 -0.01729428 0.12966385
000370 50 28 bb 3d 90 9d 1f 3d 5f af 94 3a 53 27 23 3e
       0.091385484 0.038968623 0.0011343769 0.1593297
000380 20 3e 94 bd 6e 8b 9c 3b 01 b8 1c be aa de dd 3d
       -0.07238412 0.0047773635 -0.15304567 0.108334854
000390 38 40 06 bc 35 86 f3 bd a9 85 35 3e a2 c7 1c bd
       -0.008194022 -0.11890832 0.17726769 -0.038276322
0003a0 e3 a3 c5 3d cb f9 30 3c 85 06 bb 3d aa 26 64 3e
       0.096503995 0.010801743 0.09132103 0.22280374
0003b0 29 d0 9e 3d 04 df ea bd 7b da 06 3d 7b 20 0d 3e
       0.07754547 -0.11468318 0.032923203 0.13781922
0003c0 53 7b 24 3e c1 ee 53 3e 38 e4 44 3e f0 b0 27 bb
       0.1606267 0.20696546 0.19227684 -0.002558764
0003d0 eb 36 1e 3e 52 85 26 bd 1d a3 43 bb 5c 02 09 be
       0.15450637 -0.040654488 -0.0029851862 -0.13379806
0003e0 bb 13 12 3e d8 67 de bd 72 6e 05 3d 4e 46 b0 bc
       0.14265339 -0.108596504 0.032576032 -0.021517899
0003f0 6a 1d 31 3e a7 49 7e bd 0a f4 b2 bd f0 2e 8d bd
       0.17296377 -0.06208196 -0.08737953 -0.06893718

conv1.bias f4 [16]
000000 ad 1f 56 be 8e d0 2b be f2 06 a4 3d 5e 06 0c bc
       -0.20910521 -0.16778776 0.08009137 -0.00854644
000010 f2 99 8e bd 9f 2b 84 bc 8f 95 82 3d 44 c4 2c 3e
       -0.069629565 -0.016134081 0.06376182 0.16871744
000020 d7 33 17 3e 11 38 07 3e 87 fe 7a 3d 0e 34 82 3d
       0.14765869 0.13204981 0.061277892 0.06357585
000030 04 7f 09 be f4 e2 6f bd 44 01 80 3d bb dc 8f 3e
       -0.13427359 -0.05856605 0.062502414 0.2809809

conv2.weight f4 [64, 16, 3, 3]
000000 d9 9d 05 b9 31 bb 6f bd e1 5d 82 bb 57 b2 9f bd
       -0.00012742671 -0.05852813 -0.0039784764 -0.077976875
000010 98 1c ac bd 0f da 5d bd 65 15 10 3d 51 5a 07 3b
       -0.08403891 -0.054163035 0.035176653 0.0020653198
000020 e0 1d 43 bb df fd 09 be 40 ef f4 bd c7 3f d7 bd
       -0.0029772446 -0.1347575 -0.11959696 -0.105102114
000030 4b a1 6e bc 95 7e 99 bd 4c 50 ba bd a3 92 72 3d
       -0.014564822 -0.07494847 -0.09097347 0.059221875
000040 af 3e 5f bc c0 08 77 3c 25 a4 b3 bc 75 08 05 be
       -0.013625785 0.01507777 -0.021928856 -0.12991507
000050 34 99 45 bd 21 a0 4a bc af c9 be bc 8c 05 15 bd
       -0.04824181 -0.012367279 -0.02328953 -0.036382243
000060 be 67 2d bc 2d 6f 81 bd 68 44 54 3b 6c d6 05 bc
       -0.010583816 -0.06320033 0.0032389406 -0.008168798
000070 68 7e b8 3c 83 79 de bc 93 37 81 3d 1a 2d c8 3a
       0.022521213 -0.02715755 0.06309428 0.001527223
000080 dc 69 49 bd ba 05 b6 bd b1 44 b6 3c 0f 2d 40 3d
       -0.04917322 -0.08887811 0.022249551 0.04691797
000090 03 09 5a bd df 53 b8 bd ee b9 ef bb 6f 0f 4c bd
       -0.05323125 -0.09000372 -0.0073158657 -0.049819406
0000a0 f1 15 55 bd d0 b4 1b bd fd 7b 26 3d ba 5e a5 bd
       -0.052022878 -0.038014233 0.04064559 -0.08074708
0000b0 1f 58 0c 3d 14 b9 ec bd 2b 78 5e bd 5f 33 c7 ba
       0.034263726 -0.11558738 -0.05431382 -0.0015197805
0000c0 2a 3d 73 bc 00 de e2 bd 81 f0 8d bd cf 7a a4 3c
       -0.014846126 -0.110774994 -0.06930638 0.020078091
0000d0 03 6e 32 bc f0 e1 15 3d fa e0 00 3e 76 a3 23 3b
       -0.010890487 0.036592424 0.12585822 0.0024969256
0000e0 06 94 8e 3d 41 b1 eb 3d ae e5 ec 3d f7 85 cc 3d
       0.06961827 0.11508418 0.115672454 0.09986489
0000f0 c3 ae 87 bc 79 ec 1a 3d b6 5f 21 3c 50 8c 29 3d
       -0.016562825 0.037823174 0.009849479 0.041393578
000100 62 88 08 3d 8c 83 c2 bd 51 57 69 3d 76 22 d3 3b
       0.03333319 -0.09497747 0.056968037 0.006443317
000110 f5 03 87 bd c4 f0 8a bd 5a 8d 29 3d 02 7a fb bc
       -0.065925516 -0.06784204 0.04139457 -0.030697826
000120 2c 2d 16 3d de 06 35 bd 9b 8d 37 3b d1 c8 7d bc
       0.036664173 -0.044196002 0.0028007987 -0.015489773
000130 c7 a0 90 3d 18 63 9e 3d 44 a4 65 3b 21 40 90 3d
       0.07061916 0.077337444 0.0035040537 0.070434816
000140 25 fa 1e bc 01 72 6c 3c 59 e7 21 bd 8f 5e 7e bd
       -0.009703194 0.0144314775 -0.03952727 -0.062101897
000150 d2 80 cc bd cd 5d c0 bd 4b 47 b0 bb 80 27 32 bd
       -0.09985508 -0.09392891 -0.0053795925 -0.0434947
000160 0f 9a 34 bd 65 6b 64 bd a3 0f 09 3d 6c 7b 32 bc
       -0.044092234 -0.055766482 0.033462178 -0.010893684
000170 17 21 a2 bc 6f c1 a9 3d 02 97 f7 bc 67 02 f2 3c
       -0.01979117 0.08288848 -0.030223373 0.029542161
000180 3a ac a0 3d 26 ba b6 3c ce 5f 40 bd 74 d8 4f bd
       0.078453496 0.02230556 -0.046966366 -0.050743535
000190 6e 06 83 bd 14 cf 01 bc 56 87 88 3d b0 69 a5 bc
       -0.06397711 -0.007922906 0.06666438 -0.020191997
0001a0 b5 eb 62 bc 61 e3 76 3c 6f 97 50 3d 45 00 5f bc
       -0.013850142 0.01506886 0.05092567 -0.013610904
0001b0 f8 af 84 3c e7 e4 af 3d 29 88 6c bd 7f ff 42 bc
       0.01619719 0.085885815 -0.05774704 -0.011901735
0001c0 cc 68 58 3d 56 e3 f4 3c 04 b0 ba b7 ad 72 db bc
       0.052834317 0.029893558 -2.2254892e-05 -0.02678808
0001d0 f0 83 1a 3d 33 4e 7c 3d e7 06 36 bd b0 e7 13 3d
       0.03772348 0.061598014 -0.044440176 0.036109626
0001e0 db 2f 70 3d bf 24 37 3d 62 04 b7 3c 98 34 d3 ba
       0.05863939 0.04471278 0.022340957 -0.0016113697
0001f0 40 b4 28 3c 76 38 a1 3d 0d 4a 25 3d 2e 58 c0 3d
       0.010296881 0.07872097 0.040353823 0.09391819
000200 5c 58 9b 3c d0 47 15 bd f9 89 39 3d 08 19 e9 ba
       0.018963031 -0.03644544 0.045297597 -0.0017783949
000210 18 de 1a 3d 2e af f2 3c 4e d1 b2 3c 43 99 1f 3d
       0.03780946 0.029624548 0.02182832 0.03896452
000220 04 07 a3 37 c1 1b 47 3d 09 d3 76 3b 2b 15 c5 3c
       1.9434381e-05 0.048610453 0.0037662408 0.024057945
000230 94 8b b6 3d 88 4e 3e 3d 0d aa df 3b 84 c7 91 3d
       0.08913341 0.046461612 0.0068256916 0.07118133
000240 f5 07 62 3c 94 02 bd bc 19 8d 6f 3d 1c cc 89 3d
       0.013795842 -0.023072518 0.05848417 0.06728384
000250 6d ac 23 bd a9 1b 08 3c 14 8b 54 b9 37 80 84 3d
       -0.03995936 0.008307376 -0.00020269706 0.064697675
000260 cb 08 c3 3d 15 58 ce bc 70 fc 4f 3d f8 d3 9a 3d
       0.095231615 -0.025188485 0.050777853 0.07559961
000270 37 5b 80 3c 40 93 b3 bb 96 74 0c bd f0 1f 7c 3d
       0.015668495 -0.0054802 -0.034290873 0.061553895
000280 8e d6 d8 3d b1 32 4b bd ad bd 51 3d b4 ac 54 3d
       0.10587798 -0.04960889 0.05120628 0.051922515
000290 55 34 97 3d 8d d8 9e 3d 32 98 f1 3d 0b 70 c7 3d
       0.073830284 0.077561475 0.11796607 0.097381674
0002a0 c9 54 2e 3d 12 25 aa 3d 03 84 35 bc a6 a2 19 bd
       0.042561326 0.08307852 -0.011078837 -0.03750863
0002b0 6f 28 d2 3d de 7e 03 3d 8c 81 84 bc e8 4b 12 bc
       0.10261618 0.03210341 -0.016175054 -0.00892923
0002c0 88 28 ad 3c 59 38 e1 bc 47 cb 4e 3b 4d 69 86 3d
       0.02113749 -0.027492689 0.0031554268 0.06563053
0002d0 35 f6 b0 3d 10 e8 f7 bc 76 ad 12 bd 6e 67 d0 bc
       0.0864071 -0.030262023 -0.035809956 -0.025439944
0002e0 e7 8d bb bc 72 e3 58 bd 50 c9 df bc 0e 2c 3e 3c
       -0.022894813 -0.052951284 -0.027317673 0.011607183
0002f0 1a 1d 5e 3b 43 fd 40 bd 89 f6 91 bd 5d 48 97 3d
       0.0033891858 -0.04711653 -0.07127101 0.07386849
000300 80 4c 85 3d 2d 62 44 3d 50 96 70 3d 01 cc 8a 3d
       0.06508732 0.04794519 0.0587371 0.06777192
000310 7a 11 39 3d e7 d2 91 3c a8 c2 a5 bd 66 1a 27 bd
       0.045182683 0.017800761 -0.08093768 -0.04079666
000320 85 ff 56 bd c5 ec 65 3d 03 8b 71 bd d2 3b 51 3d
       -0.052489776 0.056134004 -0.058970463 0.05108244
000330 6e 19 bb bc 5a 95 5f 3d 03 e3 4f bd 4a 72 51 bd
       -0.022839274 0.054585792 -0.050753605 -0.051134385
000340 03 d3 a4 3d 5b 0a 91 bb a1 57 78 bd a3 4a 9a 3d
       0.0804806 -0.0044262833 -0.060630444 0.07533767
000350 10 a5 9e bd a3 57 bf 3d 59 26 09 bd 32 8b 40 3b
       -0.07746327 0.09342887 -0.033483837 0.0029379842
000360 60 26 2e bd e4 7d a9 bc d3 04 88 bb d2 e4 8d 3c
       -0.042517066 -0.020689912 -0.0041509657 0.017321024
000370 ff 36 50 3d d0 2d 29 38 e1 c8 2f bd 03 04 bc bb
       0.0508337 4.0335406e-05 -0.042916182 -0.005737783
000380 3f 16 b3 bc ea 4c 14 bc 73 f4 59 bd 72 39 6e 3d
       -0.021861194 -0.009051541 -0.05321164 0.058160253
000390 22 d5 13 bd 01 df 06 bd 69 bb 62 bd 4e ea 6e 3d
       -0.03609193 -0.032927517 -0.05535451 0.05832892
0003a0 d0 69 5e 3d 77 82 57 3d 49 13 80 3d 5b a3 d3 bb
       0.05430013 0.052614655 0.06253678 -0.0064586825
0003b0 24 56 58 bb 4c c0 78 3c 0f 5c e1 3c ae 4a 87 bd
       -0.0033010328 0.015182566 0.027509717 -0.06606041
0003c0 70 09 46 bd 93 14 bf 3d b2 18 a0 bd 92 dc ce bc
       -0.048348844 0.09330096 -0.0781721 -0.02525166
0003d0 a9 ca 68 3d 9b 8d 13 bd 49 76 a4 3d 12 55 1d bd
       0.056833897 -0.036023717 0.080303736 -0.038411207
0003e0 85 73 59 bd 36 07 c8 3d ed 30 7f bd 9a 51 aa 3a
       -0.053088684 0.097670004 -0.06230252 0.001299429
0003f0 a0 08 68 bd d1 a9 4e 3d c1 2c c6 3b c4 42 5c 3d
       -0.05664885 0.05045492 0.0060478156 0.05377461

conv2.bias f4 [64]
000000 bd 02 99 3d c6 60 3a bd ec b0 d1 3c ca 7e fc bb
       0.074712254 -0.045502447 0.025597058 -0.007705544
000010 77 ab 87 3d 50 a7 0f 3d fc 6e 58 bd 0c 1c 96 3d
       0.06624501 0.03507167 -0.052840218 0.07329568
000020 4b 4f 67 3d 9d 62 ce 3d 9c 43 86 3d 34 dc d5 bd
       0.056472104 0.10077403 0.06555864 -0.10442391
000030 b9 7e b3 bc 66 db 6c 3d 0f 3d f3 bd 3e b4 e4 3d
       -0.021911012 0.057826422 -0.118768804 0.11167191
000040 e2 2e 29 bc 94 93 f9 3c c9 69 7b bd f0 8b 01 bc
       -0.010326119 0.030465879 -0.06138018 -0.007906899
000050 bd f3 d7 bd ac 5c a6 bd ed e6 20 bd 30 93 b5 3d
       -0.10544536 -0.081231445 -0.039282728 0.088659644
000060 18 ce f4 bd 6f cd 2c 3d 93 ba e6 3c db 97 81 3c
       -0.11953372 0.042188104 0.028165137 0.01581948
000070 c1 82 00 3e bf b7 e1 3c e7 97 bd 3d 45 ef 37 bc
       0.12549879 0.027553437 0.09257489 -0.01122648
000080 91 8d 90 bd 36 4a a9 bc 00 79 a2 bd b3 d6 84 3d
       -0.07058252 -0.02066527 -0.07933235 0.06486263
000090 10 dc c5 3d 1f 1b bb 3d 9d c9 07 3e 3f f5 ac 3c
       0.09661114 0.09136032 0.13260503 0.021113036
0000a0 91 69 df bb 34 43 18 3d 40 b3 5c 3d 09 0a c3 3d
       -0.0068180044 0.037173465 0.053881884 0.095233984
0000b0 d5 20 af ba c6 6a 02 3e 39 2b 98 bd 8e d1 ef bd
       -0.0013361225 0.12736043 -0.07430119 -0.11709891
0000c0 3a ad 8c 3d a7 32 89 3d 6e ce 15 3e 9d a9 80 3d
       0.06868978 0.06699114 0.14629528 0.06282351
0000d0 69 94 c9 3a 25 b8 9e 3d 01 a4 e8 3d 9c f6 ad 3c
       0.0015379313 0.077499665 0.11359406 0.021235757
0000e0 f6 fc 29 ba 2b 00 d8 3d 04 cd e1 3d e4 a5 1f bd
       -0.00064845325 0.10546907 0.11025432 -0.038976565
0000f0 bc 41 f2 3c c4 fe 88 bd 47 e3 13 3e ac e8 ae 3d
       0.02957236 -0.06689218 0.14442168 0.085404724

conv3.weight f4 [20, 64, 3, 3]
000000 d1 93 cc 3c d1 8b f6 bb 41 f8 86 3c 3a 51 93 3d
       0.024972828 -0.0075239916 0.016475799 0.07193227
000010 12 36 eb 3b e7 f0 0a 3d 34 ee 64 3c 72 eb 11 bc
       0.0071780765 0.03392115 0.013972808 -0.008906232
000020 96 0d 76 3d 2d 41 2a bc 78 83 71 3c 4e 73 b9 3c
       0.06007155 -0.010391516 0.014740817 0.02263799
000030 c4 67 3d bd 4a e4 33 3c f4 0b 97 3c 7b 0c d8 3c
       -0.046241537 0.010979721 0.018438317 0.026373139
000040 77 77 3b 3d e4 2e 6c 3c 55 1c 2e 3d c6 00 8e bc
       0.045768227 0.0144154765 0.04250749 -0.017334353
000050 e2 58 17 bd f1 ae 2c 3d bd 8a 4f 3d c5 0c 67 3c
       -0.03695 0.042159025 0.05066942 0.014102166
000060 3e 83 64 3c 7d 5c 8a 3c e8 37 30 3d a4 f8 09 3b
       0.013947306 0.016889805 0.043022066 0.0021052742
000070 b5 1b ce bc a5 63 65 bc bf a7 cd 3c 4f dd 1c 3d
       -0.025159696 -0.014000808 0.025104402 0.038296994
000080 c9 2c fe bc e5 05 40 3c 82 52 4e 3d 75 9d d8 3c
       -0.031027215 0.011720155 0.050371654 0.026442269
000090 69 b8 f6 bb a4 d6 c2 bc dd 3d 93 bc 56 6e 4b 3d
       -0.0075293076 -0.02378399 -0.017973835 0.04966577
0000a0 0c 4d da 3b 56 69 ce 3c 4f be a0 3c 8f 41 47 3d
       0.0066620167 0.025196712 0.019621996 0.048646506
0000b0 8f 66 6e bc 6f b6 74 3c 12 be 3d 3d c7 c4 b4 3c
       -0.014550819 0.014936074 0.046323843 0.022066487
0000c0 90 7d 76 bc 1b 08 08 3d f3 f4 21 3d 8a 62 5d 3c
       -0.015044585 0.033210855 0.039540242 0.013512263
0000d0 18 a9 7c 3d d6 53 3e 3d 7b 7b ed bc 40 d3 06 bd
       0.061684698 0.04646667 -0.028989544 -0.032916307
0000e0 e9 13 28 bd 3b fa 6d bc a1 7c 01 bd 4b c3 4f bd
       -0.041034613 -0.014524992 -0.031612996 -0.050723355
0000f0 f7 3f db 3c 26 e9 07 3d 86 a4 8c 3b f7 2a 5e 3c
       0.0267639 0.033181332 0.0042920737 0.013560048
000100 55 0a c3 3b 35 17 1a bd 32 2c 96 bc cb 2f 36 3d
       0.0059521594 -0.03761979 -0.01833162 0.044479173
000110 0b ae 04 3c 48 d5 87 bc dc 45 aa 3b 0a 91 bb bc
       0.008098136 -0.016581193 0.005196316 -0.022896308
000120 1d 9f be bc 30 12 51 3d 97 c7 10 3d 13 98 8a 3c
       -0.02326923 0.051042736 0.035346594 0.016918218
000130 98 c7 72 3d 3a b1 18 3d a1 79 e4 3c b9 92 cb 3a
       0.05927238 0.03727839 0.027890028 0.0015531398
000140 93 d9 3a 3d a9 9b ea 3b 00 a3 b0 3b 7b 44 54 bd
       0.04561765 0.0071596694 0.005390525 -0.05182312
000150 3a 0f 89 3d bd 8c 71 3c 2a 28 43 3d 64 a3 65 3d
       0.06692357 0.014743027 0.047645725 0.056064025
000160 80 d3 19 3b 79 df a5 3c 23 e1 76 bd 1d f4 5a bd
       0.002347201 0.020248162 -0.0602733 -0.05345546
000170 b9 d7 34 bd 96 8a 0d bd 87 28 0e bd 11 ec 04 bd
       -0.04415104 -0.034555994 -0.03470662 -0.032451693
000180 cc ba 6f bc 67 cb 66 3c 6e ee 56 3c ad ff b6 3b
       -0.014631938 0.014086581 0.0131183695 0.005584678
000190 20 40 29 3d 17 01 58 3c 76 04 46 3d 07 ff 47 3d
       0.04132092 0.013183854 0.048344098 0.048827197
0001a0 b3 2b 36 3c 73 29 b1 3c b2 34 44 3d 23 18 24 3d
       0.011118817 0.02162621 0.047901817 0.04006208
0001b0 b6 b3 8c bc ab 5d 9a bc 0c 8f 1c bc da d0 a0 3c
       -0.017175537 -0.018843492 -0.009555589 0.019630838
0001c0 bc ea de 3c 01 30 2c bc b3 9f 4e 3c 46 76 8a bc
       0.02721154 -0.010509492 0.012611317 -0.0169021
0001d0 b6 32 95 bc 1f 21 a5 bc 5c 5e d0 3b 11 91 20 bd
       -0.018212657 -0.020157395 0.0063589048 -0.039200846
0001e0 30 c9 43 bb d2 ab 61 bd 94 58 92 3b 61 27 39 bd
       -0.0029874556 -0.0550955 0.0044661257 -0.04520357
0001f0 8e eb 9c 3b 6a fe cf bc 1c ce 0f 3d f2 e4 26 3d
       0.0047888225 -0.025389869 0.03510867 0.040745683
000200 b2 67 ac 3c 63 17 3c bb 01 2e fa bc 1e 82 98 3b
       0.02104554 -0.0028700463 -0.030539514 0.004654183
000210 de d0 70 3d 0e 42 ed 3c 07 32 3b 3d 95 14 20 3d
       0.05879294 0.028962161 0.045702007 0.03908213
000220 fa 3a 9d 3c 5b ee fc 3a 48 60 96 bc 3b 87 ae bc
       0.019193161 0.001929711 -0.018356457 -0.021304717
000230 b5 69 2d bc 1b ea d4 3c ef fb 22 3d 20 ac 13 3d
       -0.010584285 0.025990536 0.039791044 0.036052823
000240 6e ed 32 3d b6 6b e0 bc ef d9 21 bc e5 89 dc 3b
       0.04368346 -0.02739511 -0.00987862 0.0067303055
000250 61 f7 2f 3d 93 20 83 bc a5 14 86 3c c0 4f 3d bc
       0.04296053 -0.016006744 0.016367266 -0.011554658
000260 7d b0 56 3d 8a 24 72 38 c0 5e e6 3c 6e f8 99 bc
       0.052414406 5.7731326e-05 0.028121352 -0.018795218
000270 6f 96 a0 bc 06 53 13 3d 50 d1 2d 3c 31 54 7a 3d
       -0.019602982 0.03596785 0.010608986 0.061115447
000280 0e 4a 3e 3d 87 1a 13 3d 3d e8 81 bc 41 c5 0a 3c
       0.046457343 0.03591397 -0.01585781 0.008469881
000290 a8 35 03 bd 8e ed 4a bd a3 d7 40 bd 2b 96 4a bd
       -0.032033592 -0.049542956 -0.047080647 -0.049459618
0002a0 58 21 a5 bc 65 a7 33 3c 61 df eb 3c bf ba 9a bc
       -0.020157501 0.010965203 0.028793039 -0.018887876
0002b0 c1 15 2f 3c 1b fa 9d bb 64 27 9d bc f8 f1 24 3d
       0.010686339 -0.0048210747 -0.019183822 0.040269822
0002c0 38 75 67 bc e5 b6 cc 3c ec e0 62 3d f4 84 5c 3d
       -0.014127068 0.024989555 0.055390283 0.05383773
0002d0 8c ad 98 b9 bc aa 00 3c ae 2e 02 3c 5a 98 d0 3c
       -0.00029121002 0.007853206 0.0079457 0.025463272
0002e0 33 52 60 bb 69 0c 28 bc 53 1b ff 3c db 76 88 3d
       -0.0034228682 -0.010256865 0.031140959 0.06663295
0002f0 db 54 7c 3d ea cf 9d bc 39 ab 3d bc 2f ca b3 3c
       0.061604362 -0.01926418 -0.011576467 0.021946995
000300 31 a5 30 bd 72 66 22 bd 25 c3 86 3b b8 53 fb 3b
       -0.04312629 -0.03964848 0.0041126185 0.007669892
000310 3e 47 af bb 41 ba a5 bb d6 47 72 bc 9e 9a 71 3b
       -0.005349069 -0.0050576036 -0.014787635 0.003686584
000320 97 3c 0e bd c7 c6 d9 bc 20 f7 0b bd 80 94 3a bd
       -0.03472575 -0.026584042 -0.034171224 -0.045551777
000330 53 a2 5c bc 0e f6 81 bc 0c 08 35 3c 18 72 ec bc
       -0.0134664355 -0.015864398 0.011049282 -0.028862998
000340 fa d5 67 3c bf 67 4a bd 19 bb 02 3b 86 e2 bb bc
       0.014150137 -0.049415346 0.0019947945 -0.022935163
000350 01 de 07 3c d2 e1 32 3c 30 c9 92 bb 8f 75 43 3d
       0.008292676 0.010918098 -0.00447955 0.047719534
000360 81 7f 8c bc 42 4e 5d 3c c4 64 53 3d 81 de 3f bc
       -0.017150642 0.013507428 0.05160977 -0.011710764
000370 b0 d9 0b 3d cd fd ef bc f3 22 93 3b 44 5e 62 3d
       0.03414315 -0.029295826 0.0044902503 0.05526568
000380 02 95 b1 3c de a9 ce bb 35 5c 84 bc 45 8d 3f bc
       0.021677498 -0.006306871 -0.016157249 -0.011691396
000390 e0 37 94 3d 24 2d 02 3d 62 b3 c2 3c a3 c3 a1 3d
       0.0723722 0.03178133 0.023767177 0.07898643
0003a0 94 b7 eb 3c 5e ab 84 3d 40 6b e3 3b 03 22 8b bd
       0.02877406 0.06477998 0.0069402754 -0.067935966
0003b0 21 d8 42 3c 1a 3c 0b bd 3f bc 86 bd e8 68 40 3c
       0.011892349 -0.033992864 -0.06578874 0.011743762
0003c0 ad af b7 3c 02 27 da 3c b2 a9 4a bd 0d b2 1f bd
       0.022422636 0.026629928 -0.04947824 -0.03898816
0003d0 6e 86 ef bc ad 5b 71 ba 49 08 fb bb da 6b 1b bc
       -0.029238906 -0.0009207081 -0.0076609 -0.009486163
0003e0 f2 a8 a4 3c 3e d8 87 3d 21 73 f5 3c e8 37 2b 3c
       0.02010009 0.06633042 0.029962124 0.010450341
0003f0 71 a7 82 bc 8b b6 2a bc 94 02 a7 bc fd 64 0a bc
       -0.015948983 -0.010419498 -0.020386972 -0.008446929

conv3.bias f4 [20]
000000 56 71 0a 3d 3b c7 85 3b 39 a3 82 bc 1c 0a 02 3e
       0.03379949 0.004082588 -0.015946971 0.12699169
000010 69 23 26 3d 6a 80 27 bd 00 49 39 3d ec e3 d9 3c
       0.040561114 -0.04089395 0.045235634 0.02659794
000020 31 8a 8e 3c 44 16 8e 3d 7a 7e f3 3c 13 1d c2 bd
       0.01739988 0.069378406 0.029723395 -0.09478202
000030 8f f4 cf bd 7f c1 e6 3d 48 61 f9 3d a5 2e f0 bb
       -0.10154068 0.11267375 0.12176758 -0.007329779
000040 b8 52 0a 3b 56 c1 9f bd 4d 27 9f 3d 24 46 04 bc
       0.0021106433 -0.07800548 0.07771168 -0.008073363

conv4.weight f4 [24, 20, 3, 3]
000000 2d 46 fe 3c 9e ac b4 3c 29 3c 3c 3d e7 a6 54 3d
       0.031039322 0.022054967 0.04595581 0.051916983
000010 eb ff 98 3d 10 0b f8 3b 01 1c bd 3d 64 b8 69 3d
       0.074706875 0.007569678 0.09233857 0.057060614
000020 75 b1 21 3d b2 96 83 3d 62 56 ca bc d1 2d 93 3d
       0.039475877 0.06425227 -0.024699394 0.07186473
000030 a0 b2 b8 bd a5 58 de bd 40 0c e7 bd 75 56 15 3d
       -0.09018445 -0.10856751 -0.112816334 0.036459405
000040 58 0d 7e bd b3 d4 81 bd 68 ae 04 bc 4f e2 8d 3d
       -0.062024444 -0.06339397 -0.008098222 0.069279306
000050 14 6c 26 bd 93 dc 0f bd 5d 6b 32 bd dd 84 cf bc
       -0.040630415 -0.035122465 -0.04355942 -0.025331909
000060 8e 0c c3 3d 4c fe fb 3c 50 2e 2b 3d e3 96 c9 bc
       0.09523879 0.030760907 0.041792214 -0.024608081
000070 cb 80 8d 3d c7 9f 8e bd a9 ff cf 3c 1a 54 85 3c
       0.06909331 -0.06964069 0.025390463 0.016275454
000080 bc 80 8a bd 82 9b bf bc 5b b3 8c 3d 49 4e 51 3d
       -0.067628354 -0.023389582 0.06870147 0.05110005
000090 be 56 09 bd e7 ac 58 bd 50 fc 32 bd 6c e7 a5 bd
       -0.03352999 -0.052899268 -0.043697655 -0.08100781
0000a0 47 a1 b4 3b 1f 66 bb bb da ea ae bc 87 43 f6 bc
       0.00551239 -0.005718961 -0.02135222 -0.030061496
0000b0 6b 2a 31 3c 7e a9 65 bd 92 ad 48 bc 71 c9 ca 3c
       0.010813336 -0.056069843 -0.012248414 0.024754258
0000c0 d6 5c 2f bd d6 fa 2c 3d 6c f2 7b 3d b6 e8 44 3d
       -0.042813145 0.042231403 0.06151049 0.048073493
0000d0 60 f0 b9 3b ba 95 d6 bc f6 3d 4b 3d cf c4 63 3d
       0.005674407 -0.026194442 0.049619637 0.055607613
0000e0 ca df 32 bc d9 ca b9 3c 01 49 3e 3c 70 67 f8 bc
       -0.010917613 0.022679733 0.011614085 -0.03032276
0000f0 d2 01 15 bc dc 8c c3 bd 28 8b 5e bd 9f f0 22 bd
       -0.009094672 -0.09548351 -0.05433193 -0.039780255
000100 2b a2 40 bd 9c 78 83 bd 66 5a 1a 3d 03 1f 7c 3b
       -0.047029655 -0.06419489 0.037683867 0.0038470633
000110 ba dd 68 3d f0 da e8 bc 88 d5 b2 3d 6f 20 85 3d
       0.05685208 -0.02842471 0.08732134 0.06500327
000120 49 22 26 3d d6 44 06 bd 81 78 54 bd e2 50 be 3b
       0.04056004 -0.03278049 -0.051872734 0.005807982
000130 1e cc 96 3d 46 c5 1c bd 5a c1 ec ba f6 d8 17 bd
       0.07363151 -0.038274072 -0.0018062994 -0.037072144
000140 5b ef 23 bd 74 58 85 3c 4f f1 36 bd 9c 41 70 bd
       -0.04002319 0.01627753 -0.044663724 -0.05865632
000150 63 63 12 bd 6a 96 62 3d a5 bd 3d 3d 00 f7 44 3c
       -0.035739314 0.055319227 0.046323437 0.01202178
000160 d6 d8 70 3d 99 8d d3 3b c0 6a 1a bc 59 bc ac 3d
       0.05880054 0.0064560887 -0.009424865 0.08434362
000170 f2 84 47 3d cb 43 9c 3c 22 ce 08 bd 9f c7 77 3d
       0.04871077 0.019075295 -0.03339971 0.060493108
000180 3c a2 a1 3a e2 60 ee bc 0c 63 90 bc 14 ba e9 bc
       0.0012331675 -0.029098932 -0.017625354 -0.028531112
000190 a4 5a 2e 3d d5 8c 6c bc fc f5 7a 3d 9a c6 0a bd
       0.04256691 -0.014437874 0.061269745 -0.033880807
0001a0 6e dd 94 bd 19 00 d5 3d 3d d2 5b 3d 9c 3f b3 bb
       -0.07268797 0.10400409 0.053667296 -0.0054702293
0001b0 29 dd 97 3d c5 fd 5f bd 22 1f 8f bd 39 fe 6c bb
       0.0741523 -0.054685373 -0.0698836 -0.003616227
0001c0 29 52 57 3d 2b 3a b7 3d c9 f0 46 bb d4 8a 8d 3d
       0.05256859 0.089466415 -0.0030355921 0.06911245
0001d0 a2 c2 4e bd ea eb ec 3c 6d d9 99 3d 19 a5 3f bc
       -0.050478585 0.028921086 0.07512174 -0.011697077
0001e0 55 ba 76 3d 51 9f 98 3d 12 33 59 3d 52 f1 8c bc
       0.060236294 0.07452262 0.05302722 -0.017204914
0001f0 c2 2b 7f 3d 62 19 5c bd b2 cc 35 3d e0 70 99 bc
       0.06229759 -0.053735144 0.044384666 -0.01873058
000200 48 57 65 bd 57 4c 86 3d c4 33 2a 3a 85 71 9f bc
       -0.05599144 0.065575294 0.0006492699 -0.01946331
000210 f8 01 d8 3d 1b fc 3d bd c0 bb ac bc 27 c5 2b bd
       0.105472505 -0.046383005 -0.02108562 -0.041936066
000220 3c c2 9e bc 05 ea 47 3d 90 f6 4e 3d f4 34 bf 3b
       -0.019379728 0.048807163 0.05052811 0.00583517
000230 76 ec b2 3d 09 65 4a 3d c9 c2 37 bb 62 67 5a 3c
       0.087365076 0.04941276 -0.0028039685 0.013330312
000240 75 75 d4 3b 06 fc 80 bc 5a 07 94 bd b2 92 90 bd
       0.0064837285 -0.015745174 -0.07227965 -0.0705923
000250 eb 3b 1b bd fa 52 28 bd 1f 0c 16 3d 66 e4 0c bd
       -0.03789894 -0.041094758 0.036632653 -0.034397505
000260 3e 8c 54 bc 5f 07 43 bd 52 44 61 bd dd 5d 29 3d
       -0.0129728895 -0.04761445 -0.054996796 0.04134928
000270 75 78 f9 3b 6f a1 ef bb 1c b0 98 3d 1f ed c8 3d
       0.0076132366 -0.0073129456 0.07455465 0.09810852
000280 6a 3f 59 bd 26 77 99 bd a3 64 49 3d e4 09 43 bd
       -0.053038992 -0.07493429 0.04916824 -0.047616854
000290 e6 bb 50 bd f1 38 af 3d c0 1a 80 bd bd 14 11 3c
       -0.050960444 0.085557826 -0.06255102 0.008855042
0002a0 78 5c 94 3d 32 0c e5 3d f0 2a e6 3c f9 38 3e bd
       0.072441995 0.11183967 0.028096646 -0.046441052
0002b0 0e ee 99 bd 4c 3e 74 bd 6c 33 2a 3d c0 73 5a 3c
       -0.075161085 -0.059629723 0.041552946 0.013333261
0002c0 2c 6b 08 3d ec 33 b6 bc 2d 38 6d 3d 56 59 f3 bc
       0.033305332 -0.022241555 0.0579149 -0.029705685
0002d0 f5 82 75 bd 76 54 6b bd b1 64 c5 3b 0f 54 4c 3c
       -0.059939343 -0.057453595 0.0060239662 0.012471213
0002e0 33 80 21 bd 46 b3 05 3d 3d b7 c4 3c a6 2e e3 3c
       -0.0394289 0.03264167 0.024013156 0.027732205
0002f0 85 5b e9 3c d6 61 8c 3d 44 7a 31 bd 09 fa 7b 3d
       0.028486023 0.06854598 -0.043329492 0.06151775
000300 1f 69 bd 3d 20 ee 25 3d f0 ca 9c 3d 1c 9e 37 3d
       0.09248566 0.040510297 0.07655895 0.04482852
000310 4c dd 78 3c bd cc c8 3d 7f 77 56 bd 12 e8 0a bd
       0.01518948 0.09804676 -0.052360054 -0.033912726
000320 4f 08 a1 3d 2d 46 82 bb 2c 0a a0 bd ae 1e a3 bd
       0.07862913 -0.0039756508 -0.0781444 -0.07964836
000330 42 07 a7 3d 3a 03 8f 3d 9e 88 02 3c 1f 35 29 3c
       0.08155681 0.06983037 0.007967142 0.010327606
000340 9d 93 22 3d 93 87 ee bc 8b fe a2 3c 1b fc 84 bd
       0.039691556 -0.029117381 0.019896766 -0.06493398
000350 f1 f5 92 bd cb 1d 06 3d 19 5c 02 3d 72 6e 0b 3c
       -0.07175816 0.032743257 0.031826112 0.008510219
000360 c8 34 1a 3d a5 a0 ba 3c 22 25 c9 3c e5 e4 bc 3c
       0.037647992 0.02278168 0.02455384 0.023058364
000370 0a d7 75 3c a8 63 2f 3d 62 10 c3 3d a1 97 52 3d
       0.015004883 0.04281965 0.09524609 0.051414136
000380 34 0f 14 3d 73 94 2a 3c db 39 9d 3d 2f 59 5e 3d
       0.03614731 0.01041137 0.07677051 0.05428427
000390 10 c1 75 3d b0 a4 5c bc b9 3f 92 3c 71 8c 35 bc
       0.059998572 -0.013466999 0.017852651 -0.011080847
0003a0 8e d4 1b bd 02 7a bb 3d f9 78 e0 bd 64 42 bb bd
       -0.038044505 0.091541305 -0.10960574 -0.091435224
0003b0 4f f7 90 bd 82 bb e9 3a 9a 12 dd bd a4 15 d1 bd
       -0.0707842 0.0017832371 -0.107945636 -0.10209206
0003c0 b5 62 0b 3d b2 81 fb bc 8b dd 57 bd 9c 7e 44 3c
       0.03402968 -0.030701492 -0.052701514 0.011993077
0003d0 2d fa 19 bd 71 97 00 bd 9e 57 16 bd c3 2c a8 bc
       -0.0375921 -0.031394426 -0.036704652 -0.020529157
0003e0 d0 49 45 3d e0 0d f6 3b c8 9c 6d bd 1d 8e 2b bd
       0.048166096 0.0075089782 -0.058010846 -0.041883577
0003f0 dd 9d 56 bd d2 f1 78 3d 73 66 25 3d 35 b4 8e 3d
       -0.052396644 0.060777493 0.040380906 0.069679655

conv4.bias f4 [24]
000000 f9 6a 44 bd 25 60 01 3d bd b7 8f bc 59 0b f3 bd
       -0.04795358 0.03158583 -0.017543668 -0.11867399
000010 e5 4f a6 3d 9d a2 43 3d 4b 3d 26 3c d4 c7 e3 bd
       0.081207074 0.047762502 0.010146449 -0.111220986
000020 45 cf 10 3e 64 df 2a 3d c9 05 ab 3d 78 8d 19 3d
       0.14141567 0.04171695 0.08350713 0.03748843
000030 c7 52 83 3b 08 2f 89 bd d5 7f 1a 3c de d9 89 3c
       0.0040076706 -0.066984236 0.009429892 0.01682752
000040 bc b6 35 bd 31 1b db bd 10 38 e1 3d 3b 3b 02 be
       -0.044363722 -0.10698546 0.10997021 -0.12717907
000050 78 5d 5f 3d 59 d0 10 3e 18 1a 8e 3d c5 b9 ed bc
       0.054532498 0.14141978 0.06938571 -0.029019246

conv5.weight f4 [16, 24, 3, 3]
000000 55 10 4c bd 61 b3 e6 bc 8e a3 da bc be 89 16 3d
       -0.049820263 -0.028161706 -0.026689317 0.036752455
000010 52 7b 8f bd 6b 6d 4d bd 9e 2b 4a 3c 05 77 41 bd
       -0.07005943 -0.050153177 0.012339501 -0.047232646
000020 51 ee 48 bd 82 90 6d 3d 7c d0 33 bb 38 7e 0f 3c
       -0.0490554 0.05799914 -0.0027437499 0.00875812
000030 6c d6 08 3a 4b d6 8f 3c 73 69 47 bd 19 43 9a ba
       0.00052199396 0.017558238 -0.04868455 -0.0011769264
000040 d6 cf 06 3d 07 e8 90 3d 35 c3 6c 3d 4d 76 a4 3c
       0.03291305 0.07075506 0.05780335 0.020075941
000050 ce 05 a4 bc 68 92 e5 bc 0a b5 20 3d ec 04 18 bd
       -0.0200223 -0.028023914 0.039235152 -0.03711407
000060 5c 91 2f bd 00 d3 f3 3c b0 f3 14 3d b1 ef 59 bd
       -0.042863235 0.029763699 0.03636521 -0.053207103
000070 46 b7 08 bd 32 8c ac bc a4 d5 3b bd 8c 65 bd bb
       -0.03337791 -0.021062944 -0.04585804 -0.0057799276
000080 da 73 b7 3c e7 9f 91 3c 92 88 4e bd ae 1d 3d bd
       0.02239411 0.017776443 -0.050423212 -0.046170883
000090 6b f8 96 bd 5e ce dc bc a0 56 4f bd 7f c8 0c 3d
       -0.07371601 -0.026953872 -0.05061972 0.034370895
0000a0 c1 19 a6 3c 55 e1 9a bc b4 17 f3 bb 18 a7 6f 3b
       0.020275952 -0.018906275 -0.007418597 0.0036568101
0000b0 4c f6 39 bd 59 a9 59 3d eb 8e cf bb 5c 96 9f bc
       -0.045400903 0.053140018 -0.006334176 -0.019480877
0000c0 f8 e8 3b 3d 94 1e 4d bd d8 a2 bc 3c 85 91 85 3c
       0.045876473 -0.05007799 0.023026869 0.01630474
0000d0 f2 72 3a bd c3 b2 c9 ba 59 5a d5 3c 14 09 4e 3d
       -0.045519777 -0.0015388358 0.026044058 0.050301626
0000e0 e0 b7 0c 3b 15 76 19 3d 10 c9 5b 3d fb 20 ec bb
       0.0021471903 0.037466127 0.053658545 -0.00720608
0000f0 2c 74 2f 3b 6d f4 82 bd 75 21 76 bd 50 96 0e 3c
       0.0026772125 -0.06394277 -0.0600905 0.0087028295
000100 c1 28 26 3d 03 27 07 bd 4b 98 98 bd d9 b5 9c 3c
       0.04056621 -0.03299619 -0.074509226 0.01912968
000110 74 33 be ba 8b d4 1f 3d 2e 8f 86 3d bc 70 f9 bb
       -0.0014511184 0.039021056 0.06570278 -0.007612316
000120 9a 8d 62 3d 3b 62 17 bd f0 07 15 3d d0 90 11 bd
       0.055310823 -0.036958914 0.036384523 -0.035538495
000130 96 29 7b bd 43 a1 67 bd 9c c2 af 3b 8b 30 03 bd
       -0.061318956 -0.056550276 0.0053637754 -0.032028716
000140 70 0d 39 bd fa 7f 75 bd a9 63 88 3c 17 1e 0f bd
       -0.04517883 -0.0599365 0.016649084 -0.034940805
000150 ef 0b 8d bc da 50 18 bd 1c 93 8c bd 56 72 88 3c
       -0.017217604 -0.03718648 -0.068639964 0.016656082
000160 72 15 bd bc 67 f3 f9 bb 34 2c a0 bc ed 66 39 3d
       -0.023081515 -0.007627893 -0.019552328 0.045264173
000170 40 85 12 3d a5 56 3a 3d 49 a4 96 bd 32 31 89 bd
       0.03577161 0.045492787 -0.07355554 -0.066988364
000180 a5 10 85 3d 56 69 97 bc 77 0a 98 3c eb 73 fb 3c
       0.06497315 -0.018482845 0.018559678 0.030694922
000190 59 cd 86 bc 8f 2c 88 bd 52 bf b6 bc 52 cd b1 bc
       -0.01645534 -0.06649124 -0.022308026 -0.02170435
0001a0 14 ec 52 3d ff fa 31 3c 5d 3a 4c bd c7 9e 93 3d
       0.051494673 0.010863065 -0.049860347 0.07208019
0001b0 f1 c8 58 bd a7 39 82 bd 32 df 32 bd c7 9e 2b 3d
       -0.052926008 -0.063586526 -0.043669887 0.04189947
0001c0 78 94 22 3c 00 41 54 3d 7a eb 43 3c 69 bf 51 3d
       0.009923093 0.0518198 0.011957997 0.051207934
0001d0 64 7e 7a bd e2 b4 4d 3c a5 c7 5b bd 64 39 f7 bc
       -0.06115569 0.012555333 -0.053657193 -0.030178733
0001e0 5f d0 89 bd 56 69 60 bd 83 48 06 3c 28 e4 0a 3d
       -0.06729197 -0.054787956 0.008195999 0.033908993
0001f0 d6 de 31 bd b4 d5 16 bb a3 46 88 3d 79 2c fc 3c
       -0.043425404 -0.002301556 0.06654098 0.030782925
000200 f4 4b 42 bc d7 dd 58 bd 10 4d df bb 78 47 1d 3d
       -0.011858929 -0.052945938 -0.0068146065 0.038398236
000210 50 7b 78 3c e0 0c aa bc 4e 8e 4b bd 3f 43 33 3d
       0.015166119 -0.020758092 -0.04969626 0.043765303
000220 f6 1a 5d 3d 48 9f 7a bc f4 2f 96 3c e6 4c e2 bc
       0.05398079 -0.015296765 0.018333413 -0.027624559
000230 d6 b7 db bc e8 9a d8 3c bd 46 c9 bc 94 f2 4f 3d
       -0.026821058 0.026441053 -0.024569863 0.05076845
000240 35 84 c1 3c 0e 74 9e bc b0 96 ac 3c 0e a5 55 39
       0.023622612 -0.019342449 0.021067947 0.0002037475
000250 18 19 81 3d 4c b0 3f bd 70 04 75 3d 40 43 c9 bc
       0.063036144 -0.04679899 0.059818685 -0.0245682
000260 6f a3 89 3d 67 4f 5c 3d 56 69 4e bd 6c a1 63 3d
       0.067206256 0.05378666 -0.050393425 0.055573866
000270 c6 e4 ba 3c 65 cc 7c 3c 04 c0 01 bd 5f 9f 3b bd
       0.022814166 0.015429591 -0.03167726 -0.045806285
000280 34 52 0b 3a 6d 94 26 3d 97 2b 3b bd fb e5 0b bd
       0.00053146784 0.040668894 -0.045695867 -0.034154873
000290 80 94 32 3a 7f 1d d1 3c 08 2b bf bc b6 4c e1 3c
       0.00068122894 0.02552676 -0.023335949 0.027502399
0002a0 63 8e cb 3c 60 34 57 bd 77 00 88 3d 31 16 ab bc
       0.024848169 -0.052540183 0.06640714 -0.020884605
0002b0 3c fd 2f bd f8 0d 47 bd b8 20 20 3c 50 d9 74 bd
       -0.042966112 -0.048597306 0.009773426 -0.059777558
0002c0 c9 bd 8f 3d d7 0f 1e bd 74 2d 90 bc 93 6e c7 bc
       0.070186205 -0.038589325 -0.017599799 -0.024344718
0002d0 4b d0 12 bd 34 89 8f 3c 62 d9 ab bc c7 de 6b 3d
       -0.035843175 0.017521478 -0.02097768 0.057585504
0002e0 00 ad 89 bc 2e f4 30 bd 9b 84 6e 3d 34 ae 86 3d
       -0.016806126 -0.043201618 0.05823193 0.06576195
0002f0 f6 ee 26 bc 71 6b 5e ba 8d 78 99 bd 1e 09 01 3d
       -0.010188809 -0.0008484638 -0.07493696 0.031502835
000300 ed 8a c4 3b 65 49 8d bd c9 84 65 3c e8 43 aa bc
       0.0059980066 -0.068987645 0.014008709 -0.020784333
000310 ee c1 26 bd 2c 5d 35 bd 0a 77 42 bc c9 75 03 bd
       -0.04071229 -0.04427831 -0.011869201 -0.03209475
000320 c5 02 59 bd 5b 27 4d bd f9 38 ac 3c 18 b0 23 3d
       -0.052981157 -0.05008636 0.02102326 0.039962858
000330 5b 1d 7e 3c 3c 7b 54 3a 97 ce 7e 3d 03 b3 7e 3d
       0.015509929 0.00081055216 0.06220874 0.062182438
000340 d1 7c 0e 3d 26 4b c4 bc b9 50 88 bc 70 7f fb bc
       0.034787003 -0.023961615 -0.016640054 -0.030700415
000350 c8 e3 13 3d e6 ce 34 3d d5 b3 a6 bc a8 92 95 3c
       0.0361059 0.044142626 -0.020349422 0.018258408
000360 d6 ac 2a 3d 88 a9 2f 3d 15 32 67 bd e3 b0 52 3d
       0.041668735 0.042886287 -0.056444246 0.051438224
000370 a1 e5 27 3d 25 39 0e 3d 29 df 1f 3d cc 47 95 bd
       0.040990476 0.034722466 0.03903118 -0.07289085
000380 1f 01 25 3d b9 6f 00 3d d8 24 03 bd e7 75 3a bd
       0.040284272 0.031356547 -0.03201756 -0.045522597
000390 52 80 01 3d a1 a0 2b bd c3 5d 01 3d b6 0c 04 bd
       0.031616516 -0.041901235 0.03158356 -0.032238685
0003a0 65 bf bf 3c 26 71 88 bc af eb 77 3d b2 b4 6f 3d
       0.023406694 -0.016655516 0.0605275 0.058521934
0003b0 ef a0 39 3d f0 e0 21 3d 34 e1 91 bd b3 01 1a bd
       0.045319494 0.039521158 -0.07123032 -0.037599277
0003c0 80 77 87 bb 49 e8 45 3d b1 a3 c4 bc 31 2e 22 bd
       -0.0041341186 0.048317228 -0.024003835 -0.039594833
0003d0 e2 88 68 bd f0 09 c1 3c 30 82 8a bd ff 12 bb bc
       -0.056771167 0.023564309 -0.067631125 -0.022836206
0003e0 1e 8d 8d bc 25 1e 6f 3d 58 90 89 bd f0 95 8c 3d
       -0.017279204 0.058378357 -0.067169845 0.06864536
0003f0 5c fd 91 bd 9d f2 90 bd f2 d5 34 3d 65 0d b7 3c
       -0.071284026 -0.07077525 0.044149347 0.022345254

conv5.bias f4 [16]
000000 09 35 11 bd 07 4b 81 bc 38 1c 16 bd 52 e6 8a bc
       -0.03545097 -0.015782846 -0.036648005 -0.016955528
000010 d1 01 60 3c b3 df df bc 6c c1 08 be 98 4d 81 3d
       0.013672308 -0.027328348 -0.13355035 0.06313628
000020 17 9d 0f 3e ca 02 09 3d 2d f3 91 3c 19 0b 3f 3d
       0.14024769 0.033449925 0.01781615 0.046641443
000030 15 71 b2 3d 27 99 a3 3d 62 af 26 bd 38 bd c9 bc
       0.08712975 0.07988196 -0.0406946 -0.02462636

classifier.1.weight f4 [10, 16]
000000 2c 7d 81 3c 33 f3 02 3e 15 8d 4a be ed 3b 37 3e
       0.015806757 0.12788086 -0.19780381 0.17893954
000010 e5 06 c1 3d dd 91 3c 3e 66 2c 77 bd 8a 48 62 be
       0.09425143 0.18415017 -0.060345076 -0.22097984
000020 2c a2 7e 3d 3e a1 d9 3d 99 7e 14 be 92 ad e3 bd
       0.062166378 0.10626458 -0.14501418 -0.1111709
000030 48 aa 0c 3e 39 b1 7a be 3f 91 8a 3e b8 d0 48 3e
       0.13736832 -0.24481668 0.2706394 0.1961087
000040 10 41 86 bd 20 22 1b 3e 54 4d c5 3d 67 cc 8b 3d
       -0.065553784 0.15149736 0.0963389 0.06826096
000050 8e 8d 05 be da fa 45 3e 15 e5 05 3e ea e0 c3 3d
       -0.1304228 0.19333974 0.13075669 0.09564383
000060 f5 37 dc bb f9 64 56 bc 21 4a bb bd a1 bf 25 bd
       -0.006720538 -0.013085597 -0.09144998 -0.040465955
000070 a0 0f 45 be 0a a1 89 3d 60 fd 5c be 5d a6 0c 3e
       -0.19244242 0.06720169 -0.2158103 0.13735338
000080 7f e2 ec bd b0 99 27 3e 49 73 41 bd 0a dc b3 bd
       -0.11566638 0.16367221 -0.047229085 -0.087822035
000090 34 1c 7a 3e b0 81 7c 3c 1a 02 41 bd 3e f1 d7 bd
       0.24424821 0.015411779 -0.047121145 -0.1054406
0000a0 4b 07 85 3e d0 0d 97 3c a6 9b 4a 3e 08 17 24 be
       0.25982127 0.018439204 0.19785938 -0.1602441
0000b0 b0 1e c2 3d 79 e7 bf 3d 8d 30 2e 3e 7f f3 15 be
       0.094785094 0.09370322 0.17010708 -0.14643668
0000c0 08 f0 6a bd b6 e8 ab bd 05 2b 90 3c a0 80 52 be
       -0.057357818 -0.083939955 0.017598638 -0.20556879
0000d0 22 04 0a 3d 23 24 4b be ef e4 80 bd 5b 54 52 3e
       0.033695348 -0.19838004 -0.062936656 0.20539992
0000e0 2c 9f 09 bd 5f c8 66 bd db 7b ab bd 6b b9 d6 bd
       -0.033599064 -0.056343433 -0.08373233 -0.104845844
0000f0 76 80 4e 3e d1 8e 92 3d f8 56 0c bd 81 4a 7b 3c
       0.20166191 0.07156146 -0.034262627 0.015337587
000100 1f 56 32 3e 09 ed bb 3d 91 ad 45 3d f4 5c 35 3e
       0.17415665 0.0917607 0.04826123 0.1771124
000110 69 e8 ef 3d d5 63 5b be a0 c0 45 be f2 d6 2b 3e
       0.117142506 -0.21424802 -0.19311762 0.16781214
000120 5d 6d 12 3e 6e b1 64 3d 8b 47 8b 3e be 96 55 3e
       0.14299531 0.055833273 0.2720302 0.20858285
000130 9c 51 e1 3c b6 73 1f 3e ab e0 b6 3d 76 98 49 be
       0.027504735 0.15571484 0.08929571 -0.19687065
000140 43 c8 55 3e 3e 0b fc 3d 3e 1a 58 be c7 b3 18 be
       0.20877175 0.12306832 -0.2110376 -0.1491233
000150 64 6b d0 3d 38 22 72 be 71 f3 67 3e ea 3b 17 3e
       0.10176733 -0.23645866 0.2265146 0.14768949
000160 cb e2 28 3e 27 0e 7e be bc 40 02 be 5d 6b 3e be
       0.16492765 -0.24810086 -0.12720007 -0.18595643
000170 50 1a 8b 3d e2 87 d2 bd 0e 5d 0d 3e 7e 5d 1b 3e
       0.06792128 -0.10279824 0.13805029 0.15172383
000180 9a 19 68 3e df 77 18 be 98 54 7d 3e 01 02 90 be
       0.22666016 -0.14889477 0.24739301 -0.2812653
000190 3e ad 7f 3e 00 cf 9d 3d 7f 89 42 be 13 5e b7 3d
       0.2496843 0.07705498 -0.18997763 0.0895349
0001a0 5a dc b5 bd 47 26 ca 3d 43 00 86 3e ee 14 96 3e
       -0.08879919 0.09870582 0.26172075 0.29312843
0001b0 43 dd f9 bd 14 9f 96 bd 0a 72 48 3e 10 9c 1c be
       -0.122004054 -0.073545605 0.19574752 -0.15293908
0001c0 e9 c8 70 3d 04 c7 39 bd c0 1c b3 3c b4 ef 25 3e
       0.058785353 -0.04535581 0.021864295 0.1620472
0001d0 73 19 c7 3d 9e 77 8d be fb c1 63 3e 40 e4 b9 3d
       0.09721651 -0.27630323 0.22241966 0.09076738
0001e0 af 06 7d be a5 21 5a 3e 2e 94 3c 3e 35 f1 93 3c
       -0.24709581 0.21301897 0.18415901 0.018059352
0001f0 7d 15 de bd c8 99 2e be c2 3b db 3c c9 da 66 be
       -0.10843942 -0.1705085 0.026761893 -0.22544397
000200 09 7c 29 bc cf a7 eb bd e0 cb 57 3d 26 bb fb 3d
       -0.010344514 -0.11506616 0.052684665 0.12291555
000210 8e b7 43 be af 96 2e bd 54 67 02 bc 76 27 7c be
       -0.1911299 -0.04262417 -0.007959206 -0.24624428
000220 57 c2 8e 3e 03 32 42 3e f4 1d 12 bd d8 d8 22 be
       0.27882645 0.1896439 -0.035673097 -0.15903032
000230 10 d9 51 3e b9 e9 63 3d 30 a0 44 be 23 34 95 bd
       0.20492959 0.055642817 -0.19201732 -0.07285335
000240 05 06 bd 3d fa cd 1f 3e da d8 5b 3e e5 d8 58 be
       0.09229664 0.15605918 0.21469441 -0.21176489
000250 4e d7 84 3b 92 be 85 3d 3c bf 57 3e 4d 01 01 be
       0.0040539866 0.06530489 0.21069044 -0.12598152
000260 1d c4 9e 3d ee 3b 97 3d 5c 2c 6b be 4c 7a 1d be
       0.077522494 0.073844776 -0.2296614 -0.15378684
000270 6b e6 2b be 8f 4d 1c bc 83 ba 21 be 76 32 6f 3e
       -0.16787116 -0.009539976 -0.15793805 0.23359093

classifier.1.bias f4 [10]
000000 b5 84 b2 3c 6d 00 d3 bc a3 c9 29 bd 78 70 c3 3d
       0.021791795 -0.025757039 -0.04145206 0.09542936
000010 5b aa 6c 3d 1d 06 f4 3d f4 f1 3e bd 77 1e 0c be
       0.05777965 0.119152285 -0.046617463 -0.13683496
000020 df db 33 bc f1 03 46 3e
       -0.010977714 0.19337441
