Cifar/reek_cifar10_model_10Models_finalResult/5_model_.pt (torch, 211521 bytes, 12 tensors)

conv1.weight f4 [16, 3, 3, 3]
000000 16 a4 a0 bc 55 ef 0d 3c e2 fc cd 3c 8e cc c2 bd
       -0.019609492 0.008663018 0.025144998 -0.09511672
000010 b1 e2 1e 3e b0 e4 7b 3d b2 25 72 bd 64 b3 e2 3d
       0.15516163 0.06149739 -0.05911798 0.11069372
000020 79 f7 e8 bd e5 df 4c 3e 7e 95 d7 3d 0d 08 1a 3e
       -0.11375327 0.20007284 0.1052656 0.15042134
000030 39 2f 13 bd 71 b9 02 3d af 73 31 be e0 34 f7 bd
       -0.035933707 0.031915132 -0.17329286 -0.12070632
000040 d8 4b 2d bd 7f dd 0e 3d 9e a0 d9 bd dd a2 21 3e
       -0.04230866 0.034879204 -0.106263384 0.15784784
000050 f5 24 43 3e a4 cc b3 3d a6 6a 8d 3d 3a 8d 1e 3e
       0.19057067 0.087792665 0.06905107 0.15483561
000060 d3 5d 8c bd 3a f8 12 3d 56 2f a7 bd 7d d9 b1 bd
       -0.06853833 0.03588126 -0.081633255 -0.08684061
000070 0d da 9c 3d 52 22 41 be ed 94 ff bd 48 84 24 3e
       0.076587774 -0.18860748 -0.12479577 0.16066086
000080 f9 98 ae bd b6 eb cd 3d c0 81 25 3e 38 1b d2 bb
       -0.08525271 0.10054724 0.16162777 -0.006411936
000090 80 23 57 be a1 54 21 bd 07 b4 0d 3e dd b0 fb bd
       -0.21009636 -0.03938735 0.13838206 -0.12289593
0000a0 32 b0 ea 3d 7a c9 22 3e be f5 c5 3d 1b 1a 96 bc
       0.11459388 0.1589717 0.09666012 -0.018322995
0000b0 f4 3b 1c be 63 ac 2c be 0a 6f 2c 3c 73 02 62 3d
       -0.15257245 -0.16862635 0.010524521 0.055178117
0000c0 01 8a 22 3d 22 30 d7 bd 93 52 2f 3d 57 fb 5a 3e
       0.039682392 -0.105072275 0.04280336 0.21384941
0000d0 14 dd 75 3e 0c 54 96 3d 0e e9 40 3d 06 36 d7 3d
       0.24010116 0.073402494 0.04709726 0.10508351
0000e0 2c 3e 51 3e b2 89 0e be ed ec bc 3d 0a f2 e4 bd
       0.20433873 -0.13919714 0.092248775 -0.11178978
0000f0 3a 5d 02 3e 81 a4 23 3d 2e 69 1e 3e f7 e8 fd bd
       0.12730876 0.039951805 0.1546981 -0.1239795
000100 49 84 d6 3d 62 05 53 bc 30 92 3d bd e6 f5 ff bd
       0.1047445 -0.012879701 -0.046281993 -0.12498073
000110 f8 e5 27 3e c7 bb ce 3d 02 d8 45 bd 4d 52 ea 3d
       0.1639632 0.100944094 -0.048301704 0.11441479
000120 a2 0b 12 3d 8f 6c 4a 3c b5 45 c9 bc af 02 fa bd
       0.035655625 0.012354984 -0.024569372 -0.12207543
000130 a0 99 41 3e c9 6b 07 3e 1f bd cf bc a7 1c 06 3e
       0.1890626 0.1322471 -0.025358735 0.13096868
000140 b3 2f 2b 3e b4 95 27 bd 51 46 e5 bd 06 8d 8e bd
       0.16717415 -0.040914252 -0.111950524 -0.06960492
000150 05 d5 de bd b2 b4 98 3d 48 ec 33 be a6 ac 61 3e
       -0.10880474 0.0745634 -0.17570603 0.22038516
000160 9b 73 74 3e 99 3b f7 bd 7a e8 31 be 79 90 81 be
       0.23872225 -0.12071914 -0.17373839 -0.25305536
000170 71 29 4f 3d b1 d6 3c 3e d4 df ac 3d 52 5f 29 be
       0.05057663 0.18441273 0.08441129 -0.16540268
000180 05 40 f3 3d f6 b1 3c 3e f8 d5 f4 3d 0e f3 f6 bd
       0.11877445 0.18427262 0.11954874 -0.12058078
000190 90 9e 55 be 51 90 85 bd 5f 11 0e bd 3a 18 bb 3d
       -0.20861268 -0.06521667 -0.034684535 0.0913548
0001a0 ef d9 57 3d a2 51 72 3e 62 b7 83 3c b4 4d 29 bd
       0.052698072 0.23663953 0.016078655 -0.04133387
0001b0 0c 3a 94 bd b9 ca 65 3e b4 fd 0d bc f7 bf 47 3e
       -0.07237634 0.22440614 -0.008666445 0.19506823
0001c0 5d d0 52 3d 8d 31 19 bc 5f 65 59 3e 77 08 cb bd
       0.051468242 -0.009350193 0.21230076 -0.09913724
0001d0 9d ec b0 bd 62 5f ee bd 77 6f fc bd c6 95 36 be
       -0.086388804 -0.116392866 -0.12325948 -0.17830572
0001e0 a3 36 4d bd 2a 43 3f bd 90 df c4 bb 94 aa 4c be
       -0.050100934 -0.046694912 -0.006008096 -0.19986945
0001f0 de be fa 3d 05 b6 1a be 57 8c 17 3e 62 8b 0e 3e
       0.12243436 -0.15108497 0.14799629 0.13920358
000200 f8 72 02 be 23 5a 26 be cc 74 2c 3e 1f 1c 5e be
       -0.1273917 -0.16245322 0.1684143 -0.21690415
000210 d3 14 89 bd ff 3e e9 3d 31 24 47 be 77 1d 25 3e
       -0.06693425 0.11388969 -0.194474 0.16124521
000220 3e 8d 94 bc 45 09 10 bd ef 50 9e 3d 66 e4 e6 bd
       -0.018133756 -0.03516509 0.077302806 -0.11274032
000230 a5 c1 41 be 86 83 42 be 7d 17 0c be 80 7c 1c be
       -0.18921526 -0.18995485 -0.13680835 -0.15281868
000240 9d af e7 3d 4d 51 6a 3b 0b a0 23 bc 66 c6 c7 bd
       0.113127925 0.0035754025 -0.009986888 -0.097546384
000250 3c f3 1b be 0a 2b 5d be 8c 0b 0f be 26 3b 0c 3d
       -0.15229505 -0.2159845 -0.13969249 0.034236096
000260 60 70 62 be c9 db 19 bc 73 02 3e be 7d 49 3e be
       -0.2211318 -0.00939078 -0.18555622 -0.18582721
000270 27 a0 d2 3d ea 45 b4 3d 28 97 dd 3d a9 6a 0f 3e
       0.10284453 0.088023975 0.108198464 0.14005531
000280 d3 cd 66 3d b6 2d 66 be 66 2d 2c 3e bc ff b3 bd
       0.056348633 -0.22478375 0.16814193 -0.08789012
000290 44 f1 3e be 95 1f 11 be be 21 ab 3d 65 6f 17 be
       -0.18646723 -0.14172204 0.08356045 -0.14788587
0002a0 f4 55 3f be fd e2 36 bc c4 b8 95 bd 05 e6 9f bd
       -0.18685132 -0.011162517 -0.07310632 -0.078075446
0002b0 d2 9b 9b 3a f9 12 ac 3d d1 36 6f 3d 31 29 3d be
       0.0011872 0.08402056 0.058401886 -0.18472745
0002c0 a7 93 e1 bd c3 96 2d bd 8f c4 39 bd aa 81 f1 3d
       -0.110144906 -0.042380106 -0.04535347 0.117923096
0002d0 46 1c a4 3d 03 63 0e be e4 be 83 bd b3 d6 30 3e
       0.08013205 -0.13904957 -0.06432894 0.17269401
0002e0 54 1c 49 be 6a 52 94 bd 02 76 f8 bd 63 a4 92 3d
       -0.19639713 -0.07242282 -0.12131883 0.071602605
0002f0 d3 9d 49 be 12 32 5d 3e 51 37 81 bd 5a c7 03 be
       -0.19689111 0.21601132 -0.06309379 -0.12869015
000300 0b cf 59 3e 15 d1 58 3d 61 3d 18 3e 7b 66 83 bd
       0.21270387 0.05293377 0.14867164 -0.06416031
000310 90 5c 00 3e 84 d5 82 3d 6d fb 30 3e ef bd 29 be
       0.1253531 0.06388381 0.17283411 -0.1657636
000320 f3 ac 20 bd 37 f0 c7 3c 53 db 0e bd fd 76 0d be
       -0.039227437 0.024406536 -0.034877133 -0.13814922
000330 4d bc c0 bd 85 be e9 bd f1 a0 22 be 8a 3a 8b bd
       -0.094109155 -0.11413292 -0.15881707 -0.06798275
000340 e8 34 c5 3d be a2 d3 bd 94 fd 49 3e e3 5f bd bd
       0.09629232 -0.10333775 0.19725639 -0.092468046
000350 09 9e 3e be f1 5e 32 bc 25 a6 89 3d 81 56 75 3d
       -0.18614973 -0.010886894 0.06721143 0.05989695
000360 12 cb 54 3d 70 b5 0b be 97 a5 9e bd b6 48 66 be
       0.051951475 -0.13643432 -0.077464275 -0.22488675
000370 fb 4d 3c be 03 bc 94 3d 1a 31 fe 3c 99 2a 16 be
       -0.18389122 0.07262423 0.031029273 -0.14664687
000380 89 fc 9b 3c 6d 14 80 3c 94 01 e9 bd 38 73 a0 bc
       0.019041317 0.01563474 -0.11377254 -0.01958619
000390 dd 4e db bc 53 51 85 bd 5f 5e ef 3c dc ab 46 3e
       -0.026771003 -0.06509652 0.029219804 0.19401497
0003a0 d3 04 04 3d db 7c 0a be e0 96 90 3d 31 92 30 3e
       0.032231163 -0.13524191 0.07060027 0.17243268
0003b0 e4 b4 c6 bc 9b f5 bb 3d ef 70 16 be b2 16 2f 3e
       -0.024256177 0.09177705 -0.14691518 0.17098501
0003c0 c8 d6 25 3e 93 d5 8c 3d 21 26 46 3e 19 fa 56 3e
       0.16195214 0.068766735 0.19350483 0.20993842
0003d0 b3 e0 74 bc 62 c3 75 3e 37 85 b5 bc 95 6f 57 3e
       -0.014946151 0.24000314 -0.022158248 0.21038659
0003e0 81 94 3c 3e 30 bc 44 3e 7b 8e 46 3d cf 13 68 3e
       0.18416025 0.19212413 0.048475724 0.22663806
0003f0 ea 77 bf bd ae 27 55 bd a4 0a 39 be 07 17 06 3d
       -0.09349044 -0.052039795 -0.18070465 0.032736804

conv1.bias f4 [16]
000000 e8 41 a2 bd 6c e6 29 3b 47 fe 79 3e e8 41 c3 b9
       -0.07922727 0.0025924696 0.24413405 -0.00037242402
000010 f2 12 6c bd 48 51 3b 3e 55 21 c3 3d 85 70 44 3e
       -0.057635255 0.18292725 0.09527842 0.19183548
000020 58 af 1a 3d 5b 25 81 3c 5b d9 2f 3e 05 56 15 bd
       0.037764877 0.015764883 0.17172758 -0.036458988
000030 c9 8e 07 bd 79 c1 3d 3e f9 ee 9b 3d bd 39 01 3e
       -0.033095155 0.18530835 0.0761394 0.12619682

conv2.weight f4 [128, 16, 3, 3]
000000 dd 84 98 3d 32 ab 20 bd c4 8b c8 3d b8 c9 86 bc
       0.07447217 -0.039225765 0.09792283 -0.016453609
000010 57 7c 5d 3d 6a 93 a6 3b c2 21 05 bc 6f 69 0d bc
       0.054073658 0.005083491 -0.008125724 -0.008631094
000020 5b 19 90 3d 62 3a 84 3d e9 76 cc 3d f2 45 c3 3d
       0.07036086 0.06456448 0.09983618 0.095348254
000030 0e 0a 95 3d d8 ef 11 bd d7 eb 4e bc 73 c2 77 3d
       0.072773084 -0.035629123 -0.012629471 0.060488176
000040 c6 2d ce bc 86 0c 26 3b ee eb 84 bd 9a 54 54 3d
       -0.02516831 0.0025337054 -0.064903125 0.051838495
000050 77 86 14 bd 65 42 6b bd 95 0c f5 bc e6 b1 78 bc
       -0.03626105 -0.057436366 -0.029913226 -0.015179133
000060 70 33 26 bc 51 66 3a 3d a2 6b ce 3c 4c 23 5e 3d
       -0.0101441 0.045507733 0.025197808 0.05423288
000070 e0 14 ea 3d 22 2f 92 bc e6 98 d0 b9 17 70 76 3c
       0.11429763 -0.01784474 -0.0003978677 0.015041373
000080 2a 1c d7 3d 2d e3 d0 3d 91 76 91 3d 6f 51 e4 3d
       0.10503419 0.1019958 0.07102693 0.11148345
000090 47 20 8c 3c 00 2f 10 bd ec 00 86 3d ac d6 94 3d
       0.017105235 -0.035201073 0.065431446 0.07267508
0000a0 e1 76 b8 bc 9b 46 bb bc 5d 36 f3 3d 01 77 7d 3d
       -0.022517623 -0.022860816 0.11875603 0.06188107
0000b0 1f 4b 1f 3c 65 dc 35 3c ea f4 2c 3b 59 b6 97 bd
       0.0097225 0.011099909 0.0026391097 -0.07407827
0000c0 ed 72 c7 bc 66 75 c1 bc 4f 41 94 3d b9 d4 57 bd
       -0.024346793 -0.02361555 0.07239019 -0.052693103
0000d0 6e b4 17 bd ba 96 a3 3d 16 8d c4 3c 61 2e 79 3d
       -0.037037306 0.07987733 0.023993056 0.060835246
0000e0 d9 3c 9d bd 9b 96 97 3c 71 be c7 bd db 24 72 3c
       -0.076776214 0.018504431 -0.09753121 0.014779295
0000f0 69 22 4e bd 2b c9 d7 bc ba eb 1b 3d a4 da 28 3c
       -0.050325785 -0.026341042 0.038066603 0.010306034
000100 7c fc 1d 3d 88 1d ee 3c 20 71 df 3d 92 96 f0 3d
       0.038570866 0.029066816 0.10910249 0.11747469
000110 fd c3 22 3e 98 7e f5 37 ef af ce 3d 7a 3f 23 3e
       0.15895076 2.9265226e-05 0.100921504 0.15942183
000120 d6 eb 67 bd aa db ae bd 61 33 a3 bd af d6 1b 3d
       -0.056621395 -0.08537991 -0.07968784 0.038046535
000130 d8 26 02 bd 88 5d da bd 7f 49 61 bc 5e 86 64 3d
       -0.031775326 -0.10662371 -0.013750433 0.055792205
000140 ca ba 41 3d 30 8a 78 3d 4b 7b b3 3d d8 b2 9b bb
       0.047297277 0.06067866 0.08763751 -0.0047515444
000150 bb 65 92 bc e5 2e 71 3d c6 cb 15 bd 36 c1 a5 bd
       -0.017870774 0.058882613 -0.036571287 -0.08093493
000160 47 8c d6 bc 10 29 49 3d 3e 3b d2 3c 32 49 81 39
       -0.026189936 0.049111426 0.025663015 0.00024659332
000170 34 62 10 bd 8f dc 05 bd e0 1f d6 bc 69 bf 57 bd
       -0.035249904 -0.032681044 -0.026138246 -0.052672777
000180 b3 79 e6 bb 77 7d 70 bd 7a 03 36 3a ae f3 e5 bc
       -0.0070335506 -0.058713403 0.0006943267 -0.028070297
000190 15 8e 89 3d e5 c2 24 3d 4a a7 1a 3d 01 02 59 bd
       0.06716553 0.04022493 0.037757196 -0.052980427
0001a0 b7 41 e0 3c 80 3d 41 3d 33 0c 43 bc 9c 37 92 3d
       0.027375085 0.04717779 -0.011904764 0.07139513
0001b0 b9 11 a8 ba d0 8a 03 3c 00 f3 a3 bd 74 68 40 3d
       -0.0012822665 0.008028701 -0.08005333 0.046974614
0001c0 03 e9 2e 3d b4 53 7d bd 4f 65 57 bd 3a a2 cd 3b
       0.042702686 -0.061847404 -0.05258685 0.0062754424
0001d0 e0 53 88 3d 18 eb 5d 3c 6c 51 7a bd 3f 72 8c bc
       0.06656623 0.01354482 -0.061112806 -0.01714432
0001e0 50 1e 61 3d d4 16 69 bd ef fd 35 bd 78 1c c0 bd
       0.05496055 -0.056906536 -0.044431623 -0.0938043
0001f0 ba 17 93 3d ed 71 89 3d d6 be d9 3d 6d f8 10 bd
       0.0718226 0.06711183 0.10632102 -0.035393167
000200 17 21 01 3d d6 0d bd 3d 9d 7c 9c 3d f0 c5 1e bc
       0.031525698 0.092311546 0.076409556 -0.009690747
000210 db 45 df 3c 49 b1 ab 3d a2 6a c4 3d e7 63 b4 3d
       0.02725499 0.08383424 0.09590651 0.08808117
000220 38 6b 8f bd a0 a3 83 bd 01 13 32 bd 52 26 3d bd
       -0.07002872 -0.06427693 -0.043475155 -0.046179123
000230 7c 9f 1b 3d 97 58 49 3c e8 79 ca bc d1 5e 57 bd
       0.037993893 0.012289188 -0.024716333 -0.05258066
000240 de 69 44 3d cf e9 21 bd c0 73 2f bd 9b 75 15 bc
       0.047952525 -0.039529618 -0.042834997 -0.009122278
000250 75 71 99 3d 22 58 9d 3d 0c 86 93 3d 83 4e 23 bd
       0.07492343 0.076828256 0.07203302 -0.039869796
000260 56 4f 4f 3d 9a 05 52 bd 9b 84 d1 3c 6c 56 ca 3d
       0.05061277 -0.051274873 0.025575927 0.09879765
000270 c1 f4 05 3d 5f 85 26 3d 79 88 d0 3d 4a 2b d4 3d
       0.03270412 0.040654536 0.1018228 0.10359819
000280 3a 9b 0f bd b1 5c c2 3c 68 5f c3 3c f5 bd 22 3d
       -0.035060145 0.02372584 0.023849204 0.03973194
000290 17 2e a1 3c b2 9b 16 3d 33 bb 34 3d 36 08 c6 3d
       0.019675298 0.036769576 0.04412384 0.09669535
0002a0 c7 a3 a1 3b 39 22 19 bd 5f 32 25 bd 76 ee 8b 3d
       0.004932854 -0.037386153 -0.04033124 0.06832592
0002b0 fa 9e 0d 3d 66 b7 21 3d 9e 67 06 bc 8b 50 fd 3d
       0.03457544 0.039481543 -0.008203415 0.12368878
0002c0 ec 61 87 3c 8d 33 12 3d 7e 8e 14 bd 3b 9b 69 3d
       0.016526185 0.035693694 -0.036268704 0.057032805
0002d0 f3 3a 9c 3d 6c e2 a1 3b 61 8d a9 3d d0 ef 9a 3d
       0.07628431 0.0049403217 0.08278919 0.07565272
0002e0 9c c3 b4 3b f3 c1 ae bc 4a 7f 20 3d 72 33 90 bc
       0.0055164825 -0.021332717 0.039183892 -0.017602656
0002f0 19 d4 31 bd cd d3 90 bd 73 43 9c bd d5 f9 80 bd
       -0.043415163 -0.07071648 -0.076300524 -0.06297652
000300 02 77 91 3d a0 46 96 bd 0b 43 1e bd 60 0a 49 3d
       0.07102777 -0.073376894 -0.038638156 0.04908216
000310 b8 9a 19 3d 6d d3 11 bd 27 2d 81 3d da 66 28 3d
       0.037501067 -0.035602022 0.0630744 0.041113712
000320 2d ff 45 bb 64 4e 66 bd 7d 80 31 3d 01 69 3d bd
       -0.003021191 -0.056227103 0.043335427 -0.046242718
000330 dd d0 32 3d 32 44 c9 bd ed 05 12 3b 7e 4d 80 bc
       0.04365622 -0.0982746 0.0022281364 -0.015661951
000340 d3 ab c3 3d ca f9 9d 3d fa 47 0f bd 9c 49 aa 3d
       0.09554257 0.07713659 -0.03498075 0.08314821
000350 cb 07 5b 3d 06 f7 69 3d 1f 8a 9d 3d dc da 33 3d
       0.05347423 0.057120346 0.0769236 0.043909892
000360 92 7c 7e bb 6f 51 ce bd 41 d1 af bd 20 3c d3 3b
       -0.0038831574 -0.10074126 -0.08584834 0.0064463764
000370 90 01 91 3d c0 52 77 bd 1f 0e bb bb 37 b1 bd 3b
       0.07080376 -0.06038165 -0.0057084705 0.005788948
000380 f4 82 98 bd 15 67 24 3c 51 33 88 bd b8 05 98 3c
       -0.07446852 0.010034342 -0.06650413 0.018557414
000390 86 1e 75 3d 1b e6 11 bd f6 fa 90 3d d4 7f 0f bc
       0.059843563 -0.035619836 0.07079117 -0.008758504
0003a0 ce 96 15 3d a5 89 3e 3d ba 42 5d 3d 9c 56 a4 bd
       0.03652077 0.046517987 0.054018714 -0.08024332
0003b0 77 52 6e bd 8b cb 9c bb bb 8e 43 bd ca 08 00 3d
       -0.058184113 -0.0047850064 -0.04774354 0.031258382
0003c0 78 23 d6 bc 3c 7b 15 bc 53 c5 38 3d 88 6d 07 bd
       -0.02613996 -0.00912362 0.045110058 -0.03306344
0003d0 fa e8 80 3d 47 70 7f 3d f7 74 78 ba 19 4e 09 bd
       0.06294437 0.062362935 -0.00094778783 -0.033521745
0003e0 cc f9 80 3d db 8d b2 bb de ba 80 3b 59 35 87 bb
       0.06297645 -0.0054490394 0.0039285263 -0.0041262326
0003f0 af 13 0f bd b3 fa 8c bd 37 09 fc 3c 52 dc 4d bd
       -0.03493088 -0.068837546 0.030766113 -0.050258942

conv2.bias f4 [128]
000000 ac 9c ef 3c b7 c8 56 bd f2 d4 bf bd 5d 98 e5 3d
       0.029249512 -0.05243751 -0.09366788 0.112107016
000010 75 9a 03 bd 6f 5e aa 3d c6 0f 82 3d 99 af 38 bd
       -0.032129724 0.08318793 0.06350665 -0.045089338
000020 91 90 49 bd 38 43 32 bd d3 4a db 3d b6 ff 6e bc
       -0.049210135 -0.043521136 0.10707631 -0.014587333
000030 44 53 00 be 1b 7f b7 bc 8f fa a3 bd 4a 5c ac 3d
       -0.12531763 -0.022399476 -0.08006775 0.0841604
000040 66 05 2d bd a2 f5 f9 3c f5 e7 a8 3d b8 55 a6 3d
       -0.042241476 0.030512635 0.08247367 0.08121818
000050 65 1d cb 3d 70 42 aa bb a5 cb 9b bc 49 e2 ba bc
       0.09917716 -0.0051959082 -0.019018004 -0.02281298
000060 7f d7 8a bd c4 a6 83 bc 67 a6 e8 bd bd a4 9f 3d
       -0.06779384 -0.016070731 -0.11359864 0.07795093
000070 18 c2 b0 bc fb 75 1a bd bb 5b 4c bc b7 48 cd 3c
       -0.021576926 -0.03771017 -0.012473042 0.025059087
000080 75 f7 b2 bd 10 48 7e 3d 55 71 37 bd 7b 9f 05 bc
       -0.08738605 0.062080443 -0.044785816 -0.008155699
000090 32 d5 16 bd e5 30 a2 3d ae 6a df bd ec ea 8f 3c
       -0.036824413 0.07919482 -0.109090194 0.017568074
0000a0 5a d2 40 3d e6 15 a7 3d 91 f5 b5 bd 4b 33 cd 3c
       0.047075607 0.08158474 -0.08884729 0.025048872
0000b0 00 0e 89 bd 0d 5b 83 3d 79 10 7f bd 79 34 58 3d
       -0.066921234 0.06413851 -0.06227157 0.052784417
0000c0 a2 ad 13 bd c1 13 1a bc 55 2c af bd e8 6c ae 3d
       -0.03605426 -0.009404124 -0.085533775 0.08516866
0000d0 fb a8 2c bd 9d 30 4f 3c 22 dc 9a 3d 01 c2 24 bd
       -0.04215334 0.012645868 0.07561518 -0.04022408
0000e0 bf eb fa bc 53 87 89 3d e8 b5 f4 3c dd 37 18 3d
       -0.03062999 0.06715264 0.029871896 0.03716265
0000f0 30 fc 81 3d cd 13 a9 3d ab 16 d0 3d 52 64 35 3d
       0.06346929 0.0825573 0.101605736 0.044285126
000100 ad e6 1f bd 1a 0d 93 bb 02 ab 9f 3d 02 b6 98 bd
       -0.03903835 -0.004487646 0.07796289 -0.0745659
000110 60 e1 ea 3c b4 e6 65 bc 3f e9 6e bd 56 fe 11 3c
       0.02867192 -0.014032055 -0.05832791 0.008910736
000120 94 ef cd bd 76 6c b3 bd 99 90 bf bb a1 c0 2e bd
       -0.100554615 -0.08760922 -0.005846095 -0.042664174
000130 9d 3e da bc f6 32 72 3c 5c 41 81 3d f1 86 c5 bc
       -0.026641184 0.014782658 0.063112944 -0.024112197
000140 e7 42 1e 3d 62 95 92 bd 4a 1c 1f bc 23 3b 22 3d
       0.03863802 -0.07157399 -0.0097113345 0.03960718
000150 77 ad 7d 3d 43 36 84 bd cb 85 5c 3d 81 0a a6 bd
       0.061933007 -0.06455662 0.053838532 -0.08107472
000160 5f 66 00 3d 99 be de 3d 76 46 b0 bd 04 71 f2 bd
       0.03134763 0.10876197 -0.08607189 -0.11837962
000170 30 bf 9f 3d 0c 14 77 bd e3 15 a3 3c 2d 63 3b bd
       0.07800138 -0.060321853 0.019907897 -0.04574888
000180 45 45 86 3a 76 9d 3b 3d f5 cd 8d 3d 0f 9c 13 3c
       0.0010244033 0.045804463 0.06924049 0.009009375
000190 27 5c 82 bd d5 c8 00 bb 96 8d 62 3d a8 fd 03 bd
       -0.06365233 -0.0019650955 0.055310808 -0.032224327
0001a0 f4 97 52 bd 24 ef 60 3d 45 28 98 3d ac 49 87 3b
       -0.051414445 0.054915562 0.07429556 0.0041286554
0001b0 19 e5 a5 bc 34 35 dd 3d 3d ee 56 bd 5e 03 81 bc
       -0.020250844 0.10801163 -0.052473295 -0.015748676
0001c0 7b 5e 77 3d f7 f5 40 3d bf 09 1a bd 1c 74 8f bd
       0.060392838 0.04710957 -0.03760695 -0.07004568
0001d0 4e 8d e1 3d 77 63 d9 3d 80 7a aa 3d c7 a3 17 3d
       0.1101328 0.106146745 0.08324146 0.037021425
0001e0 74 02 85 bd ac e8 c6 3c 13 75 cc 3d 40 d3 49 3c
       -0.064946085 0.024280868 0.09983268 0.012318432
0001f0 e2 23 84 3d 9d 7c 3a 3d 06 34 1a 3d 90 ac 51 3b
       0.064521566 0.045528997 0.03764727 0.0031993724

conv3.weight f4 [20, 128, 3, 3]
000000 1e 66 8c bc ce c7 14 3d c8 79 74 3d 31 78 bb ba
       -0.017138537 0.03632336 0.059686452 -0.0014302788
000010 d2 e0 52 3c 39 69 32 3d 5b 10 a3 3b 38 22 2c 3d
       0.012870984 0.04355738 0.004976315 0.04202482
000020 c2 35 dd 3c 26 97 e7 3b 84 80 7d 3c 5d 1e 91 3c
       0.027003173 0.007067579 0.015472535 0.017714674
000030 52 23 ac 3c c8 da 34 bc 4c ea e8 3c d7 7c 35 3c
       0.021012936 -0.01103849 0.028432034 0.011077127
000040 66 12 38 bc 68 51 20 3d 5a 81 8f 3d 02 21 7c 3c
       -0.011234855 0.039140135 0.07007094 0.015388729
000050 b4 7f 65 3b 95 f5 83 3c 9e 66 95 3a 95 db 0e bd
       0.0035018744 0.016108314 0.001139838 -0.03487738
000060 98 99 07 3d 13 8d 06 3c e8 71 2e 3c ee 50 d3 3c
       0.033105463 0.008212346 0.010647275 0.025795426
000070 36 22 b0 3c 5b b2 a5 bc 50 40 0e 3d 4b 95 dc 3c
       0.021500688 -0.020226648 0.034729302 0.026926657
000080 44 f0 d5 3b e3 6d 43 3d 3a 4d c9 3b 01 91 dd 3c
       0.006528886 0.047712218 0.0061432393 0.027046682
000090 96 23 c3 3c 4b 58 59 3d 47 37 8b 3c 36 29 22 3d
       0.02382068 0.05306272 0.016994132 0.039590083
0000a0 91 dd 58 3d 69 af 90 3b 89 c4 53 3d c5 c0 17 3d
       0.052945677 0.004415442 0.051701102 0.037049074
0000b0 a3 43 3f 3d ac ec 02 3d d8 d6 32 3d 34 4d da bb
       0.046695363 0.03196399 0.043661922 -0.0066620354
0000c0 29 ab 7b 3d e2 8d 0f 3d ab 2f d2 3c 02 cb 7b 3d
       0.061442528 0.03504742 0.025657495 0.0614729
0000d0 6f 81 8f 3b 09 e3 f3 3c e4 c6 b7 bc 55 ce bf 3c
       0.0043794434 0.029771345 -0.022433706 0.023413816
0000e0 df 14 13 3d 69 54 f6 bc 8d ae 04 3d 56 d9 9d 3b
       0.035908576 -0.030069547 0.032393027 0.004817168
0000f0 7a 2f 9b bc 82 47 18 3d ee eb 99 3c ea 15 2d bd
       -0.018943537 0.03717757 0.018789258 -0.042257227
000100 0e d8 b1 3c 55 4a 0f 3c b2 8a 31 bd a9 47 3f bc
       0.021709468 0.0087457495 -0.04334516 -0.0116748
000110 02 99 09 bd 3c e5 83 bd 2f a3 89 bd 14 8d 6c bd
       -0.033593185 -0.06440207 -0.06720578 -0.05775173
000120 56 9a ce 3b ca 13 06 bd 85 28 b3 3c 23 f7 a8 bc
       0.0063050194 -0.032733716 0.021869907 -0.020625656
000130 45 d6 9f bc 57 df 5c bc b2 ec 07 3d 54 e3 09 3d
       -0.019511351 -0.013480983 0.033184715 0.033664063
000140 d4 b6 cc bc 59 47 14 bb 2e 8c 09 3d 79 68 50 3d
       -0.024989523 -0.0022625534 0.03358095 0.050880883
000150 84 e2 5b 3c 8c 8b ce 3c 7f ad 1d 3d f2 74 19 bc
       0.013420705 0.025213026 0.038495537 -0.009366261
000160 d3 e4 bd 3c 60 ac 09 3d c7 0c bd 3c cc 5f fa 3c
       0.023180401 0.033611655 0.023077382 0.030563258
000170 25 25 a1 3c 9c a9 30 3d 7c 5c 6e 3c bb cd 29 3d
       0.019671032 0.043130502 0.014548417 0.041455965
000180 70 ba 2b 3c fb 36 e0 3c 92 e4 50 3d d8 a1 b0 bc
       0.010481462 0.027369967 0.05099923 -0.021561548
000190 76 c5 0a 3c f1 8a b1 bb 67 02 34 bc 4c 22 fb 3b
       0.00846993 -0.0054181744 -0.010986901 0.0076640006
0001a0 fc 93 15 3c 45 df 4a bd 31 15 f2 bc 2b e5 77 bd
       0.0091295205 -0.049529333 -0.02955112 -0.060521286
0001b0 87 d6 6b 3c 26 4c 26 3d aa 6d aa 3c 7e 5b f8 3c
       0.014394409 0.040599965 0.020804245 0.030317064
0001c0 f7 2a b0 ba 5b a4 29 3c a1 10 94 3b 53 71 18 bc
       -0.0013440539 0.010354127 0.004518584 -0.009304362
0001d0 ee dd 39 bc 9d 42 83 3d cb bb 8f 3b d3 e3 62 3b
       -0.011344416 0.0640919 0.0043864003 0.0034620657
0001e0 55 a1 a2 3c 72 c2 93 bc e8 65 fb bb e0 48 53 3d
       0.01985232 -0.018037055 -0.0076720603 0.05158317
0001f0 4a 51 dd 3c e8 ae 6f 3b fe e6 d7 3b 02 39 66 bc
       0.0270163 0.0036572758 0.0065888157 -0.014051678
000200 4b 49 1f bc 0e b7 9d 3c c6 16 2c bd 43 ab 14 bd
       -0.009722064 0.019252326 -0.042013906 -0.03629614
000210 89 60 8f 3c 75 52 15 3c be 48 29 bd 19 c7 c7 3c
       0.017502086 0.009113898 -0.041329138 0.02438693
000220 98 94 8b ba 3e e8 f8 3c 19 aa 43 3c fd 18 4b 3c
       -0.0010649143 0.03038418 0.01194241 0.012396094
000230 61 a8 4e ba 1a c8 d0 3c 18 b0 c3 3c 4d 7c 4d 3c
       -0.0007883367 0.02548604 0.023887679 0.012541843
000240 23 d4 22 3d be e6 9f 3c 3d 7d ed ba 10 c8 21 3d
       0.03975309 0.019519206 -0.0018118989 0.039497435
000250 5f 37 c9 bc dd 69 da bc c7 5a 25 3d 9c 27 93 bc
       -0.024562536 -0.026661808 0.040369775 -0.017963223
000260 06 54 6f bc 6b 89 a0 bc c0 39 aa 35 9c df 11 3d
       -0.014607435 -0.019596776 1.2682794e-06 0.03561364
000270 1f ba 56 3c 77 4a 12 3d 09 a1 66 bb e9 a7 00 bd
       0.013105898 0.035715546 -0.00351912 -0.03141013
000280 4e bb 6c bc 0e c3 27 3d 3c a9 04 3d f0 01 08 3d
       -0.014448954 0.040957503 0.032387957 0.033204973
000290 86 55 a1 3c 68 26 10 3b 84 6a 08 3c bf 65 e9 3c
       0.019694101 0.0021995548 0.008326177 0.0284909
0002a0 fa 5d c9 3c 31 b6 7c 3c 5a 6b cb ba 7d c9 63 3d
       0.024580944 0.015424297 -0.0015519664 0.055612076
0002b0 ec 7f 8c bc e4 12 10 bd 46 28 fd 3c 7f 99 b8 bc
       -0.017150842 -0.035174266 0.030902993 -0.02253413
0002c0 35 19 2e 3c ed 19 13 3d 31 1c 2b bd 0e 17 36 bd
       0.010626127 0.035913397 -0.041774932 -0.04445558
0002d0 28 f0 17 3d ea cc 16 3c 1d 78 1b bc e0 a6 03 3d
       0.037094265 0.009204129 -0.009489086 0.032141566
0002e0 7c b7 9f 3b 48 90 72 bb c3 8d 07 3d 2b 08 18 bc
       0.004874168 -0.0037012268 0.03309418 -0.009279291
0002f0 c5 e0 ae b9 4f 53 73 bc 97 0f fb bb 1d 45 a1 3c
       -0.00033355333 -0.014851405 -0.0076617706 0.019686276
000300 6c f6 06 bb fb 7f 7b 3b ef 0b 12 3c 94 b6 0b 3b
       -0.0020593656 0.0038375843 0.008913978 0.0021318542
000310 82 14 06 3c 61 6d 0a 3d 6d 44 57 3c 53 41 63 bd
       0.0081836 0.033795718 0.013138873 -0.05548222
000320 08 e9 e4 bb dd 6f 59 3c 29 85 14 bd ab 42 00 bd
       -0.0069857873 0.013271299 -0.036259804 -0.03131358
000330 87 78 bb bc e3 1f 20 bd bd 25 2d bd ce 6b 77 3c
       -0.02288462 -0.03909291 -0.04227232 0.015101386
000340 07 49 f9 3c 0c f6 e2 3c 1b 83 62 3c 86 b5 4e 39
       0.03043033 0.027705215 0.013825203 0.00019713314
000350 09 cf 66 3c d9 6c 00 bd cf 62 34 bb b4 50 d8 ba
       0.014087447 -0.031353805 -0.0027524715 -0.0016503544
000360 af 7a 90 3c 7f 5e 80 3c 98 0b 59 3d 42 83 e0 bc
       0.017636625 0.01567006 0.052989572 -0.027406339
000370 d3 8d 92 bc 9a a6 3d bc 54 19 c4 3b 94 ae ff 39
       -0.017889893 -0.011575365 0.0059844647 0.0004876746
000380 e1 9f d2 3c 85 00 52 3c c6 bf 09 bc 69 cd 0c 3d
       0.025711002 0.012817507 -0.008407539 0.034375582
000390 00 9e 5d bb 5c 1e 80 3c 92 35 f6 3c 26 04 4a bc
       -0.00338161 0.015639476 0.030054841 -0.012330091
0003a0 8c 39 8f 3c 87 87 6d bc a5 b9 2f b8 78 bb 81 bc
       0.017483495 -0.014497644 -4.1896146e-05 -0.015836462
0003b0 58 57 b1 b9 fc 46 1f 3c 84 7f b4 bb 04 bc d8 bb
       -0.00033825147 0.009721514 -0.005508365 -0.00661421
0003c0 3f e8 6d bb cf 22 2d bd ac 99 0b bd ca ac 8a 3c
       -0.003630176 -0.042269524 -0.0340821 0.016928095
0003d0 04 08 d2 3c 17 bc b4 3c aa 1c 5a 3a e2 12 05 3c
       0.025638588 0.022062344 0.00083203113 0.008122178
0003e0 6b cd ff 3c 53 cb 0e bd 26 61 cb 39 bf c5 90 3c
       0.03122588 -0.034861874 0.00038791558 0.017672418
0003f0 ce 10 9e 3c 6d 78 20 3d 70 d6 b8 bc 13 db 00 3d
       0.019295122 0.039177347 -0.02256319 0.031458925

conv3.bias f4 [20]
000000 5a 88 12 3d 9b 5a 04 3d 30 e9 85 b9 04 6a 0d 3d
       0.035774566 0.03231297 -0.00025541475 0.034524933
000010 65 61 96 bd 96 ad 21 bd fa 1d 02 bd 91 9f a2 3c
       -0.07342795 -0.039472185 -0.03176687 0.019851478
000020 42 c6 82 3d d9 1e d9 3c 3d 86 af 3c e9 12 41 bd
       0.06385471 0.026503967 0.021426314 -0.047137175
000030 04 8c ab 3c 66 57 76 3c 37 6a d3 3b 1a 47 1c bd
       0.020940788 0.015035486 0.006451871 -0.038153745
000040 fe 95 d0 bc 1b 5b 01 bc ba c2 65 bc 83 54 08 3c
       -0.025462147 -0.007895256 -0.014023477 0.00832093

conv4.weight f4 [30, 20, 3, 3]
000000 09 9d c7 3c ad 71 d0 bc 85 7b 6e bd ce 11 75 3d
       0.024366872 -0.02544483 -0.058223266 0.059831433
000010 1f 32 2c 3d 5b e2 41 3d fa d2 1d 3d 46 4f 54 bd
       0.042039987 0.04733501 0.03853128 -0.051833414
000020 28 80 17 3d c5 61 c7 bb 23 50 49 ba 3c 0b b2 3d
       0.036987454 -0.006084653 -0.0007679483 0.08693549
000030 d6 a4 41 3d d5 87 3c 3d ea 81 11 3d e6 8f 24 3c
       0.04727634 0.046027977 0.035524286 0.010044074
000040 18 dd d8 3d 11 61 d8 bc e9 f3 ff bc 6a d8 b6 3b
       0.10589045 -0.026413472 -0.031244235 0.005579998
000050 d2 30 2d bd ae 60 64 bc 42 84 37 bc c7 99 a8 bc
       -0.042282887 -0.013939066 -0.011200966 -0.02058114
000060 78 11 dc bb 44 54 44 3d 5f 8f 98 3c 43 75 7f 3d
       -0.0067159496 0.047931924 0.018623052 0.06236769
000070 76 61 9c bc 68 21 0c bc 47 4d d7 3c 9f 8c ea bc
       -0.019089442 -0.008552887 0.026281966 -0.028631506
000080 b0 cc 48 3d a3 ab 78 bd 5a e1 69 bb 67 77 a2 3c
       0.04902333 -0.06071056 -0.0035687299 0.019832326
000090 90 d8 1a bd 15 84 da 3c 20 af da bb 59 2c 0a bd
       -0.037804186 0.02667431 -0.0066737086 -0.0337337
0000a0 bc dc 7e 3c a4 e9 b2 3d 1a 92 55 bd 17 0e 89 bd
       0.015555557 0.0873597 -0.052141286 -0.066921405
0000b0 4f 87 0d 3d bd 48 37 3d f4 f4 64 bd 84 d4 3d bd
       0.03455287 0.044747103 -0.055897668 -0.04634525
0000c0 14 98 50 3d b3 58 da bc ba eb c9 bc 72 8c 68 3d
       0.050926283 -0.026653623 -0.024648536 0.056774564
0000d0 ef 25 56 bd 29 33 5b bc ab b6 50 3d 07 51 08 bd
       -0.05228227 -0.013378897 0.050955456 -0.0332804
0000e0 e3 94 91 bd 48 b2 ec bd 6a b0 be bb de 40 91 3c
       -0.07108476 -0.11557442 -0.00581937 0.017731126
0000f0 92 a7 2e bd 35 c1 88 bd 8b 07 c4 bc d7 83 46 3d
       -0.042640276 -0.06677476 -0.023929378 0.048465576
000100 6a 4f a2 3c 34 da fa bc aa 3e d1 bc b8 1d 4d bd
       0.019813258 -0.030621625 -0.025542576 -0.05007717
000110 ff ee bf 3d 32 bb 91 3b 2b e7 e4 bc 00 d4 b0 3c
       0.09371757 0.0044473642 -0.02794226 0.021585464
000120 b6 77 22 3c 50 24 2b bd ec 52 c5 bd ed f7 15 3d
       0.009916237 -0.041782677 -0.09634957 0.036613394
000130 cc 64 79 bd e7 cf 8c 3d 06 be 26 3d b5 0c 21 3d
       -0.060887143 0.06875592 0.040708564 0.03931876
000140 d5 88 02 3d 06 66 a7 bd f8 ee 81 3b 81 da 15 bd
       0.031868774 -0.08173756 0.003965255 -0.036585335
000150 e8 49 a5 bd 50 c4 16 bd 6f 20 37 3d fa a2 bb bc
       -0.08070737 -0.036808312 0.044708665 -0.022904862
000160 21 72 1a bd c9 06 a8 3d c8 43 7a 3d ef af 3e 3d
       -0.037706498 0.08204419 0.061099797 0.046554502
000170 92 5f c1 ba 3a 3d a0 3d 90 e3 1d 3d ea ae a2 ba
       -0.0014753214 0.07824178 0.0385471 -0.0012411748
000180 6b a1 9e 3d f0 ee 64 3d d7 19 1c bd 5d 1b b3 3c
       0.07745632 0.05589193 -0.03811058 0.021863634
000190 fd 46 a6 bd ee 71 ae 3b 03 f5 31 bd 68 43 33 bd
       -0.08119009 0.00532364 -0.043446552 -0.043765455
0001a0 8b b1 3e bd 13 8d 4f 3d 32 cf a3 3b 54 4a 59 3d
       -0.046556037 0.05067165 0.004999065 0.0530494
0001b0 31 94 16 bd 62 f7 a4 bb 16 bf 70 3d 1a 2b c4 3c
       -0.03676242 -0.005034373 0.058775984 0.023946334
0001c0 27 aa 10 3d 6e 8e 11 bd 19 3c 11 bc 01 57 ae bd
       0.03531852 -0.035536222 -0.008864426 -0.085126884
0001d0 3e 9d 71 3c 13 b0 48 bd f3 83 62 bd da 8b 26 bc
       0.014746962 -0.048996042 -0.055301618 -0.010165179
0001e0 32 a6 d2 bb 66 e9 4a 3d 5b 08 6d 3d 6c b1 26 3d
       -0.0064285034 0.049538992 0.057869297 0.040696546
0001f0 bb 34 f9 3c 7e 00 bc 3d a9 47 09 3d 97 20 4f bd
       0.030420652 0.091797814 0.033515606 -0.05056819
000200 8c 96 0c bd f0 f0 f8 bc 64 56 94 3d 31 8b d3 3d
       -0.03432326 -0.030388325 0.0724304 0.10329283
000210 ac 88 e2 ba 00 d4 0a bd a5 92 05 3d 24 45 71 bd
       -0.0017283163 -0.033893585 0.032610554 -0.05890383
000220 5e c2 f1 3b a1 74 83 3c a4 09 94 bd 95 4f 5f bd
       0.0073779067 0.016046824 -0.07228401 -0.054519255
000230 97 dd 96 bd 72 9d 92 bd 70 cf 73 bd d5 f8 64 bd
       -0.07366484 -0.071589366 -0.059524 -0.055901367
000240 8c 8a 6f bc 65 24 33 3d 3c d4 60 bb 2a 72 82 3d
       -0.0146204345 0.04373588 -0.003430619 0.06369431
000250 a7 0e a1 bc 65 f4 21 bd eb e3 0f bd de 8c 3b 3d
       -0.019660307 -0.039539713 -0.03512947 0.04578864
000260 15 d9 5a bd 54 d7 01 bd 1e 1e 7d bd 9a 88 ab 3d
       -0.05342968 -0.031699494 -0.0617963 0.08375664
000270 86 6f 2d bd b9 c7 62 bc 90 cc 92 bc b7 65 45 3d
       -0.042342685 -0.013841563 -0.017919809 0.048192706
000280 d7 21 e0 3c e7 4a d1 3c 3a 1b 55 bd 16 2d 5a 3d
       0.027359886 0.025548412 -0.05202792 0.053265654
000290 d5 e3 bd 3d d9 6c 82 bb 03 eb 48 3d 81 3c fe bc
       0.09271971 -0.003980261 0.04905225 -0.03103471
0002a0 ba e3 54 bc a8 16 e3 bb 38 ac 55 3d 60 25 bc bc
       -0.012993747 -0.006930191 0.052166194 -0.02296704
0002b0 f7 45 83 bc 4b 50 93 3d c7 ee bb 3c 23 b5 87 bc
       -0.016024573 0.07193049 0.022941006 -0.016565865
0002c0 de a3 69 bd e4 3e b6 bc 4f 1d b3 bc 5d a8 8d bc
       -0.05704104 -0.022246785 -0.021864561 -0.017292196
0002d0 2d 33 8f 3d 53 b0 c6 bc 65 ed 38 bd 9f 91 1a 3d
       0.06992183 -0.024254 -0.045148272 0.03773653
0002e0 67 00 1b 3d 11 ed ad bc 3b 83 b8 3d bd 6e ac 3d
       0.03784218 -0.021231206 0.09009405 0.08419559
0002f0 b3 18 8f 3d d1 dc bc 3c 6a 09 43 3d e9 11 9e 3c
       0.06987133 0.023054512 0.0476164 0.01929565
000300 14 4a 75 bc eb f4 79 3d 49 a5 25 3d 5f 26 6b 3b
       -0.014971275 0.061024588 0.04044083 0.0035881025
000310 aa dd 11 3d 63 2c 21 bd 6c 00 93 3c df a0 5b 3d
       0.035611786 -0.03934897 0.017944537 0.053620216
000320 f9 15 9b 3d cc 7b 49 3d b3 7e 5a 3d d2 e8 d9 bc
       0.0757255 0.049190328 0.053343486 -0.026600275
000330 31 08 9f 3d 29 d9 e0 bc 9e 86 c7 bc 4f fe 8b 3d
       0.07765234 -0.0274473 -0.024356183 0.06835615
000340 bd 5a 08 3b 44 d7 3c 3d ea e4 86 3d e6 ef 97 bd
       0.0020806037 0.04610373 0.06586631 -0.07418804
000350 35 20 25 bd 4a 33 a1 3b 4f 2b 8e 3b 33 17 fd 3c
       -0.04031392 0.004919444 0.004338659 0.030894851
000360 02 f7 86 3d 7f 46 85 3d 50 3d 93 3d 97 8e 3a bd
       0.06590082 0.06507587 0.07189429 -0.04554614
000370 88 78 1f bc f7 fd 48 3d bb 7c b8 bc 22 6b 62 bc
       -0.009733327 0.049070325 -0.022520414 -0.013819488
000380 20 fa 1f bc ed 63 d7 bc 55 a2 fa bc 96 70 50 bd
       -0.009764224 -0.026292766 -0.030594984 -0.05088862
000390 c0 b8 d8 3c 8e 10 a4 bd 3c ae 0a bc 8d 43 95 3d
       0.026455283 -0.0801097 -0.008464392 0.07288275
0003a0 b9 b0 38 bd 86 bc 89 bd c8 bd 5e bd 14 76 91 3c
       -0.04509041 -0.06725411 -0.05438021 0.0177565
0003b0 93 b1 49 3d b0 b5 41 3d ca f5 8c 3d 93 82 98 3d
       0.049241614 0.04729241 0.06882818 0.0744678
0003c0 10 55 aa bc 5e 86 12 3d 49 40 75 bb 75 44 95 3d
       -0.020792514 0.035772674 -0.003742235 0.07288448
0003d0 0f 08 fc bc b4 b4 5d 3c a5 a5 fe bc 99 2c 85 bc
       -0.030765561 0.0135318525 -0.031084845 -0.016256617
0003e0 81 81 70 3b 4d 81 a4 3d c8 26 a0 3d 43 28 80 3d
       0.0036698284 0.08032475 0.07819897 0.06257679
0003f0 7c f3 89 bd d5 b1 41 3d 7c 19 bc bd bf 09 b8 bc
       -0.06735894 0.047288734 -0.09184548 -0.022465585

conv4.bias f4 [30]
000000 7f 5a f0 3d 24 f0 02 bc ce a3 da bc 2c f7 a4 3d
       0.11736011 -0.007991824 -0.026689436 0.08054957
000010 76 c0 2c 3d 5c 5b 81 3d 96 77 6a bc 5a ce 5b bd
       0.042175733 0.063162535 -0.014310738 -0.05366359
000020 38 bc 26 3d 67 7b 43 bc 5b 38 37 bd dc fa 82 3d
       0.040706843 -0.011931277 -0.04473148 0.06395504
000030 de d8 a4 bd 13 41 0a bd aa e0 03 bc 26 2c 71 3d
       -0.08049177 -0.033753466 -0.00804917 0.058879994
000040 d6 53 bd 3d 15 b8 d6 3c cc 14 94 3d bd 03 86 3d
       0.09244506 0.026210824 0.07230529 0.06543682
000050 df d5 06 3d 28 bd 6f 3d 0d 06 e6 3c 54 25 67 bc
       0.032918807 0.058530003 0.028079057 -0.014108021
000060 7e 08 74 3d b2 71 87 bd b3 22 0a bd 57 b7 65 3b
       0.05957841 -0.066134825 -0.033724498 0.0035051906
000070 6d fe 46 3d 1d 6c 1e ba
       0.048582483 -0.0006043332

conv5.weight f4 [16, 30, 3, 3]
000000 dc bd 99 3d b8 45 33 3d 92 3e d1 3d 5c cb ca bc
       0.07506916 0.04376766 0.102170125 -0.024755172
000010 35 84 c3 bd 88 14 1f bc ed 9f 14 bd 48 df 45 3d
       -0.09546701 -0.009709485 -0.03628533 0.04830864
000020 5c 08 e3 3c 89 b6 4a 3d 20 0a 56 3d 10 67 44 bd
       0.027713947 0.049490485 0.05225575 -0.04794985
000030 78 54 b8 3c 08 0e 90 ba cb 55 44 bd de fe fa bc
       0.022501215 -0.001099051 -0.04793338 -0.030639108
000040 54 c9 77 bd 9c e7 b9 3c 71 b7 e8 3a 9d c7 ef 3c
       -0.060494736 0.022693448 0.0017754865 0.029269988
000050 90 3a 4a bd ba 2f 4e 3d 5e 61 85 bc d4 0a a1 3c
       -0.049372256 0.050338484 -0.01628178 0.019658484
000060 ac 78 81 3c ad 3a 48 3b ac 32 73 3d f3 83 36 3c
       0.015804611 0.0030552552 0.059374496 0.011139858
000070 30 50 24 3d 3b c2 ae bc 41 38 a3 bc 44 89 11 3d
       0.040115535 -0.02133285 -0.019924285 0.035531297
000080 db df c8 bd 40 8d 1a bd da 66 8a bd 56 df 83 bc
       -0.09808322 -0.037732363 -0.06757899 -0.016097706
000090 7d 2f 18 bd 2c 01 b3 bc da 06 07 3d 9e 26 a0 3d
       -0.037154663 -0.021851145 0.03296552 0.07819866
0000a0 12 d4 de bc 08 b6 28 bd cf fe 63 bd f5 ca 24 bd
       -0.027200732 -0.041189224 -0.055662926 -0.040232617
0000b0 0a 40 a9 bc 72 e5 d6 bc 7d d2 54 3b 88 41 44 3d
       -0.020660419 -0.026232455 0.0032474094 0.047914058
0000c0 db 52 95 3d bf d5 ad 3d f3 b8 60 bd c9 7c 1d 3d
       0.07291194 0.084880345 -0.05486388 0.038449083
0000d0 79 e4 c5 bc 98 f0 19 bd 54 1a 06 bd 0c e8 11 3d
       -0.024156796 -0.037582964 -0.032739952 0.035621688
0000e0 74 c9 77 3d 07 a4 0a 3d 31 31 c1 3c fa b1 ec 3c
       0.060494855 0.033847835 0.023583027 0.02889346
0000f0 5d 29 04 3d 01 53 4c 3d fa 2f 5b 3d e9 7b 4a 3c
       0.03226601 0.049883846 0.05351255 0.012358644
000100 da b7 5d bc 31 e9 22 3d a3 66 a1 3c d1 20 9d 3d
       -0.013532603 0.03977317 0.019702261 0.07672275
000110 fe a9 5c bd 98 91 69 bd d0 b9 aa 3c b0 f2 35 bc
       -0.053873055 -0.057023615 0.020840555 -0.0111052245
000120 d4 42 2a bd 0d f6 88 ba b9 8e b3 bc 1f d5 48 bc
       -0.04156764 -0.0010449305 -0.021918641 -0.012257843
000130 46 99 0e bd f0 bb c0 3c a0 dd 69 bc 23 62 df bc
       -0.03481414 0.023527116 -0.014274031 -0.027268475
000140 98 66 2a 3c d5 3b 16 3d 17 38 27 3d 1b ef 89 3d
       0.010400437 0.036678154 0.040824976 0.06735059
000150 d4 98 66 3d 78 07 06 3d 30 f7 93 3d f5 cf b6 bb
       0.056298092 0.032721967 0.07224882 -0.0055789896
000160 03 ed 00 3d f4 bf e1 3c 88 43 80 bd d2 36 10 bd
       0.031476032 0.02755735 -0.062628806 -0.03520853
000170 35 d7 bc 3c d6 65 c9 3c 23 8b 31 bd bb 41 ae bc
       0.023051837 0.024584692 -0.04334558 -0.021271577
000180 b7 f0 28 bd f3 f6 6b bd 8c b7 1b bc 47 e4 26 bd
       -0.04124519 -0.057608556 -0.00950421 -0.040745046
000190 2b 57 f2 3c ab 62 64 bb 6a 4a 93 bd 1f 84 38 3c
       0.02958258 -0.003484885 -0.07191928 0.011261969
0001a0 b0 3f 43 3d bb 7c 43 3d cb 33 6b bd d4 cf 5b bd
       0.04766816 0.047726374 -0.05742244 -0.053664997
0001b0 58 93 09 bd df 4f 38 ba 22 ac 63 3b a2 29 7a bd
       -0.033587784 -0.00070309447 0.003474005 -0.06107486
0001c0 de 16 53 bc 0e ad 2c 3c 51 17 82 bd d8 b5 38 3d
       -0.01288387 0.010539306 -0.063521035 0.045095295
0001d0 d2 e1 98 bc 59 ad c8 bc 4a c0 37 3d 70 66 28 bd
       -0.018662367 -0.024496721 0.044861116 -0.041113317
0001e0 8e 9d 91 3d 13 38 81 bc 2e a1 50 bd f1 22 1b 3d
       0.07110129 -0.015773809 -0.050934963 0.03787512
0001f0 9f a2 b1 bc 6c 0c c0 3c a6 d4 65 bd 64 de 49 3b
       -0.02168399 0.023443423 -0.056111 0.003080272
000200 5d 39 f1 bc 08 0b 40 bd 4b e6 a8 bc b0 f4 7d 3d
       -0.029446298 -0.04688552 -0.020617625 0.06200093
000210 1d 40 c0 3c 8e c5 62 bd 10 db d0 bc 8c 70 90 3c
       0.023468072 -0.055364184 -0.025495082 0.017631792
000220 05 77 68 bd 20 fc 9c bc 0d 0e 84 3d b8 f0 92 3d
       -0.05675413 -0.019163191 0.064479925 0.0717482
000230 ac ed 94 bc 23 6a a0 bc 6d 9f 96 3c 00 50 50 b8
       -0.018179737 -0.01958186 0.018386567 -4.966557e-05
000240 5f 6b 64 3d ae fd 0d 3b e1 52 9f 3c 39 84 53 bb
       0.05576646 0.0021666097 0.0194487 -0.0032274856
000250 70 d4 02 3d 0a 45 a9 ba c0 8e f3 3c 93 3f a8 bc
       0.031940877 -0.0012914252 0.029731154 -0.020538127
000260 fa aa 3f 3d 96 1c 8b 3d 2b ca 42 3c c0 7f 88 3d
       0.046793915 0.06792562 0.011889021 0.066649914
000270 97 28 19 3c 85 7f 51 3b 45 4b 51 bb 4f fa 24 bd
       0.009348056 0.0031966877 -0.0031935733 -0.040277775
000280 d9 8c 6e bd 59 1d 76 bd b6 a0 a1 3d e9 b2 b4 b9
       -0.05823979 -0.06008658 0.07891981 -0.00034465574
000290 e8 b0 a3 3b f8 2b c9 bb 04 01 a1 bd 89 49 76 3c
       0.004995454 -0.0061392747 -0.07861522 0.015032181
0002a0 14 b7 1e bc ec 9b 0c bc 96 15 15 3d 5a 39 97 bd
       -0.009687204 -0.008582097 0.03639754 -0.07383986
0002b0 ec 04 24 bd 9d 0b 93 3b 0e c3 aa bd 25 5f 8a bd
       -0.040043756 0.0044874684 -0.08337985 -0.06756429
0002c0 24 ce 0d 3c 14 d7 31 3d 1d b3 34 3d a4 70 b1 bc
       0.008655105 0.043418005 0.04411613 -0.021660157
0002d0 36 88 14 38 d9 8a 69 3d b2 33 00 bd 63 80 60 bd
       3.5412806e-05 0.05701718 -0.0312993 -0.05480994
0002e0 0d e2 00 3d 10 bb ec b9 c1 23 38 bd 4a b9 ac 3c
       0.03146558 -0.000451528 -0.044955973 0.021084446
0002f0 14 28 3d bd 0f 60 8e ba 40 82 e9 bc cf 88 10 3d
       -0.0461808 -0.0010862368 -0.02850449 0.03528672
000300 d6 f3 0d 3d 94 3b 16 3d 77 17 0d 3d 42 3f 49 3c
       0.03465637 0.036677912 0.034446206 0.012283148
000310 78 f3 13 3d 80 62 97 3c 00 ab 0e 3d bd 8f 72 3d
       0.03612086 0.018479586 0.034831047 0.05921911
000320 1b 75 3b 3d 11 8e c3 3c b1 4d 08 3d 3e 5f 7c bd
       0.045765977 0.023871453 0.033277217 -0.061614268
000330 c4 99 53 3c 73 5e 57 bc 8a 44 1b 3d f4 4c 12 bd
       0.012915079 -0.013145077 0.03790716 -0.03571792
000340 31 e9 db bc 4c f3 35 bb 1f c8 68 3d 65 f3 72 3d
       -0.026844593 -0.0027763424 0.056831475 0.05931415
000350 b6 ed 2d bc b6 0f 58 bc 14 8e 4a bd 58 4b d4 bc
       -0.010615757 -0.0131873395 -0.049451903 -0.025914833
000360 a2 b8 d1 3d 87 34 02 3d 71 26 ad bd 0a ca 13 3d
       0.10240294 0.031788375 -0.08454598 0.03608135
000370 06 70 8c bd 4e 6e c1 3b 79 bf 30 bd 49 e7 b2 bb
       -0.06857304 0.005903042 -0.043151353 -0.0054597002
000380 57 20 ff bc e9 7f d9 3b 04 50 32 3d df de 95 3c
       -0.03114335 0.0066375625 0.04353334 0.01829475
000390 e5 5c d6 3c c3 bc 50 3c 08 02 67 bd 9a 65 5f bc
       0.026167342 0.012740317 -0.05639842 -0.013635064
0003a0 f9 d1 c5 b9 d1 6f 01 bd 8c 75 17 bd 12 48 85 bd
       -0.0003773121 -0.031600777 -0.036977336 -0.06507887
0003b0 de 7d 17 3d 84 9c 19 bd 9a f2 58 bc 44 08 86 3d
       0.03698527 -0.03750278 -0.0132414345 0.06544545
0003c0 04 10 f5 3c c3 ea 66 bd 20 87 b4 3a de d6 89 3d
       0.029914863 -0.05637623 0.001377318 0.06730436
0003d0 b7 6a 6f 3d 9a 5c c2 3c 9e ed 40 3d ea bd 44 3d
       0.05845138 0.023725796 0.04710161 0.04803268
0003e0 74 42 21 3d 27 de 08 3c 9e 00 05 bd 00 67 f7 3b
       0.039370015 0.0083537465 -0.03247129 0.0075501204
0003f0 ea eb 2d 3b 61 a1 32 3c b0 d6 de bc 29 79 2d bc
       0.002653832 0.010902734 -0.02720198 -0.010587969

conv5.bias f4 [16]
000000 01 92 90 3c 16 e8 7d 3d 68 11 60 3c fa c3 12 bd
       0.017647745 0.061988913 0.013676025 -0.03583143
000010 3a b0 3a 3c a1 d3 7f bb e9 b4 35 bc 40 4a aa b8
       0.011394555 -0.0039036053 -0.011090496 -8.120062e-05
000020 e3 d3 79 bd 8d a1 6b 3d 0b 19 79 3d 2e db df bc
       -0.060993087 0.057527114 0.0608149 -0.027326193
000030 69 04 c0 3b 08 cd 10 bc 02 7e f0 3c 86 31 50 bd
       0.0058599007 -0.008837946 0.02935696 -0.05082848

classifier.1.weight f4 [10, 16]
000000 bd 65 50 be 1c d9 75 3e 36 19 08 bd d4 bb 84 bd
       -0.2035131 0.24008602 -0.033227168 -0.06481138
000010 d9 8b 7d 3e a8 53 19 bd 40 b2 97 3c 3b c9 40 3e
       0.24760379 -0.037433296 0.018517613 0.18826763
000020 53 53 15 3c 4b 39 1f 3e 45 b0 8f 3e 85 d3 78 bd
       0.009114104 0.155492 0.2806417 -0.060748596
000030 9c ef a6 bd 84 5c 5c 3e 90 ff 47 be 55 1c 80 bd
       -0.081511706 0.21519667 -0.19531083 -0.06255404
000040 ff 22 86 bd f4 2e 71 be 91 98 40 3d 46 bc 87 3d
       -0.06549644 -0.23553067 0.0470205 0.06627707
000050 b1 d3 d5 bd 2a 3b 3f 3e eb d2 3b bc cb 75 20 be
       -0.104407676 0.18674913 -0.011463861 -0.15669934
000060 e9 a6 8b 3e ce fe 72 be 6e 27 14 be 1b 42 e4 3d
       0.2727578 -0.23730013 -0.14468166 0.11145421
000070 8b eb 92 3d c6 0e 12 bc af 47 76 be 17 c7 2d 3e
       0.071738325 -0.008914655 -0.24050783 0.16970478
000080 b5 7b 74 3d a1 b4 80 3e b1 53 21 3e d9 7e 3e 3e
       0.05968829 0.2513781 0.15754582 0.18603076
000090 fc 7e 0d 3e d6 98 2d 3e 8f b9 d5 bd 23 3c 46 3d
       0.13817972 0.16952834 -0.10435783 0.048397195
0000a0 55 fd 6a be 46 27 b8 bd 78 83 2b be 9f 02 5c be
       -0.22948201 -0.08991866 -0.1674937 -0.21485375
0000b0 21 2c a3 3d fa c9 40 be 38 ca c0 3d 3b ff 14 bd
       0.07967401 -0.18827048 0.0941357 -0.03637622
0000c0 6a b9 88 3e ee f3 6c be 69 00 32 3e e0 4e 54 3e
       0.2670396 -0.23139927 0.17382969 0.20733213
0000d0 0b 80 27 be 89 d0 8f be 17 c1 09 bc 4d ec 05 be
       -0.16357438 -0.28088787 -0.008407853 -0.13078423
0000e0 f2 1c 15 be c7 df c3 3d cc 0a 0b 3e ad be 34 be
       -0.14561823 0.095641665 0.13578337 -0.17650862
0000f0 1f 23 1a be 08 bb d8 bd 1c 46 2a bd 46 d8 83 3d
       -0.1505246 -0.105825484 -0.041570768 0.06437735
000100 38 94 4d bc 01 91 dc 3d a5 46 89 3d 5c fe 67 3e
       -0.012547545 0.10769845 0.067029275 0.22655624
000110 f3 cc 40 3e eb 3f 11 3e 89 f5 9d bd dd e5 19 3c
       0.18828182 0.14184539 -0.07712848 0.009393183
000120 b2 a3 23 be 89 3e c7 3d f7 cc 47 bc 75 c6 07 be
       -0.15980414 0.097287245 -0.0121948635 -0.13259299
000130 ed e4 a0 bd b8 fc 1a 3e d0 4a 57 3d b9 42 17 be
       -0.07856164 0.15135467 0.05256158 -0.14771546
000140 6e f4 29 3e af 84 48 bd 14 57 08 be ad 3b 69 bd
       0.16597149 -0.048954662 -0.13314468 -0.056941677
000150 41 a5 54 be 47 b8 cf bc 7b d1 a2 be 0d 08 17 be
       -0.20766164 -0.025356425 -0.31800446 -0.14749165
000160 1f 02 46 3e fd 10 1d 3c 68 f9 20 be d6 c1 3c 3e
       0.19336747 0.00958657 -0.15720141 0.18433318
000170 d5 19 18 be 26 3e 60 be b1 e4 77 3e dd c7 cd bd
       -0.14853604 -0.21898708 0.24208333 -0.100478865
000180 61 01 d4 3d 0b c4 2c be 64 83 95 3d 2d 6f 2e 3e
       0.103518255 -0.1687166 0.073004514 0.17034598
000190 5a b7 2b be 6a 78 54 be 9e 70 1e be ef 16 82 3d
       -0.16769162 -0.2074906 -0.15472648 0.063520305
0001a0 a1 34 6e be 8e f1 44 3d ae f6 78 be b6 a6 9d 3d
       -0.23262264 0.048081927 -0.24312851 0.07697813
0001b0 ec 58 83 3e bb 28 0d 3d 79 3c 48 3d 54 77 49 3d
       0.2565378 0.03446267 0.048885796 0.049186066
0001c0 42 59 3f 3a c8 26 1e 3e 21 df 78 be 2c 81 ee 3d
       0.0007299372 0.15444481 -0.24303867 0.11645731
0001d0 3a ae 02 3d 7a 09 c5 3c c4 e9 5e bc 64 a6 8c 3e
       0.031904437 0.02405237 -0.013605539 0.27470696
0001e0 8a f6 58 3e 94 03 18 3e a9 98 67 bd ed f3 2f be
       0.21187797 0.14845115 -0.056542072 -0.17182894
0001f0 e0 47 7b be 4a a4 96 3d 66 24 89 3d bc a3 1e bc
       -0.24539137 0.073555544 0.066963956 -0.009682592
000200 9e a5 4f bc 12 62 8e 3d e6 46 f5 3d 4c c1 43 be
       -0.012673764 0.06952299 0.119764134 -0.19116706
000210 f9 f0 86 3d 3a cf 92 bd 5e 21 f3 bd 23 69 27 3d
       0.06588931 -0.071684316 -0.11871599 0.04087175
000220 2f b3 bb bc a5 9b 0f 3e d7 49 96 bd b4 91 18 3e
       -0.02291259 0.14024217 -0.073383026 0.14899331
000230 94 e0 ee bd 08 97 2b be f6 31 86 be 30 37 d4 3d
       -0.11663929 -0.16756833 -0.26209992 0.10362089
000240 fa 16 5d be 2b db 0b 3e 9c b2 5d 3e d8 59 ae bd
       -0.21590796 0.13657825 0.21650165 -0.0851323
000250 de 14 bf bd a0 53 af 3d 8c ac 24 3e 17 71 e3 3d
       -0.09330152 0.08560872 0.16081446 0.111055546
000260 4a 17 ec bd ab b8 56 be 4e 49 90 be b4 23 bc bc
       -0.115278795 -0.20968883 -0.28180927 -0.022966243
000270 b3 17 ff bd 7c 4b 26 3e 20 40 b6 3d 4b 91 b1 3d
       -0.12455692 0.16239733 0.088989496 0.086702906

classifier.1.bias f4 [10]
000000 79 b7 2f be 4e 57 ec 3d 7d aa b3 bd 90 25 5a 3d
       -0.17159833 0.115400895 -0.087727524 0.05325848
000010 ad 96 eb bd 1d c9 e1 3d 8d fc 0a be 15 d2 ba 3d
       -0.115033485 0.110246874 -0.13572903 0.09122101
000020 43 8b b8 3c 09 28 90 be
       0.022527343 -0.28155544
