Cifar/reek_cifar10_model_10Models_finalResult/6_model_.pt (torch, 255681 bytes, 12 tensors)

conv1.weight f4 [16, 3, 3, 3]
-0.065427214 0.057713524 -0.10621494 -0.048445724 -0.14841649 0.037549462 -0.042534973 -0.13577911
0.16644718 -0.027208751 -0.13708222 -0.13538574 -0.20819513 -0.09865629 0.18143257 -0.19985232
-0.03777491 0.18348816 -0.18756638 -0.18982771 -0.13967347 0.016350849 -0.07442766 -0.1005021
-0.15175173 -0.056717232 -0.15103218 -0.055023495 -0.1059096 0.049650878 -0.0064882007 -0.13895199
0.22180068 -0.04011366 0.12895615 0.16031052 0.10559472 0.13405548 -0.12210995 0.020204045
-0.043309297 -0.012167121 -0.18283999 0.11475832 0.033225153 -0.032545395 0.10666309 -0.090299115
-0.21469556 -0.023906868 0.20982227 0.029487919 -0.18930015 -0.123120785 -0.12870659 -0.100566074
0.014355715 0.04630344 0.13934627 0.16088603 0.0983509 0.04756656 0.059354525 -0.19030264
-0.038109377 -0.08642351 0.10009961 -0.026114928 0.10934927 -0.20548673 0.053062078 0.14173858
-0.15179813 -0.0584649 0.063336104 -0.032992333 -0.17088446 -0.09216647 -0.13264789 0.22382256
0.19260484 0.016092176 -0.14697225 -0.16061391 0.07794117 -0.19538689 -0.080838 -0.07476585
0.09226855 0.052109785 -0.11791586 0.16579449 -0.08723044 0.11253561 0.05325018 -0.19614284
0.13232939 -0.18835634 0.1736659 -0.06832533 -0.12247682 0.018696332 0.07335242 -0.1912025
-0.06945504 -0.15178053 -0.11805459 -0.056446142 0.04113333 -0.0109424675 0.06491799 0.08062113
0.14990538 0.16952755 0.030469606 0.13310269 0.05023504 0.09487015 0.07932398 0.066738196
0.05798308 0.18417269 -0.096122995 -0.075644 0.16187148 0.00602846 0.11035057 0.10494621
-0.029081417 0.026050992 0.028375546 0.17681605 -0.014507878 -0.13307063 -0.12804818 -0.09476263
0.13502519 -0.023031414 -0.16960466 -0.02916433 -0.018387396 0.1607752 -0.07296103 -0.033939596
-0.21718748 -0.17547981 -0.19977008 -0.03728538 -0.06339308 -0.22148705 0.072446376 -0.15452969
-0.19250755 -0.20149861 0.12720273 0.089922465 -0.1645703 -0.10063967 0.05384244 -0.14093961
0.06093638 0.13862056 -0.06678563 -0.12099339 -0.09127692 -0.06488835 -0.03425992 -0.050712924
-0.20109056 -0.2191383 -0.019497193 -0.17784083 -0.12503734 -0.018721761 0.038159277 0.03237791
-0.108596794 -0.014941329 -0.07032385 -0.2067872 0.09694228 -0.15124732 0.074217975 -0.1357734
-0.1515379 0.14215674 0.04903334 -0.00589562 -0.016182976 0.08717159 0.14399104 -0.12044214
0.18190211 0.066214696 -0.014384607 -0.07045259 -0.13413835 -0.038827334 0.09753389 0.12518983
0.08736109 0.09989933 0.094711535 0.025638534 0.1247488 0.04257662 0.023247458 0.18000028
-0.08318235 0.013988757 -0.07187478 0.22766438 0.06996963 -0.045894194 -0.002050541 -0.019873343
-0.1769436 -0.13026936 -0.07727312 -0.12550704 0.067309126 -0.08002089 0.003809543 -0.11079314
-0.073195525 -0.2007302 -0.18317716 -0.111785054 0.13222046 -0.04128797 0.12782006 -0.06700264
-0.16208076 -0.20248073 -0.043038454 0.026086342 0.07505081 -0.1823157 0.13720591 -0.06603984
0.15982237 -0.09495064 0.1560928 0.11057835 -0.15920174 0.2106029 0.03609536 -0.058584716
0.17698938 -0.12903753 -0.23302628 0.13191773 0.05087442 0.17372689 -0.117535695 0.0139093865
00000000: b4fe 85bd 0465 6c3d 3887 d9bd 066f 46bd
00000010: 7efa 17be 77cd 193d 2739 2ebd ae09 0bbe
00000020: 2171 2a3e e3e4 debc 485f 0cbe 8fa2 0abe
00000030: 1b31 55be 4f0c cabd 76c9 393e 16a6 4cbe
00000040: ddb9 1abd 52e4 3b3e 6711 40be 3262 42be
00000050: 9006 0fbe 37f2 853c 876d 98bd 0cd4 cdbd
00000060: ce64 1bbe 5450 68bd 2ea8 1abe 5160 61bd
00000070: 22e7 d8bd b85e 4b3d f99a d4bb 6e49 0ebe
00000080: b81f 633e 394e 24bd 150d 043e 7128 243e
00000090: 0b42 d83d d745 093e c814 fabd f482 a53c
000000a0: 1765 31bd 9b58 47bc 683a 3bbe 6906 eb3d
000000b0: 1917 083d 524e 05bd 2e72 da3d beee b8bd
000000c0: 27d9 5bbe 56d8 c3bc a6db 563e a690 f13c
000000d0: e6d7 41be c026 fcbd a9cb 03be 96f5 cdbd
000000e0: 3c34 6b3c ada8 3d3d cab0 0e3e 4fbf 243e
000000f0: 326c c93d 27d5 423d bb1d 733d b2de 42be
00000100: 9418 1cbd cffe b0bd 0601 cd3d f9ee d5bc
00000110: 83f2 df3d 1d6b 52be 9f57 593d eb23 113e
00000120: f870 1bbe e478 6fbd 5cb6 813d f822 07bd
00000130: 56fc 2ebe c6c1 bcbd d9d4 07be be31 653e
00000140: 343a 453e bdd3 833c e57f 16be f977 24be
00000150: 9f9f 9f3d 8013 48be 658e a5bd d71e 99bd
00000160: 4bf7 bc3d 1271 553d df7d f1bd 08c6 293e
00000170: dfa5 b2bd 1279 e63d dc1c 5a3d abd9 48be
00000180: 5b81 073e 7ce0 40be 79d5 313e 27ee 8bbd
00000190: 21d5 fabd 0d29 993c cb39 963d 97ca 43be
000001a0: 723e 8ebd 5b6c 1bbe 9bc6 f1bd 1234 67bd
000001b0: 6c7b 283d 0948 33bc b9f3 843d b11c a53d
000001c0: cc80 193e a198 2d3e 659b f93c 124c 083e
000001d0: 42c3 4d3d 484b c23d 9c74 a23d 09ae 883d
000001e0: ab7f 6d3d c497 3c3e 22dc c4bd 3eeb 9abd
000001f0: a3c1 253e 638a c53b 7bff e13d 0aee d63d
00000200: 273c eebc e468 d53c d573 e83c 440f 353e
00000210: 73b2 6dbc ab43 08be 101f 03be e912 c2bd
00000220: 0b44 0a3e 60ac bcbc d8ac 2dbe 08ea eebc
00000230: 2aa1 96bc 41a2 243e 986c 95bd 3f04 0bbd
00000240: 6566 5ebe fbb0 33be 8790 4cbe 8eb8 18bd
00000250: 3bd4 81bd 80cd 62be c45e 943d 083d 1ebe
00000260: b320 45be a755 4ebe 6f41 023e 4529 b83d
00000270: 1e85 28be 2c1c cebd e489 5c3d 7952 10be
00000280: 6d98 793d 8cf2 0d3e e8c6 88bd 62cb f7bd
00000290: 65ef babd 2fe4 84bd 2154 0cbd 5bb8 4fbd
000002a0: afea 4dbe ca65 60be 94b8 9fbc e81b 36be
000002b0: ca09 00be 615e 99bc e74c 1c3d b39e 043d
000002c0: ff67 debd 7acc 74bc f305 90bd 06c0 53be
000002d0: ad89 c63d 94e0 1abe 98ff 973d 2f08 0bbe
000002e0: c02c 1bbe 8991 113e 2fd7 483d 0c30 c1bb
000002f0: 2992 84bc 0587 b23d 6372 133e 5eaa f6bd
00000300: 8c44 3a3e 929b 873d 6aad 6bbc 7349 90bd
00000310: 905b 09be 6909 1fbd d9bf c73d c331 003e
00000320: 5fea b23d 0598 cc3d 1ff8 c13d e707 d23c
00000330: 4d7c ff3d d264 2e3d 7471 be3c fe51 383e
00000340: 825b aabd 1931 653c 1633 93bd da20 693e
00000350: 3d4c 8f3d 8dfb 3bbd 5f62 06bb 6ccd a2bc
00000360: b430 35be 5565 05be 5f41 9ebd eb84 00be
00000370: 5ed9 893d fee1 a3bd 87a9 793b 84e7 e2bd
00000380: 89e7 95bd 388c 4dbe cb92 3bbe 90ef e4bd
00000390: cd64 073e 931d 29bd 43e3 023e ae38 89bd
000003a0: 80f8 25be 1c57 4fbe 1749 30bd 06b3 d53c
000003b0: 3db4 993d f8b0 3abe b57f 0c3e e53f 87bd
000003c0: 7aa8 233e 7b75 c2bd cad6 1f3e e776 e23d
000003d0: c805 23be 49a8 573e bad8 133d 87f6 6fbd
000003e0: b43c 353e 6a22 04be 719e 6ebe 7115 073e
000003f0: b261 503d 76e5 313e 8eb6 f0bd 32e4 633c

conv1.bias f4 [16]
0.18105058 0.16671535 0.10587571 -0.027106036 0.04452964 0.08842976 -0.04179149 0.16048332
-0.122268796 -0.15910539 -0.030899854 -0.012826558 -0.1180939 0.09260635 0.030228203 -0.23164311
00000000: 5365 393e 6eb7 2a3e 5dd5 d83d 7a0d debc
00000010: b664 363d a91a b53d 8e2d 2bbd bd55 243e
00000020: 1068 fabd 86ec 22be b121 fdbc 7c26 52bc
00000030: 37db f1bd 66a8 bd3d 23a1 f73c da33 6dbe

conv2.weight f4 [128, 16, 3, 3]
0.092913136 0.030440412 0.037071288 0.08683806 -0.007342677 0.018629124 0.05547659 0.09323938
-0.06655719 -0.040743556 0.054133393 0.048026644 0.07429131 0.042742573 -0.011725856 -0.018942652
-0.04328142 -0.060652748 -0.0077484623 0.041788556 0.02302242 -0.015838312 0.08961203 -0.021375423
-0.041584045 -0.04215093 0.037245955 0.04521693 0.03121464 0.0076304968 0.03924343 0.06372179
0.018256165 0.070385486 -0.061879158 -0.029705515 -0.011016517 0.026191201 -0.040479913 -0.0243687
-0.057353392 0.024073044 -0.050941188 0.057840154 0.09866351 0.0029032144 0.086711645 0.08630802
0.015727459 0.03788119 -0.007951186 0.014088576 -0.013200909 -0.022308167 -0.0637033 -0.037483726
-0.033222277 -0.023104183 0.020939114 -0.07935843 0.06812517 -0.06519202 0.055478852 -0.028728884
-0.06356647 0.04099014 -0.055248942 -0.024507254 0.020449819 -0.07134692 -0.04454792 -0.036365315
-0.0011936078 -0.051525746 0.04439322 -0.057682347 0.040743515 0.030635152 0.09392207 -0.06608171
0.009228584 0.021001423 -0.05613792 -0.043285936 0.040527552 -0.05945318 -0.014281886 -0.073827796
-0.07739353 0.026252445 -0.09589274 -0.093774214 0.08090186 -0.030308677 -0.036099926 0.08419962
-0.04598732 -0.0138773685 0.061854966 0.038543012 0.056241233 -0.07213508 -0.1113986 -0.05094518
-0.03558439 0.04442745 -0.013981685 0.017363636 -0.062961474 -0.046181172 0.060146887 -0.012116893
0.03980654 -0.04427956 0.06445731 -0.056178655 0.026436001 -0.022112433 -0.003043771 0.081314035
-0.06070824 -0.030136574 0.09144739 -0.014859249 0.09978964 0.012881354 0.058621664 0.078818835
0.01649989 0.043988615 0.07419565 0.0069326893 0.013556133 -0.021971447 0.113055766 0.005011583
-0.03465809 -0.07004671 0.051675953 0.04780431 -0.011714345 -0.06158372 -0.077245325 0.026202101
-0.006863677 -0.05108588 -0.01856013 0.014703695 0.08407104 0.069496304 -0.068033844 -0.028152315
0.022202943 -0.02339875 0.0077553163 -0.08993927 -0.09851806 -0.11711029 0.046092294 -0.03585102
-0.054301523 -0.040199213 0.08380998 -0.036007483 0.09592229 0.06674754 -0.057426877 0.072608
0.10080207 -0.009414036 -0.00043475095 0.046859585 0.017762 0.059586402 -0.00306698 0.010078604
-0.047641553 -0.06797427 -0.054142553 0.025391342 0.04777322 -0.030943379 -0.0035927785 -0.048288096
0.03932293 -0.032868925 0.03583139 0.054769892 -0.04573551 0.07536316 0.07033306 0.09362725
0.03177194 -0.017951775 -0.03394323 0.010876816 -0.076453865 0.008156758 0.031787537 0.04346359
-0.022756632 0.017994242 0.04980101 0.025737846 -0.08570924 -0.049352426 -0.047207385 -0.016091881
-0.026993876 -0.06540115 0.060643014 -0.06340761 -0.040394925 0.051037163 0.016550634 -0.022289392
0.025916709 0.051319186 0.032619648 -0.080086745 -0.06552761 0.029553752 -0.00039406182 0.059909627
0.036706056 0.05493019 0.058096595 0.04616236 0.06700744 0.09636526 0.06420994 -0.03768325
-0.042947114 0.108483404 0.03031422 -0.029736664 0.031186033 -0.0066873445 0.11416052 0.10006668
-0.020377213 -0.04304526 -0.008926605 0.08431154 -0.07814821 0.05212628 0.07214081 -0.028158821
0.058498587 -0.015243022 -0.014883154 0.036777385 -0.03881086 0.013274991 -0.05882525 0.0337453
00000000: 3e49 be3d 2c5e f93c 10d8 173d 27d8 b13d
00000010: d79a f0bb 1b9c 983c 6c3b 633d 4af4 be3d
00000020: 234f 88bd b7e2 26bd faba 5d3d 96b7 443d
00000030: 0b26 983d d612 2f3d ce1d 40bc 9f2d 9bbc
00000040: dc47 31bd 046f 78bd d0e6 fdbb 7a2a 2b3d
00000050: 8499 bc3c 59bf 81bc 8386 b73d 831b afbc
00000060: 0854 2abd 74a6 2cbd 378f 183d 6335 393d
00000070: d8b5 ff3c 3f09 fa3b b8bd 203d 9280 823d
00000080: f48d 953c 4426 903d 0075 7dbd fb58 f3bc
00000090: 9f7e 34bc ee8e d63c 44ce 25bd dea0 c7bc
000000a0: 64eb 6abd d534 c53c b5a7 50bd cce9 6c3d
000000b0: 1810 ca3d db43 3e3b e095 b13d 42c2 b03d
000000c0: dfd6 803c 4f29 1b3d b145 02bc c5d3 663c
000000d0: a048 58bc 9ebf b6bc e076 82bd 8988 19bd
000000e0: 1514 08bd fc44 bdbc 8188 ab3c ac86 a2bd
000000f0: 3685 8b3d 6583 85bd cb3d 633d d658 ebbc
00000100: 232f 82bd 47e5 273d b74c 62bd 70c3 c8bc
00000110: 6186 a73c 561e 92bd e177 36bd ccf3 14bd
00000120: d572 9cba a90c 53bd aad5 353d 5344 6cbd
00000130: ace2 263d 92f6 fa3c 375a c03d d955 87bd
00000140: 7d33 173c 2d0b ac3c e0f0 65bd 984c 31bd
00000150: 3800 263d 2d85 73bd 92fe 69bc 0733 97bd
00000160: 8080 9ebd 5e0f d73c 6a63 c4bd b20c c0bd
00000170: e0af a53d e749 f8bc 84dd 13bd da70 ac3d
00000180: 335d 3cbd e75d 63bc a25b 7d3d 47df 1d3d
00000190: 355d 663d 8fbb 93bd f324 e4bd e5ab 50bd
000001a0: f0c0 11bd 8ff9 353d 7013 65bc 2f3e 8e3c
000001b0: f2f1 80bd 7828 3dbd 955c 763d ef85 46bc
000001c0: 2f0c 233d 7c5e 35bd 3202 843d 971b 66bd
000001d0: 5090 d83c 2225 b5bc 017a 47bb f987 a63d
000001e0: 34a9 78bd fae0 f6bc c548 bb3d 3574 73bc
000001f0: 835e cc3d 510c 533c 451d 703d c56b a13d
00000200: c72a 873c 682d 343d e4f3 973d 9d2b e33b
00000210: 8b1a 5e3c 77fd b3bc c889 e73d 3538 a43b
00000220: a4f5 0dbd a674 8fbd 2aaa 533d 74ce 433d
00000230: 86ed 3fbc 363f 7cbd cc32 9ebd caa5 d63c
00000240: b2e8 e0bb 6d3f 51bd 6a0b 98bc c4e7 703c
00000250: 702d ac3d 1454 8e3d 5455 8bbd af9f e6bc
00000260: f2e2 b53c bcae bfbc 4f20 fe3b 1432 b8bd
00000270: d6c3 c9bd 85d7 efbd 46cb 3c3d 85d8 12bd
00000280: 466b 5ebd eea7 24bd 91a4 ab3d 957c 13bd
00000290: e872 c43d efb2 883d 7238 6bbd 81b3 943d
000002a0: 5171 ce3d 543d 1abc 49ef e3b9 d6ef 3f3d
000002b0: 9d81 913c df10 743d 63ff 48bb bb20 253c
000002c0: ca23 43bd 1836 8bbd 95c4 5dbd 8101 d03c
000002d0: daad 433d f87c fdbc d274 6bbb bdc9 45bd
000002e0: 1511 213d 91a1 06bd f0c3 123d 6556 603d
000002f0: 2855 3bbd 0058 9a3d c80a 903d a5bf bf3d
00000300: 4b23 023d 9a0f 93bc 0e08 0bbd ac34 323c
00000310: d893 9cbd eca3 053c a633 023d e106 323d
00000320: 1e6c babc a968 933c 25fc 4b3d 2dd8 d23c
00000330: 5388 afbd c525 4abd 885c 41bd 1fd3 83bc
00000340: 4322 ddbc 0af1 85bd cf64 783d d9db 81bd
00000350: 2675 25bd 580c 513d 3295 873c 3e98 b6bc
00000360: 474f d43c 1134 523d 2e9c 053d 8504 a4bd
00000370: 5733 86bd b61a f23c 159a ceb9 cc63 753d
00000380: 1759 163d 7bfe 603d b2f6 6d3d be14 3d3d
00000390: 323b 893d 265b c53d 8080 833d c059 1abd
000003a0: 50e9 2fbd 8c2c de3d 8755 f83c 4e9a f3bc
000003b0: da79 ff3c 8321 dbbb fecc e93d c2ef cc3d
000003c0: 1dee a6bc 3a50 30bd e540 12bc 87ab ac3d
000003d0: 2b0c a0bd 5e82 553d 90be 933d 54ad e6bc
000003e0: 379c 6f3d debd 79bc 79d8 73bc e2a3 163d
000003f0: 23f8 1ebd 597f 593c bff2 70bd 8338 0a3d

conv2.bias f4 [128]
0.03832243 -0.10964124 -0.02583987 0.056889713 0.03055094 -0.056647837 0.05275337 0.01366794
-0.022075983 -0.030420206 -0.016727634 -0.023721226 -0.007848618 -0.017529977 0.066468254 -0.032770973
-0.051191717 0.048033286 0.063929334 0.052403923 -0.06628364 0.02607198 0.0322731 0.06645189
0.025187606 -0.07367703 -0.07192365 0.008322379 -0.07276775 0.008313165 0.025454476 -0.005471877
0.13095322 -0.064489976 -0.038307242 0.00031318367 -0.056676667 0.010817385 0.026520714 0.07490166
-0.02744454 -0.005460377 0.020623686 0.07139541 0.06445477 0.03777456 0.02822558 0.055873785
-0.025271652 0.0657914 0.037736543 -0.061239578 -0.097363956 -0.06013558 -0.09321535 -0.04205985
-0.077488914 0.056304958 0.06607601 -0.007995649 0.018502656 -0.09280304 -0.06119981 0.014348622
-0.072967 -0.078568295 -0.024235515 -0.012868464 0.024777038 0.001666596 0.07804977 -0.012954576
0.13425273 -0.090963356 -0.0134186875 0.021608023 -0.043070972 -0.055488113 0.01734269 -0.069181785
0.054275755 0.07452067 -0.07191967 0.016716871 0.06307147 0.020629782 0.053444546 -0.06458629
0.07387955 -0.01945318 0.06357004 0.06317711 0.104686916 0.08039407 -0.028167695 0.043870762
0.04239862 -0.11624693 -0.0004768538 -0.07859356 -0.011144383 -0.063452154 0.035988063 0.04889786
0.023259716 -0.1043157 -0.07705452 0.00043307434 -0.046015892 0.10873211 0.06051121 -0.10279458
-0.01772709 0.0382385 -0.040788643 0.07835952 -0.13148981 0.09673695 0.048184983 0.10132703
0.0277379 -0.022995451 0.04059463 0.09988664 -0.061083928 0.05574117 0.074351594 -0.025516216
00000000: fbf7 1c3d 968b e0bd 23ae d3bc 3005 693d
00000010: f745 fa3c 9007 68bd eb13 583d 7fef 5f3c
00000020: b1d8 b4bc cc33 f9bc 6408 89bc 0453 c2bc
00000030: 7d97 00bc 079b 8fbc 8220 883d db3a 06bd
00000040: 68ae 51bd 8dbe 443d 62ed 823d 7fa5 563d
00000050: b8bf 87bd e894 d53c cc30 043d ee17 883d
00000060: 3d56 ce3c fce3 96bd b54c 93bd 965a 083c
00000070: 4207 95bd f133 083c e885 d03c 6e4d b3bb
00000080: 9a18 063e 5213 84bd 0ee8 1cbd cd32 a439
00000090: cb25 68bd 673b 313c f841 d93c 0b66 993d
000000a0: 5fd3 e0bc f6ec b2bb 01f3 a83c c237 923d
000000b0: dd00 843d 7fb9 1a3d 5539 e73c e9db 643d
000000c0: 7f06 cfbc a4bd 863d a291 1a3d 5ad6 7abd
000000d0: c166 c7bd ba50 76bd b0e7 bebd f346 2cbd
000000e0: 82b2 9ebd 07a0 663d dc52 873d 2f00 03bc
000000f0: e292 973c 850f bebd a7ac 7abd 7c16 6b3c
00000100: b96f 95bd 6ae8 a0bd 8f89 c6bc 40d6 52bc
00000110: 37f9 ca3c af71 da3a 8fd8 9f3d 6e3f 54bc
00000120: 8c79 093e ff4a babd 0eda 5bbc 4f03 b13c
00000130: 306b 30bd 8147 63bd 4212 8e3c 2eaf 8dbd
00000140: 4150 5e3d 4b9e 983d 9f4a 93bd d2f1 883c
00000150: 9d2b 813d caff a83c abe8 5a3d d145 84bd
00000160: 294e 973d 465c 9fbc 0231 823d 0063 813d
00000170: 1866 d63d a5a5 a43d f0bf e6bc d4b1 333d
00000180: 2daa 2d3d df12 eebd 3c02 fab9 a9f5 a0bd
00000190: ee96 36bc 34f3 81bd 3868 133d 1f49 483d
000001a0: 298b be3c 78a3 d5bd c3ce 9dbd 410e e339
000001b0: 297b 3cbd f1ae de3d 9ada 773d f785 d2bd
000001c0: 6738 91bc f99f 1c3d fe11 27bd f57a a03d
000001d0: 44a5 06be 061e c63d 9e5d 453d 8c84 cf3d
000001e0: 983a e33c f560 bcbc 8e46 263d 5e91 cc3d
000001f0: 2433 7abd da50 643d a645 983d 6207 d1bc

conv3.weight f4 [20, 128, 3, 3]
0.037997626 -0.011128614 -0.01462371 0.06042928 0.006986257 0.012441794 0.04079937 -0.008404653
0.018015824 -0.008455984 -0.0077655567 -0.006156776 -0.033638634 0.009273732 -0.026232256 -0.029728828
-0.009002687 0.021264996 0.028277084 0.0071678893 -0.018994883 0.005612748 -0.021115113 0.009085808
0.015292891 -0.00412007 0.037787985 0.045570325 0.010072222 0.026165048 0.044534452 0.019279566
0.06281294 0.008095764 -0.0041230763 0.043067202 -0.014339019 -0.05730867 -0.018859513 0.0014440154
-0.03900605 -0.0016453898 0.04861728 -0.002568152 0.027231794 -0.004057399 -0.07021689 -0.047605027
-0.0464139 -0.05557441 -0.02386255 -0.021084493 0.007653889 -0.013531902 -0.0012276418 0.01879618
-0.008139602 -0.0155892875 -0.012388645 -0.009947978 -0.016174935 -0.030523822 0.0020432633 0.03223452
0.019730024 0.047511984 0.012627471 0.019210229 0.0075099743 -0.0037973318 -0.0007663246 -0.009119727
-0.016381457 0.00033454518 0.0072010136 -0.028133677 -0.040363863 -0.032173738 -0.007829239 -0.012976556
-0.0326249 0.017163746 -0.00625307 0.01704503 -0.008975459 -0.014066995 0.025499474 0.00096749206
0.027360981 0.018825129 -0.06899331 -0.102753595 -0.038645927 -0.020717591 -0.054034054 -0.05705931
-0.032194752 -0.0255084 0.0001499082 -0.027494572 0.031641535 -0.012178744 0.0071809827 0.015284898
0.029400373 -0.0012359138 0.004339307 0.03997125 0.018160064 -0.007562441 -0.038141456 0.022513341
-0.00051862525 -0.00089764484 -0.006077315 0.009125323 0.008456042 0.028197339 0.028063074 0.036947377
0.02919079 0.016170373 0.014558233 0.029721737 0.05806166 0.025241863 -0.008295978 0.037393957
0.042453602 0.018001495 -0.0232556 0.007984093 0.011411711 -0.0076614977 0.020632582 -0.034548175
-0.040359486 -0.046732243 0.009757368 -0.041536745 -0.03230614 0.013702796 0.006365976 0.018066503
0.00023644535 -0.036454808 -0.019835096 0.0279029 -0.025993308 -0.0016511205 -0.005210856 0.0074714045
0.02019884 0.0141128125 -0.011366319 -0.006301562 0.04464193 0.004095453 0.022792505 0.042877622
0.01566251 0.038597018 0.045313723 -0.017691191 0.0045316545 0.057997692 0.0037417607 0.03577263
0.032098874 -0.008797127 0.03513008 0.017850688 -0.015313378 -0.028791737 0.0009269466 -0.018752286
0.006070242 0.037552033 -0.006600174 0.027635828 -0.07508078 -0.028226232 -0.05880259 -0.06682699
-0.024929779 -0.011706552 -0.014073322 0.017179629 -0.03252117 -0.03475969 -0.0319287 -0.008585996
-0.004562349 -0.017923724 -0.016222466 0.0062099146 -0.03086101 0.0064503313 0.002069526 0.014958825
0.05480385 -0.008347145 0.004078424 0.043128584 0.011324065 0.02448366 0.014712707 -0.0053975773
0.019724453 0.017270917 0.013029161 0.018700758 0.0327903 0.017099347 0.0465565 0.037375383
-0.016885936 0.016988283 0.027752511 0.015289969 0.020210868 0.010285782 0.03375094 0.016628841
0.014289597 0.007271333 -0.02260084 0.0037227196 0.0046994225 0.0045338264 0.005872249 0.023762276
-0.01731504 0.012937369 -0.033223525 -0.022281438 -0.004886012 -0.012509786 -0.008436058 -0.013170008
0.013481679 -0.00086155796 0.016298631 -0.024604307 -0.025760176 -0.013657073 -0.02934057 0.022966316
-0.0036369609 -0.00012595534 0.011880758 0.0031956101 -0.020936968 -0.015304877 0.020095976 -0.029756118
00000000: 66a3 1b3d ca54 36bc 4998 6fbc b184 773d
00000010: f9ec e43b abd8 4b3c 3d1d 273d abb3 09bc
00000020: ec95 933c f88a 0abc 3676 febb c8be c9bb
00000030: aac8 09bd daf0 173c 07e5 d6bc df89 f3bc
00000040: 0280 13bc ee33 ae3c 58a5 e73c 9de0 ea3b
00000050: 289b 9bbc 25eb b73b 9af9 acbc a4dc 143c
00000060: 098f 7a3c a701 87bb 93c7 1a3d f3a7 3a3d
00000070: f605 253c 1558 d63c c269 363d 2ef0 9d3c
00000080: 12a4 803d 18a4 043c df1a 87bb 3c67 303d
00000090: 34ee 6abc 7fbc 6abd 447f 9abc 1e45 bd3a
000000a0: cfc4 1fbd 1faa d7ba ea22 473d 714e 28bb
000000b0: 3615 df3c eef3 84bb dfcd 8fbd 7dfd 42bd
000000c0: 801c 3ebd fea1 63bd 657b c3bc 63b9 acbc
000000d0: 79cd fa3b e9b4 5dbc d3e8 a0ba 72fa 993c
000000e0: f75b 05bc 366a 7fbc bef9 4abc d8fc 22bc
000000f0: 4c81 84bc 180d fabc 45e8 053b 5808 043d
00000100: dca0 a13c ed9b 423d 74e3 4e3c c55e 9d3c
00000110: 3b16 f63b a8dc 78bb 2ce3 48ba e86a 15bc
00000120: 6832 86bc e565 af39 7bf6 eb3b 9978 e6bc
00000130: 9454 25bd 9cc8 03bd 3546 00bc 9f9b 54bc
00000140: b0a1 05bd fc9a 8c3c 8ee6 ccbb 05a2 8b3c
00000150: ce0d 13bc 4179 66bc 46e4 d03c 4b9f 7d3a
00000160: 2324 e03c 2837 9a3c 5d4c 8dbd 7a70 d2bd
00000170: 314b 1ebd f0b7 a9bc d052 5dbd 06b7 69bd
00000180: a5de 03bd fef6 d0bc ad30 1d39 4c3c e1bc
00000190: 8e9a 013d 5b89 47bc 734e eb3b 826d 7a3c
000001a0: 0dd9 f03c 63fe a1ba bf30 8e3b e5b8 233d
000001b0: 6ac4 943c 5ace f7bb 373a 1cbd e66d b83c
000001c0: 5af4 07ba ed4f 6bba 3724 c7bb 6182 153c
000001d0: 368b 0a3c 1bfe e63c 88e4 e53c 2256 173d
000001e0: 8621 ef3c bb77 843c a885 6e3c 007b f33c
000001f0: 10d2 6d3d 06c8 ce3c dbeb 07bc 682a 193d
00000200: d4e3 2d3d df77 933c 8782 bebc b7cf 023c
00000210: 2ff8 3a3c 4d0d fbbb a905 a93c 6382 0dbd
00000220: fd4f 25bd 4f6a 3fbd 5edd 1f3c 6f22 2abd
00000230: 7153 04bd b181 603c ad99 d03b 3400 943c
00000240: 51ee 7739 a351 15bd 367d a2bc 9f94 e43c
00000250: ebef d4bc 696a d8ba d4bf aabb afd2 f43b
00000260: 0a78 a53c 6d39 673c cc39 3abc 557d cebb
00000270: 75da 363d 2633 863b 59b7 ba3c 72a0 2f3d
00000280: aa4e 803c e817 1e3d e29a 393d 1eed 90bc
00000290: 467e 943b fd8e 6d3d 5438 753b 5286 123d
000002a0: 1c7a 033d d321 10bc 8fe4 0f3d 9b3b 923c
000002b0: f6e4 7abc a6dc ebbc 55fe 723a 659e 99bc
000002c0: e1e8 c63b 29d0 193d 4646 d8bb 8864 e23c
000002d0: f4c3 99bd b33a e7bc fcda 70bd 97dc 88bd
000002e0: 8939 ccbc d6cc 3fbc ca93 66bc 4bbc 8c3c
000002f0: eb34 05bd 2d60 0ebd abc7 02bd 47ac 0cbc
00000300: c27f 95bb c6d4 92bc fae4 84bc 8a7c cb3b
00000310: 3bd0 fcbc 4d5d d33b e2a0 073b dc15 753c
00000320: 007a 603d 77c2 08bc 4da4 853b 99a7 303d
00000330: 9288 393c f591 c83c 910d 713c 29de b0bb
00000340: 2d95 a13c bd7b 8d3c 4378 553c 5532 993c
00000350: 1f4f 063d ee13 8c3c 07b2 3e3d ee16 193d
00000360: 6054 8abc 032b 8b3c 3c59 e33c c782 7a3c
00000370: 4391 a53c b285 283c 6d3e 0a3d 3539 883c
00000380: ea1e 6a3c 5d44 ee3b 6625 b9bc dff8 733b
00000390: 9dfd 993b 7e90 943b ff6b c03b 1ba9 c23c
000003a0: 45d8 8dbc 42f7 533c 6415 08bd 9087 b6bc
000003b0: d71a a0bb d8f5 4cbc 6437 0abc 04c7 57bc
000003c0: 43e2 5c3c 2dda 61ba b584 853c f98e c9bc
000003d0: 0107 d3bc eac1 5fbc a35b f0bc db23 bc3c
000003e0: 145a 6ebb e112 04b9 83a7 423c 716d 513b
000003f0: 0184 abbc 4fc1 7abc 51a0 a43c 1ac3 f3bc

conv3.bias f4 [20]
0.06564688 -0.029291315 -0.033663254 -0.04129149 0.08390234 -0.057028063 0.043563407 0.007302656
0.045347273 0.018762432 0.0022106776 0.036286134 -0.0013835123 0.012293713 -0.03249983 0.040748596
-0.014972164 0.021577066 0.012572737 0.0019820828
00000000: df71 863d 57f4 efbc 7be2 09bd 4421 29bd
00000010: fdd4 ab3d 4296 69bd 8b6f 323d 1e4b ef3b
00000020: 10be 393d acb3 993c 04e1 103b c5a0 143d
00000030: f856 b5ba 926b 493c 8b1e 05bd 00e8 263d
00000040: cf4d 75bc 63c2 b03c e2fd 4d3c d5e5 013b

conv4.weight f4 [64, 20, 3, 3]
-0.0089842975 -0.027301645 0.068300836 0.08594069 0.016526977 0.042537577 -0.051415224 0.04007242
-0.028943483 -0.0029641152 -0.05578832 0.04801556 0.052651793 -0.041372083 -0.07184682 0.074950024
0.00059370534 -0.11291882 0.018692013 -0.05552453 -0.023061201 -0.03633376 -0.03626484 0.04733842
-0.025486208 -0.03912437 0.022811191 0.07054832 -0.0057758735 -0.041910626 0.086880654 -0.06323383
0.08225942 0.016739117 -0.03426132 -0.0073699835 -0.022595972 -0.07023662 -0.0374915 -0.05058901
-0.069112055 -0.04473182 0.041217726 0.031653218 -0.0042937594 -0.024782063 -0.01732089 0.07818428
-0.06398852 0.053409662 -0.057505522 0.04687152 0.0824664 0.040080335 0.011109655 -0.032571506
-0.06330942 -0.002605619 0.059124522 0.03824514 0.040928848 -0.046883482 -0.060767107 -0.0043228557
-0.031826597 0.044975255 0.054835018 0.041603725 0.033009294 -0.040329393 -0.06328854 0.03168254
-0.043931205 0.016350703 0.0791765 -0.03704149 0.041055314 0.05308499 0.02989654 -0.07358737
-0.046016436 -0.043593094 0.09044233 0.04903549 0.07432669 0.047420684 -0.031697642 0.07221582
0.09239769 -0.06507179 -0.025811488 0.06912881 0.110099845 0.08852531 -0.012106672 -0.0058988114
-0.023108525 0.026012128 0.04942192 -0.06885775 -0.09377485 -0.042490218 -0.0612282 -0.04253516
-0.03867168 0.030541651 0.03798744 -0.07293398 -0.0029587876 0.0010828474 -0.053114392 0.026975783
-0.050702825 0.04768531 0.055189855 -0.055491105 -0.006986566 -0.030123293 -0.055601202 0.057762835
-0.002195268 -0.043790616 -0.055339918 0.07059506 -0.060002647 0.039271325 -0.06635449 0.017137086
0.05072118 -0.062363457 -0.060498875 0.01449954 0.005472127 -0.0013661112 -0.07572263 -0.05238904
-0.0244779 0.077415064 0.06667158 0.056035973 0.06875693 0.035611633 -0.057626296 -0.01131171
0.004165754 0.042829152 -0.014699768 0.044942934 0.013485637 0.07701039 -0.069649205 0.04663216
-0.0017639851 -0.010496366 0.06786794 -0.0056134504 -0.05478512 0.04949852 -0.021818025 0.041858137
-0.035570487 -0.027624086 -0.0035179977 0.06894126 0.064306505 -0.01887748 0.041375063 0.053675234
0.004553089 0.03521247 -0.07423992 0.04591234 0.001888256 -0.06484147 0.0038706928 0.030032456
0.025440363 0.080889165 -0.034038715 -0.09268372 -0.041492052 0.062481545 0.043554842 0.0064427536
-0.0075570955 -0.053653676 0.12575284 0.014752529 0.077349834 0.011574099 -0.046156205 0.030169884
0.034633216 0.0089056995 -0.070251 0.08112484 0.064540766 0.020596942 0.00875201 -0.05382678
0.004017113 -0.098741844 -0.07975269 -0.0052786046 -0.007778037 0.009125755 0.016215725 0.0043914313
-0.0750662 -0.004274152 0.015651893 0.013224667 -0.052085362 0.05973299 -0.009060267 -0.054528825
-0.04879814 0.021684926 -0.075421296 0.09046797 0.05872731 0.0092281345 0.053882785 0.10681423
-0.013210767 -0.065925516 0.06837908 -0.02257252 -0.06225679 0.032774977 0.004965342 0.022022866
0.07558092 0.068302035 -0.0330043 0.0023342492 -0.05388587 0.017602738 -0.0045230547 0.012159388
-0.047114447 -0.017778423 0.06848234 -0.01981575 -0.023080394 0.010099054 -0.051753633 -0.063663624
0.026747193 -0.036436614 0.06475902 0.019060567 0.0068923202 0.020854475 -0.027350755 -0.06451155
00000000: e032 13bc b3a7 dfbc 4fe1 8b3d ac01 b03d
00000010: 9563 873c e23b 2e3d c598 52bd fa22 243d
00000020: e21a edbc 9a41 42bb 4b82 64bd f7ab 443d
00000030: 68a9 573d c675 29bd 6d24 93bd 667f 993d
00000040: e4a2 1b3a fb41 e7bd fe1f 993c b16d 63bd
00000050: d8ea bcbc b5d2 14bd 718a 14bd eee5 413d
00000060: 74c8 d0bc e040 20bd 89de ba3c a37b 903d
00000070: 8a43 bdbb 7aaa 2bbd 7cee b13d bd80 81bd
00000080: a077 a83d 7920 893c 9955 0cbd e77f f1bb
00000090: 301b b9bc 38d8 8fbd b090 19bd 6c36 4fbd
000000a0: 9f8a 8dbd b638 37bd ebd3 283d cea6 013d
000000b0: aab2 8cbb c103 cbbc 8ae4 8dbc 141f a03d
000000c0: 6a0c 83bd 17c4 5a3d e98a 6bbd 5afc 3f3d
000000d0: 25e4 a83d 472b 243d 4505 363c b369 05bd
000000e0: 5fa8 81bd 08c3 2abb 8e2c 723d f0a6 1c3d
000000f0: 02a5 273d e508 40bd eee6 78bd bea6 8dbb
00000100: 9b5c 02bd f937 383d af9a 603d ab68 2a3d
00000110: c134 073d 6f30 25bd 6c9d 81bd 8dc5 013d
00000120: 35f1 33bd e9f1 853c 4a27 a23d d1b8 17bd
00000130: 9e29 283d a56f 593d 97e9 f43c fab4 96bd
00000140: bb7b 3cbd ac8e 32bd d439 b93d 70d9 483d
00000150: 9738 983d 313c 423d 63d5 01bd e3e5 933d
00000160: 003b bd3d 5c44 85bd 9d72 d3bc 6893 8d3d
00000170: 077c e13d c24c b53d 105b 46bc d14a c1bb
00000180: 174e bdbc 6317 d53c a46e 4a3d 4b05 8dbd
00000190: 070d c0bd 390a 2ebd 6cca 7abd 5939 2ebd
000001a0: 3266 1ebd 7c32 fa3c b898 1b3d 695e 95bd
000001b0: 38e8 41bb 54ee 8d3a 7a8e 59bd 51fc dc3c
000001c0: c4ad 4fbd ac51 433d c20e 623d a44a 63bd
000001d0: 90ef e4bb 20c5 f6bc 16be 63bd b998 6c3d
000001e0: 7cde 0fbb ca5d 33bd 1cac 62bd 2594 903d
000001f0: 56c5 75bd f8da 203d dde4 87bd 1363 8c3c
00000200: 03c1 4f3d d370 7fbd abcd 77bd 7b8f 6d3c
00000210: 874f b33b 160f b3ba 7714 9bbd e495 56bd
00000220: e085 c8bc ca8b 9e3d 1c8b 883d fa85 653d
00000230: 6fd0 8c3d 81dd 113d 8d09 6cbd c054 39bc
00000240: e180 883b 9f6d 2f3d 4cd7 70bc 1516 383d
00000250: dcf2 5c3c a0b7 9d3d 3ea4 8ebd 5d01 3f3d
00000260: 8535 e7ba f3f8 2bbc 59fe 8a3d 09f1 b7bb
00000270: 5d66 60bd f6be 4a3d b7bb b2bc 7073 2b3d
00000280: 5cb2 11bd e84b e2bc 358e 66bb 1331 8d3d
00000290: 21b3 833d f2a4 9abc e678 293d 90da 5b3d
000002a0: 1432 953b f33a 103d 190b 98bd 940e 3c3d
000002b0: 5c7f f73a 9bcb 84bd 73ab 7d3b a006 f63c
000002c0: 4f68 d03c 38a9 a53d 2e6c 0bbd f6d0 bdbd
000002d0: 92f3 29bd a6ec 7f3d 9066 323d bc1d d33b
000002e0: 83a1 f7bb f5c3 5bbd 5ac5 003e 97b4 713c
000002f0: 9769 9e3d 4aa1 3d3c 4a0e 3dbd d526 f73c
00000300: 8fdb 0d3d 36e9 113c c2df 8fbd c824 a63d
00000310: f32d 843d ebba a83c 9764 0f3c 7879 5cbd
00000320: fca1 833b 2a39 cabd 6155 a3bd 25f8 acbb
00000330: e7de febb 3184 153c d7d6 843c ffe5 8f3b
00000340: 4fbc 99bd 300e 8cbb 6638 803c 46ac 583c
00000350: 7657 55bd 94aa 743d 8471 14bc 9e59 5fbd
00000360: 8fe0 47bd 96a4 b13c 7b76 9abd 4547 b93d
00000370: 0c8c 703d 9a31 173c 32b4 5c3d 6bc1 da3d
00000380: f971 58bc f503 87bd 550a 8c3d 01ea b8bc
00000390: fa00 7fbd 0e3f 063d 4fb4 a23b 4c69 b43c
000003a0: 2bca 9a3d f0e1 8b3d 842f 07bd 34fa 183b
000003b0: 6eb7 5cbd 9e33 903c 2236 94bb 2b38 473c
000003c0: 14fb 40bd 0ea4 91bc 7840 8c3d a454 a2bc
000003d0: 1813 bdbc 8176 253c 9efb 53bd 1362 82bd
000003e0: ee1c db3c 8f3e 15bd 61a0 843d e824 9c3c
000003f0: f9d8 e13b 01d7 aa3c b10e e0bc a21e 84bd

conv4.bias f4 [64]
0.060082864 0.019204821 -0.120783925 0.03962283 0.0486529 0.018034289 0.08170187 -0.0029769463
-0.005840656 -0.0090564275 0.033570126 -0.03710511 0.0012560786 -0.06882359 0.03652438 0.094033234
0.06828367 -0.015612957 0.083554156 0.014425961 0.018753054 -0.012094734 0.0108570615 0.022193456
-0.040552966 0.06051248 0.028349182 -0.05412101 -0.012276458 0.05016653 0.08802999 0.10231181
0.11363359 -0.062229488 0.0014578032 -0.06723971 -0.012837371 0.0022863674 -0.08709155 0.112891205
-0.043153815 -0.024073787 0.026522933 0.004740349 -0.03915817 -0.057821304 0.018885989 0.04884878
0.018676616 0.0022178162 0.06830598 0.035123337 -0.03173287 -0.0012681154 -0.02943866 -0.05125315
-0.062865146 -0.039777923 -0.093143046 0.03418549 -0.08069267 -0.083102316 -0.009381571 0.024825385
00000000: 7319 763d 6e53 9d3c 905d f7bd 8c4b 223d
00000010: 4348 473d a5bc 933c 4f53 a73d df18 43bb
00000020: f962 bfbb 6961 14bc d480 093d 87fb 17bd
00000030: 01a3 a43a 62f3 8cbd 979a 153d 7f94 c03d
00000040: 4fd8 8b3d 7dcd 7fbc 711e ab3d de5a 6c3c
00000050: 01a0 993c fe28 46bc d1e1 313c 0dcf b53c
00000060: de1a 26bd efdb 773d 8b3c e83c fead 5dbd
00000070: 3223 49bc 6b7b 4d3d 1149 b43d db88 d13d
00000080: bab8 e83d 59e4 7ebd c213 bf3a f9b4 89bd
00000090: d653 52bc e1d6 153b 0e5d b2bd 8133 e73d
000000a0: 0ec2 30bd 6436 c5bc 9f46 d93c ee54 9b3b
000000b0: 5164 20bd 08d6 6cbd cab6 9a3c a915 483d
000000c0: b4ff 983c c858 113b 01e4 8b3d 7ddd 0f3d
000000d0: 53fa 01bd e436 a6ba 5829 f1bc d3ee 51bd
000000e0: 71bf 80bd 2dee 22bd c8c1 bebd 1606 0c3d
000000f0: 3342 a5bd 8c31 aabd 29b5 19bc 9b5e cb3c

conv5.weight f4 [16, 64, 3, 3]
-0.024330553 0.021528063 -0.030739248 -0.0007728944 0.06685514 0.07010204 0.00019580087 0.028180778
0.049631577 -0.006672781 -0.0142567735 0.031131662 0.0059229713 0.03564978 -0.0059667015 0.023481013
-0.0023376483 0.031129781 -0.002842959 0.04713565 0.011731425 0.013197624 -0.013286194 0.032963224
0.02899824 -0.010199358 -0.0020333668 -0.028802102 -0.011554013 0.02865777 -0.006289133 -0.021089941
0.00539337 -0.002226988 -0.0021843633 0.028647723 0.0036643185 0.021846024 0.0024186783 -0.010144356
-0.01736646 0.0025343504 0.023802746 0.019053327 0.021279244 0.0024523623 -0.04844323 -0.033764083
-0.018493736 -0.05019999 -0.0615803 0.007192166 0.036399152 -0.02854878 0.005703479 0.010978097
0.0062532094 -0.014651794 0.058229204 0.04311355 0.035405863 0.03152952 -0.023295498 0.0020246543
0.0149970045 0.03307411 -0.036858786 0.05072888 0.0019574957 -0.028819568 0.004516224 -0.020914193
0.017942205 0.035747364 0.022187615 0.034239795 -0.07159008 -0.068815276 -0.006709824 -0.012500772
-0.029887939 -0.038147163 0.028958147 0.056672797 0.002066186 0.0509248 0.052623797 -0.0012284615
0.043613743 -0.013581289 0.005355045 -0.008893561 0.066556014 0.019250877 0.04261935 0.010954704
-0.043115284 0.018129 0.011073637 -0.03374593 0.05258361 0.010404224 -0.01382108 0.0013256877
0.050953496 -0.0075169974 0.0019301017 -0.011988937 -0.012805492 -0.018166684 -0.006851692 0.034788117
-0.014292619 -0.029501919 0.016549367 -0.007087489 -0.019015426 -0.00277761 -0.0048089107 0.023785114
0.02844847 0.008284922 0.053950466 0.011321121 0.009460625 0.005988051 -0.00016270205 0.0007458572
0.0027091797 -0.0047813137 0.04373137 0.0025037434 0.0076796096 -0.009473195 -0.0002487632 -0.034865003
0.028453987 0.034660846 0.00755397 -0.047128644 -0.01588228 -0.041315008 -0.044010185 -0.0030403826
0.00906061 0.021684451 0.03261193 -0.013596567 0.023611702 0.04690254 0.009625746 0.037750985
0.022316182 -0.034816068 0.009422774 -0.008730936 0.016498335 -0.051694103 0.03959441 -0.02166668
-0.015057614 -0.026679808 0.022202779 0.04760922 0.05365847 0.023783829 0.010320137 0.019733228
0.03124347 0.046761032 -0.011091678 -0.029229432 0.043494407 0.013334233 -0.028213147 -0.027468944
-0.06532145 -0.03392301 -0.0007557388 -0.046669718 0.025908682 0.009193387 -0.0052237557 0.0060620997
0.019143531 -0.011363368 -0.007598039 0.043762147 0.0474947 0.0416157 0.017919334 0.023448715
0.014845225 0.018555058 -0.037738968 -0.0047658323 0.033016294 0.011525048 0.009534195 0.022654513
0.04391578 -0.039913792 -0.008199098 -0.039129086 -0.0094336355 -0.0019199112 0.014068317 -0.011140531
0.022518339 0.071982495 0.025263425 0.009791281 0.017983936 0.02846934 0.016545644 0.0051797135
0.0045109093 -0.01228327 -0.0018563819 -0.04424086 0.013695962 -0.04932949 -0.010723696 0.0063644513
-0.0350324 -0.036543842 -0.0076333922 0.053698707 -0.041174855 0.052637238 0.03540804 0.036439054
-0.014490837 0.05279744 0.005737696 -0.0078980215 0.008926066 -0.04391077 0.0035198894 -0.008743924
-0.045282766 0.016374344 0.012544343 -0.03938535 0.0045056604 0.03267755 0.025766533 -0.04552829
0.00039698748 0.026103113 0.039413612 0.009038907 -0.037736632 -0.013592995 0.036407024 0.02738301
00000000: de50 c7bc 9f5b b03c e0d0 fbbc 119c 4aba
00000010: 59eb 883d a991 8f3d e54f 4d39 60db e63c
00000020: 7b4a 4b3d 58a7 dabb 3e95 69bc d407 ff3c
00000030: 7c15 c23b 8105 123d 5284 c3bb 415b c03c
00000040: 3b33 19bb e203 ff3c f050 3abb 5011 413d
00000050: 2a35 403c d93a 583c 56ae 59bc 7204 073d
00000060: b88d ed3c 351b 27bc 3c42 05bb 63f2 ebbc
00000070: 0b4d 3dbc b3c3 ea3c 1215 cebb d0c4 acbc
00000080: deba b03b a9f2 11bb 8927 0fbb a1ae ea3c
00000090: 1025 703b 6ff6 b23c b082 1e3b 8334 26bc
000000a0: 1b44 8ebc 5817 263b fafd c23c b915 9c3c
000000b0: cf51 ae3c d0b7 203b 696c 46bd 354c 0abd
000000c0: 2d80 97bc 819e 4dbd a03b 7cbd 43ac eb3b
000000d0: 4717 153d 22df e9bc 40e4 ba3b 7add 333c
000000e0: b9e7 cc3b 140e 70bc bf81 6e3d d597 303d
000000f0: bd05 113d 1925 013d 33d6 bebc 10b0 043b
00000100: ffb5 753c b878 073d 3df9 16bd 16c9 4f3d
00000110: 5449 003b 0417 ecbc d5fc 933b 3e54 abbc
00000120: 88fb 923c d46b 123d cdc2 b53c 073f 0c3d
00000130: d29d 92bd 06ef 8cbd 15de dbbb 0ad0 4cbc
00000140: 8dd7 f4bc 3340 1cbd a339 ed3c bc21 683d
00000150: d968 073b 8696 503d 0d8c 573d 5404 a1ba
00000160: 53a4 323d 0e84 5ebc 6079 af3b 4cb6 11bc
00000170: 854e 883d 04b4 9d3c a191 2e3d 5c7b 333c
00000180: a799 30bd 4583 943c 336e 353c 2c39 0abd
00000190: e961 573d 7a76 2a3c d071 62bc b3c2 ad3a
000001a0: 9db4 503d 2551 f6bb 77fb fc3a 3f6d 44bc
000001b0: 20ce 51bc 4cd2 94bc 2984 e0bb fc7d 0e3d
000001c0: 972b 6abc 02ae f1bc 8a92 873c 2b3e e8bb
000001d0: 3dc6 9bbc 9008 36bb 1194 9dbb 00d9 c23c
000001e0: c40c e93c 7bbd 073c 2afb 5c3d 397c 393c
000001f0: bd00 1b3c 6a37 c43b 009b 2ab9 a185 433a
00000200: 7e8c 313b 91ac 9cbb aa1f 333d d815 243b
00000210: 3ca5 fb3b 7635 1bbc 6e6c 82b9 9bce 0ebd
00000220: 5618 e93c 88f8 0d3d 4b87 f73b f709 41bd
00000230: 8e1b 82bc ed39 29bd 0644 34bd 2841 47bb
00000240: f472 143c 97a3 b13c 1694 053d 23c4 5ebc
00000250: 546d c13c e11c 403d 4eb5 1d3c c7a0 1a3d
00000260: 6dd0 b63c 4b9b 0ebd fb61 1a3c 330c 0fbc
00000270: 8427 873c 32bd 53bd c02d 223d 527e b1bc
00000280: 36b4 76bc 9d8f dabc 9ae2 b53c e301 433d
00000290: fcc8 5b3d 4ed6 c23c cb15 293c 94a7 a13c
000002a0: 4ef2 ff3c 7f88 3f3d dfb9 35bc 9072 efbc
000002b0: 3127 323d d477 5a3c 421f e7bc 8d06 e1bc
000002c0: 41c7 85bd dbf2 0abd c61c 46ba bf28 3fbd
000002d0: 723e d43c dc9f 163c 0a2c abbb 94a4 c63b
000002e0: e5d2 9c3c 6b2d 3abc f9f8 f8bb f03f 333d
000002f0: cd89 423d 3975 2a3d 91cb 923c 8517 c03c
00000300: 6339 733c c700 983c 2d94 1abd b32a 9cbb
00000310: 183c 073d 8ed3 3c3c 5035 1c3c f595 b93c
00000320: 08e1 333d a57c 23bd 8255 06bc d245 20bd
00000330: 898f 1abc 88a5 fbba cc7e 663c c686 36bc
00000340: 6178 b83c 8f6b 933d 3ef5 ce3c 9c6b 203c
00000350: 0c53 933c 8938 e93c bb8a 873c 96ba a93b
00000360: 40d0 933b c53f 49bc d751 f3ba e735 35bd
00000370: 0765 603c b80d 4abd 71b2 2fbc e38c d03b
00000380: 227e 0fbd ffae 15bd 8921 fabb 2df3 5b3d
00000390: f7a6 28bd 259a 573d 0508 113d 1e41 153d
000003a0: fa6a 6dbc 2142 583d 4803 bc3b b466 01bc
000003b0: a23e 123c c8db 33bd f2ad 663b ad42 0fbc
000003c0: 6c7a 39bd 7d23 863c ca86 4d3c 8852 21bd
000003d0: 38a4 933b e5d8 053d 5614 d33c df7b 3abd
000003e0: c222 d039 32d6 d53c 2b70 213d ec17 143c
000003f0: ba91 1abd 27b5 5ebc 881f 153d 5652 e03c

conv5.bias f4 [16]
-0.025512138 -0.0015179034 0.05449656 -0.016594553 0.025154268 0.033753917 -0.06641863 -0.026430754
0.0108051635 -0.019043354 0.046078913 0.004514381 0.06838932 0.10462868 -0.006168706 -0.0019021978
00000000: d5fe d0bc 63f4 c6ba c937 5f3d 4df1 87bc
00000010: 5310 ce3c 8c41 0a3d 7e06 88bd 4f85 d8bc
00000020: 2408 313c cf00 9cbc 3ebd 3c3d 5fed 933b
00000030: b30f 8c3d 9047 d63d db22 cabb 2b53 f9ba

classifier.1.weight f4 [10, 16]
-0.157825 0.18271765 0.08638653 -0.13490881 -0.08269263 0.250948 0.18394986 -0.034787923
-0.07714245 -0.14207831 0.26439628 -0.2340321 -0.040561724 0.13655838 0.109135464 -0.044467974
-0.11711616 -0.15703182 -0.018197913 0.025475284 0.0033822823 0.15697296 -0.05926374 0.15877515
-0.06321014 0.14128435 -0.22691149 0.21169531 -0.074384004 -0.23570701 -0.19949366 0.20799792
-0.107174344 0.16542155 0.22273827 -0.20420296 -0.00685791 0.04406442 -0.1190332 -0.12702323
0.08475425 -0.18677777 0.06482509 0.13469085 0.016107086 0.1310658 -0.11834117 -0.13984087
0.21489953 0.20627996 0.17043729 0.054437812 -0.18197043 -0.23581384 -0.10241962 0.12731333
0.23320033 -0.12280659 0.09989056 -0.23271167 0.1666215 -0.21137652 0.2013495 -0.20935662
0.12002771 0.026371922 0.09607747 0.20267242 -0.22084017 0.020921731 -0.1073139 -0.24942657
-0.081457175 -0.07591651 -0.010481195 -0.075410366 0.058210567 0.08087352 -0.10306691 0.05388528
-0.17331572 0.05812467 0.15124172 0.20089026 -0.10503846 -0.16171159 0.26897177 0.24630077
0.16229185 -0.28481865 -0.21883298 -0.108689 0.026249787 0.106795155 -0.14817357 0.21107051
0.02499567 -0.2955782 0.23970965 0.08330306 0.2218609 -0.058918413 -0.23628415 -0.16192544
0.07585244 -0.07546086 0.015916625 0.2212939 -0.087103695 0.013211791 0.10031976 -0.21955645
0.07614183 0.2203493 0.17761469 -0.106878705 0.03419554 0.080284774 0.18125981 0.006021807
0.107283376 -0.28032988 0.03301235 -0.051706064 -0.21093027 -0.13667633 -0.08039511 -0.17609338
-0.2192597 0.21845856 0.056097135 0.11021282 0.19870393 0.25099155 -0.2566855 0.24260123
0.22412269 0.109596126 -0.14228696 -0.21220891 -0.09519313 0.22241463 -0.14139909 0.2067992
0.02844821 0.059322942 -0.16655865 0.13735195 -0.06170389 -0.034188963 0.03590103 0.11876124
0.024514783 0.09600866 0.1343606 -0.07391127 -0.24918276 0.071351826 0.23688081 -0.07402645
00000000: e09c 21be 561a 3b3e 6ceb b03d 8925 0abe
00000010: c15a a9bd 427c 803e 5a5d 3c3e c87d 0ebd
00000020: dcfc 9dbd fa7c 11be f35e 873e 1ca6 6fbe
00000030: 0d24 26bd f6d5 0b3e 6a82 df3d 0d24 36bd
00000040: 99da efbd f3cc 20be ca13 95bc 8bb1 d03c
00000050: 48a9 5d3b 85bd 203e 89be 72bd f495 223e
00000060: 5174 81bd d8ac 103e 7c5b 68be a8c6 583e
00000070: a456 98bd 2e5d 71be 1148 4cbe 68fd 543e
00000080: 397e dbbd 4464 293e 8015 643e 951a 51be
00000090: 52b8 e0bb e57c 343d aec7 f3bd 6112 02be
000000a0: a393 ad3d ac42 3fbe 04c3 843d 66ec 093e
000000b0: 02f3 833c 1d36 063e db5c f2bd 7232 0fbe
000000c0: 9f0e 5c3e 0e3b 533e 1d87 2e3e 2ffa 5e3d
000000d0: 7556 3abe 2f79 71be 61c1 d1bd 6d5e 023e
000000e0: 11cc 6e3e 0582 fbbd 6c93 cc3d f84b 6ebe
000000f0: d49e 2a3e 1673 58be 902e 4e3e 9561 56be
00000100: 17d1 f53d ee09 d83c 44c4 c43d 5c89 4f3e
00000110: ed23 62be 0d64 ab3c 64c7 dbbd ae69 7fbe
00000120: 05d3 a6bd 1d7a 9bbd 51b9 2bbc c070 9abd
00000130: 346e 6e3d 04a1 a53d be14 d3bd d0b6 5c3d
00000140: ad79 31be 2214 6e3d 1cdf 1a3e 2db6 4d3e
00000150: 671e d7bd b997 25be abb6 893e 4536 7c3e
00000160: d62f 263e c0d3 91be c115 60be 5798 debd
00000170: cb09 d73c 6bb7 da3d d0ba 17be de22 583e
00000180: b8c3 cc3c 0756 97be 7276 753e cb9a aa3d
00000190: 812f 633e 6f54 71bd 79f4 71be c8cf 25be
000001a0: 8658 9b3d 398b 9abd 9563 823c de9a 623e
000001b0: 6c63 b2bd 4576 583c 7274 cd3d 68d3 60be
000001c0: 3ff0 9b3d 3fa3 613e a0e0 353e 39e3 dabd
000001d0: 9f10 0c3d 586c a43d 2c9c 393e 9452 c53b
000001e0: 63b7 db3d 6687 8fbe f537 073d bdc9 53bd
000001f0: 1bfe 57be e1f4 0bbe 31a6 a4bd d351 34be
00000200: 9d85 60be 9ab3 5f3e 1cc6 653d 42b7 e13d
00000210: 0b79 4b3e f781 803e 486c 83be 756c 783e
00000220: 6b80 653e ef73 e03d acb3 11be 4b4d 59be
00000230: 9ef4 c2bd a9c0 633e ecca 10be 2bc3 533e
00000240: 380c e93c 9dfc 723d 5a8e 2abe fda5 0c3e
00000250: 38bd 7cbd ba09 0cbd f50c 133d 1839 f33d
00000260: 3ad3 c83c 30a0 c43d d395 093e cb5e 97bd
00000270: c429 7fbe e820 923d e290 723e 2e9b 97bd

classifier.1.bias f4 [10]
-0.022757798 0.09554813 -0.10332426 -0.10471664 0.20409577 -0.035785604 -0.2005985 0.040901054
-0.13283305 -0.13175334
00000000: 906e babc bdae c33d ab9b d3bd ae75 d6bd
00000010: 7bfe 503e ed93 12bd b169 4dbe dd87 273d
00000020: 6305 08be 59ea 06be
