Cifar/reek_cifar10_model_10Models_finalResult/7_model_.pt (torch, 302529 bytes, 12 tensors)

conv1.weight f4 [16, 3, 3, 3]
000000 db 80 eb 3d ad e5 50 3e 65 58 db 3d 81 50 1c be
       0.114991866 0.20400114 0.10710219 -0.15265085
000010 11 7b 0d be 26 23 c4 3d e1 45 38 be 23 cf 5c be
       -0.13816477 0.095770165 -0.17995407 -0.21563391
000020 af f1 e3 bd 26 28 ff 3d dd 08 54 3d c0 55 05 3e
       -0.11130082 0.124588296 0.051766265 0.13020992
000030 7c f1 00 3d ef 7c 8b 3d b6 63 e2 3d 92 fe df bd
       0.031480297 0.068109386 0.110541746 -0.10937227
000040 47 28 58 bd 64 26 24 be b5 b6 0b bd 39 a0 22 3e
       -0.052772786 -0.1603027 -0.03410979 0.15881433
000050 ad b0 45 bc e6 28 c4 bd 2b ad ae bd dd 52 f7 bc
       -0.012066049 -0.09578113 -0.08529123 -0.03019088
000060 cf 93 92 3d f0 f6 12 3e 2d 0c 03 be c8 cf fc 3d
       0.071570985 0.14352012 -0.12797613 0.12344319
000070 57 5f 07 3e 25 dc 7f bd f9 44 45 3d b2 94 27 be
       0.13219963 -0.062465806 0.04816148 -0.16365317
000080 1a 87 bd 3d 9a 35 35 3e b8 1f f7 3d 08 bc e8 3d
       0.09254284 0.17696229 0.12066597 0.11363989
000090 5a 78 06 3e 02 f5 b1 3d fa 14 30 3e bd a6 d6 ba
       0.13131848 0.0868931 0.17195502 -0.0016376596
0000a0 9c 6c 40 3e ad 34 f0 bd b6 ec 59 3d 2d 6d ae 3d
       0.18791431 -0.11728797 0.05320426 0.085169174
0000b0 99 15 4b be 05 42 2a 3e fc b4 66 3e 38 de b6 3d
       -0.19832458 0.16626747 0.22529978 0.089291036
0000c0 00 3c 89 3d c4 8e c4 bd 17 ed 12 3e 79 eb 98 bd
       0.06700897 -0.09597543 0.14348255 -0.07466788
0000d0 96 78 42 3e c2 4b b7 3d ca 1c 71 be e8 9f 08 bc
       0.18991312 0.089499965 -0.23546138 -0.008338906
0000e0 10 be d9 bd e4 af da 3d e5 07 0f be 74 3d 10 3e
       -0.10631955 0.1067808 -0.13967855 0.14085943
0000f0 1d f7 65 be 4f 49 61 bd 1a ea f0 3d 0b 56 03 3d
       -0.22457547 -0.055001553 0.11763401 0.03206448
000100 09 0c bd 3d e5 7f 6c bc 91 cf 48 3d 85 bc 78 bb
       0.09230811 -0.014434789 0.049026076 -0.0037954163
000110 46 d8 db bd a1 14 ef 3d 17 8a 3b be 8f 47 af bb
       -0.1073461 0.116738565 -0.18314396 -0.0053491066
000120 25 b2 4c 3e d8 6c 68 3c d9 b6 3a 3d 99 75 f2 3c
       0.19989832 0.014186107 0.045584533 0.02959709
000130 2c 2b 48 3e 7d fd f0 bd 23 f7 64 bd 08 76 eb 3d
       0.19547719 -0.11767099 -0.05589975 0.11497122
000140 04 27 14 3c d2 96 97 3d 34 7c 21 be 94 3d 21 be
       0.009042505 0.074018136 -0.15770036 -0.15746146
000150 29 05 17 be 7a 09 b0 bd ca 11 d8 bc a9 68 1f 3e
       -0.14748062 -0.085955575 -0.02637567 0.15567268
000160 32 b5 13 bc 37 d3 b1 3c ce fa 94 3c fb 0b 37 be
       -0.009015368 0.02170716 0.018186 -0.17875664
000170 35 fa b9 3d 54 85 92 3c 28 bc a7 bd 7b 47 06 be
       0.09080926 0.017885841 -0.08190185 -0.13113205
000180 55 43 f7 3d d6 cb b3 bd 94 cd 3d bd e5 2f 3a be
       0.120733894 -0.08779113 -0.046338633 -0.18182333
000190 b7 02 f7 bd 8b 2f 8b 3d 55 c3 b4 3d e5 73 34 3e
       -0.12061065 0.067961775 0.08826319 0.17622335
0001a0 ea 2a 52 3e f7 56 0f 3e cf c1 71 3e 10 d1 ed bc
       0.20524183 0.13998018 0.23609088 -0.029030353
0001b0 76 b1 29 be ea 20 03 bd 31 01 15 3e 5c 05 d6 3b
       -0.16571602 -0.03201381 0.14551236 0.0065314006
0001c0 68 7e ab bd 4c 6f 4e 3d c5 65 38 3d d0 25 1f 3e
       -0.083737195 0.05039911 0.04501893 0.15541768
0001d0 ea 67 5c be 12 e3 1d 3c c6 e1 a9 bb 5e 64 7c 3e
       -0.21524015 0.009636657 -0.005184385 0.24647662
0001e0 7a bc 33 be 72 e9 0a 3e e0 f9 38 be 48 6b 22 3e
       -0.17552367 0.13565615 -0.1806407 0.15861237
0001f0 da 60 ee 3d 0e bb 11 be 91 41 4d be 69 b4 23 be
       0.11639567 -0.14231512 -0.20044543 -0.1598679
000200 6e d8 0d 3e 2c 7e b8 bd 40 ec e0 3c c8 d6 72 3d
       0.13852093 -0.090084404 0.027456403 0.059286863
000210 88 fa d7 3d db e5 0f 3e 05 8e ec bd 12 8e c3 bc
       0.10545832 0.14052527 -0.115505256 -0.023871455
000220 ca 43 3f bc fd bb 16 bd 3b 64 b6 3d fc 86 8a 3d
       -0.011673877 -0.036800373 0.08905836 0.067640275
000230 10 9a 00 bd f7 5a 01 be 41 44 cf 39 eb 28 37 bd
       -0.031396925 -0.12632357 0.0003953297 -0.044716757
000240 07 4a a8 bd 09 9c ef bd 63 b0 c6 3d 22 76 00 bd
       -0.082172446 -0.11699683 0.09701612 -0.03136266
000250 4d 59 26 be 14 44 af 3d bd 36 2c bd 74 be 64 be
       -0.16245003 0.08557907 -0.04204439 -0.22338277
000260 40 de 5b 3e f5 42 2d be 46 6a 04 bc 94 6e ec bd
       0.214715 -0.16920073 -0.008081978 -0.115445286
000270 be 60 58 be 33 b8 ee bd 75 b2 6e 3e 72 b0 ba 3d
       -0.21130654 -0.11656227 0.23310263 0.091156855
000280 c1 53 a2 bc 68 e7 91 3d 82 d3 cd 3c f7 ba 2b bd
       -0.019815328 0.07124215 0.025125269 -0.04192635
000290 74 3c 92 bd bd b2 06 3e fc a1 34 3e ff 10 7d 3e
       -0.07140437 0.1315412 0.17639917 0.24713515
0002a0 ab 6a 7b bd d5 ec ff 3d c6 08 cd bc 44 24 c7 bd
       -0.061381023 0.12496344 -0.025028598 -0.09723714
0002b0 4a e2 88 bc 15 a1 b9 3d 50 37 03 3e 4a 5e 8c bd
       -0.016709466 0.09063927 0.12814069 -0.06853922
0002c0 f5 74 2c be 46 92 97 3c 35 5d 23 be fc 7b 84 bc
       -0.1684149 0.018502366 -0.15953524 -0.016172402
0002d0 b3 90 5d 3d 8e d6 cd bc bb fe 24 be d5 99 09 be
       0.054093074 -0.025126722 -0.16112797 -0.13437589
0002e0 14 64 ef 3c 30 91 90 3d cd ec 5b 3d fe 28 5a bd
       0.029222526 0.07058942 0.053692628 -0.05326175
0002f0 d1 24 2a be ed 18 ae bd e8 c9 c1 3d cc 70 35 3d
       -0.16615607 -0.08500848 0.09462339 0.044297025
000300 eb 88 2b 3e 7b 21 4e 3e dc ea 2f 3e 67 43 22 3e
       0.16751449 0.2012996 0.17179435 0.15846024
000310 d8 b2 d6 bd ec c1 02 bd 1f f9 26 be 96 95 9e bd
       -0.104833305 -0.03192322 -0.1630597 -0.07743375
000320 7b f7 52 3d dc 5a d0 3d f4 7a d4 3d 49 d1 7e 3d
       0.051505547 0.1017358 0.10375014 0.06221131
000330 9f ad 0a 3e ee 4c c3 bd 6b de 03 3d 7a 59 33 bd
       0.13542794 -0.095361575 0.032194536 -0.043786503
000340 89 af 4d 3e 34 41 51 3e 47 8b b6 bd 73 1a 1e bd
       0.20086493 0.2043503 -0.08913284 -0.038599443
000350 22 2e 2c 3e 83 bf 3b bd ea 29 3d 3e 8a d1 b5 3d
       0.16814473 -0.045836937 0.1847302 0.08877857
000360 48 ae db 3d e4 3c 8b 3d 19 ad 89 3d 38 ce 2d 3e
       0.10726601 0.06798723 0.06722469 0.16973197
000370 92 90 24 3e c0 cf 43 3e 58 68 7d 3d fb af a1 bd
       0.16070774 0.19122219 0.061867088 -0.07894894
000380 4d d8 cb bb 83 42 f7 3d 85 11 33 be 59 e8 50 3d
       -0.0062208534 0.12073233 -0.17487152 0.051002834
000390 4c a4 b7 3d 2a dd 25 3e 13 ef 4c 3d fd ac 12 3e
       0.08966884 0.16197649 0.050032686 0.14323802
0003a0 ac df 3c 3d a4 06 57 be 6f aa 74 bd 61 d3 bb 3d
       0.046111748 -0.20998627 -0.05973285 0.09171177
0003b0 3a 7c 0c bd 5d 2a 5d 3e c4 47 0a bc 21 22 47 3e
       -0.03429816 0.21598192 -0.008439962 0.19446613
0003c0 41 71 12 3e 6d b0 1d be 26 9f c6 bc 7d 59 34 be
       0.14301015 -0.15399332 -0.02424581 -0.17612262
0003d0 15 6d 83 bd 0f 8e 42 3c 6b 41 f9 bd 4c 6b 78 bc
       -0.0641729 0.01187469 -0.121706806 -0.0151623
0003e0 42 bd 5c be 21 db ca 3d de 11 83 bd 2c 6c 1e be
       -0.21556571 0.09905077 -0.06399892 -0.15470952
0003f0 1c 01 1d 3b 7a fd 17 bd dc 58 6e be dc f0 ce bd
       0.002395696 -0.03710697 -0.23276085 -0.10104534

conv1.bias f4 [16]
000000 88 d7 7f bd 1a 9f 85 bd 8a 5e f6 3d aa e1 2e 3e
       -0.062461406 -0.06524487 0.12029751 0.17078272
000010 c5 bb 8a bd f2 d2 11 be 98 18 0b be 81 b7 f4 3c
       -0.067740954 -0.14240626 -0.135836 0.029872658
000020 b3 a1 79 3e 97 6d 15 bd db 0c 33 3c c7 d0 3c be
       0.2437809 -0.036481466 0.010928358 -0.18439017
000030 b6 ad 55 3e 8b 23 fc bd 50 22 ad 3a 70 43 1c 3e
       0.20867047 -0.12311467 0.0013209078 0.152601

conv2.weight f4 [128, 16, 3, 3]
000000 d7 90 22 bd e6 42 a9 bd f4 22 46 3d dc 88 bd bb
       -0.03968891 -0.08264713 0.048373178 -0.005784137
000010 40 4d ba bc 69 49 a3 bd c9 c6 cd bc d7 4c 4a 3d
       -0.022741914 -0.07972986 -0.025119202 0.049389686
000020 cd 9c 68 bd 6e 17 58 3d df 83 42 3d 99 ec 86 bb
       -0.056790162 0.05275672 0.047489043 -0.00411756
000030 13 1b b2 3d ca bd 96 3a 3f c2 86 3d e9 d4 8d bd
       0.0869657 0.0011500653 0.06580018 -0.06925375
000040 a6 f8 35 bb 4f 2f 1c bc e0 ea b2 3d e1 99 9d bd
       -0.0027766614 -0.009532764 0.08736205 -0.07695366
000050 20 ea 0a 3d b0 26 1a bd f2 47 a3 bc 18 9f 9e bd
       0.033914685 -0.03763455 -0.019931767 -0.077451885
000060 6c 52 ac 38 12 60 a5 3d 26 e7 0a bd 90 ec 07 bc
       8.2169514e-05 0.080749646 -0.033911847 -0.008296147
000070 22 f4 34 3d 11 9f 04 bd e9 33 c2 bc 97 fc 25 3d
       0.044178136 -0.03237826 -0.023706393 0.04052409
000080 56 b2 97 3d ac 44 12 bd 73 b1 84 bd 02 e6 af 3d
       0.07407062 -0.03571002 -0.06479158 0.085887924
000090 8a 54 45 3d 4c 18 c8 3c 14 3c fc 3c 5d f7 ec bc
       0.048176326 0.024425648 0.030790366 -0.028926546
0000a0 dd 7f 0a 3d d4 08 08 3e b7 2a 8a 3b b8 01 69 bd
       0.033813346 0.13284618 0.004216518 -0.056886405
0000b0 a9 76 4e bc 94 32 ac 3d 91 62 ec bc 98 80 14 3c
       -0.012601533 0.084080845 -0.028855594 0.009063862
0000c0 1f 36 03 3d 88 9e b5 bd c5 a5 27 3d 19 c9 1f 3c
       0.032034036 -0.08868128 0.040929575 0.009752535
0000d0 82 e8 5a bc d4 7c aa bc fb ce 1f bd 87 d1 9c 3c
       -0.013361098 -0.020811476 -0.03901575 0.01914288
0000e0 f1 69 2f 3d 72 96 a2 bd 21 3e 44 bd ae 20 65 3d
       0.042825643 -0.079388514 -0.047910813 0.05593937
0000f0 38 b4 00 be 8c f5 30 bd 9b 36 83 bd 8f a0 2f 3d
       -0.12568748 -0.04320292 -0.064068995 0.04287773
000100 07 b6 a8 3d bf 32 89 bc bf 7c 88 3d aa 05 2e 3d
       0.08237844 -0.01674783 0.066644184 0.04248587
000110 e8 a6 86 3d 3c db df 3c ff 46 61 bd bb 58 47 3c
       0.065748036 0.027326219 -0.054999348 0.012167151
000120 f6 86 81 3a 3a ee 7e bb 07 4b 4b bb a8 24 5b 3d
       0.000988214 -0.0038899318 -0.0031020062 0.053501755
000130 1d 92 22 3d 67 ce d7 bc a2 c7 31 bd 96 80 1b 3c
       0.039690126 -0.026343537 -0.043403275 0.0094911065
000140 ce 24 93 bd 55 ee b8 3c 10 62 51 bd 8f 42 c2 3d
       -0.07184754 0.022574583 -0.05111891 0.09485351
000150 73 06 22 3d cc 2b 85 bd 35 b0 a1 3d 82 80 6e bd
       0.03955693 -0.06502494 0.07894937 -0.058228023
000160 d5 03 75 bd 71 15 55 bd 82 3f 1a 3d 13 51 60 bc
       -0.059818108 -0.0520224 0.037658222 -0.013691205
000170 80 b0 d2 3d 5d f2 a3 bc f7 58 24 3d f5 bb c9 3d
       0.10287571 -0.020013029 0.040123906 0.09850303
000180 c3 5f a6 3c aa f1 de 3c cb 15 3a bc b7 14 ea bb
       0.020309335 0.027214844 -0.011357735 -0.0071435827
000190 77 bd 8e 3d 18 bc cf 3c cc 5b 9b bd 54 14 ed 3b
       0.06969731 0.025358245 -0.07585868 0.0072350893
0001a0 38 1c b8 3d 32 4f bd bc 50 50 a9 3d e3 84 16 bd
       0.08989757 -0.023109052 0.082672715 -0.036747824
0001b0 4d bd 15 3d 3c 0b 8b 3d 13 de 9e 3d fb eb 66 3c
       0.036557484 0.06789252 0.07757201 0.014094348
0001c0 11 dd a5 bd c5 d7 ea 3c 2c 7f a7 3d cb e2 9a 3d
       -0.08098806 0.02866734 0.08178553 0.075627886
0001d0 1b 02 f0 3c e6 3c 51 bd d4 9e ae 3c 82 b4 a7 3c
       0.029297879 -0.051083468 0.02131597 0.020471815
0001e0 93 43 9d bc 61 c3 ff bc 41 6b 0e 3d 7f e3 7a 3d
       -0.019197261 -0.031221094 0.034770254 0.061252113
0001f0 be 4f 8b 3d 42 5a 9b 3d 71 25 45 bd db 13 a6 bc
       0.06802319 0.07585575 -0.04813141 -0.02027314
000200 9c 0d f5 ba e1 e5 54 bd 0a 2e 25 3d f8 5a 9e 3d
       -0.0018696073 -0.051977042 0.04032711 0.07732195
000210 33 bf 57 bc 9c e0 3d bd 1f 06 83 bb 00 8b 9a bc
       -0.013168144 -0.046356782 -0.0039985324 -0.018865108
000220 77 ac f7 3b 88 7c b5 bc 85 d1 8a bd 7a 34 8a bd
       0.007558401 -0.022154108 -0.06778244 -0.0674829
000230 5b 0a 8a bd fc 7f 55 bd 8e 69 00 3b e6 08 99 bd
       -0.067402564 -0.05212401 0.0019594165 -0.074724
000240 e5 bb 68 bd 68 b3 0e bc ea 30 ab bc 60 9c 55 bd
       -0.056819815 -0.008709766 -0.020897347 -0.052151084
000250 0a 0e 77 bd 8e 38 72 bd e4 6b 73 bd 19 31 1d bd
       -0.060316123 -0.059135966 -0.059429064 -0.0383769
000260 16 90 1a 3d 7b 89 8d 3d 92 7a 9a bc e9 b5 a3 3d
       0.037735067 0.06910988 -0.018857274 0.07993681
000270 2a bc 5b bd 66 68 89 bd 01 79 86 3d b8 3d d0 bb
       -0.053646244 -0.067093655 0.065660484 -0.0063550137
000280 0e e9 b2 3d c4 28 29 bd 4d 97 aa 3d 7f 02 da 3d
       0.08735858 -0.041298643 0.083296396 0.10645007
000290 8c 4f 5f bc ea e7 6b 3d af f4 4c 3d 7a 61 ad 39
       -0.013629805 0.057594217 0.050038036 0.00033069757
0002a0 f5 3a 57 3d 4c e2 9c 3d 3b a6 84 3d 0a 10 d1 bc
       0.05254646 0.0766035 0.064770184 -0.025520343
0002b0 e5 9b e6 3d af cf 16 3d 02 f5 b6 3d c6 85 c9 3c
       0.11260203 0.036819156 0.0893345 0.024599921
0002c0 83 86 95 bb 01 99 63 3d 18 d4 ea 3b a0 58 e2 3c
       -0.004563154 0.055565838 0.007166397 0.02763015
0002d0 6c bc b0 bc 91 86 0d 3b 26 81 c2 bb 97 a5 95 3c
       -0.021574222 0.00215951 -0.005935806 0.018267436
0002e0 1e 96 6e bd 85 ea 26 3c fd c8 78 bc a6 8b ba bc
       -0.05824863 0.01018775 -0.015184638 -0.022771668
0002f0 04 8c f4 bd 36 fa c2 3d b8 a5 e6 bc bd 4a 33 3c
       -0.11940768 0.0952038 -0.028155193 0.010943112
000300 c6 d4 10 3c fc ad 62 bd 9c 2a b0 bd 10 ba 99 3d
       0.008839792 -0.055341706 -0.08601877 0.07506192
000310 a6 b2 c2 3c e6 ab 52 bd 8c ef ad 3c a2 c3 27 3d
       0.023766827 -0.051433466 0.021232389 0.040958054
000320 d5 1a ae 3d 4e 93 7d bd c4 d1 c7 bc 04 3c 8f 3c
       0.085012116 -0.06190806 -0.024392016 0.017484672
000330 a4 58 98 3d 25 93 94 bd be e6 8e bd a9 a3 d1 bb
       0.07438782 -0.07254628 -0.06977604 -0.0063976836
000340 cf a3 55 3d ea 03 19 bd 6b f1 4b 3d 1a b8 ed bc
       0.052158173 -0.03735725 0.04979078 -0.02901845
000350 26 b8 fe 3c 4b 97 44 3d 5a 4c 2e bd 48 f1 9e bc
       0.031093668 0.047995847 -0.042553283 -0.019402161
000360 f9 9b 6e 3c 2e 38 eb bb aa 49 26 3d e1 49 05 bd
       0.014563554 -0.007178328 0.040597595 -0.03254116
000370 0f cb 20 3d dd 22 33 3c 0c d9 56 bc 2d 09 0d bd
       0.03925615 0.010933605 -0.013113271 -0.03443258
000380 e1 00 50 3d 68 22 71 3d 91 e2 bc bd fe 64 26 3c
       0.05078209 0.058870703 -0.092229016 0.010155914
000390 9a 17 c7 bc 8a 74 b3 bc ea a5 db bc 60 e6 d3 3c
       -0.024303246 -0.021906156 -0.026812512 0.025866687
0003a0 d7 fd 4b bc 5c 0c 97 bd ed f6 0a bd a2 6e 90 3d
       -0.012450657 -0.07375404 -0.033926893 0.070523515
0003b0 43 b4 54 3d 79 c4 6d 3d 5c b6 7e bd e9 b5 11 3d
       0.051929723 0.0580487 -0.06218563 0.035573874
0003c0 05 46 a2 3d 4c e3 81 bd 95 cc 41 3c 73 a2 a5 bc
       0.079235114 -0.063421816 0.011828561 -0.020219063
0003d0 d3 49 42 3d 3a 39 a2 bd a5 83 26 bd ef dd 64 bd
       0.047433686 -0.07921071 -0.04065289 -0.055875715
0003e0 fc bd 90 3b 17 1a ac 3c 59 21 6f bd 15 9b a5 bd
       0.004417179 0.021008534 -0.058381412 -0.0808622
0003f0 f0 b4 f4 3c 88 56 01 3d 48 7d 3c bd 01 9e f6 3c
       0.029871434 0.031576663 -0.046017915 0.030104639

conv2.bias f4 [128]
000000 48 09 09 3c bd 0a fc 3d d1 b2 42 3b 84 43 2e bd
       0.008364029 0.12306736 0.0029708634 -0.042544857
000010 26 92 74 bc 40 f5 1c bd dd 76 d8 bc f5 2c a5 bd
       -0.014927423 -0.038319826 -0.026423866 -0.080652155
000020 2f 06 b2 3c fd 84 2f 3c 83 a1 0b bd 6f ca bd bd
       0.021731464 0.010712859 -0.034089576 -0.09267127
000030 5d 1a a6 bc 02 c4 a7 3d 62 eb 09 bd d5 30 bd bc
       -0.020276243 0.081916824 -0.033671744 -0.023094574
000040 de 18 5e 3c 8a ab 85 3b cb bc 19 bd 27 ea 95 3d
       0.0135557335 0.004079287 -0.037533563 0.07320052
000050 93 e7 a9 bd 54 21 2c 3d b8 ac d3 bc 0b 84 b9 3d
       -0.082961224 0.04202397 -0.025839195 0.09058388
000060 b0 e3 25 3d 1a 0e 7a 3d 8c 6f 79 3d 1d cd fd 3c
       0.040500343 0.061048605 0.060897395 0.030981595
000070 61 51 28 bc 5a 5e a0 bd 4d 89 48 3d 93 ed 99 3d
       -0.0102733085 -0.07830496 0.048959065 0.07516017
000080 96 44 c4 3d d7 e0 12 3d 33 6d 76 bd 89 05 71 bd
       0.09583394 0.035858955 -0.060162734 -0.05884317
000090 fe c7 dd 3a 63 c1 48 bd fd 82 ad bd 8b 6d c1 bb
       0.0016920564 -0.049012553 -0.0847225 -0.005902951
0000a0 be a1 ee bb d6 cf 31 bb bc 08 98 bd 15 68 3f bd
       -0.0072824648 -0.0027131937 -0.07423541 -0.04673012
0000b0 71 90 7d bd 46 c0 ce 3d 19 d8 eb 3d 5f 07 25 3c
       -0.06190533 0.10095267 0.11515827 0.010072558
0000c0 4f f7 bd bd 52 23 9c 3c 3f b7 a3 3d 3c 17 64 bd
       -0.09275686 0.01905981 0.07993936 -0.05568622
0000d0 93 68 34 bd 39 d9 c3 3d b4 09 98 3d 19 b8 b8 3d
       -0.044045042 0.09562916 0.07423726 0.09019489
0000e0 3c 44 f7 bc 31 1e 41 bd 4b 53 74 bd 94 ad 12 bd
       -0.030183904 -0.047147933 -0.059649747 -0.03581007
0000f0 7e cc 2f bd 15 4d f3 3d 80 1e 43 3d f4 6a 0c 3d
       -0.04291963 0.118799366 0.04763651 0.034281686
000100 8b b9 9b bd df fe 02 3e 71 8a 9f bd 94 34 1b 3d
       -0.07603749 0.12792538 -0.077900775 0.03789194
000110 ca 5e 7e bb 7e 33 a3 bd 16 d3 60 bd 77 03 60 bd
       -0.0038813823 -0.07968806 -0.054888807 -0.054690804
000120 9f f5 74 bd 19 5e 87 bd 7c 72 ae bd 04 ac 57 3d
       -0.059804555 -0.066097446 -0.0851793 0.05265428
000130 d9 a2 c0 3c c5 60 d7 3d dd cb a5 bc cc b1 b5 3b
       0.023515152 0.10516504 -0.020238811 0.0055448767
000140 0b 35 e5 bd 5e 05 14 bc 2e 7a de 3d ba 4e 83 bd
       -0.11191758 -0.009034483 0.10863148 -0.064115
000150 38 f1 34 bb 01 09 5f 3d 1f 25 94 3d 63 db b4 3c
       -0.0027609598 0.054451946 0.07233643 0.022077268
000160 eb dc b2 3d c9 1c 06 3d 0a 07 df 3d 82 00 25 bc
       0.08733543 0.032742295 0.108900145 -0.010070922
000170 d8 ae 27 3d 6b fa 44 bb 55 eb f1 3c f6 18 a0 bd
       0.04093823 -0.0030056487 0.02953116 -0.07817261
000180 b0 12 27 3c 58 6c 18 3d b5 23 f6 3c 11 ef 49 3d
       0.010197327 0.0372127 0.030046323 0.049300257
000190 b6 61 ca 3d a4 c4 86 3c be f9 3d bd 68 80 67 3c
       0.09881918 0.016451187 -0.04638075 0.0141297355
0001a0 48 29 cb 3d 5a 19 98 3d 08 4e 09 bd c7 e2 90 3d
       0.09919983 0.074267104 -0.033521682 0.07074504
0001b0 e1 86 88 3c 3e 7f ff 3c 12 3d db bc d3 68 7b bb
       0.016665878 0.031188603 -0.026762519 -0.003836204
0001c0 13 08 29 3d fe ba e6 3c ba c8 af bb bd 85 29 3d
       0.041267466 0.028165337 -0.0053645046 0.04138731
0001d0 88 ad 2d 3d e0 26 f3 3c 0e 43 80 3d 9a 1d 0d bc
       0.04240182 0.029681623 0.0626279 -0.008613015
0001e0 89 29 8e bd dc d7 38 bd 96 c7 0c 3d 55 8b fe 3c
       -0.06941516 -0.045127735 0.034370027 0.031072298
0001f0 fa d4 f5 bb 92 15 c3 bd ce 32 d7 bd a5 1f 8e bd
       -0.0075021954 -0.095255986 -0.10507737 -0.069396295

conv3.weight f4 [20, 128, 3, 3]
000000 86 bb 34 3c 9c 8f ba 3b 8f be 3a 3d f0 6b b9 3c
       0.011031037 0.005693389 0.045591887 0.022634476
000010 64 c9 27 3c a1 55 e5 b9 22 e7 6e 3b c1 a4 9e 3c
       0.010240886 -0.00043742082 0.0036453684 0.01936567
000020 29 1b b7 3c 1a b9 b7 3c dc 9b ef bc f3 15 26 bc
       0.022351818 0.02242713 -0.029249124 -0.010137069
000030 56 39 f8 3c 26 e4 3b 3b f4 a5 bd 3b c0 85 0b 3d
       0.030300777 0.0028669923 0.0057876054 0.0340631
000040 26 83 0e bc 69 2f b6 bc a7 f9 42 bd 3a ef 0d 3c
       -0.00869826 -0.022239404 -0.04760137 0.008662993
000050 b4 b7 c6 bc 4d 77 02 bd ce 41 ef 3c 7e c0 dc bc
       -0.024257518 -0.031852055 0.029206183 -0.026947256
000060 f1 ee dc 3c 82 97 7f bb a0 2e f4 3c e3 71 df 3c
       0.026969405 -0.0039000218 0.029807389 0.027275985
000070 d9 e0 2c 3b 84 f3 dc 3c ee ed 3f 3c 70 d3 26 bb
       0.0026379137 0.026971586 0.011714442 -0.0025455616
000080 e2 cb 2a bc c5 21 45 bd 93 b5 05 bd b2 59 22 3b
       -0.010424586 -0.04812791 -0.032643866 0.00247727
000090 3d 56 88 bc 3f 0a 55 bc f3 dd 37 bd 7d e9 9a bb
       -0.016642684 -0.013002931 -0.0448894 -0.004727541
0000a0 6a a0 66 3c 25 f9 8a 3c c5 8a 04 3d 9e b8 cf bc
       0.014076332 0.016964504 0.032358903 -0.025356587
0000b0 0b ac 29 3d 05 88 1c 3c 9b a4 b6 3c 26 a9 12 3b
       0.04142384 0.009553914 0.022295287 0.0022378652
0000c0 8c 73 f0 bc c3 f8 75 bc 56 92 58 3b ce 0a f8 bc
       -0.029351972 -0.015012923 0.0033046207 -0.03027859
0000d0 1b 76 06 bd 56 6d 6b bd 2e ee 01 3d bb fc ce 3b
       -0.032827478 -0.057477318 0.031721286 0.006316749
0000e0 d4 cb 08 bd 05 6c 35 3d 22 f9 37 3c c4 9c 0b 3d
       -0.03339751 0.04429247 0.0112288315 0.03408505
0000f0 a9 89 61 bc 95 67 a8 3b 49 04 9c 3b 3c 9a f3 bc
       -0.013765731 0.005139301 0.004761253 -0.02973663
000100 02 38 77 3a 9c 6c 71 bc b8 f9 31 bb 52 3f fc bc
       0.0009430648 -0.014735367 -0.00271569 -0.030791912
000110 aa 18 ee bc 91 7c c1 bc 84 7d 02 bd 85 68 00 bd
       -0.029064495 -0.023618968 -0.031857982 -0.031349678
000120 bc 7a 01 bd cf ba 3f bd ff 95 0f bd c7 46 01 bc
       -0.03161119 -0.046809014 -0.035055157 -0.00789041
000130 d7 43 96 bc a7 f1 2b ba e1 31 fe bc d9 fe a2 bc
       -0.018342895 -0.00065591413 -0.031029643 -0.019896911
000140 82 2e f0 bc 80 ed a2 3c 01 60 18 3c 5d a7 25 3c
       -0.029319052 0.01988864 0.009300233 0.010110703
000150 e6 99 0d 3d 87 aa 1e 3d 0d ff 41 3d 91 ac 83 bd
       0.034570597 0.038736846 0.047362376 -0.06429399
000160 59 bb 62 bd 4b 85 4e bd 61 5e 06 3c bd 92 b1 3b
       -0.05535445 -0.050420087 0.008201213 0.005419104
000170 48 59 c2 3c 96 ec b3 bc 50 ba 9d 3c f7 56 e9 3b
       0.023724213 -0.021963399 0.01925388 0.0071209627
000180 af b3 e6 3b ec dc 3f bc 54 39 0b 3d 70 17 e7 3b
       0.007040463 -0.011710387 0.03399022 0.0070523545
000190 04 a4 29 3d 67 2d 21 bc ce d8 6b bb b7 f2 00 3d
       0.041416183 -0.009837485 -0.003598738 0.03148147
0001a0 a1 23 1a 3d e6 98 87 bc 28 83 c7 bc c8 9e 29 bc
       0.037631635 -0.0165524 -0.024354532 -0.010352798
0001b0 50 8f 00 bd 3f 45 ec 3b db 57 41 bc 6c 35 6c 3b
       -0.031386673 0.007210403 -0.0118007315 0.0036042584
0001c0 dc 64 60 3d 7a f1 7a 3c c2 56 d8 3c 84 57 04 bd
       0.054783687 0.015316362 0.026408557 -0.032310024
0001d0 d2 ac 81 bc 24 77 aa 3b ca 09 57 bc 20 60 dd 3c
       -0.015829477 0.005202191 -0.0131248925 0.027023375
0001e0 69 d5 43 3d 6c f7 0d b8 63 04 f0 3c ed 66 1a bb
       0.047810946 -3.384745e-05 0.029298967 -0.0023559884
0001f0 67 18 b2 bc f4 65 ea 3b 57 4f a0 3c 6b 11 e0 3c
       -0.021740152 0.007153267 0.019569082 0.027352056
000200 00 1c e1 bc 0f 52 07 3d 2a 2c fd bb 37 15 93 bc
       -0.027479172 0.03303724 -0.007726212 -0.017954452
000210 8b b2 03 bb 00 07 6b bc a4 cc 3b 3c 38 2a 29 bd
       -0.0020095434 -0.014344931 0.011462364 -0.04130003
000220 b9 78 61 bd ca 1f 91 bc 92 13 59 bc bd 79 d2 bc
       -0.05504677 -0.017715354 -0.013249295 -0.025692815
000230 a7 9c 87 3b 2c fb d5 3c a6 56 23 bb dc 4b bd b9
       0.0041385475 0.026120745 -0.0024923473 -0.0003610541
000240 66 6a 61 3c 28 8e a1 3b d0 08 3e bc b9 93 ec 3c
       0.0137582775 0.0049302764 -0.011598781 0.028879033
000250 70 3b 6d 3c d8 4b 04 bd 5c 0a 7f bd 11 b1 34 bd
       0.014479503 -0.032298893 -0.06226574 -0.044114176
000260 65 b3 7c bd 8c bf ad bc ab 30 97 bc 20 77 17 3d
       -0.06169452 -0.0212095 -0.018455824 0.03697884
000270 37 b5 a9 bc 54 4d 17 bd 9a 32 a5 bc ff d8 29 bd
       -0.020716293 -0.03693898 -0.02016573 -0.04146671
000280 30 94 44 bd 4b 87 32 bc 19 d9 1a bc 54 45 34 bb
       -0.047992885 -0.010896514 -0.009451174 -0.0027507143
000290 06 c3 15 3b 09 0e 10 3d 68 96 00 3d aa 38 d3 bc
       0.0022851839 0.035169635 0.03139344 -0.025783855
0002a0 1a c7 7f 3c 39 3b cb 3c dd 62 b3 bc ae 7c b0 bc
       0.015611434 0.024808513 -0.021897728 -0.021543827
0002b0 af 0b 36 3d a4 07 17 bd 84 f7 47 3c 66 a7 33 3d
       0.044444736 -0.03687252 0.012205008 0.043860815
0002c0 cf f3 89 3b 82 63 8f 3c 75 f1 2b bd 10 29 e1 bc
       0.0042099725 0.017503504 -0.04197832 -0.0274854
0002d0 ad 28 83 3c a3 cb b0 3c 2e e7 11 bc 3c ef 1d 3b
       0.016010607 0.021581477 -0.008905215 0.0024098894
0002e0 0e e0 c4 3b 70 c0 af 3b 63 ae 6a bc 6a e2 35 bd
       0.0060081547 0.0053635165 -0.014323804 -0.04440538
0002f0 44 13 ae bb 0d 04 31 bd 7a b3 2d bb af cf 04 3c
       -0.0053123552 -0.043216754 -0.0026504681 0.008106156
000300 c9 9d 7c 3c da f9 b0 3c 09 9f fd 3b d2 d4 f2 3c
       0.015418478 0.021603514 0.0077399057 0.029642496
000310 e5 dd c8 3c bd 59 b9 bc cd fa 49 bc 1b 66 76 bb
       0.02451987 -0.022625798 -0.012327862 -0.003759748
000320 30 e8 b1 ba 92 41 12 bd a3 8e 01 bd 57 24 d3 bc
       -0.0013573226 -0.035707064 -0.03163017 -0.025774164
000330 41 2e 4b bd 9d 31 2f bd 4d c2 4d bd a6 b8 82 3d
       -0.049604658 -0.042771924 -0.050234128 0.06382875
000340 83 d3 05 bd d9 8a 03 3d ed 27 d2 3d 10 22 91 3c
       -0.032672416 0.032114837 0.102615215 0.017716438
000350 fa 6e e7 3c fa c7 6a 3c 97 d0 9b bc ad 61 74 bc
       0.02825116 0.014329905 -0.019020362 -0.014915866
000360 fe 8c 8d 3d a8 c6 f7 b9 10 b4 0d 3d 4e 66 51 3d
       0.06911658 -0.00047259522 0.03459555 0.051122956
000370 65 93 ba bc e6 ef 38 3c 44 94 f3 bc 06 b3 22 bd
       -0.022775361 0.011287665 -0.029733784 -0.03972151
000380 42 ee 2f bd 20 ba 9c 3b f3 a8 96 bc 18 96 f0 bc
       -0.04295183 0.00478293 -0.018391108 -0.029368445
000390 3b 1e e3 3c 53 50 fd 3b a7 4b 46 3c 05 ee 24 bd
       0.027724376 0.0077305227 0.012102998 -0.040266056
0003a0 7a 8f d4 3a 4f cf 0f bd 9c e9 f8 3a 96 a0 eb 3c
       0.0016217076 -0.035109814 0.001899052 0.028763097
0003b0 0e 3d 5d 3b 6b 3d ed 3c a4 44 79 3d 7e 2d 3c 3c
       0.0033758315 0.02895995 0.060856476 0.011485456
0003c0 91 f9 db 3a c5 ea 77 3b bd a2 3c 3c fc 70 82 3c
       0.0016782751 0.0037829143 0.011513409 0.015923016
0003d0 27 50 d4 3c 4f 26 45 bc 59 f3 bc bb ff 0a 03 3d
       0.025917126 -0.012033059 -0.005766314 0.03199291
0003e0 c3 b6 dc bc 4b a7 9a bb 09 1a a0 bc eb 39 8b 3c
       -0.026942616 -0.00471965 -0.019543665 0.01699539
0003f0 5a 84 b0 3c c7 e0 0e bd 99 d9 c3 bc 27 77 22 3b
       0.021547485 -0.034882333 -0.02390747 0.0024790259

conv3.bias f4 [20]
000000 9d 91 90 3c c5 14 0d 3d e3 1a d4 3a 16 06 ff bc
       0.017647559 0.034443635 0.0016182329 -0.031130832
000010 e0 24 9a 3d f9 9f ef 3b d5 b3 41 bd 9f 55 bd bd
       0.075265646 0.0073127714 -0.04729064 -0.092448466
000020 7e 51 4f bc 96 40 76 bd 0e f1 8b bb 7c 40 45 3d
       -0.012653707 -0.060120188 -0.0042706793 0.0481572
000030 1f 23 31 bd 69 69 92 bc 22 75 34 3d ca d9 06 bd
       -0.043246385 -0.01787253 0.04405702 -0.032922544
000040 24 74 04 bd b0 75 68 3d 3d 87 a2 bb 08 08 75 3d
       -0.032337323 0.05675286 -0.0049599693 0.059822112

conv4.weight f4 [100, 20, 3, 3]
000000 21 6a ee 3b 76 9a 11 bb 3b 19 86 3d 24 19 66 bc
       0.007275835 -0.002221731 0.06547781 -0.01404408
000010 db bf 60 3d ec db 17 bd 25 17 9c 3d ef ae 16 bc
       0.054870468 -0.03707497 0.07621602 -0.009196981
000020 34 48 2c bd 20 44 63 bc 65 d1 18 3b 9e 05 ae bd
       -0.042061046 -0.013871223 0.0023318168 -0.08497165
000030 2b bf 5d 3d c4 d1 81 bd 5f 3b ae bd dc e2 eb bc
       0.05413739 -0.06338838 -0.08507418 -0.028794698
000040 56 87 96 bd 25 e5 11 3d 50 35 ed 3c d7 58 94 3b
       -0.07350032 0.03561892 0.028956085 0.004527192
000050 f0 de 2d 3b 16 9c 2a 3d d4 97 16 3c 91 28 8c bd
       0.0026530586 0.04165276 0.009191472 -0.06843675
000060 8d 30 8b bd ce c7 70 3d 77 b3 39 3d 7d a8 33 bc
       -0.0679637 0.0587843 0.045337167 -0.010965464
000070 61 57 79 3d ec 87 96 3a e9 b4 1c bd 5b 29 67 3d
       0.060874347 0.00114846 -0.038258467 0.056435924
000080 02 b0 a6 bc 64 b1 6a 3d 6c 68 19 bd 5f c9 12 3c
       -0.020347599 0.05729808 -0.0374531 0.008959143
000090 a8 68 01 bc 7a 54 cc bc 8e 0d 0b 3d ad 29 bc 3d
       -0.007898487 -0.024942625 0.033948474 0.091876365
0000a0 c2 4b 3e 3d 81 90 77 3d e8 f4 3a bd a7 2f b4 bd
       0.046458967 0.060440544 -0.045643717 -0.087981515
0000b0 7e d3 59 bc f6 2d 43 bd b3 4b 2b 3b 42 0e 38 3d
       -0.013295053 -0.047651254 0.002613765 0.044935472
0000c0 ac 6e 6b bc 00 23 73 3d 07 53 56 bc 2a 57 7a 3d
       -0.014369648 0.05935955 -0.013081319 0.061118282
0000d0 75 41 40 3d 83 8a 3d 3d c8 32 05 bd eb 9a 8d 3d
       0.046937425 0.046274673 -0.032519132 0.06914314
0000e0 f1 aa 19 bb 9f a4 f7 3c b9 49 f0 bc 22 bc b4 3c
       -0.0023447836 0.030229865 -0.029332029 0.022062365
0000f0 54 16 e3 3c d1 74 78 bd c2 26 7c bc fe c5 7d bd
       0.027720608 -0.06065828 -0.0153901 -0.0619564
000100 de 86 ff bb 23 57 75 3d 2b be 94 3d fa bc 41 3d
       -0.00779806 0.059897553 0.07262834 0.047299363
000110 6c 62 b1 3c 57 ae 8d 3d 74 c5 34 3d 7b 3e ba bd
       0.021653377 0.06918018 0.04413362 -0.090939485
000120 62 16 00 bb 78 6b 21 bd f8 08 7a bd 92 e0 8f 3c
       -0.0019544591 -0.03940913 -0.06104371 0.017563138
000130 f6 8a 28 3d 5f 94 80 bc 56 1f 75 bd a0 01 75 bd
       0.04114815 -0.015695749 -0.059844337 -0.059816003
000140 54 7b ba bc 27 21 18 bb 1a 7c 64 bd 9e e6 ba bd
       -0.022763886 -0.002321312 -0.055782415 -0.09126018
000150 ab d3 9c bc 4d 52 61 3d ef 4d 2c bc d4 e0 82 3d
       -0.0191439 0.05501013 -0.010516628 0.06390539
000160 d1 e4 71 3c 0c 50 4d 3d b1 ce 06 3d cf 19 6d 3d
       0.014764027 0.050125167 0.03291196 0.05788594
000170 a8 a7 4b bc 8a 19 10 3d 20 0a 55 bd de 26 d9 3c
       -0.012430109 0.035180606 -0.05201161 0.026507791
000180 93 ea ba ba 06 c4 a4 bd a6 4a 96 bd 57 0d 64 3d
       -0.0014260582 -0.08045201 -0.07338457 0.055676784
000190 87 fb 0e 3b 3b e9 e8 bb e9 b3 13 bd d3 08 0c bd
       0.0021817402 -0.0071078814 -0.036060248 -0.034188103
0001a0 9a b9 5a 3d 5a 0f 6e 3d 51 4d 74 3c 6f e3 8a bd
       0.05339966 0.05812011 0.014911012 -0.06781661
0001b0 1f 28 d1 3c e5 8d 13 3d 0f 96 f9 bb 4a a1 7a 3d
       0.025531827 0.036023993 -0.0076167653 0.061188973
0001c0 0a e0 8a bb 86 f3 a9 bc 4f fb 14 3d 16 d5 06 bd
       -0.0042381333 -0.020746004 0.03637248 -0.03291806
0001d0 57 44 0e bd fa 81 5a bd 93 df 8b bd 92 22 64 3d
       -0.034733143 -0.05334661 -0.06829753 0.05569703
0001e0 93 56 68 bd bd 6c 7f 3d 8c 95 0e 3c f5 4a 82 3d
       -0.05672319 0.06235956 0.008702647 0.06361953
0001f0 ea 20 60 3d 30 39 ce 3c 07 b4 92 3d 48 a2 18 3d
       0.05471889 0.025173753 0.07163244 0.03726414
000200 c7 11 33 bd b2 7d a1 b9 60 a5 5c 3d 38 2c 32 bb
       -0.043718126 -0.00030801963 0.05386865 -0.0027187
000210 b5 5f 56 3d a8 4f 4d 3b 13 e9 93 3c ea 52 71 3d
       0.052337367 0.0031327996 0.018055474 0.058916964
000220 77 23 d0 3c 16 89 bf bc 94 ac 6f 3d c1 df 76 bd
       0.025407536 -0.023380797 0.058514193 -0.060271982
000230 1f b1 3c bd 9c e3 26 bd d1 66 50 3d ab 62 9c bd
       -0.046067353 -0.04074441 0.050879303 -0.07636007
000240 0a 4c 90 bd a7 dd 1f bd 3a f9 5f 3d 4d 4a 2f bd
       -0.07045753 -0.039029744 0.05468104 -0.042795468
000250 73 c6 6d bd 1c 91 9b bd 83 0c 3f bd 3b f8 02 bd
       -0.058050584 -0.07596037 -0.04664279 -0.031975012
000260 6e f5 95 ba 4c 5d 29 bd 85 4d dd bc 7b 36 73 bc
       -0.0011440942 -0.04134874 -0.027014503 -0.014844532
000270 86 3c 1c 3b f9 84 8a bc ac 49 c4 bc df db d5 3c
       0.0023839786 -0.01690911 -0.02396091 0.02610582
000280 09 1f 97 bc 66 d7 9b bd 05 2c d4 3c c1 de 3c bd
       -0.018447416 -0.07609443 0.025899896 -0.046110872
000290 06 af a1 3d 8c bc 9b 3d e8 db 6e 3d 58 66 3b 3d
       0.07894711 0.07604322 0.058315188 0.0457519
0002a0 4e 8e 9e 3c 69 69 9c bd ec bb 20 bb 21 4e 89 3c
       0.019354966 -0.07637293 -0.0024526073 0.016760888
0002b0 51 b6 02 3c a6 f9 5a bd 32 99 9d bc d8 40 6a bc
       0.007978038 -0.05346074 -0.019238088 -0.0142976865
0002c0 ac 0a 91 bd 9e 23 b7 3b 67 a7 a3 3c d3 7b 19 3c
       -0.070821136 0.0055889627 0.019977285 0.009367901
0002d0 da 1c d8 bc 07 60 c5 3c 3a 3a 8f bd 84 3e a9 3c
       -0.026380945 0.024093641 -0.06993528 0.020659693
0002e0 2c 0e 21 bd 9f 13 73 bd 70 80 59 bd dc 10 9a 3d
       -0.039320156 -0.059344884 -0.053101003 0.07522747
0002f0 ac b8 62 3d 65 93 17 3c 7a b6 85 bd 21 43 6c 3d
       0.055351898 0.00925145 -0.06528945 0.057681207
000300 90 58 09 bc 46 ca ab 3c 82 6d 82 3d 97 44 17 bc
       -0.008382931 0.020970475 0.06368543 -0.009232662
000310 5d 21 b4 bb b8 bb c0 bb e3 90 1a 3d 35 c6 3c bd
       -0.0054971413 -0.005881753 0.03773583 -0.046087462
000320 cf b5 8b bd 66 82 0e 3c e6 47 26 bd 48 57 7c 3c
       -0.068217866 0.008698082 -0.04059591 0.015401669
000330 f8 52 88 3c 76 ac 8f 3d a8 ba aa 3d 4b 7a 7c bc
       0.016641125 0.07015316 0.08336383 -0.015410016
000340 b6 93 81 bd 1d d5 17 3d 80 e3 23 bd 0f 45 74 bc
       -0.06327002 0.037068475 -0.040011883 -0.014909043
000350 a8 b2 90 bc c4 d1 a3 3c c4 98 2a bd 7a c1 2c 3d
       -0.017663315 0.019997485 -0.041649595 0.0421767
000360 11 52 ce 3d 26 6b 42 3d b8 cc 4c bc 54 18 af 3d
       0.10074247 0.047465466 -0.012499981 0.08549562
000370 db a5 9c bc a6 3c 31 bc 3f 6c f1 bc c8 f2 68 3d
       -0.019122055 -0.010817682 -0.029470561 0.05687216
000380 2e d2 5a 3d 29 ae 23 bd 45 d9 c9 bc e5 fc 31 3d
       0.0534231 -0.039961014 -0.024639735 0.04345407
000390 a0 ea 5b bd 26 4b d1 bc 21 e7 8b 3d 67 b0 90 bc
       -0.053690553 -0.025548529 0.06831194 -0.01766224
0003a0 fb 59 8c bc bb ef 80 3d 33 94 19 bd 01 3a 0e bc
       -0.01713275 0.06295725 -0.03749485 -0.008680821
0003b0 cf 6d da 3c d6 f2 87 bd b1 2c 94 bd b5 b4 86 bd
       0.026663689 -0.06638114 -0.07235087 -0.06577436
0003c0 b2 9e d7 3c b4 be 12 39 4c a9 b2 bc f1 81 44 bd
       0.026320789 0.00013994687 -0.021809243 -0.047975484
0003d0 b0 bb 9d bd 7e 61 bb bc 60 bb 9f 3c 28 d5 d2 bb
       -0.07701814 -0.022873636 0.019498527 -0.0064341016
0003e0 15 ae 3b 3b b0 ab 6f 3c 67 2e 59 bd 5d 41 8f bb
       0.0028637697 0.014628336 -0.05302277 -0.0043718056
0003f0 9a 45 dc 3b fb ff 22 ba cf 6d 7e bd c4 80 ee bc
       0.0067221643 -0.00062179536 -0.06211644 -0.029114135

conv4.bias f4 [100]
000000 c0 b0 14 3d 49 60 ac 3c a7 0b 81 bd bb bd 5e 3d
       0.036301374 0.021042006 -0.06301051 0.05438016
000010 b5 bb c2 bc 52 4b 2b bc c9 bd 4b 3d 88 37 85 bd
       -0.023771146 -0.0104549695 0.04974154 -0.06504732
000020 7d fd 88 3b 3c 7e 3f 3d 7b d2 53 3c 93 de 06 bd
       0.004180609 0.046751246 0.0129286 -0.032927107
000030 06 88 96 bd 00 df 05 3b 63 bf 65 3d 3c 25 52 bd
       -0.07350163 0.0020427108 0.056090724 -0.05130504
000040 bf 64 ea 3c c0 7e c8 3c 12 e3 50 3d 55 ce 54 bd
       0.028612493 0.024474502 0.0509978 -0.051954586
000050 8d 55 5b 3d 8a 66 9b bb 65 88 9f bd ae d1 60 3d
       0.053548384 -0.004742448 -0.07789687 0.054887466
000060 08 97 c2 bc 84 6f 81 bb f6 13 05 bc 0a 3e 45 3d
       -0.023753658 -0.0039500613 -0.008122435 0.04815487
000070 21 7f cf bc ab f2 fd 3d b0 5f 3d 3c 5f 80 33 bd
       -0.025329174 0.12399801 0.011558458 -0.043823596
000080 12 78 06 3c 49 f4 3e 3d bd 51 29 3d 06 1d e1 ba
       0.008207338 0.046619687 0.041337717 -0.0017174787
000090 c5 a7 de 3d 32 e5 00 3c c9 94 9f bd 9b ed c0 3d
       0.10871843 0.007867144 -0.077920504 0.0942032
0000a0 60 b9 5e bd aa 25 bc bc 08 e4 89 3d 0a 01 db 3b
       -0.054376006 -0.022967178 0.06732947 0.0066834735
0000b0 b0 9d e5 3d 46 d6 16 3d f2 51 21 3c 30 6c e7 3d
       0.11211717 0.03682544 0.009846197 0.11299932
0000c0 ee 85 10 b9 dd 8d 55 3c 08 46 92 3c 9f a1 c4 3c
       -0.00013782803 0.013034311 0.01785566 0.024002848
0000d0 38 c3 67 bd 06 ca 85 3d a0 d3 d2 3d 15 64 89 bd
       -0.05658266 0.065326735 0.102942705 -0.06708542
0000e0 a7 d0 8a 3c e9 00 f2 3c 38 78 20 3c 61 28 db 3d
       0.016945196 0.02954145 0.009794287 0.10701061
0000f0 40 3b be bb 3e bd a2 3d 3b dc c1 3d 9c 29 6d bd
       -0.005805403 0.07946251 0.09465834 -0.05790101
000100 be c9 8c 3d 47 95 44 3d 52 92 7f 3c 76 da ee 3d
       0.06874417 0.047993924 0.01559885 0.11662762
000110 f8 b7 fe 3d c0 ab c9 3d b7 c5 f3 3c b4 65 56 3d
       0.12437433 0.09847212 0.029757364 0.052343085
000120 f8 34 1d 3d 07 6c 9e 3d 65 a9 01 bd 79 ca 8d 3d
       0.038380593 0.07735448 -0.031655688 0.06923384
000130 97 60 82 3d 26 10 2a 3d 26 d7 b1 bd 80 20 7e bd
       0.06366079 0.041519307 -0.086836144 -0.062042713
000140 e3 17 54 3c c6 9e 4c 3c 8f e7 e3 bd cf 1a 81 bd
       0.012945148 0.012489026 -0.11128151 -0.063039415
000150 9d 52 ad bd 72 5a c2 ba 17 13 bf 3d 6d 70 62 bc
       -0.08463023 -0.001482798 0.09329813 -0.01382075
000160 06 2f 56 3d f1 87 55 bc 82 ec a6 3d 5f e9 df 3d
       0.05229094 -0.013032899 0.08150579 0.10933184
000170 42 1c 8a 3d 4e 8e a8 bd 94 b4 ac 3d a1 d8 bb 3d
       0.06743671 -0.082302675 0.0843288 0.09172178
000180 75 fc 54 3d 3f d9 a7 bd e4 ac 67 3d a5 47 10 3e
       0.051998574 -0.08195733 0.056561366 0.1408983

conv5.weight f4 [16, 100, 3, 3]
000000 db 42 d7 bc fd b5 47 bd 2a 20 1b bc 8f c1 76 bc
       -0.026276996 -0.048757542 -0.009468118 -0.015060796
000010 48 d0 a9 bb 38 21 5d ba 79 82 c2 3c 6c 42 be 3c
       -0.0051822998 -0.0008435431 0.023743855 0.023225032
000020 75 c8 bc bc e7 21 4b 3b aa 28 0f 3d 05 46 45 bd
       -0.023044804 0.003099555 0.03495089 -0.04816248
000030 63 7f 01 3d 8b 54 67 3c b1 88 df bc 08 87 36 bc
       0.031615626 0.014119278 -0.02728686 -0.011140592
000040 89 ab 9b 3c b7 e3 3b bc 30 f5 47 ba 2a 19 d7 3c
       0.019002693 -0.011467866 -0.00076277833 0.026257116
000050 2f e0 d7 3c 20 3c 00 bd 14 4b 86 3b 5d 50 b5 ba
       0.026352016 -0.03130734 0.0040983055 -0.0013833154
000060 5e e1 32 3b b2 8a d5 bc 2e 47 c3 bc e5 b9 1b bb
       0.0027294974 -0.026067112 -0.023837652 -0.0023761925
000070 6f dc 9a bc 75 38 d6 bc 81 54 79 3b b5 4d 09 bb
       -0.018903939 -0.026149968 0.0038044753 -0.0020950858
000080 c0 19 ae 3c da b6 bb bc b6 65 af bc 27 65 18 bd
       0.021252513 -0.022914339 -0.021410804 -0.03720584
000090 fb ec 10 bd e2 11 fc 3c b4 3e 02 3d b3 0e ee bc
       -0.035382252 0.030770246 0.03179808 -0.029059744
0000a0 79 2b 5c 3b bb 95 ee 3c f5 28 bc bc fb 63 9c bc
       0.0033595248 0.029124131 -0.022968749 -0.019090643
0000b0 5a 5a 3a 3c c2 35 cd bc d6 39 4a 3d 49 0e 69 bb
       0.011374081 -0.025050048 0.049371563 -0.0035561493
0000c0 46 60 ee 3c f1 28 3a bc 4c 16 89 bc 9d 2e 4c bc
       0.029098641 -0.0113623 -0.016734265 -0.012462285
0000d0 2e 5d 98 bb 40 de 45 3b 22 82 60 39 fe 21 9c 3c
       -0.0046497798 0.0030192286 0.00021410783 0.019059177
0000e0 17 e0 a3 3c 80 fa 00 3c dd 4d 22 bc cb bd 15 bd
       0.020004315 0.007872224 -0.009906259 -0.036557954
0000f0 ed 31 98 bc ef a7 00 bd 79 68 a3 bb 0d 97 ec bc
       -0.018578494 -0.031410154 -0.0049868193 -0.02888062
000100 e2 95 ea 3c 37 cd d2 3c 55 52 4c bc 2f 8a 48 3c
       0.028635923 0.02573262 -0.012470801 0.012239977
000110 af 1e 35 bc 17 33 d6 bc b7 9b d0 bc 3b 61 f2 bc
       -0.011054679 -0.026147408 -0.025464876 -0.029587379
000120 75 b1 83 3c d2 1c 52 bc b4 54 b9 3b c4 e2 8b ba
       0.016075829 -0.012824254 0.0056558494 -0.001067244
000130 a1 0d 48 3c 8a 67 a1 bc b8 9f 4c 3c 95 f2 27 3b
       0.012210281 -0.019702692 0.012489252 0.0025626768
000140 c0 4b af 3c ab ad a5 3c b1 52 34 bc cb 60 f6 bc
       0.021398425 0.020224413 -0.011006043 -0.030075451
000150 e0 94 fc bc c0 d4 97 bc d4 79 d2 3c 68 c4 c9 3a
       -0.030832708 -0.018534064 0.025692858 0.0015393617
000160 d0 fa ea bc a8 8e 30 bc 29 ad 9b b9 d6 b4 28 3c
       -0.02868405 -0.010776199 -0.00029692918 0.010297021
000170 dc b9 02 bc f8 cb 01 bd bf 75 b9 3a 5f 3b 6b 3c
       -0.007978883 -0.03168866 0.0014149471 0.014357417
000180 07 a6 0f bd 74 13 8f 3b 1e 0d d5 3b 9d 2f 3c bb
       -0.035070445 0.0043663327 0.006501808 -0.0028714903
000190 1b c3 71 3c 05 d4 06 3d ad da 05 bc 73 e4 f5 3c
       0.014755989 0.03291704 -0.008169812 0.03001616
0001a0 f5 34 ed 3c ea bb f3 bc cd 7f fb bc 0e c5 72 3a
       0.028955916 -0.02975269 -0.030700589 0.0009260931
0001b0 58 6b fc bb c9 2a 50 3c c5 19 95 bc f8 57 fc bc
       -0.007703226 0.012705513 -0.018200764 -0.030803666
0001c0 29 fa 89 bc 89 d0 b4 3b 24 aa 22 bc 5e c6 37 3b
       -0.016842918 0.0055180234 -0.00992826 0.002804182
0001d0 02 4d 7e bb 04 90 4a bc f9 ed 62 3c e4 25 20 bc
       -0.0038803224 -0.012363438 0.013850682 -0.009774659
0001e0 e9 c4 38 bc cc 98 b7 3c 75 60 88 bb 6c 6f 8a bc
       -0.011277416 0.022411726 -0.004161889 -0.016898833
0001f0 a8 f5 e9 bc 12 77 b1 ba 1d 94 23 bb 2e f3 fe 3c
       -0.02855952 -0.0013539514 -0.0024960109 0.031121816
000200 6c 2c 87 bc 8d 5b cc bc f7 23 c5 3c 6d 32 36 3d
       -0.016500674 -0.024945999 0.024065001 0.044481684
000210 9f 3d 0a bd 03 48 09 3c cf 76 0d 3c a1 2f 1a 3c
       -0.033750173 0.008378985 0.008634283 0.00941077
000220 51 16 5f 3c 27 ba b2 bc 7a 38 df bc 43 5a d4 bb
       0.0136161605 -0.02181728 -0.02724861 -0.0064804866
000230 43 2c e9 3c 57 1c 0f bd 45 29 44 bc ea ac e5 3b
       0.028463488 -0.034939136 -0.01197273 0.0070091384
000240 09 b1 d3 3c 9d cc e4 bc d4 ba 4b bc 70 7b b1 3c
       0.025841253 -0.027929598 -0.01243468 0.021665305
000250 02 03 10 bb 76 77 be bc 89 92 43 3b 3e 6f a7 3c
       -0.002197445 -0.023250323 0.002984198 0.020438787
000260 a1 8d 70 3c fa 0e b4 b9 d2 9e f2 bc 26 76 56 3b
       0.014682204 -0.00034343434 -0.029616747 0.003272423
000270 9d da e6 bb 3b 33 b5 3c 54 78 89 bc ca cd cf 3c
       -0.0070451037 0.022119155 -0.01678101 0.025366683
000280 d3 d9 08 3c c8 cb 1f bd 72 3e 97 3c 54 7c 29 bb
       0.008352715 -0.0390127 0.018462393 -0.002586146
000290 cb b2 20 3c 6e 2b d0 3c e4 1a 02 bc 40 04 96 3c
       0.009808253 0.025411334 -0.007940982 0.018312573
0002a0 41 51 79 3c 54 08 bc bc a2 e7 1f bc 70 69 b0 3c
       0.015217126 -0.02295319 -0.009759815 0.021534652
0002b0 9c 2b 13 bc af 48 2b 3c f5 38 f8 3b 37 a9 e4 3c
       -0.008982565 0.010454341 0.007575149 0.02791272
0002c0 79 84 04 bd 9a c3 dc 3c 9e 6e d0 3c f9 00 69 bc
       -0.0323529 0.026948739 0.025443371 -0.014221423
0002d0 8f fb 43 bc a1 86 fe 3c 9e 3e dd 3c 56 9f 9e 3c
       -0.011961832 0.031070055 0.027007397 0.019363087
0002e0 e7 ac bb bc fb 25 27 bc 08 09 b0 bc fd 2f c7 3b
       -0.022909595 -0.010201926 -0.021488681 0.0060787187
0002f0 3b ac 6e bc 06 73 d6 bc 5b 5f 49 3b 64 a7 8b 3c
       -0.01456743 -0.026177894 0.0030727002 0.017047592
000300 59 22 4d bb 2e 9a 63 3c ec 67 e4 3b d6 67 93 3c
       -0.003130099 0.01389174 0.0069703963 0.017993849
000310 62 d5 f7 3b ec 79 e0 3b 98 0c 5c 3c 61 d1 c7 ba
       0.007563279 0.0068504717 0.013430737 -0.0015244895
000320 7c 76 04 3d c6 b1 10 bd f3 65 95 3c ba 80 c6 bc
       0.032339558 -0.035325788 0.01823709 -0.024231303
000330 e8 6d 3f bc e9 c2 9f bc 93 36 b3 bc 96 1e 15 bc
       -0.011683919 -0.01950212 -0.021876609 -0.009101531
000340 0c ac 3b 3d 56 7d 92 3c ce 6b 9b 3c d8 1b 72 3c
       0.045818374 0.01788203 0.018972304 0.014777146
000350 65 3e af 3b 3e 5b b4 bb d0 d6 aa 3b b8 2b 03 3d
       0.005348014 -0.005504041 0.005213596 0.032024115
000360 90 91 e8 3b ed 3b f5 3c 08 f1 b1 bd 55 87 69 bc
       0.0070974305 0.029935801 -0.08688551 -0.014253457
000370 5e ba a1 3b 1a d0 16 bb 4e ef 16 3c f0 45 c3 b9
       0.004935547 -0.0023012222 0.009212328 -0.00037245406
000380 0a 4b 1b 3c 9c f7 9b bc 2b 3d 02 3d e6 45 ca 3b
       0.00947834 -0.019038968 0.031796616 0.0061728833
000390 14 7d 0b bc 94 8f fe bb c4 98 18 3d 15 28 d8 bc
       -0.008513708 -0.0077685807 0.037255064 -0.0263863
0003a0 14 2e 63 bc 24 19 ba bc 34 60 96 bc 22 3e 1e 3d
       -0.013865966 -0.022717066 -0.01835642 0.038633473
0003b0 26 f4 27 3a ea 45 43 3c ea 8d 73 3b ff 90 45 3d
       0.00064069254 0.011918524 0.0037163445 0.048233982
0003c0 89 b3 60 bc 10 66 cf bc d5 88 e7 bc 16 ca e9 bb
       -0.0137146795 -0.025317222 -0.028263489 -0.007134686
0003d0 87 ed ee 3c ba 61 21 bc 4d e3 f1 3c 50 f6 85 bd
       0.029165996 -0.00984996 0.02952733 -0.06541121
0003e0 d5 7a e7 bb 44 24 07 bd aa ec 5e b9 d3 92 96 3c
       -0.0070642033 -0.03299357 -0.00021259734 0.018380558
0003f0 16 a5 42 bc 53 00 44 bd ab a4 00 bc c1 ef 77 3b
       -0.01188018 -0.04785187 -0.00785176 0.0037832113

conv5.bias f4 [16]
000000 71 64 39 bc c8 b5 29 3d f6 1f 8b 3d 61 98 7b 3d
       -0.011315451 0.041433126 0.067932054 0.061424617
000010 c9 5e b5 3b 4f 55 e7 3b 35 92 12 bc ef b4 25 3d
       0.005534981 0.00705973 -0.008945991 0.040455755
000020 19 4e 3c 3c c5 c4 1d bc 00 36 2c 3d 2b cd 65 3b
       0.011493229 -0.009629433 0.042043686 0.0035064917
000030 f9 bb db 3c 49 b3 89 3b 24 f3 18 bd 40 83 d8 bc
       0.02682303 0.0042022807 -0.037341252 -0.026429772

classifier.1.weight f4 [10, 16]
000000 25 d0 af 3d f1 36 96 bd 45 ef 1b 3e c0 c5 69 be
       0.08584622 -0.07334698 0.15227993 -0.22829342
000010 b6 bb bf bd 06 e7 78 bb 17 79 59 3e 56 a7 66 3e
       -0.09361975 -0.0037979498 0.21237598 0.22524771
000020 cc a2 8b bd 0c 86 8c 3d 4a 86 4e be ad 61 1c 3e
       -0.068181604 0.06861505 -0.20168415 0.15271635
000030 f7 fb 2b be 36 58 74 be 3a e4 22 be 90 b8 c7 bd
       -0.16795336 -0.23861775 -0.15907374 -0.097519994
000040 8a 53 a4 bd 7d 26 5e 3d 62 f5 63 be d0 cb 5f be
       -0.08023746 0.054235924 -0.22261575 -0.21855092
000050 b2 40 22 be 78 ff 77 bd 1c cb 8f 3e 89 3b 56 be
       -0.15844992 -0.06054637 0.28084648 -0.20921148
000060 8a e5 65 bd 65 ea 39 be 6d 63 5d be 18 ba 0d be
       -0.05612711 -0.1815582 -0.21619959 -0.1384052
000070 eb ea 2a be 90 1d 39 bd 46 43 82 3e 75 f8 3e 3e
       -0.16691177 -0.04519421 0.2544195 0.18649466
000080 c7 2a e3 3d c5 60 f9 3d 0d 19 40 be 0d 95 42 be
       0.110921435 0.121766604 -0.18759556 -0.19002171
000090 da d3 5d 3e f0 23 cb bd 9e ba 8f 3c 46 27 94 bd
       0.21662846 -0.09918964 0.01754504 -0.07234053
0000a0 d0 c8 0d 3e 22 81 ff bc c9 4c 38 be fb 3e 05 3e
       0.13846135 -0.031189505 -0.17998041 0.13012306
0000b0 b4 5f 5e 3e 07 3c 3b 3e fb e0 53 be f7 97 2d be
       0.21716195 0.18284617 -0.20691292 -0.16952501
0000c0 15 ea 5e be 70 9b 55 be b2 08 c7 bd 04 9f 25 bd
       -0.21768983 -0.20860076 -0.097184554 -0.040434852
0000d0 3b ae f1 3c 20 9d 6e 3e 49 57 47 3e 5d df 7e bd
       0.029502025 0.23302126 0.1946689 -0.062224735
0000e0 06 03 83 3e 72 54 f1 bd 6f 13 87 3d 4a 84 4a bd
       0.25588244 -0.11783685 0.065955035 -0.049442567
0000f0 36 7b 8f bd 02 2f 78 3e ba 23 12 3d 8b cb 27 bd
       -0.070059225 0.24236682 0.035678603 -0.040965598
000100 87 35 2b be e1 2a 93 3d 70 f0 06 be bc c4 74 3e
       -0.16719638 0.07185913 -0.13177657 0.23903173
000110 cd d1 83 bd 15 55 71 3e b5 96 e4 3d 41 f9 4d be
       -0.06436501 0.23567612 0.111615576 -0.20114614
000120 fd ca 8f bd 39 69 d9 3d 57 b0 ac 3d 76 1f 4b 3e
       -0.07021139 0.10615773 0.08432072 0.1983622
000130 d2 9a 02 3e 4d e4 af bd 0b 82 2c bd 49 bf 13 3e
       0.12754372 -0.08588467 -0.042116206 0.14428438
000140 5c a3 1f 3e 58 88 15 be c5 0f 27 bc 68 60 f3 bc
       0.1558966 -0.14602792 -0.010196631 -0.029709056
000150 cb 71 90 3e 67 b7 52 3d 06 ec f9 bd ad 2c 70 be
       0.28211817 0.051444437 -0.12203221 -0.23454542
000160 0b 3d 6a 3e d5 1f 27 3e e9 da 61 3e fc 22 51 3d
       0.22874849 0.16320737 0.22056164 0.051058754
000170 37 22 9e b9 23 e9 5b 3e ba b9 c1 3c 0d d4 7c 3c
       -0.000301616 0.21475653 0.023648132 0.015431416
000180 19 19 6d be 59 d2 65 3e 8d d9 a9 bd f9 6c 89 3e
       -0.23154105 0.22443523 -0.08293448 0.26840952
000190 bb 81 75 3d f7 13 c3 bd 3f 34 46 be f8 48 8c 3d
       0.059938174 -0.09525292 -0.19355868 0.06849855
0001a0 b9 2d 19 be 49 51 5f 3e 46 68 f7 bd de 04 7c be
       -0.14958848 0.21808352 -0.120804355 -0.24611232
0001b0 d7 53 80 bd 88 42 5b be 7e 9d 52 3e c1 68 6e be
       -0.06265991 -0.21412098 0.20567891 -0.23282148
0001c0 44 0d 2f be bf 42 16 be 85 0d 5e bd a2 cb 7a be
       -0.17094904 -0.14673899 -0.054212112 -0.24491742
0001d0 b3 32 e4 3c bf 20 fb bb 30 9b 30 3e 51 fc 86 be
       0.027856207 -0.0076638157 0.172467 -0.26364377
0001e0 b6 d0 58 3e 06 44 76 3e cd 40 8d bc 9e 09 21 3e
       0.21173367 0.24049386 -0.017242813 0.15726325
0001f0 10 9f 13 be fd dc 5b 3e 32 ce 5f 3e 6a 2d 51 bd
       -0.14416146 0.21471019 0.21856001 -0.0510687
000200 b9 4b 0a be 4d 94 31 3e 29 b4 94 3e 4e 72 f1 3c
       -0.13505448 0.17341729 0.290437 0.02947345
000210 7a ed 1b 3e f7 f4 2d be 86 c4 61 3e 52 26 4b be
       0.15227309 -0.16987978 0.22047624 -0.19838837
000220 cf 3e 49 be e4 99 02 be 3a 4c 98 3e 14 6e 83 3e
       -0.19652866 -0.12754017 0.29745656 0.2566992
000230 10 22 13 be 03 29 b6 3d e4 3f e8 bc 93 e5 74 3c
       -0.14368463 0.08894541 -0.028350778 0.014947313
000240 b8 f8 d9 bd e9 ab 55 3c b1 3b 50 be df f9 31 be
       -0.106431425 0.013041475 -0.2033527 -0.17380475
000250 85 83 3d be 6d 29 83 bc 3f 82 80 3d ee d0 b5 bd
       -0.18507202 -0.016010964 0.062748425 -0.08877741
000260 91 60 05 be ef 8c c8 bd 16 8f 39 3e e1 10 30 3e
       -0.13025118 -0.09792506 0.18120989 0.17193939
000270 9e ad 27 be 91 c7 59 3e 2d f3 4b 3e d7 38 78 3e
       -0.16374823 0.21267535 0.19916983 0.24240433

classifier.1.bias f4 [10]
000000 d9 0b 85 bd 79 aa 0e 3e 06 de 8b 3c c2 bb 6a bd
       -0.064964004 0.13932218 0.017073642 -0.057307966
000010 7f 23 2d be 30 e4 f4 3d 87 bf ba 3c 3f 72 0d be
       -0.16908072 0.11957586 0.022796405 -0.13813113
000020 0b c5 4b 3e fc 9d ea bd
       0.19899385 -0.114559144
