Cifar/reek_cifar10_model_10Models_finalResult/8_model_.pt (torch, 338881 bytes, 12 tensors)

conv1.weight f4 [16, 3, 3, 3]
-0.08095898 0.08044652 -0.13236302 -0.15058847 0.09375033 0.18014614 -0.10813139 0.024660002
0.007764251 -0.17161743 -0.13090235 -0.15392719 -0.027430635 -0.0043215393 -0.08607109 0.12069943
0.1103491 -0.0032437812 -0.20758241 -0.14969619 -0.027559428 -0.06579929 0.024334174 -0.18097341
0.030072112 0.073506296 -0.02272309 -0.094138555 0.008646326 0.007999319 -0.023866044 0.1395351
-0.114256516 0.20535132 -0.10656821 0.14712435 -0.14147076 -0.018284913 0.14685288 -0.21567501
-0.09976181 -0.17042026 -0.024650544 0.22088347 0.059922587 0.1680139 0.022390943 -0.15174122
-0.095043465 -0.0011209432 -0.19670276 0.15504217 0.06100397 0.053863466 -0.17891893 0.1491652
0.05516431 -0.04223273 -0.006844232 -0.10333942 -0.09150734 0.029705938 0.1586465 -0.075610064
-0.028388029 -0.06968356 -0.06240938 0.0557992 -0.12453602 0.0677463 0.011449153 0.24264959
0.012103483 -0.0692655 -0.02047966 -0.0698262 -0.10485814 -0.19395413 0.22717474 0.18785076
0.07450928 -0.095352165 -0.06176619 0.09436878 -0.018361825 -0.10938704 0.1494444 0.13685623
-0.023526736 0.03160701 -0.18965702 0.0064352825 0.08627043 0.020875644 -0.19954593 0.11427004
0.027577575 0.08118404 0.042205166 0.032927137 -0.06464848 0.15156558 0.12807994 -0.006623699
0.07215472 -0.14542733 0.11413097 0.098923974 -0.08272691 0.16073005 -0.021749267 -0.014771825
0.15299019 0.10388128 0.00497486 0.1965544 0.102949604 -0.039719712 0.10123807 0.15017813
0.06740325 0.12416422 0.019862933 0.15946661 0.18186902 0.1327279 -0.16126217 0.022797452
0.12211457 0.19788866 0.16776206 0.02069502 0.20070831 0.12102245 -0.03051415 -0.0140598565
0.03898523 -0.21039623 0.17974177 0.00095193076 0.014162832 -0.0714178 0.1369055 0.12381691
-0.03368591 0.155543 0.009750325 -0.17569391 -0.029595487 -0.0842326 0.1920388 0.13239321
0.19109729 0.12245481 -0.09871105 0.017969646 0.20951748 -0.07203215 0.001708617 -0.06722325
0.22667703 0.22224209 -0.22029777 -0.16762824 0.09582553 -0.22966048 0.05297369 -0.100925945
0.03398092 0.114640564 -0.15318792 0.017373448 0.033152573 -0.09161502 -0.072573125 -0.07500776
0.07288305 0.009780146 -0.0971901 -0.20760974 -0.039697804 -0.051188763 0.11691266 -0.0051663253
-0.02561646 -0.12246909 0.11072404 -0.032435074 -0.10902136 -0.17202953 -0.08297842 0.06848237
0.14618054 0.06395511 0.23746464 0.07629045 -0.045724172 0.24226196 -0.12540978 0.0114520015
-0.1138854 0.09758272 -0.21875349 0.16342048 -0.19125172 -0.093200974 0.040722426 0.13009173
-0.195574 0.2503832 -0.15286073 -0.14238481 0.23330812 -0.20219684 0.012347473 -0.12114855
0.1408696 0.08190919 -0.067076825 0.13776477 0.08370521 -0.014967217 0.14091906 0.21307765
0.07855359 -0.029094858 -0.0652778 0.1716706 -0.057804927 0.19342864 0.13411677 0.09619544
-0.012826667 -0.02517293 0.10967036 -0.11404156 0.057613634 -0.12959877 -0.059032116 0.028802497
0.022963814 0.085462496 -0.15697105 -0.12910275 0.14771205 0.0109819705 0.17468975 -0.12889418
0.048795592 -0.0898993 -0.019877192 -0.042269647 0.018733442 0.11752472 -0.03878345 0.025301412
00000000: d2cd a5bd 25c1 a43d 2c8a 07be dd33 1abe
00000010: 2c00 c03d 3b78 383e fd73 ddbd c603 ca3c
00000020: 426b fe3b 7bbc 2fbe 440b 06be 179f 1dbe
00000030: 36b6 e0bc b39b 8dbb 0a46 b0bd 4331 f73d
00000040: b5fe e13d 9e95 54bb 7c90 54be f549 19be
00000050: 4fc4 e1bc c7c1 86bd 7658 c73c 1851 39be
00000060: ca59 f63c 788a 963d c625 babc b7cb c0bd
00000070: 52a9 0d3c 930f 033c b982 c3bc 4ae2 0e3e
00000080: 52ff e9bd 9e47 523e 6f40 dabd c4a7 163e
00000090: b6dd 10be 3eca 95bc 9a60 163e e9d9 5cbe
000000a0: eb4f ccbd a682 2ebe f0ef c9bc 472f 623e
000000b0: 6371 753d d60b 2c3e 366d b73c 0d62 1bbe
000000c0: 26a6 c2bd 9dec 92ba 736c 49be 60c3 1e3e
000000d0: 4ddf 793d f09f 5c3d 8636 37be c3be 183e
000000e0: f9f3 613d 3afc 2cbd 9445 e0bb 9ea3 d3bd
000000f0: 3368 bbbd de59 f33c 3a74 223e 73d9 9abd
00000100: 038e e8bc 41b6 8ebd faa0 7fbd b48d 643d
00000110: be0c ffbd 92be 8a3d 3a95 3b3c 2279 783e
00000120: b04d 463c 12db 8dbd f6c4 a7bc 0a01 8fbd
00000130: ddbf d6bd e99b 46be 7fa0 683e f35b 403e
00000140: 5298 983d ff47 c3bd 8bfe 7cbd 6b44 c13d
00000150: 8a6b 96bc 5006 e0bd f407 193e 0a24 0c3e
00000160: 24bb c0bc 5a76 013d 7335 42be 10df d23b
00000170: 8dae b03d 6603 ab3c c555 4cbe 6906 ea3d
00000180: 5eea e13c d143 a63d 53df 2c3d 9bde 063d
00000190: 6c66 84bd 0234 1b3e 6327 033e 9d0b d9bb
000001a0: dbc5 933d e7ea 14be 7fbd e93d a798 ca3d
000001b0: ba6c a9bd 6b96 243e 852b b2bc 8605 72bc
000001c0: 76a9 1c3e b5bf d43d 2704 a33b 8e45 493e
000001d0: 3ed7 d23d 23b1 22bd e855 cf3d 4cc8 193e
000001e0: b70a 8a3d d049 fe3d 97b7 a23c 374b 233e
000001f0: df3b 3a3e d3e9 073e e921 25be b9c1 ba3c
00000200: 3417 fa3d 53a3 4a3e d1c9 2b3e 9a88 a93c
00000210: 7b86 4d3e 9eda f73d d0f8 f9bc 505b 66bc
00000220: faae 1f3d 1c72 57be 3a0e 383e fe8a 793a
00000230: 390b 683c 7f43 92bd f530 0c3e b893 fd3d
00000240: 3dfa 09bd aa46 1f3e d4bf 1f3c 1be9 33be
00000250: 3c72 f2bc 2482 acbd d2a5 443e 1692 073e
00000260: 02af 433e 96c9 fa3d 0529 cabd 1435 933c
00000270: c08b 563e 9885 93bd acf3 df3a 58ac 89bd
00000280: 061e 683e 6e93 633e bd95 61be bda6 2bbe
00000290: 2d40 c43d 1e2c 6bbe f1fa 583d 43b2 cebd
000002a0: 942f 0b3d acc8 ea3d 4bdd 1cbe c352 8e3c
000002b0: feca 073d a8a0 bbbd 38a1 94bd ab9d 99bd
000002c0: b543 953d e83c 203c 9a0b c7bd a697 54be
000002d0: 2a9a 22bd 4fab 51bd e86f ef3d 474a a9bb
000002e0: 9cd9 d1bc 13d1 fabd 49c3 e23d a4da 04bd
000002f0: 9746 dfbd 8228 30be 97f0 a9bd 7c40 8c3d
00000300: 5ab0 153e e6fa 823d ee29 733e 2b3e 9c3d
00000310: 4549 3bbd 8513 783e 6c6b 00be 2da1 3b3c
00000320: c03c e9bd 73d9 c73d ea00 60be b357 273e
00000330: 7ed7 43be 27e0 bebd 8fcc 263d c436 053e
00000340: 8d44 48be 3a32 803e 8687 1cbe 53cd 11be
00000350: 53e8 6e3e b00c 4fbe 0e4d 4a3c bb1c f8bd
00000360: 1f40 103e 01c0 a73d 935f 89bd 3512 0d3e
00000370: a36d ab3d 0f39 75bc 164d 103e 0731 5a3e
00000380: b4e0 a03d 5758 eebc 5eb0 85bd 6bca 2f3e
00000390: dcc4 6cbd 2812 463e e855 093e 1d02 c53d
000003a0: f126 52bc 7637 cebc db9a e03d 9f8e e9bd
000003b0: 46fc 6b3d 8ab5 04be a9cb 71bd 37f3 eb3c
000003c0: 9c1e bc3c f606 af3d 05bd 20be 8333 04be
000003d0: d441 173e b9ed 333c dfe1 323e d6fc 03be
000003e0: e3dd 473d 201d b8bd 7ed5 a2bc f022 2dbd
000003f0: e076 993c cdb0 f03d 65db 1ebd e844 cf3c

conv1.bias f4 [16]
-0.11729098 -0.14629973 0.03582588 0.21320957 0.0023432972 -0.05127117 0.09031782 0.028151326
-0.050939254 0.04240115 -0.07636567 0.095890194 0.17682259 0.02203509 0.14838752 0.057150707
00000000: 4136 f0bd 99cf 15be 28be 123d 9c53 5a3e
00000010: 0192 193b b801 52bd 8df8 b83d 9c9d e63c
00000020: aea5 50bd d4ac 2d3d 9b65 9cbd 1462 c43d
00000030: fb10 353e ef82 b43c e6f2 173e dc16 6a3d

conv2.weight f4 [128, 16, 3, 3]
0.008773559 0.10206961 0.021214645 -0.04567893 0.08391168 0.025798926 0.109028906 0.096054114
-0.008256143 0.15063767 0.024165059 0.060143907 0.10380176 0.039831355 0.13037732 0.020919692
0.044109356 -0.016059771 -0.013288479 0.023353022 0.018132316 0.11605053 0.0044094366 -0.002430097
-0.042391814 -0.03460045 0.019029442 -0.08555478 -0.09738218 -0.01141252 0.05142811 -0.034172755
0.024249168 0.063510105 -0.013728113 -0.08878584 0.088706866 -0.0872073 -0.100576706 0.07943631
0.073330216 -0.061925344 0.030961514 0.07479726 0.056171954 -0.03000862 -0.06374408 -0.0865619
0.056396853 0.021568744 0.02306892 0.03266595 0.057242528 -0.07131989 0.028208679 -0.04570671
0.014217653 -0.0067096273 0.107982755 0.00788922 -0.027365768 0.024947569 0.08675329 0.070486814
0.13511065 0.114773706 0.004090352 0.06169982 0.038914174 -0.08400298 0.044640053 -0.06927543
-0.00424618 -0.07003832 -0.0771936 0.04421104 -0.03135086 0.056417357 -0.025178107 -0.06617174
-0.087467484 -0.17969047 -0.10448137 -0.017017556 -0.12901603 -0.1097336 -0.08639792 -0.1749119
-0.13105367 -0.121580146 0.034620237 0.024757015 -0.026217962 -0.04465131 -0.025694111 0.093953244
-0.021599518 0.07008181 0.07900421 -0.045536436 0.053474087 0.026305372 0.10759003 0.06500577
0.054126427 -0.0043246276 -0.0797023 -0.010015236 0.033258338 -0.057180494 -0.08677341 -0.04112188
0.07683739 -0.073116384 0.06469039 0.023165824 -0.01959717 0.08586393 0.050686285 0.05215163
-0.03005078 0.04228662 0.099292204 0.040115856 0.0470799 -0.058697682 -0.06699024 -0.09606441
0.020984132 -0.051529206 0.010181679 0.01375104 -0.008414285 0.04722997 0.0058389213 0.055526234
-0.004424543 -0.10551461 -0.01654882 0.020129472 -0.011918896 0.06921429 -0.006309998 -0.06294723
0.023440663 0.015329694 -0.028534908 0.04963089 0.038158994 0.0308609 -0.011799611 -0.014049647
0.058117837 0.041512236 0.08353989 0.09923059 0.056847658 0.013092757 0.048526153 0.040195327
0.048477486 0.05754846 -0.027365165 -0.028471474 0.028719814 0.08353406 0.0096388785 -0.042638272
0.07241465 -0.005213006 0.07090302 0.010074952 0.037504304 0.07439061 0.055541266 0.046889547
0.09168171 0.056324806 0.096754104 -0.032573283 -0.08316174 -0.07293561 0.061364714 -0.033716734
-0.01711197 0.06554543 0.08662907 0.08564056 -0.011176643 -0.009539313 0.042279173 0.07646182
-0.079644576 0.03238527 0.02344683 0.016776983 0.033113126 0.08471903 -0.058794674 -0.012934518
0.019487731 0.0064023267 -0.07975886 0.057763997 -0.06201991 -0.06671976 0.009350051 0.0607515
0.072030425 -0.022635778 0.060782447 -0.01721809 0.0026080273 0.029065656 -0.0058974363 -0.01446358
-0.048466377 -0.071096815 0.025389738 -0.0122883525 -0.027245874 0.060393922 0.0019285242 0.08419563
-0.07145128 0.027040794 -0.035046246 -0.08390824 -0.07667531 -0.024448976 -0.07732027 -0.099883154
-0.018306423 0.0085735405 0.10649851 0.076022856 0.05643164 -0.004316027 0.10392769 -0.09950327
0.10444514 0.068050064 -0.03699122 0.037338566 0.038257178 -0.030747056 -0.07403245 -0.059720512
0.007029267 -0.08625005 -0.07456636 0.019023681 0.024002213 0.0329455 0.04420041 -0.02596346
00000000: f9be 0f3c df09 d13d 56ca ad3c d419 3bbd
00000010: e3d9 ab3d 4558 d33c 8c4a df3d 05b8 c43d
00000020: c644 07bc c340 1a3e cdf5 c53c 7559 763d
00000030: 0496 d43d 3426 233d a281 053e c65f ab3c
00000040: 03ac 343d c88f 83bc ecb7 59bc d64e bf3c
00000050: 398a 943c e6ab ed3d 097d 903b 4342 1fbb
00000060: 0aa3 2dbd 34b9 0dbd a2e3 9b3c 5837 afbd
00000070: 4f70 c7bd 94fb 3abc 48a6 523d bbf8 0bbd
00000080: 31a6 c63c 9611 823d e1eb 60bc 5ad5 b5bd
00000090: f2ab b53d be99 b2bd 29fb cdbd 81af a23d
000000a0: 272e 963d 6ea5 7dbd 00a3 fd3c 4e2f 993d
000000b0: 9014 663d a3d4 f5bc 428c 82bd 5e47 b1bd
000000c0: 6300 673d efb0 b03c 08fb bc3c bbcc 053d
000000d0: 2477 6a3d 2a10 92bd e315 e73c f636 3bbd
000000e0: 29f1 683c 6fdc dbbb 1026 dd3d c941 013c
000000f0: 2d2e e0bc d85e cc3c b5ab b13d 645b 903d
00000100: 725a 0a3e 7a0e eb3d 5c08 863b f3b8 7c3d
00000110: 7864 1f3d c109 acbd 7dd8 363d 47e0 8dbd
00000120: 8a23 8bbb 4070 8fbd ae17 9ebd a316 353d
00000130: c269 00bd e315 673d 5142 cebc 0d85 87bd
00000140: 2722 b3bd c700 38be 54fa d5bd 6768 8bbc
00000150: c71c 04be 02bc e0bd 65f1 b0bd 1b1c 33be
00000160: ef32 06be 03ff f8bd f3cd 0d3d 39cf ca3c
00000170: 0dc7 d6bc 4be4 36bd 757c d2bc 8f6a c03d
00000180: 79f1 b0bc 0d87 8f3d f6cc a13d 6a84 3abd
00000190: a507 5b3d 5d7e d73c 2958 dc3d bf21 853d
000001a0: acb3 5d3d 9bb5 8dbb f63a a3bd f216 24bc
000001b0: e539 083d 1836 6abd 42b6 b1bd 6b6f 28bd
000001c0: ec5c 9d3d 0bbe 95bd 657c 843d 41c6 bd3c
000001d0: 3f8a a0bc 6ed9 af3d 6c9c 4f3d f39c 553d
000001e0: 0e2d f6bc bc34 2d3d b659 cb3d 8650 243d
000001f0: dad6 403d fb6c 70bd 2e32 89bd 6bbd c4bd
00000200: eae6 ab3c 4a10 53bd 0fd1 263c 0b4c 613c
00000210: 12dc 09bc 3774 413d 6c54 bf3b 7a6f 633d
00000220: c2fb 90bb 0b18 d8bd 6491 87bc 90e6 a43c
00000230: 7947 43bc 39c0 8d3d 1ac4 cebb 7aea 80bd
00000240: a206 c03c 6629 7b3c 0ac2 e9bc c349 4b3d
00000250: 9b4c 1c3d 00d0 fc3c 2853 41bc 7e30 66bc
00000260: f80c 6e3d bc08 2a3d f616 ab3d 6839 cb3d
00000270: 17d9 683d 0183 563c 5cc3 463d dba3 243d
00000280: 5490 463d efb7 6b3d e92c e0bc 023d e9bc
00000290: d145 eb3c e813 ab3d 63ec 1d3c 78a5 2ebd
000002a0: 224e 943d ddd1 aabb 9a35 913d 6911 253c
000002b0: 1d9e 193d 1b5a 983d 3d7f 633d 410f 403d
000002c0: 9fc3 bb3d d7b4 663d 0427 c63d 906b 05bd
000002d0: b450 aabd 445f 95bd 9159 7b3d 8f1a 0abd
000002e0: 672e 8cbc af3c 863d 956a b13d 5164 af3d
000002f0: 3d1e 37bc c74a 1cbc ed2c 2d3d 0498 9c3d
00000300: b21c a3bd 6ba6 043d 9113 c03c e26f 893c
00000310: a1a1 073d 2c81 ad3d afd2 70bd 4deb 53bc
00000320: bca4 9f3c 9cca d13b 9d58 a3bd f199 6c3d
00000330: 9708 7ebd 5fa4 88bd f530 193c 91d6 783d
00000340: b084 933d ab6e b9bc 04f7 783d f40c 8dbc
00000350: 70eb 2a3b 191b ee3c 483f c1bb a7f8 6cbc
00000360: ae84 46bd 359b 91bd 24fe cf3c 1655 49bc
00000370: bd32 dfbc 9e5f 773d 89c6 fc3a c26e ac3d
00000380: 0c55 92bd a884 dd3c a78c 0fbd 15d8 abbd
00000390: f207 9dbd 3849 c8bc 175a 9ebd 8a8f ccbd
000003a0: 5af7 95bc 0978 0c3c e41b da3d dfb1 9b3d
000003b0: dd24 673d 756d 8dbb 0ad8 d43d 5fc8 cbbd
000003c0: 55e7 d53d d55d 8b3d 1b84 17bd 53f0 183d
000003d0: 8fb3 1c3d 40e1 fbbc 539e 97bd 7f9d 74bd
000003e0: c455 e63b dea3 b0bd 3fb6 98bd 8dd7 9b3c
000003f0: 4aa0 c43c dcf1 063d 7d0b 353d 52b1 d4bc

conv2.bias f4 [128]
-0.0056083165 0.08682118 0.05142956 0.03456539 -0.062405918 0.018017996 0.1360878 -0.07710736
-0.081248 -0.06591473 0.003562744 0.06743207 0.0005889803 -0.05046024 0.040943064 0.052970372
0.10197487 -0.05175388 0.14657657 -0.085983306 -0.103742234 -0.011472839 0.103099085 -0.072822876
0.12270022 0.16917202 0.080132775 -0.029353902 -0.03685892 0.0044846754 0.0421553 -0.021857928
0.05946086 0.043396506 -0.06908787 0.017056173 0.06576872 -0.0748426 -0.11150778 0.050936755
-0.027591104 -0.031436034 -0.017903429 -0.08039442 -0.03520308 -0.05118399 0.0335437 -0.04392805
-0.035623662 0.11907584 0.012762557 -0.13054493 0.1139466 0.05131162 -0.07359895 -0.07560468
0.029026745 -0.017222248 -0.073600166 0.050071545 0.01115139 -0.038034175 0.0023734164 -0.03050203
-0.035069156 -0.025646275 0.018750452 0.0002554398 -0.13131519 -0.06410799 -0.021658486 0.01207956
-0.05682027 -0.028484084 -0.02995888 0.054263625 -0.10314244 0.13629365 -0.0080845095 -0.06749522
-0.020315235 0.12595402 0.03946244 -0.05676899 -0.027285036 0.0007608914 -0.009360884 0.012487181
0.03816119 0.16722654 0.0072173253 0.045964304 -0.090727314 0.019581908 0.0016585623 0.06956064
0.061722152 -0.07890802 -0.07784148 0.039462678 -0.041420486 -0.055498086 -0.042576533 -0.02489169
0.081686184 0.046368897 0.04347351 -0.118433885 -0.022756882 -0.0924547 -0.026523009 -0.026700474
-0.060446966 0.1332159 0.041043166 0.052883357 0.09347252 -0.029908871 0.058245666 0.00026716187
-0.047937736 -0.005591986 0.16406797 0.01706229 -0.09922329 -0.073619984 0.10161561 -0.014336991
00000000: f8c5 b7bb 4ecf b13d cda7 523d 7094 0d3d
00000010: 599d 7fbd 7a9a 933c 9a5a 0b3e 77ea 9dbd
00000020: 5a65 a6bd 4dfe 86bd ed7c 693b d319 8a3d
00000030: cd65 1a3a 66af 4ebd eab3 273d 76f7 583d
00000040: 33d8 d03d e0fb 53bd 2b18 163e 0418 b0bd
00000050: cf76 d4bd 93f8 3bbc 9d25 d33d 2924 95bd
00000060: 414a fb3d 6e3b 2d3e a71c a43d 9877 f0bc
00000070: 61f9 16bd 2ff4 923b 09ab 2c3d 660f b3bc
00000080: 3b8d 733d 89c0 313d f17d 8dbd 63b9 8b3c
00000090: c0b1 863d 1447 99bd 315e e4bd 0fa3 503d
000000a0: bd06 e2bc 12c3 00bd 36aa 92bc d4a5 a4bd
000000b0: 1b31 10bd 4ea6 51bd 1e65 093d e6ed 33bd
000000c0: 1eea 11bd 09de f33d 0b1a 513c 92ad 05be
000000d0: d65c e93d 222c 523d 0cbb 96bd a0d6 9abd
000000e0: 7fc9 ed3c ac15 8dbc afbb 96bd d217 4d3d
000000f0: 52b4 363c b9c9 1bbd 528b 1b3b 65df f9bc
00000100: ada4 0fbd 2318 d2bc 8c9a 993c 8dec 8539
00000110: 7d77 06be 0d4b 83bd 236d b1bc 59e9 453c
00000120: 5fbc 68bd 7457 e9bc 536c f5bc 8943 5e3d
00000130: 583c d3bd 9090 0b3e e474 04bc ef3a 8abd
00000140: 236c a6bc 17fa 003e 5ea3 213d 9a86 68bd
00000150: de84 dfbc 8f76 473a 655e 19bc 0997 4c3c
00000160: e84e 1c3d 6f3d 2b3e 507f ec3b 1145 3c3d
00000170: 3ecf b9bd 3d6a a03c 1e64 d93a cf75 8e3d
00000180: 5ed0 7c3d 879a a1bd 5b6b 9fbd 9ea3 213d
00000190: 87a8 29bd f651 63bd bb64 2ebd a8e9 cbbc
000001a0: 164b a73d 50ed 3d3d 4711 323d 778d f2bd
000001b0: a46c babc e458 bdbd c846 d9bc f4ba dabc
000001c0: 3d97 77bd c069 083e e11c 283d 389c 583d
000001d0: 856e bf3d 7303 f5bc 0293 6e3d dc11 8c39
000001e0: 5c5a 44bd fa3c b7bb 6f01 283e 37c6 8b3c
000001f0: 9535 cbbd 13c6 96bd d81b d03d b3e5 6abc

conv3.weight f4 [20, 128, 3, 3]
0.023224482 0.01590671 0.050041243 0.022420833 0.009732964 0.06849243 0.026095433 0.036674295
0.029890658 -0.0006027154 0.0092056105 0.009815391 0.041177448 0.021706244 0.043707952 0.05592048
0.0070123654 -0.00512306 -0.0106928125 0.021921305 -0.018648379 -0.018663276 -0.014722324 0.0077091726
-0.011968865 0.037326198 0.0017035349 0.011580795 0.05306654 0.0035414174 0.04704219 0.025655475
0.042995438 0.035078075 0.028794063 0.03317756 0.02023784 0.04729161 0.005978223 0.04601003
0.062660694 0.04201338 0.055117305 0.052395124 0.04736676 -0.037057173 -0.04898673 -0.022481482
-0.03994771 -0.048097987 -0.017346641 -0.06597214 -0.03950739 -0.06746038 -0.013039065 -0.018173344
0.041087575 -0.019296609 -0.006910424 0.023562854 0.0052940403 0.0004144285 -0.011432218 -0.0041768523
0.05694735 0.036026493 0.009441196 0.045479327 0.048575595 0.020216655 0.06513468 0.03396577
0.04627777 0.055288643 0.030413738 0.031275008 0.042176116 -0.0063117114 0.050238762 0.04469523
0.03298943 0.0102376705 0.023794135 0.03601801 0.017376332 0.0143207 -0.018715614 -0.017713599
-0.004542038 -0.006562257 0.00021011525 0.028207457 0.013714561 0.049909085 0.015350717 0.012781736
0.048683494 0.035057653 0.04533337 -0.0037623418 -0.0032632642 0.021090975 -0.008271744 0.009938917
0.05288615 0.027480239 0.04345159 0.03544681 0.016701058 0.05694096 0.0027736123 0.016762745
0.034082405 0.01574082 -0.0076479823 -0.016048225 0.019201336 0.023900123 0.03818576 0.040107694
0.021500401 0.039709695 0.03825405 0.025931884 0.013051769 0.037837192 0.025974998 -0.006959209
-0.01991593 -0.023716407 0.013605928 -0.0048334207 -0.018744173 0.00027584741 -0.020531202 0.012095985
0.0694183 0.05114627 0.02021451 0.059186682 0.03529225 0.05809954 0.04004416 0.043951474
0.044246808 0.058465283 0.04885343 -0.0004912242 0.052617863 0.022871276 0.032726057 0.051522527
-0.0041828966 8.6920474e-05 -0.011540518 -0.015427617 0.0010239411 0.013377157 0.021014677 -0.029857136
0.020169105 0.04838733 0.01682834 0.028189762 0.037316855 0.024933696 0.045747418 0.04371401
-0.0090222005 0.007048706 0.0118458 -0.0130712865 0.028898193 0.017316 0.021435509 -0.025023269
0.035337735 0.0016347661 0.03203285 0.028125672 0.0061525702 0.058318593 0.04870433 0.054316595
0.036296885 0.026347715 0.053179108 0.063391306 0.052453216 0.05468035 0.019819494 0.0130724935
0.047159374 0.065972164 -0.013918647 0.024968779 0.04565233 0.037148938 0.0052510947 0.05276395
-0.0028505775 0.031926252 0.028856954 0.015976315 -0.0032166578 -0.0022520458 0.01364146 0.042905804
0.04395451 0.005441702 -0.012008955 0.037283517 0.041210968 0.030254418 -0.0040775095 0.024056168
0.014707012 0.022324331 0.038887072 0.04737889 0.034254387 0.043871928 0.020876616 0.055146933
0.038600516 -0.010270277 -0.0041123005 0.009337619 0.009135795 0.011789563 0.012673828 0.0047704717
-0.0035083864 0.027199985 -0.038658973 0.006191509 -0.03290021 0.008521726 -0.02509401 -0.029538095
-0.0016495186 -0.003029822 -0.011856447 -0.016281249 0.04442664 -0.026515994 0.005026917 0.00071455433
-0.020316206 0.01136596 0.0004519644 0.009579482 0.029256037 0.03960466 -0.015809814 0.014279933
00000000: 4541 be3c ca4e 823c 0cf8 4c3d e5ab b73c
00000010: 0377 1f3c c245 8c3d 17c6 d53c c937 163d
00000020: 41dd f43c 8cff 1dba 21d3 163c bcd0 203c
00000030: afa9 283d 4bd1 b13c 1c07 333d e00c 653d
00000040: fcc7 e53b 58df a7bb e830 2fbc 4f94 b33c
00000050: 7cc4 98bc bae3 98bc e735 71bc 3a9d fc3b
00000060: 0f19 44bc 5be3 183d 2549 df3a 60bd 3d3c
00000070: 4d5c 593d 2017 683b 50af 403d 6e2b d23c
00000080: fc1b 303d 07ae 0f3d 87e1 eb3c 31e5 073d
00000090: d4c9 a53c d9b4 413d f8e4 c33b 0375 3c3d
000000a0: 4054 803d 3916 2c3d afc2 613d 459c 563d
000000b0: a603 423d 43c9 17bd 4fa6 48bd 162b b8bc
000000c0: 36a0 23bd 6502 45bd 8b1a 8ebc 671c 87bd
000000d0: 80d2 21bd ab28 8abd cda1 55bc 44e0 94bc
000000e0: 724b 283d ec13 9ebc d770 e2bb e306 c13c
000000f0: a179 ad3b a747 d939 334e 3bbc fadd 88bb
00000100: a041 693d 8490 133d 3faf 1a3c 8848 3a3d
00000110: 34f7 463d 669d a53c 5565 853d b11f 0b3d
00000120: c28d 3d3d 5876 623d 3b26 f93c 391a 003d
00000130: ddc0 2c3d 79d2 cebb 29c7 4d3d 5812 373d
00000140: ed1f 073d e7bb 273c ebeb c23c 9f87 133d
00000150: cf58 8e3c 5fa1 6a3c 7d51 99bc 1c1c 91bc
00000160: 60d5 94bb 3408 d7bb 6252 5c39 5313 e73c
00000170: 0ab3 603c 786d 4c3d 9381 7b3c 7d6a 513c
00000180: 5868 473d 9d98 0f3d 7caf 393d 9f91 76bb
00000190: 7ddc 55bb fbc6 ac3c 3586 07bc d7d6 223c
000001a0: 269f 583d 3d1e e13c 4bfa 313d ad30 113d
000001b0: a8d0 883c ed3a 693d 7ec5 353b 0652 893c
000001c0: fe99 0b3d e4f2 803c ed9b fabb 9177 83bc
000001d0: 1f4c 9d3c 31ca c33c ac68 1c3d f747 243d
000001e0: 9c21 b03c a2a6 223d 47b0 1c3d 1a6f d43c
000001f0: 16d7 553c 2cfb 1a3d 85c9 d43c 140a e4bb
00000200: bc26 a3bc e948 c2bc 66eb 5e3c ac61 9ebb
00000210: 618d 99bc 9d9f 9039 0d31 a8bc 3d2e 463c
00000220: 2f2b 8e3d c07e 513d e698 a53c bc6d 723d
00000230: 9b8e 103d c9f9 6d3d 5805 243d 7606 343d
00000240: 243c 353d 4b79 6f3d 891a 483d 7fc5 00ba
00000250: d485 573d 8b5c bb3c c20b 063d 4909 533d
00000260: ae10 89bb 1349 b638 7114 3dbc 1ec4 7cbc
00000270: c335 863a dd2b 5b3c f926 ac3c f496 f4bc
00000280: ae39 a53c cb31 463d 96db 893c 37ee e63c
00000290: 8fd9 183d c041 cc3c a561 3b3d 760d 333d
000002a0: dad1 13bc d5f8 e63b e314 423c f328 56bc
000002b0: e7bb ec3c 49da 8d3c 8599 af3c 99fd ccbc
000002c0: 4dbe 103d a645 d63a e134 033d cf67 e63c
000002d0: 809b c93b 7adf 6e3d 317e 473d 147b 5e3d
000002e0: 0bac 143d 2ad7 d73c 56d2 593d 4dd3 813d
000002f0: 2fd9 563d 81f8 5f3d 7e5c a23c 032e 563c
00000300: 302a 413d 6a1c 873d 090b 64bc 538b cc3c
00000310: f0fd 3a3d 7c29 183d 6011 ac3b 031f 583d
00000320: c1d0 3abb 1ac5 023d 6b65 ec3c c3e0 823c
00000330: 90ce 52bb 0f97 13bb 6e80 5f3c ffbd 2f3d
00000340: a509 343d 4e50 b23b 35c1 44bc 9ab6 183d
00000350: d5cc 283d 1dd8 f73c a19c 85bb 7111 c53c
00000360: aef5 703c 84e1 b63c 0d48 1f3d 5e10 423d
00000370: 544e 0c3d 0db3 333d 7005 ab3c c0e1 613d
00000380: 931b 1e3d aa44 28bc 7ac0 86bb d0fc 183c
00000390: 4dae 153c 0329 413c e3a5 4f3c 9e51 9c3b
000003a0: f5ec 65bb 81d2 de3c df58 1ebd 24e2 ca3b
000003b0: 5fc2 06bd b69e 0b3c f491 cdbc e0f9 f1bc
000003c0: a934 d8ba fa8f 46bb 8b41 42bc 4160 85bc
000003d0: b5f8 353d 1238 d9bc d6b8 a43b ee50 3b3a
000003e0: 2c6e a6bc 4b38 3a3c a3f5 ec39 42f3 1c3c
000003f0: 5baa ef3c 7f38 223d 9583 81bc 61f6 693c

conv3.bias f4 [20]
-0.038568318 -0.019621992 0.0042687245 0.08313958 0.028891323 0.03255984 -0.008124178 0.010518722
-0.030083671 -0.05549932 -0.019689435 -0.036247503 0.050140146 0.04812825 -0.015353046 0.022804637
0.0032460478 0.024827346 0.053678524 -0.006043188
00000000: d0f9 1dbd 4dbe a0bc a8e0 8b3b 1645 aa3d
00000010: 7fad ec3c 775d 053d 461b 05bc b856 2c3c
00000020: 0872 f6bc 4153 63bd bd4b a1bc 4378 14bd
00000030: c15f 4d3d 2122 453d 588b 7bbc cad0 ba3c
00000040: a5bb 543b b862 cb3c 03de 5b3d ef05 c6bb

conv4.weight f4 [128, 20, 3, 3]
0.07184018 0.005904838 -0.06625583 0.06011924 -0.061240956 0.058644667 0.0102396 -0.06543845
-0.031633355 -0.009490348 -0.041032974 -0.06378383 0.0067867613 -0.011381504 -0.03269673 0.0018268999
0.08054666 0.03539448 0.015902603 -0.017845612 -0.03345149 -0.0021443628 0.04561273 0.044898618
-0.06567393 0.038944077 -0.02121556 0.03422686 -0.021265494 0.080162145 0.008328679 0.006688904
0.080504216 -0.027242927 0.001986824 -0.028603634 -0.05859176 -0.04277032 -0.06734982 -0.026789246
0.0039359285 0.05796547 -0.025145493 -0.0175979 0.049196746 0.019175721 0.0441773 0.076428175
0.04039711 -0.00026420076 -0.024989327 0.012982042 0.046371378 -0.036458075 0.09032943 -0.04539445
0.032374647 0.07133612 -0.075254194 0.0070204665 0.04494905 0.019799478 0.07643632 0.07496952
-0.03755115 -0.05877139 0.028178103 0.075779155 0.07935986 0.011168843 0.015015748 0.026677366
-0.06595481 0.047399163 -0.03460037 0.06472535 0.052923996 0.057342693 0.06971854 -0.0027990988
0.03174932 0.051779475 0.028207073 -0.0801945 0.010488967 -0.022435846 0.026112853 0.03763679
-0.07432968 -0.016457234 0.06065649 -0.021375746 -0.07752835 0.009472892 -0.020800993 -0.0722328
0.033204183 -0.016007 0.026639624 0.045861226 0.047408734 -0.00081890996 0.01020961 0.041094154
0.030428078 -0.00048013625 -0.00067518564 0.029496646 0.0063466574 0.041368634 0.12407537 -0.0009236221
0.038645923 -0.019503135 0.076172 0.08533379 0.05001879 0.03468556 -0.01550483 -0.016425706
-0.065364845 0.090077944 -0.00041673513 -0.07635962 0.021166345 0.02410767 0.05667087 0.05004729
0.054912902 -0.013992361 -0.068126164 -0.024120653 0.046024308 -0.019382713 0.066199884 0.06043864
0.008723239 -0.048595913 0.019742662 -0.005841755 0.061830528 -0.004973295 0.020899303 -0.06534112
0.03319694 0.0690611 -0.048741702 0.072197095 -0.08429666 -0.05469685 -0.027843269 -0.04259367
0.047668584 -0.0149839325 0.005026466 -0.06540783 0.03801396 0.0021585026 -0.025631981 0.044711288
-0.04023831 -0.019407777 0.06072639 0.019632475 0.061493788 0.05681305 -0.05230581 -0.033685945
-0.054216195 0.059938315 -0.060237207 0.023087882 -0.049890857 -0.081525356 -0.042396758 -0.04179353
0.06842967 -0.07653243 0.044744313 0.042848706 0.0022627222 0.033948112 0.0354641 -0.0107714655
-0.041534517 0.0824257 -0.044532347 -0.04991774 -0.065774076 0.08590641 0.05735017 0.03715393
0.03912799 -0.009570767 0.055089947 -0.080830716 -0.026060523 0.034951445 -0.004044325 -0.06261143
0.029543329 -0.05589935 -0.08474807 0.06455505 -0.07079875 -0.033116426 0.01931615 -0.008743355
0.021231126 -0.07920853 -0.05519954 -0.048473604 0.04507093 -0.03473119 -0.0028658458 -0.05000646
-0.0689276 -0.025557026 -0.0029240549 0.073858105 -0.007847315 0.04472237 0.0040133405 -0.030483847
0.0817129 -0.043735467 -0.035267383 -0.033601936 0.07997158 -0.04282766 -0.03689604 0.07008884
0.012233013 -0.025068812 0.05765389 -0.051023718 0.014281963 0.07700735 0.06911922 0.0037407
-0.043559387 0.06427298 -0.043156587 0.035263807 -0.06013367 0.061887804 0.039553422 -0.009098889
-0.049077243 -0.050330915 0.03265196 -0.04697484 0.011089434 0.0396835 0.04663554 -0.003477866
00000000: f220 933d 5f7d c13b 23b1 87bd 983f 763d
00000010: ccd7 7abd 6435 703d ffc3 273c 9804 86bd
00000020: fa91 01bd 687d 1bbc 3112 28bd 19a1 82bd
00000030: 7b63 de3b 7d79 3abc 02ed 05bd 9774 ef3a
00000040: a6f5 a43d cdf9 103d 2d46 823c f630 92bc
00000050: 6e04 09bd 7088 0cbb 6ad4 3a3d 9de7 373d
00000060: 0e80 86bd d383 1f3d 41cc adbc 7731 0c3d
00000070: f934 aebc 0d2c a43d 0375 083c 982e db3b
00000080: 65df a43d 8f2c dfbc 6035 023b 2b52 eabc
00000090: eafd 6fbd ee2f 2fbd b4ee 89bd 1f75 dbbc
000000a0: f6f8 803b 336d 6d3d ecfd cdbc 7929 90bc
000000b0: 8782 493d 6716 9d3c 42f3 343d 6086 9c3d
000000c0: 7177 253d 6d84 8ab9 6bb6 ccbc a1b2 543c
000000d0: eaef 3d3d 1055 15bd a3fe b83d 88ef 39bd
000000e0: 479b 043d ac18 923d df1e 9abd f10b e63b
000000f0: 7f1c 383d 8432 a23c a58a 9c3d 9f89 993d
00000100: 3ccf 19bd 45ba 70bd c4d5 e63c 1a32 9b3d
00000110: 6c87 a23d 86fd 363c 9d04 763c 7e8a da3c
00000120: 5113 87bd a025 423d 1eb9 0dbd b98e 843d
00000130: d5c6 583d 2ce0 6a3d 98c8 8e3d 1671 37bb
00000140: 930b 023d b716 543d 8512 e73c 043d a4bd
00000150: ebd9 2b3c 61cb b7bc 9fea d53c 0929 1a3d
00000160: 293a 98bd 52d1 86bc f172 783d 301c afbc
00000170: 2fc7 9ebd 3034 1b3c d866 aabc caee 93bd
00000180: 1c01 083d 1d21 83bc 573b da3c fbd8 3b3d
00000190: a92f 423d 1eac 56ba 3546 273c 5852 283d
000001a0: 4e44 f93c ccba fbb9 f1fe 30ba f3a2 f13c
000001b0: 9ff7 cf3b 2872 293d 3a1b fe3d 3b1f 72ba
000001c0: 304b 1e3d 0ac5 9fbc 1100 9c3d 7bc3 ae3d
000001d0: 81e0 4c3d 7212 0e3d f807 7ebc 348f 86bc
000001e0: 01de 85bd c97a b83d 3e7d dab9 6f62 9cbd
000001f0: 0b65 ad3c 737d c53c b71f 683d 63fe 4c3d
00000200: 5aec 603d 3740 65bc bb85 8bbd ad98 c5bc
00000210: fc83 3c3d 7fc8 9ebc ce93 873d 828e 773d
00000220: ebeb 0e3c 820c 47bd 5dbb a13c 316c bfbb
00000230: 0242 7d3d 06f7 a2bb 0435 ab3c 91d1 85bd
00000240: 84f9 073d e86f 8d3d 61a5 47bd 12dc 933d
00000250: baa3 acbd ce09 60bd 9117 e4bc b376 2ebd
00000260: 2240 433d 2b7f 75bc 0eb5 a43b 8af4 85bd
00000270: 87b4 1b3d aa75 0d3b 29fa d1bc 2f23 373d
00000280: edd0 24bd 0ffd 9ebc 3cbc 783d 49d4 a03c
00000290: e9e0 7b3d cdb4 683d 9e3e 56bd 46fa 09bd
000002a0: cd11 5ebd e181 753d 4abb 76bd cc22 bd3c
000002b0: 5b5a 4cbd c4f6 a6bd 39a8 2dbd b12f 2bbd
000002c0: db24 8c3d 09bd 9cbd d045 373d 2082 2f3d
000002d0: 2e4a 143b 2d0d 0b3d ce42 113d cd7a 30bc
000002e0: 1920 2abd cece a83d 8d67 36bd 8b76 4cbd
000002f0: 8fb4 86bd b3ef af3d 03e8 6a3d b82e 183d
00000300: ac44 203d b5ce 1cbc ffa5 613d 938a a5bd
00000310: e17c d5bc 3f29 0f3d 4286 84bb 6c3a 80bd
00000320: da04 f23c b8f6 64bd 6590 adbd 7035 843d
00000330: effe 90bd 17a5 07bd e73c 9e3c 4a40 0fbc
00000340: e6ec ad3c 1538 a2bd ea18 62bd 428c 46bd
00000350: 4c9c 383d 4b42 0ebd ead0 3bbb 93d3 4cbd
00000360: ea29 8dbd f85c d1bc 80a1 3fbb eb42 973d
00000370: 0692 00bc ce2e 373d 5782 833b 43b9 f9bc
00000380: 1859 a73d f623 33bd 8874 10bd 2fa2 09bd
00000390: 24c8 a33d 0e6c 2fbd 4d20 17bd bd8a 8f3d
000003a0: fa6c 483c 1c5d cdbc 7c26 6c3d 3ffe 50bd
000003b0: e5fe 693c 08b6 9d3d 618e 8d3d 8826 753b
000003c0: 546b 32bd 8da1 833d f6c4 30bd c870 103d
000003d0: b94e 76bd 117e 7d3d c502 223d 8213 15bc
000003e0: 3805 49bd ca27 4ebd 10be 053d b168 40bd
000003f0: 75b0 353c 2a8b 223d e804 3f3d e9ec 63bb

conv4.bias f4 [128]
0.011876526 -0.06872256 -0.0915347 0.09927478 -0.053046852 -0.09888027 0.08518829 -0.038168326
-0.056174677 0.06626377 0.038865585 0.025858736 -0.050529487 -0.02099843 0.066048 -0.11435256
0.10296913 0.051666398 -0.0041286955 -0.03525902 -0.095362484 0.018415138 -0.036164988 0.11644384
0.09521424 -0.04130995 -0.01971888 -0.049101822 -0.05713839 -0.069900334 0.013023765 -0.05305249
0.07401789 0.12657537 -0.08729302 -0.047620945 -0.016059225 0.0321034 0.071873754 0.01986514
0.035073828 0.037561774 0.008832257 0.057824206 -0.034365006 -0.043808307 -0.012884417 -0.1007258
-0.022702184 0.05895069 -0.008397462 0.013666266 0.044453166 0.039672576 0.06538232 -0.047724586
-0.048972256 -0.014558886 -0.086065196 0.0799457 0.12241813 0.05125056 0.015476118 -0.008162949
0.05073262 0.008445881 0.02032833 -0.036570627 0.10416149 0.12618193 -0.055818327 -0.021354144
-0.04607301 -0.0025799759 0.085079305 -0.0011229942 -0.04525708 -0.0009992893 -0.023120802 0.00045737735
-0.02617845 0.10511457 0.010937703 0.021382023 0.012414399 -0.0791636 0.03490405 -0.063987285
-0.022667475 0.012338196 0.07114265 -0.02634875 -0.055077296 0.046104055 0.061093047 0.05843017
-0.032791078 0.030032333 -0.019972466 -0.08999709 -0.04600386 -0.054405008 0.0130678015 -0.1050787
0.0056570857 0.107299924 -0.056690857 -0.005878545 -0.07492142 0.024496794 -0.1135538 -0.0033751694
0.006462286 0.09494667 -0.016021386 -0.039105125 -0.1372915 0.109594375 -0.04751233 -0.052167
0.032116156 0.040592253 0.09818512 0.015388052 -0.04562994 0.024342915 0.053040113 0.024325905
00000000: c395 423c 6abe 8cbd 8b76 bbbd 9350 cb3d
00000010: a847 59bd bd81 cabd 3377 ae3d 6456 1cbd
00000020: 6b17 66bd 4db5 873d 8531 1f3d b3d5 d33c
00000030: 02f8 4ebd e604 acbc 2c44 873d ad31 eabd
00000040: 7be1 d23d 25a0 533d 024a 87bb c36b 10bd
00000050: 684d c3bd 58db 963c bd21 14bd 1c7a ee3d
00000060: afff c23d 9f34 29bd 7d89 a1bc fe1e 49bd
00000070: f209 6abd e827 8fbd a161 553c 914d 59bd
00000080: b196 973d f99c 013e afc6 b2bd 2e0e 43bd
00000090: a38e 83bc db7e 033d 8c32 933d 38bc a23c
000000a0: 93a9 0f3d 60da 193d 2cb5 103c 13d9 6c3d
000000b0: 52c2 0cbd 5770 33bd 2919 53bc 5449 cebd
000000c0: eef9 b9bc 4776 713d 8295 09bc 79e8 5f3c
000000d0: 8614 363d b67f 223d 2ae7 853d db7a 43bd
000000e0: 2297 48bd 6588 6ebc f342 b0bd 92ba a33d
000000f0: 5bb6 fa3d 1bec 513d 8b8f 7d3c e4bd 05bc
00000100: 02cd 4f3d 9860 0a3c 9987 a63c 15cb 15bd
00000110: 9f52 d53d d635 013e c2a1 64bd e3ee aebc
00000120: 0db7 3cbd d014 29bb 0f3e ae3d 6f31 93ba
00000130: 7d5f 39bd 96fa 82ba d667 bdbc 26cc ef39
00000140: 3074 d6bc 4f46 d73d 0d34 333c 5a29 af3c
00000150: c365 4b3c 8720 a2bd 8df7 0e3d c40b 83bd
00000160: 24b1 b9bc 2526 4a3c 3db3 913d 55d9 d7bc
00000170: bb98 61bd 9bd7 3c3d b43c 7a3d 7954 6f3d
00000180: f04f 06bd 5e06 f63c 4c9d a3bc 6550 b8bd
00000190: 8b6e 3cbd c9d7 5ebd 551a 563c 8033 d7bd
000001a0: 135f b93b 10c0 db3d ac34 68bd cfa0 c0bb
000001b0: 6770 99bd 80ad c83c e58e e8bd f231 5dbb
000001c0: 96c1 d33b 6673 c23d 483f 83bc b22c 20bd
000001d0: 2596 0cbe 0473 e03d 4a9c 42bd 10ad 55bd
000001e0: 3b8c 033d 1044 263d 4815 c93d 2b1e 7c3c
000001f0: 76e6 3abd cb6a c73c 9740 593d 1f47 c73c

conv5.weight f4 [16, 128, 3, 3]
-0.013330768 -0.017583774 0.0018817147 -0.016630951 0.023665603 -0.014033189 -0.031422175 0.0012704191
-0.020152332 0.004826461 0.028495817 0.039174154 0.02095852 -0.001763129 -0.0033045171 0.01436702
-0.027643176 -0.00077438756 0.0019405871 0.023720687 -0.021932697 0.031750556 0.013181665 -0.013586742
-0.010961656 0.01088183 -0.03251617 -0.02432977 0.026492786 -0.027525272 0.0059265075 -0.010896487
0.039856642 -0.014576369 0.039074816 0.003747906 -0.022121344 -0.0033840132 0.021285217 0.014898586
-0.016534595 -0.021439346 -0.015813446 0.027721928 -0.024255367 -0.023673821 -0.0097180735 0.00446979
-0.0063696993 0.0172967 -0.016172398 0.021042006 -0.01579431 0.014028403 -0.011007221 -0.014455472
0.0059303264 0.00079311006 0.020511527 -0.03803702 -0.029480701 -0.030947832 0.004611166 0.0035734994
0.03589022 -0.00490316 -0.0010628894 0.026200922 -0.012279695 -0.044870485 0.0055757444 0.015026096
-0.025155516 -0.0046422016 -0.0009813576 -0.024621269 -0.007821806 -0.031862237 0.015367405 0.015011766
-0.034346327 -0.033909287 0.034493115 -0.004766345 0.011505337 -0.023396293 -0.017196354 -0.026199125
-0.0080346055 0.0071770092 0.0019080346 0.00045852916 0.009901642 -0.027070383 0.017224535 0.0058171973
-0.0032143665 0.00092260714 0.006111991 0.011705176 0.003222709 0.026836064 -0.022732152 0.0012438322
0.012164144 0.009939844 0.021653548 -0.009997282 -0.022966215 -0.007004452 -0.0055773463 -0.027821336
0.021379577 -0.034897014 0.01571073 -0.007917002 -0.012603749 -0.027192144 0.009326164 -0.01584919
-0.018804979 -0.03764239 0.0012335952 0.008628137 0.03388059 0.005696197 -0.03021663 0.056939166
-0.035136662 0.023927353 0.003931097 0.0144379325 0.040412158 -0.015911825 0.015562052 -0.0024334062
0.019932238 0.0010667142 0.014402289 -0.0024215542 -0.033054963 0.028401924 -0.021367917 0.0006997641
-0.034711424 0.031705372 0.0003173286 0.0017461076 -0.0027580422 -0.008384295 0.02238751 0.036155295
0.02066495 -0.013049756 -0.031050425 -0.043071404 -0.019541236 -0.0006358052 0.020554177 0.011916783
0.0106428005 -0.02571949 0.00636218 0.011552799 0.0449964 -0.019514723 0.028850352 0.0244864
0.0131207565 0.0034497243 0.021189412 0.018440934 -0.013776898 0.0023274957 -0.016845226 -0.015772784
-0.013778471 -0.017509948 0.0062735626 0.0006729517 -0.021303648 -0.013167283 -0.00068386894 0.001041776
-0.033057302 0.0078033106 0.0057881377 -0.0057870075 0.0082760025 0.0066290037 -0.0067593507 -0.011584782
-0.005602979 0.015736265 -0.005871173 0.037195448 -0.019322483 -0.024503889 -0.01568171 -0.02884426
-0.0021816094 0.021936728 0.029714793 0.017759735 0.021072084 0.0089296475 -0.009857392 0.00056223635
-0.0066453586 0.019630952 0.035332706 -0.004655985 0.013877033 0.003461054 -0.038932793 -0.01401328
-0.009691806 0.034362864 0.047236256 0.018091612 0.0067377626 -0.044236608 -0.006091619 -0.029765777
-0.00730164 -0.020450268 0.022654267 0.013594559 0.011409888 -0.025573619 0.02677165 0.018245267
-0.016924284 -0.020058632 -0.02820608 0.0224769 0.0011021427 0.023847409 -0.021332353 0.013043859
0.022091301 0.029177718 -0.014035994 0.010508343 0.015769722 0.0377998 0.017237885 -0.0023208382
-0.0144432485 -0.022044426 0.019329052 -0.006855933 -0.0095776245 0.012419003 -0.015593654 0.02812989
00000000: 4b69 5abc d90b 90bc dea3 f63a a23d 88bc
00000010: 5ede c13c 76eb 65bc 8ab4 00bd 3184 a63a
00000020: 8116 a5bc 4a27 9e3b 0f70 e93c 1475 203d
00000030: 34b1 ab3c cb18 e7ba 9990 58bb a663 6b3c
00000040: f173 e2bc 4500 4bba 4c5b fe3a e351 c23c
00000050: 33ac b3bc df0c 023d e9f7 573c ed9a 5ebc
00000060: 8598 33bc b449 323c ad2f 05bd 3a4f c7bc
00000070: 6607 d93c ae7c e1bc 2633 c23b 2e87 32bc
00000080: b840 233d b9d1 6ebc ea0c 203d 6e9f 753b
00000090: d237 b5bc 52c6 5dbb 565e ae3c 3319 743c
000000a0: 8f73 87bc 91a1 afbc 338b 81bc 1919 e33c
000000b0: 31b3 c6bc 9aef c1bc 8e38 1fbc 5177 923b
000000c0: e9b8 d0bb cfb1 8d3c fa7b 84bc 4960 ac3c
000000d0: 1263 81bc 63d7 653c a257 34bc a5d6 6cbc
000000e0: 2f53 c23b b7e8 4f3a ca07 a83c b5cc 1bbd
000000f0: 8381 f1bc 4f86 fdbc 4419 973b 5f31 6a3b
00000100: a001 133d b0aa a0bb a650 8bba 51a3 d63c
00000110: c630 49bc 1dca 37bd bcb4 b63b 0430 763c
00000120: f112 cebc 9c1d 98bb e6a0 80ba 8bb2 c9bc
00000130: 0827 00bc fa81 02bd 91c7 7b3c e9f3 753c
00000140: bcae 0cbd 77e4 0abd a748 0d3d 002f 9cbb
00000150: e280 3c3c 95a9 bfbc 5edf 8cbc 8c9f d6bc
00000160: 94a3 03bc 1e2d eb3b 0417 fa3a be66 f039
00000170: 7f3a 223c b5c2 ddbc 781a 8d3c 309e be3b
00000180: 1fa8 52bb 1edb 713a 1947 c83b 11c7 3f3c
00000190: 1634 533b 4ed7 db3c c738 babc 1508 a33a
000001a0: 1e4c 473c bada 223c c862 b13c a4cb 23bc
000001b0: a523 bcbc 9a85 e5bb 2cc2 b6bb 92e9 e3bc
000001c0: 3924 af3c 2cf0 0ebd cab3 803c 50b6 01bc
000001d0: f47f 4ebc 0fc2 debc c4cc 183c 29d6 81bc
000001e0: e60c 9abc e82e 1abd 96b0 a13a 085d 0d3c
000001f0: 60c6 0a3d 2aa7 ba3b de88 f7bc 0b39 693d
00000200: 76eb 0fbd 4c03 c43c 6fd0 803b 148d 6c3c
00000210: 3887 253d 8459 82bc faf7 7e3c c879 1fbb
00000220: ef48 a33c fdd0 8b3a 94f7 6b3c f0b2 1ebb
00000230: a464 07bd 27ab e83c c50b afbc 6070 373a
00000240: 912d 0ebd 7edd 013d 205f a639 a6dd e43a
00000250: 45c0 34bb 485e 09bc 0366 b73c 9317 143d
00000260: 8b49 a93c a5ce 55bc 765d febc a46b 30bd
00000270: f114 a0bc 2aac 26ba 3c61 a83c 9c3e 433c
00000280: 245f 2e3c aeb1 d2bc d679 d03b f347 3d3c
00000290: 254e 383d 57dd 9fbc 9357 ec3c b497 c83c
000002a0: 71f8 563c c514 623b 6b95 ad3c 7111 973c
000002b0: 80b8 61bc e688 183b 00ff 89bc ed35 81bc
000002c0: 19bf 61bc 0671 8fbc 7592 cd3b 0669 303a
000002d0: fd84 aebc 96bb 57bc ab45 33ba 348c 883a
000002e0: 1867 07bd eab2 ff3b 6baa bd3b f0a0 bdbb
000002f0: 1298 073c 1d38 d93b 8b7d ddbb 19ce 3dbc
00000300: 3299 b7bb 57e9 803c f862 c0bb 415a 183d
00000310: 2f4a 9ebc 61bc c8bc ee76 80bc cc4a ecbc
00000320: 55f9 0ebb a7b4 b33c 706c f33c dd7c 913c
00000330: 5d9f ac3c a84d 123c e680 21bc 0b63 133a
00000340: 4fc1 d9bb 17d1 a03c 07b9 103d 3c91 98bb
00000350: 7f5c 633c dad2 623b fe77 1fbd f597 65bc
00000360: 61ca 1ebc 13c0 0c3d ce7a 413d dc34 943c
00000370: 73c8 dc3b 7231 35bd 349c c7bb 5cd7 f3bc
00000380: 9942 efbb 5287 a7bc 7195 b93c b7bb 5e3c
00000390: 8af0 3a3c c47f d1bc 3850 db3c 1977 953c
000003a0: cca4 8abc 0052 a4bc 7010 e7bc 7a21 b83c
000003b0: c675 903a a45b c33c 30c1 aebc e9b5 553c
000003c0: d1f8 b43c 1c06 ef3c 3af7 65bc 2f2b 2c3c
000003d0: 812f 813c f7d3 1a3d 7736 8d3c 3419 18bb
000003e0: 60a3 6cbc 8396 b4bc f657 9e3c bca7 e0bb
000003f0: 78eb 1cbc 1379 4b3c 867c 7fbc a870 e63c

conv5.bias f4 [16]
0.0077039693 0.08134069 -0.016787866 0.004428835 0.020551842 -0.017736482 0.010166144 0.04217471
0.0032915808 0.019955358 0.07160104 -0.051817097 -0.030980265 0.07801695 0.015726542 0.030922307
00000000: 9471 fc3b f395 a63d b586 89bc c31f 913b
00000010: 565c a83c 194c 91bc e68f 263c 64bf 2c3d
00000020: 90b7 573b 6b79 a33c 91a3 923d 2a3e 54bd
00000030: 53ca fdbc 5ac7 9f3d f3d4 803c c750 fd3c

classifier.1.weight f4 [10, 16]
-0.2514297 0.16404161 0.12025569 0.11347976 0.10969249 -0.1582568 -0.13360393 -0.059716154
0.13094065 -0.101091444 0.12549134 0.02035652 -0.19465214 0.012834663 -0.013069182 0.04563431
-0.22831234 -0.19984713 0.13282982 -0.21699104 -0.12746605 0.017563507 -0.2542054 -0.25350294
-0.031238023 0.17801093 -0.08876373 -0.16311568 0.028017294 -0.24589953 0.15968354 0.0035175963
-0.14317675 -0.079989254 -0.014079725 0.091681555 0.15872967 -0.051153578 -0.058122817 -0.07319982
-0.17080282 0.16858 0.05628319 -0.29270673 -0.14797752 -0.00081430405 -0.04265211 0.2910846
0.11818336 -0.0444408 -0.1072752 -0.17791742 -0.17560777 -0.16744827 -0.1539859 0.1208607
0.18014632 -0.11765154 0.23674388 0.010935549 0.24269697 0.069234855 -0.042910274 -0.12039474
-0.09613907 0.16243994 0.01982064 -0.22201937 0.15170142 0.0968121 0.15929951 0.066126525
0.24316503 -0.10594919 0.14432493 -0.23529112 -0.16304399 0.1778153 0.18806182 -0.022129606
-0.012125455 -0.19902243 -0.110819444 0.19607395 0.010075018 0.15028693 0.1355863 0.22278778
-0.26604193 -0.007119279 -0.068070516 -0.07884114 -0.07589728 0.16832066 -0.22411266 0.16774526
-0.26778886 -0.11442941 0.16880709 0.15971997 -0.017918022 0.2669583 -0.068140306 0.18602143
-0.018830474 0.15853739 0.28265277 -0.21310805 -0.16836259 -0.07950284 -0.083953194 -0.19515912
0.15994175 -0.17722723 0.10817989 -0.09461914 -0.05717595 0.18709257 -0.22815916 -0.1369306
0.16974491 -0.26597926 -0.002738652 -0.18327036 0.15183578 -0.073676504 -0.09913822 -0.06290966
0.14830801 0.13379467 -0.13008405 0.21291009 0.12533593 -0.20951875 0.06370635 0.02913418
-0.20241593 0.24927577 0.054917987 0.07323859 0.17235173 -0.027118014 0.13922358 -0.2203142
-0.114032894 -0.25092387 -0.09658909 0.06737324 -0.22748998 -0.031092998 -0.14652027 -0.047512874
-0.11235114 0.19821043 -0.06783293 0.26206976 -0.14759362 -0.1081305 -0.15523425 0.16237095
00000000: 65bb 80be 86fa 273e 9d48 f63d 1468 e83d
00000010: 75a6 e03d 120e 22be 78cf 08be ed98 74bd
00000020: 4e15 063e 0809 cfbd cd80 003e b7c2 a63c
00000030: e452 47be 7a48 523c 1f20 56bc 0beb 3a3d
00000040: b6ca 69be baa4 4cbe 8a04 083e e632 5ebe
00000050: 7686 02be 58e1 8f3c 3627 82be 23cb 81be
00000060: e2e6 ffbc 7f48 363e c2c9 b5bd cc07 27be
00000070: 8684 e53c 16cd 7bbe 1584 233e 7987 663b
00000080: ed9c 12be 68d1 a3bd a6ae 66bc 8ac3 bb3d
00000090: 088a 223e 6a86 51bd 3112 6ebd cae9 95bd
000000a0: efe6 2ebe 3ca0 2c3e 3489 663d a8dd 95be
000000b0: 6b87 17be 0577 55ba fbb3 2ebd 0a09 953e
000000c0: 1e0a f23d 8e07 36bd 1ab3 dbbd fc2f 36be
000000d0: 86d2 33be 8f77 2bbe 7bae 1dbe d185 f73d
000000e0: 4778 383e 4af3 f0bd fd6c 723e 042b 333c
000000f0: 8e85 783e 01cb 8d3d afc2 2fbd 8491 f6bd
00000100: 90e4 c4bd a856 263e e55e a23c 0c59 63be
00000110: 9e57 1b3e 6c45 c63d 691f 233e 586d 873d
00000120: 4100 793e e4fb d8bd eac9 133e 28f0 70be
00000130: 01f5 26be 3715 363e 4793 403e 2649 b5bc
00000140: d8a9 46bc 89cc 4bbe 4ef5 e2bd 9cc7 483e
00000150: b011 253c d1e4 193e 23d7 0a3e 7b22 643e
00000160: a636 88be d748 e9bb 8e68 8bbd 7777 a1bd
00000170: 0870 9bbd 405c 2c3e ca7d 65be 6ac5 2b3e
00000180: 9f1b 89be f759 eabd c4db 2c3e a28d 233e
00000190: d1c8 92bc c2ae 883e 258d 8bbd 677c 3e3e
000001a0: 5e42 9abc a057 223e ddb7 903e ff38 5abe
000001b0: 3e67 2cbe 63d2 a2bd a7ef abbd cbd7 47be
000001c0: c5c7 233e 0e7b 35be 6b8d dd3d aec7 c1bd
000001d0: 5431 6abd 3295 3f3e 8ea2 69be 8937 0cbe
000001e0: 9cd1 2d3e 6f2e 88be f57a 33bb 3aab 3bbe
000001f0: d77a 1b3e b5e3 96bd fb08 cbbd c8d6 80bd
00000200: 0ede 173e 7801 093e c134 05be 1a05 5a3e
00000210: 1058 003e 158c 56be 7a78 823d ceaa ee3c
00000220: 1f46 4fbe 2642 7f3e aff1 603d 1dfe 953d
00000230: f97c 303e 9926 debc a090 0e3e 0c9a 61be
00000240: 148a e9bd 1879 80be 80d0 c5bd fbfa 893d
00000250: 22f3 68be beb6 febc 6909 16be dc9c 42bd
00000260: 5b18 e6bd adf7 4a3e feeb 8abd 022e 863e
00000270: c822 17be 8673 ddbd baf5 1ebe 9244 263e

classifier.1.bias f4 [10]
-0.03873124 0.06768527 -0.06202525 -0.15622437 -0.12841763 0.07672974 0.006302737 -0.15786175
-0.08607327 -0.22833945
00000000: a6a4 1ebd 939e 8a3d 300e 7ebd 48f9 1fbe
00000010: e97f 03be 7b24 9d3d 3187 ce3b 83a6 21be
00000020: 2f47 b0bd d1d1 69be
