Cifar/reek_cifar10_model_10Models_finalResult/9_model_.pt (torch, 523905 bytes, 12 tensors)

conv1.weight f4 [16, 3, 3, 3]
000000 6b 5c f9 bd fa ea 4a be 22 27 3b be fe 43 36 be
       -0.121758305 -0.19816199 -0.18276647 -0.17799374
000010 71 29 e8 bc a0 44 fb 3d a1 07 10 3e f9 7b 59 3d
       -0.028340073 0.122689486 0.1406541 0.053096745
000020 d5 ea 67 bc 63 17 93 3d ae 2a d3 3d 9b 67 27 3d
       -0.014155109 0.07182195 0.10310875 0.04087029
000030 64 16 d8 bb 2e 5d 14 3e f9 cc e2 3d ff 43 e8 3c
       -0.006594466 0.1448867 0.11074252 0.028352736
000040 b7 6c 3e 3d 5c 01 ec 3d 29 35 30 3d 66 f5 37 3e
       0.046490397 0.11523697 0.043019447 0.17964706
000050 bf 4d 20 3e 4f fb ec bb 50 3a 6f bd e1 ae 03 3e
       0.15654658 -0.0072321068 -0.05840522 0.1285968
000060 d7 c6 61 3d a7 5a 95 bd cb 30 56 3d d3 1a 03 be
       0.05512127 -0.07292681 0.052292626 -0.12803201
000070 0d a2 22 3e 52 4d 34 be f5 77 0b 3e e7 3e 23 be
       0.1588213 -0.1760762 0.13619979 -0.15941964
000080 1a a4 da 3d fc de b0 3d 42 a6 2c 3e 36 4d e0 3b
       0.10675831 0.08636281 0.16860297 0.0068451418
000090 14 0c 0f 3e e7 89 9b bd a7 d8 29 be 58 07 0f be
       0.13969451 -0.07594662 -0.16586553 -0.13967645
0000a0 c7 13 49 be 25 c4 05 be 81 1a be bd e6 a7 15 3e
       -0.1963645 -0.13063104 -0.09282399 0.1461483
0000b0 e8 79 a2 bd 43 54 23 3d ce 18 28 be 4a 36 01 3e
       -0.07933408 0.03987528 -0.16415712 0.12618366
0000c0 ae 59 35 3c aa 12 b8 bd 6a 9f 4c be df b1 f4 3d
       0.011068745 -0.08987935 -0.19982687 0.11947989
0000d0 ae 6d 2f 3e 65 ef c9 3d ec d0 92 3d a5 81 42 be
       0.17131683 0.09860114 0.07168755 -0.18994768
0000e0 65 e0 34 bd 5b d1 4b be c8 6d 93 bb c6 8c 0e be
       -0.04415931 -0.19904082 -0.004499171 -0.13920888
0000f0 fd 19 23 3d 29 16 53 be fc c3 c7 bd a8 21 25 3e
       0.039819706 -0.20613922 -0.09754178 0.1612612
000100 11 7f a6 bd 01 8a 73 3d a4 b3 a9 bd c0 a5 c1 3d
       -0.08129705 0.059457783 -0.08286217 0.094554424
000110 7b f3 07 3e f4 f2 bc bd 86 af 15 bd 5c 65 51 be
       0.13276474 -0.09226027 -0.036544345 -0.20448822
000120 19 1a 67 3e c5 b3 41 3e 0c 7b 97 3c 33 89 e3 bd
       0.22568549 0.18916233 0.01849129 -0.11110153
000130 ae 82 36 be 33 13 57 bd 7e 57 98 bd 6d cd 50 bd
       -0.17823288 -0.052508544 -0.07438563 -0.05097716
000140 bb c8 36 be 8c ac 88 bd e6 c6 bf bd 51 70 f0 3d
       -0.1785001 -0.06673536 -0.09364109 0.11740173
000150 e1 01 26 bd 01 5a 34 3d ec bb 14 3e c0 5b de 3d
       -0.040529136 0.044031147 0.14524812 0.10857344
000160 b8 4f 03 be c2 3b 0f 3d ff 55 09 3e 45 ee fe bc
       -0.12823379 0.0349691 0.13411711 -0.031119475
000170 1a 8f 2d bd 88 35 1f bd b9 8c 00 3d c4 90 38 3e
       -0.0423728 -0.03886941 0.031384204 0.18023974
000180 57 36 00 3d 41 ce 13 3e 2a 49 5a 3d 4c ed 2b be
       0.031301823 0.14434148 0.05329243 -0.1678974
000190 1a db 47 be d9 b9 89 bd 2c f1 c6 bc 18 49 1e 3e
       -0.19517174 -0.06724901 -0.024284922 0.1545757
0001a0 66 b3 b0 bd e7 03 22 be a4 25 8a 3d bf 3f e5 bd
       -0.086279675 -0.15821801 0.06745461 -0.11193799
0001b0 ae 61 ed 3d a4 4f 1b bd 2b 65 6c bc 66 9d c5 3c
       0.115908965 -0.037917748 -0.014428417 0.024122905
0001c0 d3 a5 35 3e ee 19 23 3d e2 4e 12 3e 9c 24 12 bc
       0.17739038 0.03981965 0.14287904 -0.008919861
0001d0 ec 37 ae bc a8 c3 e9 3d d1 e3 6f 3d d9 bc 41 be
       -0.0212669 0.114142716 0.058566872 -0.18919696
0001e0 87 7e e0 3c 9d 92 38 3d 05 23 91 3c 3d 74 4b be
       0.027404083 0.045061696 0.017716894 -0.1986856
0001f0 a8 7b 67 be c9 6a 2f be 26 e4 1c bc 21 e6 ee 3d
       -0.22605765 -0.17130579 -0.009575879 0.11664987
000200 30 c4 02 3d a9 e0 7e bd d2 01 14 3e be 31 2c be
       0.03192538 -0.06222597 0.1445382 -0.1681585
000210 4f 9d 11 3e 97 cc 92 bb 35 47 e2 bd a6 85 26 3e
       0.14220165 -0.0044799554 -0.11048738 0.1626192
000220 68 2c 24 3e 47 0d 9d bb 15 31 f8 bd e8 6c 17 be
       0.16032565 -0.0047928425 -0.12118737 -0.14787638
000230 2d 3a 5f bb 31 71 82 3d 3a 60 04 bd 18 c1 17 be
       -0.0034061775 0.06369246 -0.03231833 -0.14819753
000240 64 b5 1b be 07 63 87 3d a9 25 b8 3d 2b 71 07 3d
       -0.15205914 0.06610685 0.08991558 0.03306691
000250 78 28 83 3d fb f5 66 3d 29 e8 11 3e 0b 2c 10 3e
       0.06404203 0.05638693 0.14248718 0.14079301
000260 ca 2e 2d be 82 d2 1f 3e 43 83 c4 3d 22 47 86 bd
       -0.1691238 0.15607646 0.09595349 -0.06556536
000270 04 f2 31 3e d9 d2 45 3d 1b 46 11 bd 1f b8 51 3e
       0.17377478 0.048296783 -0.03546725 0.20480393
000280 0e 37 41 3e b7 a4 2c 3e 98 80 23 3e e3 b4 45 bb
       0.18868658 0.16859709 0.15967023 -0.0030167631
000290 1c 86 29 bd 73 d6 0a 3c 30 0a 53 bd 7a 3e f8 bc
       -0.041387662 0.00847398 -0.051523387 -0.030303229
0002a0 c0 90 17 be 6b e4 1c 3e bf d3 42 bd 6a 15 17 be
       -0.14801311 0.1532151 -0.047565218 -0.14754263
0002b0 18 10 87 bd a8 bb 9e bc e1 da 65 bd 60 58 38 bb
       -0.065948665 -0.01937659 -0.056116942 -0.0028128847
0002c0 22 f2 e4 bc 83 cb 31 bd 3d 17 d4 bc f6 41 17 bc
       -0.02794749 -0.043406975 -0.025889987 -0.009232035
0002d0 ab 58 a1 bd 42 cd 4a be f7 d3 cb 3d 92 71 3b be
       -0.0787824 -0.19804862 0.099525385 -0.18305042
0002e0 74 ae d4 bc 29 6c 06 3e e7 ab 5c be 78 74 10 be
       -0.025962092 0.13127197 -0.2154995 -0.1410693
0002f0 dc 29 f8 3d 72 1b 43 3e 98 0a 63 bd 07 27 0d bd
       0.12117359 0.19053438 -0.055430025 -0.034461048
000300 95 f7 d6 3d 19 9c ce 3c da 4f 4b be 12 8d f0 3d
       0.10496441 0.025220918 -0.1985468 0.11745657
000310 a5 b7 f4 bd 6c e0 f9 bd 74 ac 92 3d 89 86 e3 bd
       -0.1194909 -0.12201008 0.07161799 -0.11109645
000320 37 9f f2 3c 36 30 ab 3a 49 4f 21 be 12 98 06 bd
       0.029616935 0.0013060633 -0.15752901 -0.03285987
000330 ea ac 5d 3e 29 a3 d6 3d 45 85 22 3c a4 cf ef 3c
       0.21647993 0.10480339 0.009919469 0.029273815
000340 6b 73 3e 3c 59 b6 7c bd eb 2c 2f 3e 0d 6a d2 bd
       0.0116241975 -0.061697338 0.17106979 -0.10274134
000350 2b ad 4b 3d 18 a4 5e bd 72 80 c1 bd b8 d7 8f bd
       0.049725693 -0.05435571 -0.09448327 -0.07023567
000360 f9 ae c8 3d 77 8d 32 3e e1 2f d0 3a b0 00 d8 bd
       0.097989984 0.17436777 0.001588341 -0.10547006
000370 61 99 d8 bd 57 98 32 3e 44 8c 92 3b 9a 7e 22 bd
       -0.1057613 0.17440926 0.0044722874 -0.039671518
000380 a6 69 42 3e b1 f8 15 3e db 50 46 3e cb 50 09 3d
       0.18985614 0.1464565 0.19366781 0.033524316
000390 03 48 db bd ae 86 1c bd 51 d9 37 3e 91 c7 ce 3c
       -0.107070945 -0.038214378 0.17953993 0.025241645
0003a0 bc 52 a6 bd 3c ce 04 3e 9e 31 34 be 7d 4b 1b 3c
       -0.08121249 0.12969297 -0.17597052 0.009478447
0003b0 27 ef e4 bd 77 92 70 3c 20 ec 62 3c 9c 65 e0 bd
       -0.11178427 0.014683357 0.013850242 -0.109568805
0003c0 1f 1f 8d 3d 44 da fe bd 65 d3 6b bd ec 72 75 bd
       0.068907015 -0.124439746 -0.05757465 -0.05992405
0003d0 a5 5a 5b ba 8f b3 a9 bc 71 fc ea bd e7 c0 86 3d
       -0.0008367694 -0.020715503 -0.114739306 0.06579762
0003e0 b8 1a 45 bd da 10 8b 3c f0 9e a9 3d 75 c0 2c 3d
       -0.048121184 0.016975809 0.08282268 0.04217573
0003f0 8e 87 8a 3d e8 4d 1f be 02 9a 17 be 8d 8e 88 bd
       0.06764136 -0.15557063 -0.14804843 -0.066678144

conv1.bias f4 [16]
000000 82 55 0a be 96 d2 a3 bd 98 18 f5 bd 15 a2 49 3e
       -0.13509181 -0.079991505 -0.119675815 0.19690736
000010 82 1b fc 3d 6d 4e 42 bd 8b 02 10 3b 35 df be bd
       0.12309934 -0.047438074 0.0021974172 -0.09319917
000020 b1 70 5d bc b1 a6 a3 bc 8b 4e 27 be dc 3d ae 3a
       -0.013515637 -0.019976946 -0.16338556 0.0013293582
000030 b6 f7 36 3e 78 06 4b 3e 20 32 e6 bd aa d1 88 3e
       0.17867932 0.19826686 -0.11240029 0.2672246

conv2.weight f4 [128, 16, 3, 3]
000000 ac 10 9b 3d da 1a 77 3c 47 cf 8f 3d d2 c1 8d bd
       0.07571539 0.0150820855 0.07021957 -0.06921734
000010 31 c8 9d 3d 7e 3f 53 bd 9b e0 f0 3c 23 44 9d bd
       0.07704199 -0.051574223 0.029403975 -0.07679012
000020 6c a9 d6 3c c8 4e 12 bd 24 eb e7 bc 97 85 9a 3d
       0.026203834 -0.035719663 -0.028310366 0.075450115
000030 e3 f3 fa bc 29 ad 21 3d cb 32 f5 bc 36 de 90 bc
       -0.030633872 0.03947178 -0.029931447 -0.017684083
000040 f6 2e c6 3d 14 47 7a bb 4f 2e 13 3d 69 08 9f 3d
       0.09676926 -0.0038189339 0.035932835 0.07765276
000050 dc 58 32 3d 99 a1 94 3d 56 3d 6c 3b 36 90 fd 3a
       0.043541774 0.07257385 0.0036047301 0.0019345346
000060 a4 bd 61 bd cb 09 6d 3d 21 87 f0 3c 8c eb 6b 3d
       -0.055112496 0.057870667 0.02936131 0.057597682
000070 86 92 d9 bc a6 46 3e 3d a1 ea 71 3b c8 7e 13 bd
       -0.026559126 0.046454094 0.0036913531 -0.03600958
000080 56 18 ec b9 05 ad 51 3d c3 24 83 bd 1e fd e3 bb
       -0.0004503156 0.051190395 -0.06403496 -0.006957664
000090 d7 8b fa 3c 12 2a 6f 3d b3 c6 2e bd c5 d1 2a bd
       0.030584259 0.05838973 -0.042669963 -0.041703958
0000a0 1d 2d 26 bd 01 7f b9 bc 60 70 71 3c 2c 2a 32 bc
       -0.040570367 -0.022643568 0.014736265 -0.010874312
0000b0 57 dd 76 3d 00 8f bf 3c 3d 03 2c bc c9 1e a2 3d
       0.06026968 0.023383617 -0.010498819 0.07916028
0000c0 b2 54 7c bd c0 2e 4f bd cd 46 77 3d 2a c9 e5 3c
       -0.06160421 -0.050581694 0.060370255 0.028050024
0000d0 62 67 3b 3d bd bc 8e bd f9 c4 60 bd ef 10 82 bd
       0.04575289 -0.06969593 -0.054875348 -0.06350886
0000e0 4f 57 69 bd 9e 77 95 3a cf a9 72 bc 57 ed 50 bd
       -0.05696803 0.0011403447 -0.014810993 -0.051007595
0000f0 7f cc c8 3d 81 8a 2e 3d 99 3d 2f bd dc 4b 90 bc
       0.098046295 0.042612556 -0.042783353 -0.017614298
000100 11 71 0e 3d 05 77 53 3d cf b9 29 3d 3a 7e 54 bc
       0.034775797 0.051627178 0.041436967 -0.012969548
000110 0c 40 54 bd 94 05 a6 3d d0 e0 b9 3d 33 91 a4 bd
       -0.051818892 0.08106533 0.09076083 -0.08035507
000120 08 34 ae 3c c1 21 7c bc 31 26 cf 3b ac 3f 82 3d
       0.021265045 -0.015388907 0.0063216914 0.06359801
000130 e6 a6 8a 3d 56 67 4b bc 0c 8f 50 3d 5b e8 48 bc
       0.067701146 -0.012414774 0.05091767 -0.012262429
000140 6b c0 81 3c f7 05 54 3d 44 71 42 bd b0 38 79 3d
       0.015838822 0.0517635 -0.0474713 0.060845077
000150 20 98 37 bd 0a 34 5d bd ad 38 e0 bc 6c fb bb 3d
       -0.044822812 -0.054004706 -0.027370775 0.09178814
000160 af 22 00 3d 24 d0 58 3d 3e a3 00 bd 92 bf 34 bd
       0.031283077 0.052932873 -0.03140568 -0.04412801
000170 db fa c9 bc 20 f9 d2 3d b8 ef 4f bd ce 0e 03 3d
       -0.02465575 0.10301423 -0.050765723 0.03199654
000180 c7 df 97 3c f2 05 d9 3d db ed da 3d e2 73 c3 3c
       0.018539323 0.10596837 0.106898986 0.023858968
000190 0d 6d 90 bd 64 9f ec bc 7f 42 ed bc 22 27 28 bc
       -0.0705205 -0.028884597 -0.028962372 -0.010263236
0001a0 7e 45 9d bd 14 d3 f0 bc 62 4c cf 3c c0 5d e4 bc
       -0.0767927 -0.029397525 0.025304977 -0.027876735
0001b0 12 97 1f 3d 80 84 19 bd 75 1d 2d bd df fa 39 bd
       0.03896243 -0.037479877 -0.04226442 -0.045405265
0001c0 06 3e 49 3d 37 8d 94 bd 2e 48 e8 3c f4 c5 37 bd
       0.049131416 -0.07253497 0.02835473 -0.044866517
0001d0 ae a4 66 3d 9a ac a5 3c 79 03 e5 bc 04 11 23 bd
       0.056309395 0.020223904 -0.027955757 -0.03981115
0001e0 dc c2 91 3d b2 60 9b 3d 04 f9 33 bd a7 1d 16 3d
       0.071172446 0.075868025 -0.04393865 0.036649372
0001f0 e1 c5 21 bd 52 f2 39 bd 08 ad 8b 3d 6f 5f a4 3d
       -0.039495353 -0.04539711 0.068201125 0.08026015
000200 bd bd 74 bb de 97 e0 3c 7e 55 63 bd 5b 98 a6 3d
       -0.0037344538 0.027416166 -0.055501454 0.08134528
000210 83 57 d3 bb 5e b8 ac 3d 2a 81 fc bc 7f 99 7c 3d
       -0.006449641 0.08433603 -0.030823309 0.061669823
000220 18 78 45 3a 99 0b 19 3b ee 37 c8 bc 21 e8 95 3c
       0.0007532849 0.002335286 -0.024440732 0.018299164
000230 c3 fe e3 bc 81 45 ad bc a6 ea 97 bd 4b c8 86 bd
       -0.02783144 -0.021151306 -0.074178025 -0.065811716
000240 be 3c 1e 3d 6d 51 b0 bc 57 48 67 bc c9 dc b2 3c
       0.038632147 -0.021523202 -0.014116368 0.021833794
000250 3d e0 79 bd c2 77 77 3b f5 5b 11 3d 43 78 46 3d
       -0.061004866 0.003776059 0.035488088 0.048454534
000260 ea c2 83 3d d3 71 45 bd 69 d8 e2 3c 96 7d 4f bd
       0.06433661 -0.048204254 0.027691083 -0.050656877
000270 40 f4 9a 3c 9d 66 ed bc d7 87 55 3c 74 05 c0 3b
       0.018915296 -0.028979594 0.013032875 0.005860025
000280 93 8a 43 bd 39 b1 51 bd 8b cf 42 3d 6e e6 4c bc
       -0.047739577 -0.051194403 0.04756121 -0.012506111
000290 7e cb 8b bb ff e1 cc 3d b0 ca 08 3d 6d 1f 5b 3d
       -0.0042662015 0.10004043 0.033396423 0.053496767
0002a0 f2 24 10 3d 5d ac 3f 3d 1c d9 57 bd 89 71 d4 bd
       0.035191484 0.046795238 -0.052697286 -0.103732176
0002b0 e5 f3 15 bc 8f ba ef 3c 94 c4 9b 3d 12 7e c6 3c
       -0.009152387 0.029263763 0.07605854 0.024230037
0002c0 84 57 19 3c aa 7f 46 bd 5e 85 a4 3d ae 4e 68 bc
       0.009359244 -0.048461594 0.0803325 -0.014178915
0002d0 09 ae 70 bd 87 33 23 3d 47 11 99 3c 90 84 c2 bd
       -0.058759723 0.039844062 0.018684996 -0.094979405
0002e0 39 67 08 bd 59 4c 25 3b 8d 36 80 3d ed 48 8e bc
       -0.033301566 0.0025222509 0.06260405 -0.017368758
0002f0 3f e3 0c bd d3 02 63 bb 8c a7 38 bd 87 67 11 3d
       -0.034396406 -0.0034639135 -0.04508166 0.035499122
000300 b1 b8 43 bc d8 62 84 3d 93 8e a9 3c 65 38 08 3d
       -0.011945889 0.064641654 0.020697867 0.033256907
000310 f3 31 a9 bd 25 dd 1d 3d 37 24 b1 bc 0a a4 4a 3d
       -0.0826148 0.038540978 -0.021623714 0.049472846
000320 0c fa 67 bc 8f b5 1b 3d 1b 99 71 3d e2 01 22 3d
       -0.014158737 0.038014945 0.058983903 0.039552577
000330 eb d1 d7 bc 72 9e 3d bd c9 51 66 3d 09 0e 14 bc
       -0.026345214 -0.046293683 0.05623034 -0.009036549
000340 fc 98 ab bd 2c 1e 6d bd 64 1a a0 bd fd b1 e6 bb
       -0.08378789 -0.057890102 -0.078175336 -0.007040261
000350 1d 95 99 bb 9d a4 b8 bd 48 79 e9 bd ea cc 53 bd
       -0.004686965 -0.090157725 -0.11400086 -0.051709093
000360 78 85 ec bc 1b 66 30 bd 44 5a bb bd 0f 7e 3f 3d
       -0.028872237 -0.043066125 -0.09148076 0.04675108
000370 1a 46 2d bd 17 bb a3 bd dd ff 7a bc b9 cf b7 3d
       -0.042303182 -0.07994669 -0.015319792 0.08975167
000380 99 60 67 3d 4f 6a 88 bd f7 80 b4 3b 7c cf 30 bd
       0.056488607 -0.06660902 0.005508538 -0.043166623
000390 ed 4b b4 3c 01 03 32 bd 9f 1a 91 3d 46 b1 83 3b
       0.02200886 -0.043459896 0.07085156 0.0040189354
0003a0 38 42 83 bd fa 99 c0 3c 3b 0f a4 3d ef 5c 85 3c
       -0.064091146 0.023510922 0.080107175 0.016279666
0003b0 7d c2 01 bb 35 03 c7 bd 21 18 e8 bd 8b 75 7a bd
       -0.0019799762 -0.097174086 -0.11332727 -0.061147254
0003c0 35 cc 94 3d 72 62 dd 3c 8c 32 2b 3c 82 4d 23 bd
       0.07265512 0.027024481 0.010449063 -0.03986884
0003d0 0a ae 86 3c 95 18 36 bc 28 1b 7c bd a8 ee 83 bd
       0.01644041 -0.011114259 -0.061549336 -0.064420044
0003e0 53 94 85 3d 4c 34 f3 3c 57 f2 4a 3d ac 72 62 3c
       0.06522431 0.029688023 0.04954752 0.013821285
0003f0 b4 00 05 bd bf b4 c0 bb ba 9b 22 3d 6d 93 96 bd
       -0.032471374 -0.0058809216 0.039699294 -0.07352338

conv2.bias f4 [128]
000000 08 f8 0b bd 2e d4 48 bd e7 c5 41 3b ca 18 09 3c
       -0.034172088 -0.049030475 0.0029567422 0.008367727
000010 90 a7 98 3d 74 8b d8 bc c6 0d 16 bc a5 0c 46 bd
       0.07453835 -0.026433684 -0.009158557 -0.048351903
000020 e6 d5 85 3c 52 bc 37 bd 68 a7 c1 3d 5b 20 20 3b
       0.016337346 -0.04485733 0.09455758 0.0024433348
000030 36 44 59 3d f7 73 c8 bc 16 3f 5e bc d1 a2 16 3d
       0.053043567 -0.024469359 -0.013564846 0.036776368
000040 49 97 a7 3c 3c 0d d5 bc 5d de 68 bc 1d 94 b7 3d
       0.02045788 -0.026007287 -0.014213172 0.08963797
000050 bb 61 d9 3c c6 4a b9 bc f2 36 da 3d 41 e4 dd 3c
       0.02653586 -0.022618663 0.10655011 0.027086379
000060 6c 47 ae bd 3e 1e c3 bc 0e 0b 02 bc 95 d2 79 bc
       -0.085097164 -0.023818132 -0.007937206 -0.015247961
000070 7d 90 0f 3d fd 4c 8b bd bc 75 98 3b be e4 a3 bd
       0.035049904 -0.06801794 0.004652707 -0.080026135
000080 ba 8d 4a 3d e7 80 e5 3d 18 82 1a bd 7a 8b 73 ba
       0.049451567 0.11206227 -0.037721723 -0.0009290498
000090 9e c1 1f bd 7b 42 99 bc b0 e3 25 3d 9f 35 da bd
       -0.039003007 -0.018708458 0.040500343 -0.10654759
0000a0 75 55 8c bc 39 41 8e 3d 0b d8 da 3d e1 cf a4 bd
       -0.017130593 0.06946034 0.10685738 -0.08047462
0000b0 a9 bd 26 bd 0d f5 ad 3c f5 7b a1 bd ee 2f f5 bc
       -0.040708218 0.021235013 -0.07884971 -0.029930081
0000c0 07 2a 9a 3b 2c dd 9a bd 10 dc 46 bd 00 3e e1 3d
       0.004704717 -0.075617164 -0.04854971 0.10998154
0000d0 6e db 31 bd b1 b6 c5 bc 0d 39 97 bd a2 9b 22 3d
       -0.043422155 -0.024134966 -0.073839284 0.039699204
0000e0 d8 90 8a 3d 9d b9 63 3d 85 fc 14 3d 91 15 e1 3c
       0.06765908 0.055596936 0.036373634 0.027476104
0000f0 43 18 9c 3d b4 dd ad 3b 33 dd ee bb 2a 6c cf bd
       0.07621815 0.00530597 -0.0072895526 -0.101280525
000100 3e ff 93 3d a1 69 3a bc 00 67 d7 3d 2e 43 85 bd
       0.07226418 -0.011377723 0.105176926 -0.06506954
000110 21 4d 3c bd b4 28 75 bd 7d c9 34 bc 87 6f fb bc
       -0.045971993 -0.05985327 -0.011034367 -0.030692829
000120 87 1c 09 bc 30 bd 94 3d 52 e6 b7 3d 16 ce 66 3d
       -0.008368618 0.07262647 0.08979477 0.056348883
000130 6d 7e c7 bc 46 d4 32 bd d9 42 9c bd ae 92 c7 3c
       -0.024352277 -0.04365947 -0.07629938 0.024361935
000140 ce 42 02 bd 98 75 81 bc b7 0b 20 bd 3f c8 79 bd
       -0.03180199 -0.015803143 -0.039073672 -0.060981985
000150 50 60 c5 bd be 8b 78 bd 44 d9 08 bd 9e 4c 86 bc
       -0.09637511 -0.060680144 -0.033410326 -0.016393956
000160 54 37 b0 bb bf 15 75 bd 25 30 a2 3d 2d 97 8e 3d
       -0.0053776894 -0.05983519 0.07919339 0.06962428
000170 98 a0 6f 3b 82 8d 97 3d 3d 7e 60 3d e9 14 23 3d
       0.0036564227 0.07400037 0.05480789 0.039814863
000180 31 24 91 3d 86 62 8f bd de 99 9a bd ea 74 9a 3d
       0.07086981 -0.07001214 -0.07548879 0.07541831
000190 f5 b1 28 3d 82 11 7f bd 7a 3a 71 bc e4 44 55 bd
       0.041185338 -0.062272556 -0.014723415 -0.052067652
0001a0 3e cf f9 bc f9 7b 96 bd 05 f7 04 3d 41 3c 93 bc
       -0.030494329 -0.07347865 0.03246214 -0.017973067
0001b0 8b 04 01 3e 71 07 35 bd a5 47 c1 3c ec 62 3e bd
       0.1259939 -0.04419655 0.023593733 -0.046481058
0001c0 68 c5 5e bc f5 b4 59 bd ff aa 4a bd 95 55 e3 3d
       -0.01359687 -0.05315109 -0.04947948 0.11100308
0001d0 75 23 34 3d 75 9c 0a 3d 17 1e 1d bc e3 84 50 3d
       0.043979127 0.033840615 -0.0095896935 0.05090798
0001e0 96 c0 39 3d b9 f0 0e bb 7e 1c 6f 3d d4 27 7c 3d
       0.04534968 -0.0021810962 0.05837678 0.06156142
0001f0 c7 0e 12 3d a7 0b bb bd 3e 0e 71 ba 7b 40 b1 3d
       0.035658624 -0.09133082 -0.00091955427 0.08654877

conv3.weight f4 [32, 128, 3, 3]
000000 c9 4e 34 3c 21 14 06 3c 50 5b 30 3c f4 73 02 3d
       0.011005112 0.00818351 0.010763958 0.031848863
000010 4d a3 8a bc f1 bd 30 3c d7 64 04 bc 31 81 59 3b
       -0.016923571 0.010787473 -0.008080683 0.0033188576
000020 1b f8 4d 3c 68 b2 b0 3b b4 19 e8 3b 07 8f a6 bb
       0.01257136 0.0053923614 0.007083142 -0.005082968
000030 9a 3a 2b 3c 29 5e 06 3d b3 f8 8b 3c 8a 5c b7 bc
       0.010450983 0.032804642 0.017086362 -0.022382993
000040 49 54 02 bc 2d b4 9e 3c 4b 41 93 3b 95 41 8d 3b
       -0.007954665 0.019373024 0.0044938675 0.0043107965
000050 0f d8 e9 bc 35 ba 70 bc 89 83 23 bc eb 0e 84 bc
       -0.028545408 -0.014692833 -0.009980091 -0.016120395
000060 65 a8 0a 3c 43 3f 98 3c 7b 0e 85 3c 80 51 3c bb
       0.008463 0.018584853 0.016242256 -0.0028735101
000070 92 97 84 bb 90 50 ab 3c 38 29 fe 3c ca 40 10 3d
       -0.004046389 0.020912439 0.031025514 0.035218038
000080 65 97 23 3d 49 04 5b 3c f6 77 4c ba c3 d2 a2 3c
       0.039939303 0.013367721 -0.0007799858 0.01987589
000090 14 6e 90 bb c7 a3 d3 3c 6e 57 0a 3d f0 fa 02 3d
       -0.0044076536 0.025834931 0.033774786 0.031977594
0000a0 ab 8c 0f 3d e7 53 08 3d d9 85 d6 b9 f7 90 00 3d
       0.03504626 0.03328314 -0.00040916985 0.03138825
0000b0 71 dc 1a 3b 29 56 5b bc d9 2e b6 bc cd ad f1 bc
       0.0023629928 -0.013387241 -0.022239136 -0.02950182
0000c0 db 70 1b bc 82 d5 ec bc 0c 31 bc bb 52 90 9e 3c
       -0.009487356 -0.028910402 -0.0057431515 0.019355927
0000d0 72 10 ae 3b 57 81 e9 bc 24 1f 71 3c 7c f8 a3 3b
       0.005312019 -0.028504057 0.014716897 0.005003987
0000e0 15 26 ab 3c c6 27 01 bc c1 a5 86 3b 73 a7 91 bc
       0.020892182 -0.007883018 0.004109115 -0.017780041
0000f0 d9 fd 8a bc 73 f4 11 bb 0b 7f 18 bc 78 cb f7 3c
       -0.016966747 -0.0022270947 -0.009307633 0.030248389
000100 96 f9 8a bc 52 bb 22 3d cf 0c 9c 3c e2 f3 fc 3c
       -0.016964715 0.039729424 0.019049076 0.030878011
000110 65 5e 7d bc 39 30 8a 3c a1 e6 8f 3c b5 76 6b bc
       -0.0154644 0.016868697 0.017566027 -0.014371564
000120 a8 42 85 3a 6a 7c 67 3c a8 34 e2 3b 59 16 a8 3b
       0.001016696 0.014128784 0.00690325 0.005129617
000130 66 10 e3 bc e5 52 0e bd a3 18 fb bc 0b 17 71 bc
       -0.02771778 -0.034747023 -0.030651396 -0.0147149665
000140 d6 07 43 3c 99 e6 3a 3d ce cf 97 39 29 26 23 3c
       0.011903724 0.04563007 0.0002895579 0.009957829
000150 1b 9c 93 3c da 8e 02 3b 84 e5 09 bb a9 10 41 3d
       0.018018773 0.0019921572 -0.0021041343 0.04713503
000160 50 db 00 3d 99 ef 14 3d 10 f9 97 3c ce 72 12 3d
       0.031459153 0.03636131 0.01855138 0.035754018
000170 e4 16 2e 3c c5 65 70 bc f2 1f a0 3c 05 ef 3a 3c
       0.010625575 -0.014672701 0.019546483 0.011409526
000180 ed de cd 3b da 65 d6 bb 18 f5 01 3c b0 ca fd 3a
       0.0062826783 -0.0065429034 0.00793197 0.0019362774
000190 ac 73 08 bd 4d 3f 10 ba 47 52 b4 bc 26 fa 5c 3c
       -0.03331344 -0.00055025966 -0.02201189 0.013487374
0001a0 4d 4b a6 bc e5 3a bb 3b f4 ac 7c 3c 95 06 ea bc
       -0.020299578 0.005713808 0.015422095 -0.028567592
0001b0 20 fc 23 ba eb 66 53 3c 54 ca 9c ba b3 85 05 ba
       -0.0006255526 0.0129029555 -0.0011962154 -0.000509347
0001c0 63 1b 51 3c 5e 10 ed 3c 90 99 12 3c 8e 54 0c 3d
       0.012762877 0.028938469 0.008947745 0.034260325
0001d0 e7 e2 05 3c d4 1e 3f 3a 51 ca 85 bc 41 25 b1 bb
       0.0081717735 0.00072906655 -0.016331824 -0.0054060523
0001e0 fe 37 7c 3b c4 57 35 bd 54 57 d1 bb b9 c3 cc 3b
       0.0038485522 -0.044273153 -0.006388584 0.006248918
0001f0 b0 7f ba 3a cd 3f 6c bb 4d e9 0c 3d 30 13 12 3d
       0.0014228728 -0.003604877 0.03440218 0.03566283
000200 97 b9 dd 3c a7 26 21 3c 26 51 06 bc 12 8a f7 3c
       0.027066035 0.009835876 -0.008198058 0.030217204
000210 04 69 cd 3c ad 8e 98 3c 74 53 db 3c c2 3d 0b bc
       0.02507449 0.01862272 0.026773192 -0.008498611
000220 86 6d 13 3c 8f d9 bf 3c 54 51 f3 3b e7 68 86 3a
       0.00899828 0.02341917 0.0074254666 0.0010254652
000230 ff b5 2f 3d 8d 30 ac 3c 03 2a cc 3c 22 b3 15 bb
       0.042898174 0.021019245 0.024922376 -0.0022842367
000240 9d aa ca 3c 8e 7b b6 3b 62 f8 37 bc ab a9 01 bc
       0.024739558 0.005568928 -0.011228653 -0.007913987
000250 30 ba 1e 3d cc bb e7 bb 3e 49 da bb 7b 03 39 3d
       0.03875178 -0.0070719477 -0.006661563 0.045169335
000260 e6 58 8c ba 09 c1 56 bb 73 16 a8 bb ab 27 d1 3c
       -0.0010707646 -0.0032768867 -0.0051296293 0.02553161
000270 4a 2b de bb 67 cd 8b 3c e1 39 17 3b 0e 1b 5b 3b
       -0.006780063 0.017065717 0.002307527 0.0033432874
000280 54 e9 09 bc 93 0f 57 3c 0c ac 2a 3d ab 10 1d 3d
       -0.008417446 0.013126272 0.041667983 0.038345974
000290 a8 74 58 3b 78 be e7 bb bd c1 a3 bc b8 25 14 bc
       0.0033028517 -0.007072266 -0.019989843 -0.009042196
0002a0 3f ac cb bc 1d 38 0b 3c 77 ff 08 bd 81 ad 2f bc
       -0.024862407 0.008497265 -0.033446755 -0.010722519
0002b0 2e 7f 81 bc 8c e6 03 3d c4 5a af bc d6 5a 10 3c
       -0.015807714 0.03220229 -0.021405585 0.0088107195
0002c0 bb ff 80 3c 14 f1 80 3b 2e 55 94 bc 8d 4f 76 bc
       0.015746942 0.0039349888 -0.018107023 -0.015033615
0002d0 87 b0 55 3d af 67 af 3c 99 fd 8b 3c fe 3e 13 3d
       0.052170303 0.021411745 0.017088698 0.035948746
0002e0 ae d3 fc 3c 46 91 d2 3c ef b9 da 3c 63 e0 c8 3c
       0.030862655 0.025704037 0.026699988 0.024521058
0002f0 a9 52 71 3c 43 ff 2d 3c 05 67 05 3b 79 8a e9 3b
       0.01472918 0.010619941 0.0020355594 0.007127103
000300 e9 c8 81 bc 82 66 a4 bb 43 09 08 bd 44 b2 94 bc
       -0.015842872 -0.0050171027 -0.033211958 -0.01815141
000310 f0 07 11 3c 92 cb 26 bc 31 8f 24 3d 06 6c 05 3c
       0.00885199 -0.010180371 0.04017562 0.008143431
000320 fd db a4 ba ce a1 c1 3b 79 e9 92 ba 74 1e 93 3c
       -0.0012577769 0.005909181 -0.0011208496 0.017958857
000330 43 36 8c 3c 50 6b 6b 3b 1d c5 45 3c 14 82 35 3c
       0.017115718 0.0035922118 0.012070921 0.011078376
000340 6b c4 1d 3c d9 0d bd bb c0 09 90 bc b0 1a bd 3c
       0.009629349 -0.005769473 -0.017582774 0.023084015
000350 65 aa 11 3c 02 c1 df 3c 8d f3 80 3c b8 15 f3 3b
       0.008890723 0.027313713 0.015741134 0.0074183606
000360 e9 70 0f bc 13 00 2a 3c 66 6d 04 3d 5f 16 a5 3a
       -0.008754947 0.010375994 0.032330893 0.0012595168
000370 da 82 4e 3b d3 8c d6 3c 25 56 80 3c 4f 28 93 3c
       0.00315111 0.026190197 0.015666077 0.017963557
000380 34 69 83 bc 37 07 26 bc cb 51 04 3d 63 11 a6 bc
       -0.016041376 -0.010133556 0.032304566 -0.020271963
000390 58 b9 94 bc eb ce 3d bb 03 eb 4b 3c 4d 6c 3e 3c
       -0.018154785 -0.0028962444 0.012446168 0.011622501
0003a0 3e dd 93 3c ae 47 ba 3c d2 d4 57 bd ba fa 33 bd
       0.018049832 0.022739258 -0.052693196 -0.043940283
0003b0 27 38 13 bd 75 0c a5 ba 94 aa 6c bd cb 92 c1 bd
       -0.035942223 -0.0012592213 -0.057779863 -0.09451827
0003c0 c8 0b 89 bd e8 e6 53 bd 7d 4b c4 bd 09 72 0f 3d
       -0.066917 -0.05173388 -0.09584711 0.03502086
0003d0 ea 99 63 bc 54 92 eb 3c 39 19 ed 3c 06 15 c4 3c
       -0.013891676 0.028756298 0.028942691 0.023935806
0003e0 0c e7 bc 3c 45 95 0f 3d 60 71 f3 3c 8b 5e 0c 3c
       0.02305939 0.035054464 0.029717147 0.008567463
0003f0 a5 a6 cf 3c ad 6a 04 3d d9 b5 58 bc d4 e8 40 bc
       0.025348017 0.032328296 -0.01322695 -0.011774261

conv3.bias f4 [32]
000000 9d ea 02 bc 8f 3d ef 3c 79 45 db 3c 06 a4 63 3d
       -0.0079905065 0.029204158 0.026766526 0.055576347
000010 75 44 23 3c 9d 69 e3 bc d5 3e 95 bc 88 d2 9a 3a
       0.009965052 -0.027760321 -0.018218437 0.0011812011
000020 b8 92 98 bb 2e 82 37 3d 59 e5 80 3d 06 1f 00 bc
       -0.004656162 0.044801883 0.062937446 -0.007819897
000030 97 c3 e7 3c 67 1c 43 3c 1a ad b9 bc ea 52 d9 bc
       0.028291507 0.011908627 -0.02266555 -0.026528794
000040 c9 db c3 3b cc 54 d2 bb a3 40 1a bd 4a 83 83 3c
       0.005977128 -0.0064188 -0.0376593 0.016053814
000050 f1 a6 22 bb df 25 89 bc 00 bd 0a bd 34 e6 cb 3d
       -0.0024818743 -0.016741691 -0.03387165 0.09956017
000060 13 5a 79 3d ec 0b c2 bc 8a 8a 5a 3b 0a 94 bb 3b
       0.060876917 -0.023687325 0.0033346736 0.0057244347
000070 db bc ca bc 31 03 bd 3c 32 82 00 3b 7a a6 d9 3c
       -0.024748256 0.02307281 0.0019608852 0.02656864

conv4.weight f4 [128, 32, 3, 3]
000000 26 22 20 bd b7 7e df 3c d9 37 37 3c 9e 96 0a 3d
       -0.039095066 0.027282102 0.011182749 0.033835046
000010 d6 9d 7a bd d1 e0 de bc 4b 6e 00 bb c8 b8 40 3d
       -0.06118568 -0.02720681 -0.001959699 0.04705122
000020 d9 df 4c 3d 85 5f ab bc 95 6a 22 3d 55 38 28 3d
       0.050018165 -0.02091957 0.039652426 0.041069347
000030 63 0c 1f 3c 52 17 45 bd a7 f0 96 3d 56 18 05 3c
       0.009707543 -0.048117943 0.073701195 0.008123478
000040 16 ee df bc bc be 56 3d 4f ff 26 3b c6 e6 96 3c
       -0.027335208 0.052427992 0.0025481766 0.018420588
000050 bc 75 3f bc a3 b0 c7 bc 27 98 a4 bc a4 52 1f bc
       -0.011685785 -0.02437622 -0.020092083 -0.009724293
000060 24 06 e9 bc 06 d9 90 3c f1 c7 68 3d 94 64 09 bd
       -0.02844531 0.01768161 0.056831304 -0.033543184
000070 cc 92 4a 3d 2f ff 28 bd f6 47 ed 3c 49 b7 ff 3c
       0.049456403 -0.041258987 0.028964978 0.031215327
000080 82 bc 1e bb c1 7e 76 bc 5a de cc bc c4 7b 38 3d
       -0.0024221246 -0.015044869 -0.02500837 0.045039907
000090 c2 8b ce ba e2 84 44 bc 7a 64 95 bc b9 68 58 bd
       -0.0015758204 -0.011994572 -0.018236388 -0.052834246
0000a0 bd e3 61 3c b0 71 2d bc 9e 65 7f 3d 02 fc 9d 3c
       0.013787207 -0.010586187 0.06235277 0.019285206
0000b0 2a 3d 35 3d 89 37 71 bc e6 6c 42 bd 1b 6f 2f bd
       0.044247784 -0.014722713 -0.047467135 -0.042830568
0000c0 b7 52 30 3d 4e f0 27 3d 85 2d 9a bd c5 a3 c7 bc
       0.043047633 0.041000657 -0.075282134 -0.024370084
0000d0 5e ca 13 3d 2c 1d 45 3d 05 8c 5f 3c d3 91 39 bd
       0.036081664 0.048123524 0.013644223 -0.045305084
0000e0 5a b0 40 bd b2 c6 3f 3c bc 62 66 bc b6 ed 8c bc
       -0.047043182 0.0117050875 -0.014061626 -0.017203193
0000f0 63 1c a7 3c e9 b7 ac 3d 34 9f 3f 3d 2a ea 4b bd
       0.020399278 0.084335156 0.046782687 -0.049783863
000100 6a 1f ed bc 94 ee 34 bd 63 90 af 3c 6d 25 1e 3c
       -0.028945643 -0.04417284 0.021431154 0.009652478
000110 a8 fb 66 bd 6e 5c 71 bc 96 0b 54 bb 11 1a 00 bd
       -0.05639234 -0.01473151 -0.0032355539 -0.03127486
000120 e2 65 3a bd 26 e5 92 3b ec e4 1f bc a6 8c aa 3c
       -0.04550732 0.004482883 -0.009759169 0.02081902
000130 fb 3e b8 3c 41 46 91 bc 00 84 85 3b 1a 5b f7 3c
       0.022490969 -0.017733695 0.0040745735 0.030194808
000140 42 ce 36 bd 9e 5c f3 3b 35 c6 69 3c 12 cf 12 bc
       -0.044630297 0.0074268123 0.014268448 -0.008960502
000150 54 a7 25 3d 8f a0 43 3d 1d 32 b0 bc b3 b9 8d 3b
       0.04044278 0.047760542 -0.02150827 0.0043251156
000160 b5 15 57 3d b4 7c ce bc 7e 2e 77 bc 23 1c d3 3c
       0.052510936 -0.025205947 -0.015086768 0.025770253
000170 8d cd db bc f6 b6 d8 bc 26 8d 0c 3d ee e4 3b 3d
       -0.026831413 -0.02645443 0.034314297 0.04587262
000180 11 3f 6c 3c e6 c6 0a 3d 12 91 03 bd 4a 30 1c bd
       0.014419333 0.03388109 -0.03212077 -0.03813199
000190 95 ef 50 3d 4d 7e 34 bc f2 58 ee bc 29 a7 64 bd
       0.051009733 -0.011016441 -0.029095147 -0.05582348
0001a0 ba 39 03 bd 59 53 6d 3d da c8 46 3d 28 40 ed bc
       -0.032037474 0.057940815 0.04853139 -0.028961256
0001b0 19 10 b4 b9 e1 92 73 3d df 11 6f 3d ac 40 c0 3c
       -0.0003434427 0.059466247 0.058366653 0.023468338
0001c0 b3 b6 98 bc e8 80 d8 3c 63 5d a8 bc 32 5f c9 3c
       -0.018641805 0.026428655 -0.020552343 0.024581525
0001d0 d3 38 87 3d da a8 0f bd 05 af 2d bc 93 94 85 3b
       0.06602635 -0.03507314 -0.01060081 0.0040765493
0001e0 0e 43 7e 3d e3 7f 7b 3d b2 c5 34 bd a8 19 79 3c
       0.062075667 0.06140126 -0.04413385 0.015203871
0001f0 04 47 85 bc 1c c3 6c 3d 91 d7 f7 bc d0 7f ad bc
       -0.016269214 0.05780326 -0.030254157 -0.02117911
000200 29 20 1c 3d 0b 40 25 3d 1e f8 79 bc 47 9f 0a bd
       0.038116608 0.04034428 -0.01525691 -0.033843305
000210 99 66 55 bd f2 04 3e bd 55 7d 9c bc 54 91 bd bc
       -0.052099798 -0.046391435 -0.019102732 -0.023140587
000220 5f 72 ad bb d7 a3 56 bd b3 3c 11 3d 0d a2 39 bd
       -0.005293175 -0.052402344 0.035458278 -0.04532056
000230 c0 07 3f 3d fd fa da 3b f2 58 69 3d d0 7c 97 bc
       0.04663825 0.006682752 0.05696959 -0.018492132
000240 eb e9 2f bc 47 0b 21 3d 54 27 55 bd 7f fb d8 bc
       -0.010736923 0.039317396 -0.05203946 -0.02648711
000250 bb d6 6d 3c 17 de e7 bc 55 b3 7a 3d 24 59 7f 3d
       0.014516528 -0.028304143 0.06120618 0.06234087
000260 10 b2 75 3d 7a 92 84 3d 5f 4a 1d 3c 33 3c 18 3d
       0.059984267 0.06473251 0.009600251 0.037166785
000270 41 40 8b 3d c1 20 17 3d 28 5b 37 3c 8d b9 e3 3c
       0.06799365 0.03689647 0.011191167 0.027798438
000280 80 9f 59 3d b3 08 4e bb 45 d0 28 bd 64 2c 5b 3d
       0.053130627 -0.003143829 -0.041214246 0.05350913
000290 2b c2 1e bd f0 b2 a9 3b ac 1a 40 3d 59 7b 34 3c
       -0.03875939 0.0051788017 0.046900436 0.0110157365
0002a0 85 55 a9 bc 3a b5 94 bc 57 2b df 3a c4 b9 23 3b
       -0.020670662 -0.018152822 0.0017026466 0.002498255
0002b0 3f 42 ae bc 58 35 90 3d c7 76 f1 3c 29 d1 55 3d
       -0.021271823 0.070414245 0.029475583 0.052201424
0002c0 58 35 29 3c d1 94 29 bd 6a 20 7e bb 31 d9 16 bd
       0.01032766 -0.041401688 -0.0038776645 -0.036828224
0002d0 df b0 4c bb 51 db 8a 3c ca fc 53 3d 6d 9f 87 bd
       -0.0031233353 0.016950281 0.05175475 -0.06622205
0002e0 ae fe 38 bd 6d 07 2a bd 63 ad 34 bd 73 60 94 bc
       -0.045164756 -0.041510988 -0.044110667 -0.018112397
0002f0 fe fc 47 3b 31 b8 8c 3d 40 6c 1a bd 7b c8 b8 3c
       0.0030515785 0.06871069 -0.03770089 0.022556534
000300 62 c1 cd bc 41 e5 34 bd 98 48 22 bd 7b 40 1f 3d
       -0.025116626 -0.044163946 -0.039620012 0.038879853
000310 1a c9 ca 3b 46 ed 35 bd c1 3b 25 bd 3e fa 34 3b
       0.006188524 -0.044415735 -0.04034019 0.0027614976
000320 db c1 47 3c a1 9b f9 3c f0 81 33 bd ad 3a 36 3d
       0.012192215 0.030469717 -0.04382509 0.04448955
000330 86 d8 2f 3d d5 3e 74 bc 23 b8 f1 3c 68 a7 ae bb
       0.042931102 -0.014907558 0.029506749 -0.005330015
000340 46 00 bd bc 76 b0 78 bd 8e 63 e8 bc 03 1e 61 3c
       -0.02307142 -0.06071516 -0.028367784 0.0137400655
000350 3d 04 19 bb 27 f8 c2 bc cf 5a 6e 3b 85 85 b1 bc
       -0.0023348473 -0.023799969 0.0036370044 -0.021670112
000360 db 33 41 bd f3 6f 5f 3c 1d 07 e4 bc b2 85 85 bc
       -0.047168594 0.013637531 -0.027835423 -0.016299102
000370 a9 22 30 3d c6 2d a8 bc b4 29 ec 3c a8 f6 70 3d
       0.043001805 -0.020529639 0.02882848 0.05882898
000380 01 d9 53 3c 56 20 82 3c c9 e2 67 3d 25 af 55 3d
       0.012930156 0.01588456 0.056612764 0.052168984
000390 ec 96 54 3d 83 67 76 bb 8f 53 70 3d fc b8 21 bd
       0.051901743 -0.003759832 0.058673438 -0.039483055
0003a0 a3 d6 da bc af 80 25 3d 36 5c 59 bd a6 a1 c2 bc
       -0.026713675 0.040405925 -0.053066455 -0.02375872
0003b0 80 51 39 bd 6d f9 03 bd 58 fb 04 3a b9 72 18 bd
       -0.04524374 -0.032220293 0.00050728535 -0.037218783
0003c0 e1 d4 83 bd 78 f4 ed 3c 9e 35 63 3c ad 6f 22 3d
       -0.06437088 0.029047236 0.013867764 0.039657284
0003d0 21 f0 5d 3d 9b c7 1f bd 7e 7e cc 3c 4e e6 40 3d
       0.054184083 -0.039008718 0.02496266 0.047094636
0003e0 9f d2 04 3c aa 13 ff 3c e4 b7 2d 3d c7 41 dc 3c
       0.008106857 0.031137306 0.0424117 0.026886834
0003f0 5f 14 23 3d 0f 67 14 3c b8 2d 44 3d 5f 25 2a 3d
       0.03981435 0.009057774 0.047895163 0.041539546

conv4.bias f4 [128]
000000 b8 ce d8 3c 1c 79 9a bd e8 48 3c 3d 92 84 51 3c
       0.026465759 -0.07542631 0.045967966 0.012787955
000010 ac 91 25 bb 7e af 41 39 58 b2 ce 3d c5 38 4f 3c
       -0.002526383 0.0001847129 0.1009261 0.012647812
000020 95 07 70 bd 6f fa e0 3d d4 cd dd bd 29 7f a5 bd
       -0.05860098 0.109852664 -0.10830274 -0.080808945
000030 d2 d7 5b bd af 25 1b 3d 58 d5 b0 bc 44 5f da 3b
       -0.05367262 0.037877735 -0.021586105 0.0066641886
000040 a8 f9 97 bd 11 4e bc 3c fa 98 6a bd 9b 3d b4 bd
       -0.07420665 0.022986444 -0.057274796 -0.08800813
000050 89 02 82 bd c1 28 a0 3d 2a 6d 6d 3d 3a bb 52 3c
       -0.0634814 0.07820273 0.057965435 0.012862021
000060 29 00 df bc 18 7d 34 3d 24 8c 2c 3c 0c 94 88 bc
       -0.027221756 0.04406461 0.010531459 -0.016672157
000070 8b 8d 4b 3d 59 78 49 bc 01 71 13 3e c0 d3 06 bc
       0.049695533 -0.0122967595 0.14398576 -0.008229196
000080 64 79 72 bd 83 90 c4 3c 79 75 ce 3d d1 8c ac 3c
       -0.0591978 0.02399469 0.10081 0.02106324
000090 7c 25 24 3d ab 6f 40 3d 27 71 b6 3c b8 01 c8 bd
       0.04007481 0.046981495 0.022270752 -0.09765953
0000a0 96 8b 25 3c 40 4f bb 3c a7 12 05 3d 49 a2 ce 3c
       0.010104081 0.022864938 0.03248849 0.025223868
0000b0 2d 1d 78 3c 90 83 94 bd 7b 95 a9 bd 95 d1 73 bd
       0.015143675 -0.07251656 -0.08280464 -0.059526045
0000c0 38 bb 7a 3d f3 44 4f bc 7a df 37 3c 1c 6b c6 bd
       0.061213702 -0.012650716 0.011222715 -0.09688398
0000d0 73 bc 6e 3c 04 55 0b bd 5b 6a e9 3a 50 f2 26 3c
       0.014571297 -0.034016624 0.0017808186 0.010189608
0000e0 e7 41 25 3d e1 da df bc da bd ff ba 73 4b 89 3c
       0.040346052 -0.02732605 -0.0019511536 0.01675961
0000f0 6d 16 ac bb 4a 20 2e bd d2 7a fb 3c 87 3e ca bc
       -0.005251697 -0.042511262 0.030698214 -0.024688018
000100 bd 2b 22 3b 65 e1 d0 ba 1d 26 2c 3d ca 25 b4 bb
       0.0024745308 -0.0015936313 0.042028535 -0.005497669
000110 fc 27 88 bd cf 78 0c bd 4c 6d ec bc 3e 28 12 3d
       -0.066482514 -0.0342949 -0.02886071 0.03568291
000120 6f 84 68 3d f1 a3 23 bc 31 3a 9b 3b 90 86 2d bd
       0.056766924 -0.009987817 0.0047371616 -0.042364657
000130 22 fa 28 3d 28 ba 62 3c 40 d7 2a 3d 1b c7 36 bd
       0.04125417 0.013838328 0.041709185 -0.044623476
000140 98 50 a7 bc 33 19 21 3d 1b 3f 37 bc 70 88 9b 3b
       -0.020424172 0.039330672 -0.011184479 0.004746489
000150 f3 5f ef bc f8 f0 d7 bc ad 45 aa 3c df 79 0b 3d
       -0.029220557 -0.02636002 0.020785177 0.034051772
000160 96 02 39 3d ab ec 08 bc d9 ac 28 3d 0a 07 71 3b
       0.04516848 -0.008357207 0.041180465 0.0036777877
000170 ff 16 35 3c 6c fb bb 3d 91 d1 66 3d a6 f0 74 3d
       0.011052846 0.09178814 0.0563522 0.059799813
000180 9a 99 90 3b ce 07 bb 3d ed 45 fb 3b 37 d5 d7 3c
       0.004412842 0.09132348 0.007668248 0.026346786
000190 e3 f2 b6 ba 51 9b b8 3d d0 0e 83 3d 53 7e 10 3d
       -0.0013957884 0.09013999 0.0639931 0.035276722
0001a0 f1 df 22 bd a3 13 85 3d b0 c9 84 3d fd 0f 88 bc
       -0.03976435 0.06497886 0.06483781 -0.016609186
0001b0 83 39 db 3b d6 4a 31 bd 20 eb 21 bd 0a 35 b0 b9
       0.0066902055 -0.04328426 -0.039530873 -0.00033608853
0001c0 52 10 81 bc 53 42 ac bd 22 3a 06 bd 22 03 3a 3d
       -0.015754852 -0.08411088 -0.032770284 0.045413144
0001d0 9c c3 06 3d 1a 90 02 bd 69 d4 da 3c 89 23 33 bc
       0.03290139 -0.031875707 0.026712613 -0.010933765
0001e0 db 2d 65 3d 6d 7c e6 3c 66 55 ca 3a e8 34 10 bd
       0.055951934 0.028135503 0.0015436828 -0.035206705
0001f0 31 5e 27 bc 01 af 8a 3d 1f 4c 8b 3d e1 00 df 3c
       -0.010215328 0.067716606 0.06801628 0.027222099

conv5.weight f4 [32, 128, 3, 3]
000000 87 87 f4 bc 9b ac 5c 3c 50 40 6a bc 3d 68 8f bc
       -0.02984978 0.013468887 -0.01429756 -0.01750576
000010 fe 88 12 bc e3 d0 f2 3c 74 f7 05 3d cf 48 c0 3c
       -0.008943794 0.02964062 0.032706693 0.023472218
000020 1d f6 4b 39 11 db 4d bc 57 99 b0 bc e3 30 f3 3c
       0.00019451273 -0.0125644365 -0.021557493 0.029686397
000030 02 b9 9e bc c8 a9 e6 3c c4 bb c9 bc 63 83 2d 3c
       -0.019375328 0.02815713 -0.024625666 0.010590407
000040 40 ae 89 bb 41 65 b1 38 a9 77 a1 3c 26 20 8f bc
       -0.0042016804 8.458878e-05 0.019710379 -0.017471384
000050 b4 43 dd 3b 52 65 c7 3b 01 7e d4 ba 84 99 a4 bb
       0.0067524556 0.0060850764 -0.0016211868 -0.0050231833
000060 b8 b0 8b bc 4e b1 f8 3c 32 12 e3 bc 89 49 41 bb
       -0.01705204 0.030357983 -0.027718637 -0.0029493293
000070 81 e0 7d bc 4d 2e 7e 3c 5a 46 a3 bd 48 e7 b1 bd
       -0.01549542 0.015513969 -0.07972403 -0.086866915
000080 d0 b5 01 3c 55 91 d1 bb ae 93 43 bd 3d 96 6a 3c
       0.007916883 -0.0063954988 -0.04774826 0.014318046
000090 93 b1 6b 3c ba d9 fc bc 44 e1 95 bc 8d 4f ba 3c
       0.014385599 -0.030865539 -0.018295892 0.02274301
0000a0 c4 f0 fb 3c b6 bd 61 3c ee 73 db ba b9 80 ec bc
       0.030754454 0.013778141 -0.0016742924 -0.028869973
0000b0 c8 7d ec bb c5 98 be bc 18 7e 65 3c 3f 18 cc 3c
       -0.0072171427 -0.023266206 0.014007114 0.024913905
0000c0 2a 54 3a 3b 25 5f 8b 3c 7b c5 15 bc 45 10 f4 3c
       0.0028431513 0.017013142 -0.009141321 0.029792914
0000d0 ab fc 2e 3d e9 d7 b9 3c bc 26 82 b9 1f 8b 2e 3c
       0.04272143 0.022685962 -0.00024824392 0.010653286
0000e0 60 c9 cb 3b 09 8a dc ba 49 06 ca 3c 6d 5f 86 bc
       0.006219074 -0.0016825806 0.0246612 -0.016402924
0000f0 1f fd 07 3d 13 9f 6c 3c c4 b8 a5 3c 3b 69 e5 bc
       0.03320038 0.014442223 0.020229705 -0.02800428
000100 fa 6e 2f 3c 5e 84 15 3c cd 44 79 3c e6 4b 42 bd
       0.010707611 0.009125797 0.015214157 -0.047435664
000110 a8 d9 30 3b 37 b5 26 bd 49 da ef bc e0 c0 22 3a
       0.0026985202 -0.040700164 -0.029278891 0.000620855
000120 1a 0b f8 bc 19 57 fd bc 2e 4e ca 3c 05 e1 6a 3c
       -0.030278731 -0.03092532 0.024695482 0.014335875
000130 d0 c2 8b bc c1 2a bb ba e8 d7 f9 3c c3 ce f3 3b
       -0.017060667 -0.001427971 0.03049846 0.0074404194
000140 b1 c3 95 bc 7d c4 11 3a 3d 04 c5 bc d4 30 8c 3c
       -0.01828179 0.000556059 -0.024049873 0.017113127
000150 5a ec d4 3c 01 17 b1 bc 1a f8 a4 3c a2 17 70 3c
       0.025991607 -0.021617414 0.020137835 0.014654072
000160 dd 7d 56 bb 51 b6 ce bc 50 67 d1 bc 10 fa c7 3b
       -0.003272883 -0.02523342 -0.025561959 0.006102808
000170 65 6b 96 3b 9d 0b 99 3c ff 99 b8 3c a1 41 b2 3b
       0.004590439 0.018682295 0.022534369 0.0054399525
000180 68 15 8b 3c 77 a9 f9 bc 5a 1d 24 3c a8 a5 8a bb
       0.01697798 -0.030476315 0.010016764 -0.0042311735
000190 6f e6 e5 3c 97 0b b5 bb 34 07 0a 3c 26 d2 0d 3d
       0.02806398 -0.0055250633 0.008424569 0.03462424
0001a0 45 09 a8 bc dc 1b f4 3c 3d c0 af 3c 86 fa 29 bb
       -0.020512233 0.02979844 0.021453971 -0.0025936677
0001b0 9d 7d aa bb f6 92 a9 3c 47 ae 07 3b 64 98 02 3c
       -0.0052029626 0.02069996 0.0020703243 0.007970903
0001c0 58 8e d9 bb 51 e1 eb bc ab 08 79 bc 5d e3 96 3c
       -0.006639283 -0.028793963 -0.0151998205 0.018418962
0001d0 bb d1 81 bc af 68 a9 3c 6e 20 da 3c 30 f1 f2 bb
       -0.015847078 0.0206798 0.026626792 -0.0074140057
0001e0 bf 67 2f bc 67 c9 f5 bc 75 0f 74 3a 94 47 1c bd
       -0.010705887 -0.030003263 0.00093101646 -0.0381542
0001f0 5d fd 04 bd 86 71 8e 3a 0a 95 57 bb 3e 0c 06 bb
       -0.03246819 0.0010867573 -0.003289523 -0.0020454074
000200 51 f1 be bc 2d ff 98 3c 31 19 e4 3c 9a b4 ed bc
       -0.023308428 0.018676365 0.027844043 -0.029016782
000210 3d d4 84 3c 79 bb 54 bc 6c 2b b0 3c 90 21 33 3c
       0.016214484 -0.01298415 0.02150508 0.010933295
000220 a0 c2 b4 3c f3 15 6e 3c f1 52 15 bc e1 1f 68 3c
       0.02206546 0.0145316 -0.009114013 0.014167757
000230 b2 2b e5 bc 8e 06 85 3c 78 19 bb 3b f8 d8 4f bb
       -0.027974937 0.016238477 0.005709823 -0.0031715017
000240 6b 07 d7 bc a8 fa 68 3c 14 f8 13 3c 30 1a 33 3d
       -0.026248654 0.014219917 0.009031314 0.043726146
000250 cf 21 ad bb 8c 1a 94 bc ba de 44 ba 51 11 7a 3c
       -0.0052835713 -0.018079065 -0.00075099955 0.015262918
000260 c8 15 d5 3c 44 23 9b bc 91 cf 66 3b 24 6f d3 bc
       0.026011363 -0.018937714 0.0035218934 -0.025809832
000270 2c 4f 02 3d e4 c3 ae 39 fd 97 b1 bc 70 e5 ba 38
       0.031813785 0.00033333816 -0.021678919 8.911907e-05
000280 28 33 30 3d 60 42 29 3b 29 be 9d bb 1c 96 82 b8
       0.043017536 0.0025826916 -0.0048139286 -6.226843e-05
000290 1e b6 53 3c 0c 3d 8e 3c f7 23 a3 bc 97 8e 95 3c
       0.012921838 0.017363094 -0.01991461 0.018256469
0002a0 14 ea 0f bd 64 8d 0e bd 85 b4 ef 3c bd b5 18 bd
       -0.035135344 -0.03480281 0.029260883 -0.037282694
0002b0 1f b4 6a bb 63 3b 38 3c 0d d9 8d 3c 9d 6b f3 ba
       -0.0035812927 0.011244628 0.017315412 -0.00185715
0002c0 ac 54 58 bc 82 7f 27 bd f1 81 3a bd d5 bc a3 bb
       -0.013203781 -0.040893085 -0.045534078 -0.0049968758
0002d0 f6 df 3f bc 3a 1e c5 bc 91 c9 b6 bc 75 14 95 3c
       -0.011711111 -0.024062265 -0.022312911 0.018198231
0002e0 90 29 d9 bc 5f 19 c3 39 5b 53 b6 3c 4d 69 c6 3b
       -0.026509076 0.000372122 0.022256544 0.0060550333
0002f0 70 39 a9 3c 57 fc 41 3c 0a 67 5b 3c b5 14 69 3c
       0.020657271 0.011839948 0.013391266 0.014226128
000300 79 27 9b bc c5 29 5d 3c 76 54 eb bc 82 bb db bb
       -0.01893972 0.013498728 -0.028726798 -0.0067057023
000310 14 49 37 3d 58 9d 82 3c 31 53 37 bc 41 e6 0d bd
       0.044747427 0.015944168 -0.011189268 -0.034643415
000320 24 90 88 3c 22 9a 3d bd dc d1 69 bd 7a 1d 36 bb
       0.016670294 -0.04628957 -0.057084903 -0.0027788565
000330 bc 7b ec 3c 06 30 9a bc 4a 74 bd 3c 60 1e be 3c
       0.028867595 -0.018821727 0.02312674 0.023207843
000340 11 77 17 bc 47 3d 7f bc c5 11 58 bc ee b1 fa b9
       -0.009244696 -0.0155785745 -0.01318783 -0.00047816284
000350 8f bd 82 3c fc cc 9b bc 71 1d c1 bc 76 e8 38 bb
       0.01595953 -0.019018643 -0.02357361 -0.002821473
000360 65 70 bc 3c fa aa ab bc ea 5b 7e 3b c1 9f 46 bc
       0.023002813 -0.020955551 0.003881211 -0.012123049
000370 c1 f7 a2 bc 41 95 80 bc 59 e9 3b bd 6c ec db 3b
       -0.019893529 -0.01569617 -0.045876835 0.0067115333
000380 7d 4c aa 3c 32 83 00 3c 95 23 89 bc fb 9f c4 39
       0.020788426 0.007843779 -0.0167406 0.00037503228
000390 ef 54 a7 bc c4 7f 86 bb a5 f3 c1 bb 2b c0 8a bc
       -0.020426242 -0.0041045863 -0.0059189373 -0.016937336
0003a0 89 64 18 3c 96 74 25 bc 76 51 a9 3c c1 6f 45 bc
       0.009301313 -0.010098597 0.020668726 -0.01205057
0003b0 c6 e4 c8 3c 68 8c 48 bd 4d aa 65 3c 85 b7 82 bc
       0.02452315 -0.048962027 0.014017654 -0.01595665
0003c0 2b d0 44 3d 1f e8 48 3d e7 42 ed ba d8 48 dd bc
       0.048050087 0.049049493 -0.0018101603 -0.027012274
0003d0 67 34 dc bb 11 57 85 3c c8 21 9f bb 4b 49 04 3c
       -0.006720114 0.016276868 -0.004856322 0.008074115
0003e0 e8 28 d5 bc 55 06 e5 3c 0f 16 be bc f0 19 cf bc
       -0.026020482 0.02795712 -0.023203878 -0.025280923
0003f0 35 2a 85 3c 12 5e c3 bc 10 9f a8 bc 9b 3f 4e 3c
       0.016255477 -0.023848567 -0.02058366 0.012588407

conv5.bias f4 [32]
000000 c7 db 08 bd f7 b9 07 bd 24 81 a5 bc d8 f6 ef 3b
       -0.03341272 -0.033136334 -0.02020318 0.0073231272
000010 6c 91 b0 3c 88 e4 e0 3c f6 62 52 3d 13 c4 72 bd
       0.021553718 0.027452722 0.051363908 -0.059269022
000020 20 e2 36 bc c6 08 06 bd 8f 1e 38 ba bf 2f a3 bb
       -0.011162311 -0.03272321 -0.00070235966 -0.004980057
000030 01 79 13 bd 0f 45 88 3d 11 92 27 bd 22 04 72 ba
       -0.03600407 0.06653797 -0.040910784 -0.0009232183
000040 94 09 53 bc af 3c 29 bd 4a 1d 7a 39 17 c5 14 3d
       -0.012880702 -0.041317638 0.00023852769 0.036320772
000050 9d 42 64 bc 2b ef 06 bd ff e7 05 3c 20 e0 e3 bc
       -0.0139318975 -0.032942932 0.008172988 -0.027816832
000060 5d b6 26 bc 13 06 05 3d c3 af eb bc 72 68 ca 3a
       -0.010175315 0.032476496 -0.028770333 0.0015442504
000070 1b 13 59 3d 5e 63 db 3c b4 02 7c 3c 8f cf b9 3c
       0.052996736 0.02678078 0.015381504 0.02268198
