Cifar/lrs_based_problem_final_eps_25/lrs_1e-05_model_.pt (torch, 147295 bytes, 4 tensors)

conv1.weight f4 [16, 3, 3, 3]
0	0x3db315ce	0.08744393
1	0xba5c39cf	-0.0008400948
2	0xbd5c5a89	-0.05379728
3	0x3e0512fe	0.12995526
4	0x3d9b85d7	0.07593887
5	0x3de58f44	0.112089664
6	0xbbc37683	-0.0059650554
7	0x3d2e8d94	0.04261549
8	0xbdadb9a6	-0.08482675
9	0x3ce75ac8	0.02824153
10	0x3dd240de	0.10266279
11	0xbc0e9958	-0.008703552
12	0xbe313adc	-0.1730761
13	0xbd9370f9	-0.07199282
14	0x3d0b4583	0.03400184
15	0xbdcc32ab	-0.09970602
16	0x3e17bef7	0.14818941
17	0x3c538f5e	0.012912599
18	0xbcca3aaf	-0.024686186
19	0xbe13ee94	-0.14446479
20	0xbdc19964	-0.09453085
21	0xbe4c9e4f	-0.19982265
22	0x3e13c293	0.14429693
23	0x3e1adf3f	0.15124224
24	0xbd620514	-0.055180624
25	0x3e271300	0.16315842
26	0xbe41b2ad	-0.18915816
27	0xbe37c97a	-0.17947951
28	0x3caf7a01	0.02142048
29	0x3a822035	0.0009927811
30	0x3d812940	0.06306696
31	0x3dacbd87	0.08434587
32	0x3d9b7557	0.0759074
33	0xbdbbc310	-0.091680646
34	0x3e123477	0.14277826
35	0x3dee3f03	0.11633112
36	0xbe2c9659	-0.16854228
37	0x3d350c0a	0.044200934
38	0xbbc67b5d	-0.0060571865
39	0x3e15c995	0.14627679
40	0x3e480c04	0.19535834
41	0x3e1f3a61	0.15549614
42	0x3d708bb3	0.058726978
43	0x39d3419f	0.00040293948
44	0x3e074add	0.13212152
45	0xbce5fe8a	-0.028075475
46	0xbe262b7d	-0.16227527
47	0x3d9ac328	0.07556754
48	0xbc7174d7	-0.014737329
49	0x3e1c2a4f	0.15250514
50	0xbcd34079	-0.025787579
51	0x3db48539	0.08814473
52	0x3dd198b3	0.10234203
53	0x3d8658c1	0.06559897
54	0x3de143ac	0.109992355
55	0x3ddd2893	0.107987545
56	0x3e3ccb72	0.18436983
57	0xbd8b5309	-0.06802947
58	0xbe116d77	-0.14201914
59	0xbcbf32a1	-0.023339571
60	0xbd101117	-0.03517255
61	0x3d9924d7	0.0747773
62	0x3def4932	0.11683883
63	0x3e25eb0b	0.16202943
64	0x3e369b1e	0.1783261
65	0x3e1da7e7	0.15396081
66	0xbe2ec712	-0.17068127
67	0x3dc722cf	0.09723436
68	0xbd9a1fd7	-0.07525604
69	0xbdcb4084	-0.09924415
70	0xbde38217	-0.11108797
71	0xbd0cdb0e	-0.034388594
72	0xbe249d76	-0.16075692
73	0xbe28b2bf	-0.16474436
74	0xbcd1d253	-0.025612986
75	0xbd348d95	-0.044080336
76	0xbe21cd0b	-0.15800874
77	0xbdc90211	-0.09814847
78	0x3e037c58	0.12840402
79	0x3d135831	0.035972778
80	0x3e0e38d2	0.13888863
81	0xbbd83135	-0.006597663
82	0xbdfe97e0	-0.124313116
83	0xbe3319c2	-0.17490295
84	0x3e49a3a6	0.19691333
85	0xbd626802	-0.05527497
86	0xbe2d6c56	-0.16935858
87	0xbe32cd89	-0.17461218
88	0x3db4af8a	0.08822544
89	0x3e16ef6e	0.14739773
90	0x3e4aede9	0.19817318
91	0x3e05cef9	0.13067235
92	0x3dde8487	0.10865121
93	0x3ca6760c	0.020319961
94	0xbe09c6d3	-0.13454752
95	0xbdc5d783	-0.09660246
96	0x3e12ca58	0.14335
97	0xbddcdb7b	-0.1078405
98	0xbd8d4c72	-0.068993464
99	0xbd1fd085	-0.03901722
100	0x3da8825c	0.08227989
101	0x3e0855e8	0.1331402
102	0x3e283e29	0.16429962
103	0xbdd34a67	-0.103169255
104	0xbd3fed19	-0.046856973
105	0x3e4a8ecd	0.19781037
106	0xbce02c0f	-0.027364759
107	0x3dcbaae3	0.099447034
108	0xbe43bcfc	-0.1911506
109	0xbe1f8704	-0.15578848
110	0xbe27719f	-0.16351937
111	0xbe2361a2	-0.15955213
112	0xbe0e6c7f	-0.13908575
113	0x3c8de9ff	0.017323492
114	0xbe3f2949	-0.18668093
115	0xbbc53be5	-0.006019103
116	0xba228fbc	-0.00062012277
117	0x3c663fc1	0.014053286
118	0x3d60f568	0.054921538
119	0xbd80b4aa	-0.06284459
120	0x3e4229a1	0.18961193
121	0x3cd566c4	0.026049979
122	0x3e38793b	0.18014996
123	0x3da446f9	0.080213495
124	0x3d20079f	0.039069768
125	0xbe0bb49c	-0.13643116
126	0x3e0678c9	0.13132013
127	0x3e028099	0.12744369
128	0xbdf53923	-0.119737886
129	0x3e3c296e	0.18375179
130	0x3de74649	0.11292703
131	0xbc74e1ea	-0.01494644
132	0xbdd439a0	-0.103625536
133	0x3d2cf83d	0.042228926
134	0x3e1ac1a5	0.15112932
135	0xbc18beb9	-0.009322816
136	0x3d8e84be	0.06958912
137	0xbda40f61	-0.08010746
138	0xbce5ea10	-0.028065711
139	0x3e26787c	0.16256899
140	0x3d25e549	0.040501866
141	0x3dfba73e	0.12287758
142	0x3d0ba914	0.034096792
143	0xbdc1b9ae	-0.09459244
144	0xbe063024	-0.13104302
145	0x3e4835bb	0.19551747
146	0xbc45bf09	-0.012069472
147	0xbe02bf54	-0.12768298
148	0x3da2f2a5	0.07956437
149	0xbe0d85e9	-0.13820614
150	0x3e0d815e	0.13818881
151	0x3e0b638b	0.13612191
152	0xbc5a4e1f	-0.01332429
153	0x3c00d18b	0.007862459
154	0x3b43bfa6	0.002986887
155	0xbdd5d2b7	-0.10440581
156	0x3ceb3125	0.028709957
157	0xbccbfc4b	-0.024900576
158	0x3e1f14b3	0.1553524
159	0xbd010a0c	-0.031503722
160	0x3e04abaa	0.1295611
161	0x3e3da303	0.18519215
162	0x3e041227	0.1289755
163	0x3b62d194	0.0034609782
164	0xbdd4475a	-0.10365172
165	0xbd2636be	-0.04057955
166	0x3e0b1140	0.13580799
167	0xbe383b22	-0.17991307
168	0xbdc59b00	-0.096487045
169	0x3df5332a	0.119726494
170	0x3d47f4f2	0.048817582
171	0x3e2e0f85	0.16998108
172	0xbda76b8d	-0.081748106
173	0x3db5b906	0.08873181
174	0x3e118617	0.14211307
175	0xbd98869e	-0.07447551
176	0xbe4095e4	-0.18807179
177	0xbd8d54c5	-0.06900934
178	0x3dcdc8fb	0.100480996
179	0xbe3916b4	-0.18075067
180	0x3d6f412a	0.058411755
181	0x3da216b8	0.079144895
182	0xbe270c33	-0.16313247
183	0xbe2b8f9d	-0.16754003
184	0xbe14b041	-0.1452036
185	0xbca077ca	-0.01958837
186	0x3dc983b0	0.098395705
187	0x3db0686a	0.086136654
188	0xbcc2bce6	-0.023771714
189	0x3d8dac2b	0.06917604
190	0xbe26cd15	-0.1628917
191	0x3d7c8b98	0.061656564
192	0x3c98f843	0.018673068
193	0xbdf4b122	-0.11947848
194	0xbd964b7b	-0.073386155
195	0x3deee7da	0.11665316
196	0x3db5d845	0.08879141
197	0xbd60e141	-0.05490232
198	0xbdaad14b	-0.08340701
199	0xbd4129f7	-0.04715916
200	0x3e39c100	0.1814003
201	0x39daac5c	0.00041708618
202	0xbdf26817	-0.1183626
203	0x3e2e0397	0.16993557
204	0x3cceec7e	0.025259253
205	0xbcb809f4	-0.022465684
206	0x3e4480bd	0.19189735
207	0xbc0be40f	-0.00853826
208	0xbe37f577	-0.17964731
209	0xbd4e7506	-0.05040457
210	0xbe19ef3a	-0.15032664
211	0xbd68ae51	-0.056806866
212	0x3d05a08a	0.032623805
213	0x3e1275d5	0.14302762
214	0x3e1ec6eb	0.15505569
215	0xbdfe9a4e	-0.12431775
216	0xbe293c2b	-0.16526859
217	0xbdd0d88a	-0.101975515
218	0xbda0fd01	-0.07860757
219	0xbe0bdf8d	-0.13659497
220	0xbe020539	-0.12697305
221	0x3e2437f1	0.16036965
222	0xbe512643	-0.20424752
223	0xbd869e01	-0.065731056
224	0x3ddd1c42	0.107964054
225	0xbe4e0f01	-0.20122911
226	0x3d6f61d3	0.0584429
227	0xbe47e170	-0.19519591
228	0x3d2f2d2c	0.04276769
229	0xbdb853b2	-0.090003386
230	0xbe098f86	-0.13433656
231	0xbcbdee0e	-0.023184802
232	0xbe47b9e2	-0.19504502
233	0xbe39533a	-0.18098155
234	0xbdfe5b44	-0.12419751
235	0xbdcb07eb	-0.099136196
236	0x3e27d989	0.16391577
237	0xbe3768c9	-0.17911066
238	0x3d432529	0.04764286
239	0xbd92f160	-0.07174945
240	0x3e2bd918	0.16782033
241	0xbe4aa5fd	-0.19789882
242	0xbcd3eb5f	-0.02586907
243	0x3cb94b30	0.02261886
244	0xbddc7c53	-0.107659005
245	0xbd09ad5e	-0.0336126
246	0x3df1d637	0.11808436
247	0x3da682b3	0.08130398
248	0xbdbf6368	-0.09345132
249	0x3dab8fc2	0.08377029
250	0x3d445042	0.047928102
251	0xbdffc5d4	-0.124889046
252	0x3e1026d7	0.14077316
253	0xbd946e5c	-0.07247612
254	0x3e3906a1	0.18068935
255	0x3e28e8aa	0.16495004

conv1.bias f4 [16]
0	0x3d376ab3	0.04477949
1	0x3d7d4b25	0.06183924
2	0xbd906c73	-0.07051935
3	0xbdc9a12d	-0.09845195
4	0x3dea66c5	0.11445383
5	0x3e235b6d	0.15952845
6	0x3d8e3655	0.06943957
7	0x3dded2a4	0.1088002
8	0x3d310620	0.043218732
9	0x3d95592d	0.072923996
10	0xbe2b5639	-0.1673211
11	0xbdc74264	-0.0972946
12	0xbd06b099	-0.03288326
13	0xbd034a56	-0.032053314
14	0x3d655284	0.055986896
15	0xbe307018	-0.1723026

fc1.weight f4 [10, 3600]
0	0x397a7543	0.00023885541
1	0x3aecd7c6	0.0018069677
2	0xbbc3e0ee	-0.0059777414
3	0xbc5881cd	-0.013214541
4	0x3b3d739b	0.0028908018
5	0xbca567b9	-0.02019106
6	0xbc31688c	-0.010828149
7	0xbbde8ced	-0.006791702
8	0xbc80a861	-0.01570529
9	0xbcc1dfcd	-0.023666287
10	0x3ac78a7a	0.0015223764
11	0xbcb78515	-0.022402326
12	0xbc76de14	-0.015067596
13	0xbbabf05e	-0.00524716
14	0xbcc010d3	-0.023445522
15	0xbc02677f	-0.007959246
16	0xbc130acc	-0.008974742
17	0xbc98e15f	-0.018662153
18	0xbc9d4903	-0.019199854
19	0xbc71a854	-0.014749605
20	0xbb91d183	-0.0044500246
21	0xbae95aba	-0.0017803528
22	0xbc2a0255	-0.010376533
23	0x3af795bb	0.0018889228
24	0x3b1fc088	0.0024376232
25	0x3b6582a1	0.0035020488
26	0xbc862518	-0.01637511
27	0xbc8262a1	-0.01591617
28	0xbc794897	-0.015215061
29	0xbc44e67a	-0.0120178405
30	0xbb05e8c3	-0.0020432926
31	0xbc7ef976	-0.015562406
32	0x3abc1c8a	0.0014351767
33	0x3ba26aeb	0.0049565933
34	0xbbbc0d24	-0.005738871
35	0xbcae1857	-0.02125184
36	0xbb33f681	-0.002746016
37	0xbc968551	-0.018374117
38	0xbc40ebd7	-0.011774979
39	0xbc2bcc29	-0.010485687
40	0x3c0521c4	0.008125726
41	0xbbff3a6f	-0.0077889482
42	0xbcbaba0f	-0.022793798
43	0xbc821c39	-0.015882598
44	0x3b8db2bc	0.0043242853
45	0x3ba32001	0.0049781804
46	0xbc86199f	-0.016369639
47	0x3ace0331	0.0015717504
48	0xbc81a0bf	-0.01582372
49	0xbc7bdff1	-0.015373216
50	0xbca2cc43	-0.01987279
51	0x3ae04bd5	0.0017112443
52	0xbbf9d76b	-0.007624557
53	0xbc9d9294	-0.019234933
54	0x3b3765d6	0.0027984283
55	0xbcb4471b	-0.022006562
56	0xbca16476	-0.019701224
57	0x3bd063c1	0.006359548
58	0x3ba4e903	0.00503266
59	0x3a3f7de6	0.0007304832
60	0x3beac313	0.007164368
61	0xbcada1fb	-0.021195402
62	0xba3133bf	-0.0006759725
63	0x388d4cfd	6.737744e-05
64	0x3b905aab	0.0044053397
65	0x3b9ca4f5	0.0047804066
66	0xbcbf0a3e	-0.023320314
67	0x3a6aa40e	0.00089508377
68	0xbc170ebe	-0.009219823
69	0xbbf04b30	-0.007333182
70	0xb9af7926	-0.00033468864
71	0x3aa98050	0.0012931917
72	0x3b8d6db6	0.004316057
73	0x3c10447f	0.008805393
74	0xbbedd252	-0.007257738
75	0x3c043cff	0.008071183
76	0x3b0051fd	0.0019580119
77	0xbbccb3a1	-0.0062469994
78	0x3c07dd86	0.008292561
79	0xbbd777fb	-0.006575582
80	0xbc0d3284	-0.008618001
81	0xbcbcf2c7	-0.023064984
82	0xbb52b95a	-0.0032153935
83	0xbc2cff5b	-0.010558928
84	0xbcae724d	-0.021294737
85	0x3bab2b93	0.0052237003
86	0x3c2496c3	0.01004571
87	0xbc5bccb3	-0.013415503
88	0xbb25dc79	-0.0025308414
89	0xbc8f63c8	-0.017503634
90	0x3c02fa36	0.007994225
91	0xbc6560e7	-0.014000154
92	0xbb8db564	-0.004324602
93	0x3bd8227e	0.0065959087
94	0xbbcabac0	-0.006186813
95	0xbc74f543	-0.014951053
96	0xbcb16c18	-0.021657988
97	0xbcb7ec99	-0.022451686
98	0xbca28b8c	-0.019841932
99	0x3b8a1490	0.004213877
100	0x3ac8535c	0.0015283632
101	0xbc64c672	-0.013963329
102	0xbb454bae	-0.0030104923
103	0xbbe9ef27	-0.007139105
104	0x3be70552	0.007050195
105	0xbc7bf0dd	-0.0153772505
106	0xbc805712	-0.015666518
107	0x3b91d80a	0.0044508027
108	0x3b9fe0ce	0.0048790937
109	0xbb9f8b66	-0.0048689125
110	0xb95118dc	-0.00019941054
111	0x3b7125be	0.0036796178
112	0xbc2d0097	-0.010559223
113	0xbca9d604	-0.020731933
114	0xbc763318	-0.01502683
115	0x3bf124cb	0.0073591224
116	0x3c52aa0e	0.012857927
117	0xbc4f4059	-0.012649619
118	0x3b13dffa	0.002256392
119	0x3c2b15b2	0.010442184
120	0xbc773d03	-0.01509023
121	0x3c1b78ea	0.009489277
122	0xbc79166e	-0.015203102
123	0x3c2feb51	0.010737256
124	0xbb5a8aaa	-0.003334681
125	0xbc12fbfe	-0.008971212
126	0xbc8f2ff3	-0.017478919
127	0xbbeb85d3	-0.007187584
128	0xbc503e8e	-0.012710227
129	0x3b7ff1bb	0.0039053995
130	0xbc3ab66b	-0.011396031
131	0xbc1df9be	-0.009642063
132	0x3c2270f7	0.009914628
133	0xbc74a37a	-0.014931554
134	0x3c2019ad	0.009771747
135	0xbcbb4886	-0.02286173
136	0xbc990a6f	-0.018681733
137	0xbc9978c2	-0.01873434
138	0x3c0979f0	0.008390889
139	0x3b84d3e0	0.004053578
140	0xbc92947d	-0.01789307
141	0xbc596ab8	-0.013270073
142	0xbb368599	-0.0027850627
143	0xb9e76a82	-0.00044139108
144	0xbb9a2656	-0.004704277
145	0xbc31fa6f	-0.010862931
146	0xbc5c29f7	-0.01343774
147	0xbbca326e	-0.0061705625
148	0xbc475bde	-0.012167899
149	0xbcb443e5	-0.02200503
150	0xbc07612a	-0.008262912
151	0x3bff3e6b	0.007789423
152	0xbb8d3e3f	-0.004310399
153	0xbbf8f080	-0.007597029
154	0xbc6f4376	-0.014603486
155	0xbc3870c6	-0.011257356
156	0x3be1c7f4	0.0068902913
157	0x3b0004fa	0.0019534216
158	0x3b208437	0.0024492869
159	0xbc35f42e	-0.01110558
160	0x3b58ff71	0.003311124
161	0x3ba1c1f7	0.0049364525
162	0x3c1aecc0	0.00945586
163	0xbc1c04cf	-0.009522631
164	0xbc5b3ff1	-0.013381944
165	0xbbd9bf01	-0.006645084
166	0x3b9bb14c	0.00475136
167	0x3bd78a4f	0.006577767
168	0x3b26529b	0.0025378827
169	0x3c022a2b	0.007944624
170	0xbc35252b	-0.011056225
171	0x3b86cba6	0.0041136323
172	0x3bd1ad70	0.006398849
173	0xbc3c7b3c	-0.011503991
174	0xbcad8260	-0.021180332
175	0xbb001069	-0.0019541031
176	0xbc25d569	-0.010121682
177	0xbc101fa4	-0.008796606
178	0x3be781ac	0.0070650186
179	0x38c8eed4	9.5812284e-05
180	0x3c1ddbcd	0.009634924
181	0xbb35e979	-0.0027757569
182	0x3bbd5eb5	0.005779112
183	0x3bcc112e	0.006227634
184	0xbc6dfae6	-0.014525151
185	0xbbade710	-0.005307086
186	0xbb63d1de	-0.0034762542
187	0xbc5f2a2b	-0.0136208935
188	0xbc965049	-0.01834883
189	0xbbadf6d7	-0.0053089666
190	0xbc8ce5f7	-0.0171995
191	0xbbb17582	-0.0054156194
192	0xbcb48468	-0.022035792
193	0xbb9fa687	-0.0048721465
194	0xbc164fe5	-0.009174322
195	0xbc8d064b	-0.017214915
196	0x3bde01c7	0.006775114
197	0xbc51d7fa	-0.0128078405
198	0xbca9a827	-0.020710064
199	0xbc8426bc	-0.016131751
200	0xbc44f7fc	-0.012022015
201	0xbab146a1	-0.0013525077
202	0x3ba6dae0	0.00509201
203	0xbcb6fa89	-0.022336261
204	0xbb821037	-0.003969218
205	0xbc5c472f	-0.013444706
206	0xbb999cb4	-0.00468787
207	0xbc91e5b7	-0.017809732
208	0x3c1a2852	0.009409027
209	0xbcad4184	-0.021149404
210	0x3b1f62f8	0.0024320465
211	0x3c30a6ca	0.010781953
212	0xbbb8fac3	-0.0056451275
213	0xbc1e9789	-0.0096796835
214	0xbcb5c705	-0.022189626
215	0xbc90e005	-0.017684946
216	0xbca96200	-0.020676613
217	0xbb811ec6	-0.003940436
218	0xbc9f5f81	-0.01945472
219	0x3bea0be8	0.0071425326
220	0x3a95bc65	0.0011423944
221	0xba8add3d	-0.0010594499
222	0xbc1251cd	-0.008930636
223	0xbc912499	-0.017717646
224	0xbc8db8c0	-0.01730001
225	0x391735e4	0.00014420558
226	0xbb85197a	-0.004061875
227	0x3c8a29c7	0.016865624
228	0xbb6cbf27	-0.0036124678
229	0x3bb4924b	0.0055106035
230	0x3c7f1d7c	0.0155709945
231	0xbc02f6a6	-0.007993376
232	0xbb08d847	-0.0020880864
233	0x3b8aa887	0.004231516
234	0x3c1bb10f	0.009502663
235	0xbbcfb37c	-0.006338535
236	0x3c36e120	0.011162072
237	0x3bfc8bc5	0.0077070915
238	0xba00971b	-0.0004905329
239	0x3b2f2f22	0.0026730974
240	0x3c8ac756	0.016940754
241	0x3c464410	0.012101188
242	0xbc005670	-0.007833108
243	0x3c5a195c	0.01331171
244	0xbb8e162d	-0.0043361397
245	0x3c08d238	0.008350901
246	0xbbd6a553	-0.00655047
247	0xb998c700	-0.00029139966
248	0xbc05a640	-0.008157313
249	0x3c07a16d	0.008278233
250	0xbc365643	-0.011128965
251	0xbc783292	-0.015148776
252	0xbc05bb7e	-0.008162377
253	0x3bf9492a	0.007607599
254	0x3c80ba9e	0.015713986
255	0x3c2a9310	0.010411039

fc1.bias f4 [10]
0	0x3c322c2e	0.010874791
1	0x3bd8db91	0.006617971
2	0x3b25cea5	0.0025300172
3	0xbb86e304	-0.004116418
4	0x3c872cae	0.016500797
5	0x3c39fe6b	0.011352162
6	0xbb834889	-0.0040064496
7	0x3c12206f	0.008918866
8	0xbbe932bf	-0.007116645
9	0xbc8a1cdf	-0.01685947
