Cifar/lrs_based_problem_final_eps_25/lrs_0.1_model_.pt (torch, 147295 bytes, 4 tensors)

conv1.weight f4 [16, 3, 3, 3]
0	0x3d20a6ef	0.0392217
1	0x3d60768a	0.054800548
2	0x3d46703a	0.04844687
3	0x3d963d70	0.07335937
4	0x3da80b8c	0.082053274
5	0x3d8c2bf0	0.06844318
6	0x3db3487e	0.08754061
7	0x3dc6c9dd	0.09706471
8	0x3dac3dca	0.08410223
9	0xbd065963	-0.03280009
10	0xbc8844f2	-0.016634438
11	0xbce079b7	-0.027401788
12	0x3c0ad1d1	0.008472876
13	0x3c82be58	0.015959904
14	0x3b47a0b3	0.0030460774
15	0x3cc4e418	0.024034545
16	0x3d0de88f	0.034645613
17	0x3cbd481c	0.023105673
18	0xbdda6571	-0.1066388
19	0xbdbf1b27	-0.09331351
20	0xbdd63bd4	-0.1046063
21	0xbd7d67cb	-0.061866563
22	0xbd59d4ad	-0.05318134
23	0xbd8b31cd	-0.06796608
24	0xbd25e94c	-0.040505692
25	0xbcff3225	-0.03115184
26	0xbd3d9f00	-0.046294212
27	0x3d800437	0.06250804
28	0x3d332a25	0.043741364
29	0x3d0a58ae	0.033775978
30	0x3d828070	0.06372154
31	0x3cab88a5	0.02093918
32	0x3d18b5bf	0.0372827
33	0x3d84b784	0.06480315
34	0x3d150585	0.036382217
35	0x3d632eab	0.055464428
36	0x3d9b382f	0.075790755
37	0x3d475a48	0.048670083
38	0x3d136639	0.03598616
39	0x3da41916	0.08012597
40	0x3d1067ad	0.035255123
41	0x3d4237d4	0.047416523
42	0x3dcb9ff3	0.09942617
43	0x3d868fb1	0.06570376
44	0x3d8d5028	0.06900054
45	0xbe5a2e4a	-0.2130672
46	0xbe611e9b	-0.21984331
47	0xbe80c7f7	-0.2515256
48	0xbe543d7d	-0.20726581
49	0xbe676527	-0.2259718
50	0xbe776a61	-0.24161674
51	0xbe556320	-0.20838594
52	0xbe642ea2	-0.22283414
53	0xbe751ced	-0.23936816
54	0xbc867fbc	-0.01641833
55	0x3ce02df7	0.027365668
56	0x3d164dcf	0.036695298
57	0x3d34a1cf	0.044099625
58	0x3d58e4f8	0.052952737
59	0x3d708684	0.058722034
60	0x3da328d7	0.07966774
61	0x3da52f24	0.08065632
62	0x3dd14b1a	0.102194026
63	0xbe7d6995	-0.24747308
64	0xbe474002	-0.19458011
65	0xbe3a17e7	-0.1817318
66	0xbe63c3b0	-0.22242618
67	0xbe509200	-0.20368195
68	0xbe4a3266	-0.19745788
69	0xbe2a0663	-0.16603999
70	0xbe2a2b44	-0.16618067
71	0xbe127bfe	-0.14305112
72	0xbda05e24	-0.07830456
73	0xbcd0debe	-0.025496837
74	0xbd0a0cbc	-0.03370355
75	0xbd17a80a	-0.03702549
76	0xbbb071dd	-0.0053846673
77	0xbb8e011d	-0.004333629
78	0xbce6f795	-0.028194228
79	0xbc3d5f13	-0.011558312
80	0x3c04309f	0.008068233
81	0xbc45fcd2	-0.012084203
82	0xbc1fffd1	-0.009765581
83	0xbc478918	-0.012178682
84	0xba37fa40	-0.0007018186
85	0x3b743865	0.003726506
86	0x3b3c777e	0.0028757746
87	0xbaf6f6db	-0.0018841879
88	0xba0ad947	-0.0005296659
89	0xb9e27350	-0.00043191994
90	0xbbfe60d8	-0.0077630095
91	0xbbc71213	-0.0060751527
92	0xbc11cde1	-0.008899183
93	0x3bad4802	0.005288125
94	0x3c10d82f	0.008840605
95	0x3bcfa961	0.00633733
96	0x3b834f5d	0.0040072636
97	0x3bb35940	0.005473286
98	0x3b701cea	0.0036638328
99	0xbc715542	-0.0147298
100	0xbc4eedf0	-0.012629971
101	0xbc65c434	-0.014023829
102	0xbb2de4f2	-0.0026534167
103	0x3abba091	0.001431482
104	0xb937c3b8	-0.00017525151
105	0xbb2117bb	-0.0024580795
106	0xb89052b6	-6.881861e-05
107	0xbade479c	-0.0016958597
108	0xb48366ab	-2.4475352e-07
109	0xb442eb7d	-1.8153328e-07
110	0xb38d3fdd	-6.577441e-08
111	0xb49703a2	-2.8128585e-07
112	0xb440583e	-1.7913496e-07
113	0xb33b63ee	-4.3630216e-08
114	0xb48306ec	-2.4405688e-07
115	0xb378e2c2	-5.7948235e-08
116	0xb252ad62	-1.22630315e-08
117	0x339ecac0	7.394328e-08
118	0x3336a8a0	4.252854e-08
119	0xb1df15ac	-6.492618e-09
120	0x338a6d5f	6.44602e-08
121	0x3342d505	4.5362885e-08
122	0x30c95259	1.4648079e-09
123	0x342d81ae	1.6159058e-07
124	0x341172ee	1.3545989e-07
125	0x33d053f1	9.7010236e-08
126	0xb4ba88c6	-3.4744716e-07
127	0xb4cebb06	-3.8506568e-07
128	0xb474cc70	-2.2798645e-07
129	0xb4c08672	-3.586061e-07
130	0xb4a4cc6a	-3.069611e-07
131	0xb38605ee	-6.24094e-08
132	0xb3905557	-6.721046e-08
133	0xb2eefecb	-2.7822713e-08
134	0xb21aed79	-9.017975e-09
135	0x3840a5fe	4.593096e-05
136	0x3909c912	0.00013140243
137	0x381638f8	3.5815843e-05
138	0x382f5a6d	4.1807467e-05
139	0x39114272	0.0001385303
140	0x38269e45	3.9724884e-05
141	0x3819ff31	3.6715708e-05
142	0x38a60c74	7.9178164e-05
143	0x379d76b5	1.8771136e-05
144	0x3802d7b3	3.11953e-05
145	0x38cc883c	9.752854e-05
146	0x37fb2e8d	2.9943209e-05
147	0x36964a5d	4.4790054e-06
148	0x389bab05	7.422831e-05
149	0x37c2543b	2.3165825e-05
150	0xb6f4dbe2	-7.2973644e-06
151	0x379fa208	1.9029729e-05
152	0x35603bf6	8.353376e-07
153	0xb7d0cbd3	-2.4890445e-05
154	0xb82bf731	-4.0999792e-05
155	0xb7e770d6	-2.758989e-05
156	0xb7a54bcc	-1.9704828e-05
157	0xb85eca89	-5.311755e-05
158	0xb82dd8c5	-4.1448297e-05
159	0xb71da07e	-9.395297e-06
160	0xb7d84514	-2.5781374e-05
161	0xb79ed3db	-1.893372e-05
162	0xbd8ad385	-0.067786254
163	0xbdb83ed1	-0.08996356
164	0xbdb6867e	-0.08912371
165	0xbc2c1bec	-0.010504704
166	0xbd21673c	-0.039405093
167	0xbd2d7e6a	-0.042356886
168	0x3c8036ce	0.015651133
169	0xbbafcf3c	-0.0053652804
170	0xbc011f9e	-0.007881073
171	0xbd459bcb	-0.04824428
172	0xbdaaab47	-0.0833345
173	0xbda430b8	-0.08017105
174	0x3d0bf7ca	0.034171857
175	0xbb9811a4	-0.004640775
176	0x3a1d1f04	0.00059936964
177	0x3d909475	0.07059566
178	0x3d4b7015	0.049667437
179	0x3d662806	0.056190513
180	0xbf0ef68f	-0.5584497
181	0xbf13d254	-0.5774281
182	0xbf14a462	-0.5806333
183	0xbee82923	-0.45343885
184	0xbef055cb	-0.46940455
185	0xbef0e272	-0.47047764
186	0xbee079d7	-0.43842956
187	0xbee23217	-0.4417884
188	0xbee75757	-0.45183823
189	0xbc84761f	-0.016169606
190	0xbd1e2608	-0.03861049
191	0xbd0b0eb6	-0.033949576
192	0x3bb98adc	0.0056623053
193	0xbccd25e1	-0.025042476
194	0xbc77e350	-0.015129879
195	0x3c3b0a69	0.011416056
196	0xbc7ee6f8	-0.015557997
197	0xbbcdbc76	-0.00627857
198	0xbd501f17	-0.0508109
199	0xbd8f4843	-0.06996205
200	0xbd90ac16	-0.07064073
201	0xbcf90aaf	-0.030400602
202	0xbd60649d	-0.054783452
203	0xbd44a333	-0.0480072
204	0xbd0f9f40	-0.035063982
205	0xbd61c7b3	-0.05512209
206	0xbd3a88ae	-0.045540504
207	0xbe429c33	-0.19004898
208	0xbe4f6a6f	-0.20255445
209	0xbe5046ee	-0.20339558
210	0xbe306206	-0.17224893
211	0xbe3d8991	-0.18509509
212	0xbe35f783	-0.177702
213	0xbe3803fb	-0.17970268
214	0xbe4441ba	-0.19165698
215	0xbe399699	-0.18123855
216	0x2151f09e	7.113041e-19
217	0xa27f3d6b	-3.4591459e-18
218	0x21371932	6.203616e-19
219	0x206b1f75	1.9915683e-19
220	0x2172b8b0	8.223722e-19
221	0x16d62ca5	3.460174e-25
222	0x944a1e21	-1.0204336e-26
223	0x8e8101ce	-3.1802693e-30
224	0x0bf16ef3	9.299676e-32
225	0xa480c938	-5.585203e-17
226	0xa635872e	-6.298019e-16
227	0x2139da01	6.2968964e-19
228	0xa577b519	-2.1485193e-16
229	0xa740d10a	-2.6758673e-15
230	0xa4158edc	-3.243023e-17
231	0x206cd703	2.0061119e-19
232	0xa2a58d17	-4.4872724e-18
233	0x214d593d	6.957481e-19
234	0xa5e5730c	-3.9803126e-16
235	0xa5062cbc	-1.1637804e-16
236	0xa40290b7	-2.8311835e-17
237	0x26086728	4.732428e-16
238	0x28c1c64e	2.1513305e-14
239	0x2778cb15	3.4527005e-15
240	0x262614e3	5.7621126e-16
241	0x27e67797	6.3967483e-15
242	0x27c783a2	5.537631e-15
243	0x1c330334	5.923027e-22
244	0x9c1c452c	-5.1705473e-22
245	0x16a15f74	2.6071192e-25
246	0x9cd8ec08	-1.4354694e-21
247	0x9d5671a3	-2.8381413e-21
248	0x9c5cde33	-7.307908e-22
249	0x9d6150e9	-2.9820332e-21
250	0x9dc092ed	-5.0973895e-21
251	0x1c9cc483	1.0374011e-21
252	0x9c643e38	-7.551929e-22
253	0x1c7b58d6	8.316375e-22
254	0x1c66406a	7.618387e-22
255	0x1bb34d69	2.966309e-22

conv1.bias f4 [16]
0	0xbd1be5b4	-0.03806086
1	0xbe31338a	-0.17304817
2	0xbedbc2ac	-0.4292196
3	0xbd363803	-0.04448701
4	0xb722e674	-9.709609e-06
5	0xbb8f76e8	-0.0043781884
6	0x3ec844e7	0.39115068
7	0x3d170e15	0.036878664
8	0xabc1a5f0	-1.3759532e-12
9	0xab89b1c4	-9.783775e-13
10	0x3bbc0784	0.0057382006
11	0xbd05feb9	-0.032713626
12	0x3ed013c0	0.40640068
13	0xbf0a2eb2	-0.539775
14	0x3fb2bcf6	1.3963916
15	0xbcfafc9d	-0.030638034

fc1.weight f4 [10, 3600]
0	0xbcd0d9f3	-0.025494551
1	0xbcb3c7f8	-0.021945938
2	0xbccbd28d	-0.024880672
3	0xbcb79a2c	-0.022412382
4	0xbcb544ee	-0.022127595
5	0xbcc86778	-0.0244634
6	0xbc91ddaa	-0.017805893
7	0xbcf62f76	-0.030051928
8	0xbd018b14	-0.031626776
9	0xbcfd8c86	-0.030950796
10	0xbd0e1c2d	-0.03469484
11	0xbd0a43e6	-0.03375616
12	0xbce51a07	-0.027966512
13	0xbcd77942	-0.026302937
14	0xbcb4fb6c	-0.022092544
15	0xbcd941d7	-0.026520653
16	0xbcfdaa2a	-0.03096493
17	0xbcf356f3	-0.029704547
18	0xbcd5fc13	-0.026121175
19	0xbcf0a255	-0.029374281
20	0xbcf47559	-0.029841112
21	0xbd03917e	-0.032121174
22	0xbcf9ad87	-0.030478252
23	0xbcfbb064	-0.030723758
24	0xbca5d894	-0.020244874
25	0xbcfdaa10	-0.030964881
26	0xbd0a17ce	-0.03371411
27	0xbd06ed85	-0.03294136
28	0xbcfe0d24	-0.031012125
29	0xbcc723d4	-0.024309076
30	0xbd005ad2	-0.031336613
31	0xbd11b7e3	-0.03557576
32	0xbd096592	-0.03354413
33	0xbcf152c1	-0.029458405
34	0xbc919008	-0.017768875
35	0xbd09c42e	-0.033634357
36	0xbd0514db	-0.032490592
37	0xbcff8fe3	-0.03119654
38	0xbc8c735e	-0.017144855
39	0xbcf7a87c	-0.030231707
40	0xbd0ab2e5	-0.033862013
41	0xbd19f0b1	-0.037583057
42	0xbd0c69c7	-0.034280565
43	0xbcddd3f1	-0.0270786
44	0xbcb5e493	-0.02220372
45	0xbcf6258f	-0.030047206
46	0xbd12988a	-0.035790004
47	0xbcf4e2bc	-0.029893272
48	0xbcea68b7	-0.028614385
49	0xbd145b8f	-0.03622013
50	0xbcd93c90	-0.026518136
51	0xbcdf46e9	-0.027255492
52	0xbd0589cc	-0.032602116
53	0xbd007dc5	-0.031369943
54	0xbd10dd80	-0.03536749
55	0xbd8386d3	-0.064222
56	0xbdac2b0c	-0.08406648
57	0xbd3543dd	-0.044254173
58	0xbd0c6481	-0.034275535
59	0xbca19af6	-0.019727211
60	0xbd19a983	-0.037515175
61	0xbd086a01	-0.03330422
62	0xbce41214	-0.027840652
63	0xbc7a225b	-0.01526698
64	0xbc8ed926	-0.017437529
65	0xbba45aeb	-0.005015721
66	0xbb61a5af	-0.003443103
67	0xbc9eacb0	-0.019369453
68	0xbd0f8752	-0.03504116
69	0xbd004d7c	-0.031323895
70	0xbd7e1959	-0.062035892
71	0xbdb22302	-0.086980835
72	0xbd204aa4	-0.039133683
73	0xbce62d57	-0.028097792
74	0xbc44e274	-0.012016881
75	0xbcc6e724	-0.024280138
76	0xbc6db488	-0.014508374
77	0xbc4fd2c6	-0.01268453
78	0xbc20a607	-0.009805209
79	0xba734e00	-0.0009281337
80	0x3c1db4d6	0.009625634
81	0xbad91cd6	-0.001656438
82	0xbc655ac6	-0.013998693
83	0xbd13fca6	-0.036129616
84	0xbd1fdab5	-0.039026935
85	0xbd7eb4f1	-0.062184278
86	0xbda416bb	-0.08012148
87	0xbd0eada1	-0.034833554
88	0xbcc1220e	-0.023575809
89	0xbc963b89	-0.018338935
90	0xbc3feba2	-0.011713894
91	0xbba9cfb8	-0.0051822327
92	0xbb62ca8f	-0.0034605598
93	0xb99f3380	-0.00030365214
94	0xbba7c4ac	-0.0051198807
95	0xbba489d5	-0.0050213137
96	0xbc9a55bd	-0.018839711
97	0xbcdf4a68	-0.02725716
98	0xbce04e63	-0.027381128
99	0xbd117a87	-0.03551724
100	0xbd4b4a8a	-0.049631633
101	0xbd5a11e9	-0.053239737
102	0xbd4e0f31	-0.050307456
103	0xbcc07353	-0.02349249
104	0xbc4938e8	-0.012281634
105	0xbcbe171f	-0.023204384
106	0xbc55d1fe	-0.013050554
107	0xbb9d2aed	-0.004796377
108	0xba2a475c	-0.0006495619
109	0x3cc522b0	0.024064392
110	0x3d020667	0.031744387
111	0x3c38e229	0.0112843895
112	0x3baf8451	0.0053563495
113	0xbbcdacba	-0.006276694
114	0x3cc3ec78	0.023916468
115	0x3d0aa0b6	0.033844672
116	0x3cc3ffc9	0.023925679
117	0x3b41d2cb	0.0029575105
118	0x3c0eda67	0.008719063
119	0xbb084579	-0.0020793362
120	0xbcc5936e	-0.024118152
121	0xbca6d370	-0.020364493
122	0xbcc4a981	-0.024006607
123	0xbcbc3a0e	-0.022976901
124	0xbbf871db	-0.007581932
125	0x398e9091	0.0002719206
126	0xbbe686f6	-0.0070351316
127	0xbb61969c	-0.0034422046
128	0x3af7b171	0.0018897486
129	0x3bf1e478	0.007381972
130	0x3c67dd25	0.014151846
131	0x3baf9f02	0.0053595314
132	0x3c231b8b	0.009955297
133	0x3c5b0f08	0.013370283
134	0xbc003892	-0.007825987
135	0xbd3cadee	-0.04606431
136	0xbd5bd6ff	-0.053671833
137	0xbd6edf68	-0.058318526
138	0xbd520360	-0.05127275
139	0xbd15611c	-0.036469564
140	0xbcc311f1	-0.023812266
141	0xbcb7ffbe	-0.022460815
142	0xbd24a7ba	-0.04019902
143	0xbcb96268	-0.022629932
144	0xbce5440e	-0.027986553
145	0xbcaa1902	-0.020763878
146	0xbcefa788	-0.02925469
147	0xbd0bab52	-0.03409893
148	0xbcc5bb93	-0.024137294
149	0xbc9ceddd	-0.01915639
150	0xbd0f918e	-0.03505092
151	0xbd2eafe9	-0.04264823
152	0xbc9fce5d	-0.019507581
153	0xbc3031a4	-0.010754023
154	0xbcdc0e97	-0.026862426
155	0x3c1a0ef2	0.009402977
156	0x3c00ae05	0.0078539895
157	0xbc8fc2fc	-0.01754903
158	0xbba612a2	-0.005068139
159	0x38de4712	0.00010599023
160	0x3bef3c97	0.007300924
161	0xbc18b9fe	-0.009321688
162	0xbcb84965	-0.022495935
163	0xbc6b34d3	-0.014355856
164	0xbc8d8f76	-0.017280322
165	0xbcaa719a	-0.020806123
166	0xbcb3dd2f	-0.021956054
167	0x3be35a49	0.006938253
168	0x3c83f75e	0.016109165
169	0xbcb660b6	-0.022262912
170	0x3b017430	0.001975309
171	0xbba5f721	-0.0050648605
172	0xbbd63193	-0.0065366714
173	0xbc295ca0	-0.010337025
174	0xbbe937ba	-0.007117239
175	0x3b80c2e7	0.003929484
176	0x3c383da0	0.011245161
177	0x3b1ca5bd	0.0023902499
178	0xb95a66a4	-0.00020828337
179	0x3aa76e4e	0.0012773962
180	0xbc97247e	-0.018450018
181	0xbcb2a2b7	-0.021806104
182	0x3d04420d	0.032289553
183	0x3cc86394	0.024461545
184	0xbb49ccb1	-0.0030792172
185	0xbb647e5a	-0.003486535
186	0xbb0e7ffa	-0.002174376
187	0x3b2694f9	0.0025418384
188	0xbbebcb94	-0.0071958993
189	0xbb805850	-0.0039167777
190	0xbb9a9e79	-0.0047185984
191	0xbc1b75dd	-0.00948855
192	0xbc89086d	-0.01672765
193	0xbc2fd25d	-0.010731307
194	0xb7f5276a	-2.922463e-05
195	0xbcdba09c	-0.026809983
196	0xbc3e7c2c	-0.011626285
197	0x3d09cf7d	0.033645142
198	0x3c96132c	0.018319689
199	0xbbca4644	-0.006172927
200	0xbd047728	-0.0323402
201	0xbc47d75c	-0.012197342
202	0xbc018fcd	-0.00790782
203	0xbc714814	-0.014726657
204	0xbbee2dc3	-0.007268639
205	0x39844ce6	0.00025234296
206	0xbb20dffc	-0.0024547568
207	0xbb967bdb	-0.0045924014
208	0xbb8173c5	-0.0039505684
209	0xbb49db64	-0.0030800933
210	0xbd1d150a	-0.038350143
211	0xbcffff27	-0.031249596
212	0x3c0277dc	0.007963147
213	0x3c99e190	0.018784314
214	0xbb36f649	-0.0027917793
215	0xbcff86ed	-0.031192267
216	0xbc8ba059	-0.017044233
217	0xbb266218	-0.0025388058
218	0xbb5455e8	-0.0032399837
219	0x3ba825e7	0.0051314714
220	0x3cd87fdc	0.026428156
221	0x3c9c05e8	0.019045785
222	0x3c629117	0.013828537
223	0x3b454347	0.0030099915
224	0xbb872a6f	-0.0041249315
225	0x3e5de6b0	0.21670032
226	0x3e10c3d8	0.14137208
227	0x3e01a35f	0.12659977
228	0x3dddbf99	0.1082756
229	0x3dab0414	0.08350387
230	0x3dacece8	0.08443624
231	0x3d78d2f7	0.060748067
232	0x3d7d2203	0.061800014
233	0x3dde7353	0.1086184
234	0x3e8bbfd1	0.27294782
235	0x3e4a9099	0.19781722
236	0x3e40df52	0.1883519
237	0x3e2ed995	0.17075188
238	0x3e87e3d6	0.26541013
239	0x3e919be1	0.2843924
240	0x3e1f0892	0.15530613
241	0x3de44fc0	0.111480236
242	0x3db7f8cc	0.08983001
243	0x3dba3d90	0.09093773
244	0x3d90ac2b	0.070640884
245	0x3d74526b	0.059648912
246	0x3ccaadc1	0.024741055
247	0xbc92ece5	-0.017935226
248	0x3d7cb6a3	0.061697613
249	0x3e709b7f	0.23496817
250	0x3e4b0b41	0.19828512
251	0x3e43ca91	0.19120242
252	0x3e23fd20	0.16014528
253	0x3e7f3152	0.24921158
254	0x3e843660	0.25822735
255	0x3dce5d4d	0.100763895

fc1.bias f4 [10]
0	0xbcb1811c	-0.02166801
1	0x35983740	1.1340962e-06
2	0xb2c4895b	-2.2879865e-08
3	0xb4ec1df8	-4.398023e-07
4	0x3d467211	0.048448626
5	0xbba56309	-0.0050472063
6	0xb5b261ea	-1.329053e-06
7	0x33e7b753	1.0790122e-07
8	0xb3198db9	-3.5751984e-08
9	0xb63c91d3	-2.8099064e-06
