Cifar/lrs_based_problem_final_eps_25/lrs_0.01_model_.pt (torch, 147295 bytes, 4 tensors)

conv1.weight f4 [16, 3, 3, 3]
000000 92 df ea bc 38 13 70 be 40 62 9e be b4 15 14 bc
       -0.02867106 -0.23444831 -0.30934334 -0.009038378
000010 72 22 a8 bd fa 41 42 be 51 04 9c be ad 2a e6 bd
       -0.08209695 -0.1897048 -0.30472043 -0.112386085
000020 a7 ed 64 be 5a 9e 49 3e cd 06 80 3e 17 65 93 3e
       -0.22356282 0.19689313 0.2500519 0.28788063
000030 10 0e 82 3e 79 41 3a 3e e5 f9 a2 3e f5 15 40 3e
       0.25401354 0.18189038 0.3183128 0.18758376
000040 42 f6 78 3e 11 29 d5 3c e6 32 51 be 4b 7b 7c be
       0.2431269 0.026020559 -0.20429572 -0.24656408
000050 f8 9c 24 be 64 91 a0 bd 8d 7b c3 3d eb 47 a7 3d
       -0.16075504 -0.07840231 0.0954505 0.08168014
000060 b1 25 52 be 19 11 bc 3c 22 e5 39 3b 96 3c 84 be
       -0.2052219 0.022957372 0.0028365334 -0.25827473
000070 20 44 3b 3e dd 5b dc 3e ae cc d2 be ef c5 bf 3d
       0.18287706 0.43038836 -0.41171783 0.09363925
000080 ab db db 3e 35 e6 c7 be 8d 2b 22 3e ea e4 b3 3e
       0.4294103 -0.39042822 0.15836926 0.35135585
000090 b6 c1 15 bf 13 1b c6 bd 94 34 c4 3e e2 4f eb be
       -0.58498704 -0.09673133 0.38321364 -0.45959383
0000a0 20 8a 9a b9 c0 d7 6d 3e fb 30 1b bf da 7d 65 bc
       -0.0002947608 0.23226833 -0.60621613 -0.014007056
0000b0 0a ec c9 3e 18 f6 05 bf fc 7e ca bd f8 b9 8f 3e
       0.39437896 -0.52328634 -0.098875016 0.2807157
0000c0 21 72 b0 be 90 d0 38 bd d3 e5 a7 3e 07 1c ea be
       -0.34462073 -0.045120776 0.3279253 -0.45724508
0000d0 8d e1 2f 3e 0c d1 c5 3e ef 26 e1 bc b1 17 c5 bd
       0.17175885 0.38636053 -0.027484385 -0.096236594
0000e0 fb 16 fa 3d c1 8c 9c 3d e5 18 99 3d be 2b 1c 3d
       0.122114144 0.07644034 0.074754514 0.038127653
0000f0 59 d5 04 3e f1 fd 46 3e d6 3f 57 3e 97 2d 78 3e
       0.1297201 0.19432808 0.21020445 0.24236141
000100 83 6f b0 3d 36 1b 82 3e 7c 7a 38 3e 71 57 91 3e
       0.08615019 0.25411385 0.18015474 0.28387025
000110 9e 9b df 3d 84 29 9b 3e 2b fc bc 3e 6e 2c fd 3d
       0.109183535 0.3030511 0.3691114 0.1236199
000120 cd 09 b2 be c5 2f 01 bf d2 6c 92 be ed e7 fe be
       -0.34773102 -0.50463516 -0.28598648 -0.4978632
000130 c3 c7 1e be b2 c6 97 be c4 4f bd be 7d 1e 05 bf
       -0.1550589 -0.2964378 -0.3697492 -0.51999646
000140 8a 0a c9 be 2c a4 c9 3e 37 0e 35 3e 65 4e bf be
       -0.39265853 0.39383066 0.17681204 -0.37364498
000150 05 ea fe 3e 16 ce a9 bd 45 d2 9e be 20 9b e2 3e
       0.49787918 -0.08291261 -0.31019798 0.44258976
000160 0a d8 8f 3d 9a cf ca be 11 3b e4 3e 44 5e 61 be
       0.07023628 -0.39611512 0.44576314 -0.22008616
000170 e5 9e b9 be a2 1a c3 3e e0 7f 2e 3d e7 55 0c bf
       -0.3625404 0.38106257 0.04260242 -0.54818577
000180 42 74 c6 3e 30 8e ef 3d aa 9c 14 bf 81 15 bb 3e
       0.38760573 0.11697042 -0.5805155 0.36539844
000190 51 7c 8a bc 9f e3 1c bf 78 10 ef 3e 89 1d 6b 3d
       -0.016904982 -0.6128482 0.46692252 0.057401214
0001a0 a5 98 0a bf 88 0b c8 3e 72 df 3a 3d d3 c0 cb be
       -0.5413917 0.39071298 0.04562325 -0.3979555
0001b0 26 ec 2e 3d fe 53 f0 3d 63 04 ec bd 42 81 e5 3d
       0.042705677 0.1173477 -0.11524274 0.112062946
0001c0 a9 97 dc bd 87 e8 cf 3d a3 d6 e2 bd 1d fd 96 3d
       -0.107711144 0.10151773 -0.11076095 0.07372496
0001d0 8b c8 74 3d 51 5f e7 3d 06 c4 b5 3d ee bf 8e 3e
       0.059761565 0.11297477 0.08875279 0.27880806
0001e0 eb 43 01 3e e3 6e 94 3e 14 1a 9a 3d 52 2b 5a 3e
       0.12623565 0.2899085 0.07524505 0.21305588
0001f0 dc 0d 77 3e 15 8d 4d 3e 0b 3a 89 be d8 01 82 be
       0.2412638 0.2007335 -0.26802096 -0.25392032
000200 4c 14 4c be 85 5b fe bd 3b fb 9e be 6b 7b 06 be
       -0.19929618 -0.124198 -0.3105105 -0.13133018
000210 6f f1 aa be d0 8b 23 be 17 07 71 be 0e 62 a3 bd
       -0.33387324 -0.15971303 -0.23537861 -0.07977687
000220 bc 61 39 bd e8 32 7c bd df a9 3b 3e 61 bb 65 bd
       -0.045259222 -0.061571985 0.1832652 -0.0560869
000230 31 08 0b 3e 25 fe 03 be 24 3b 99 3d 24 3b 50 bd
       0.13577344 -0.12889917 0.07481983 -0.05083765
000240 f7 ea 66 3d 60 82 69 3b 8c 08 0d 3c 79 14 ea bd
       0.056376424 0.0035630688 0.008607995 -0.11429686
000250 45 d0 8e bd ac 87 99 3d 6a f6 58 3c 79 ae b2 bc
       -0.06973318 0.074965805 0.013242343 -0.02181171
000260 ca 27 32 ba 3c 31 1f bc 8d 9b 36 bd cd c4 1b 3d
       -0.000679609 -0.009716328 -0.04458194 0.03802948
000270 82 21 0b 3e 5c 28 2e 3d ae 9d 84 bd c4 cc ed bc
       0.13587001 0.04251896 -0.064753875 -0.029028304
000280 2d 52 e2 3d d1 a8 9b 3c 9f 5f 23 be 2d 2d 77 be
       0.1105083 0.019001396 -0.15954445 -0.24138327
000290 65 f5 e2 be 60 c4 bb be 60 79 36 be e0 06 2d be
       -0.44327846 -0.3667326 -0.17819738 -0.16897154
0002a0 4c 29 b7 be a4 b5 b5 be 92 1f ce be 81 77 f5 bb
       -0.35773695 -0.35490143 -0.4025846 -0.0074910526
0002b0 fb 21 58 3a 4f 19 58 3d 9d 77 9b 3c 9f d3 48 3d
       0.00082448096 0.05275851 0.018977934 0.049029943
0002c0 3e 22 05 3e 1a cc 65 3e 89 3f 2e bd fe 54 63 3d
       0.13001344 0.2244114 -0.04254106 0.055500977
0002d0 95 8c 2f 3e b7 0a 7c 3e 75 e1 8e 3e 66 84 b6 3e
       0.17143472 0.24613462 0.27906385 0.35647887
0002e0 a8 eb a0 3e 6c b6 a7 3e f3 c0 c9 3e 71 62 c7 3d
       0.3142979 0.32756364 0.3940502 0.09735573
0002f0 b1 38 3e 3e 51 cc 75 bd 59 34 12 3e 0a b5 62 3e
       0.18576314 -0.060009304 0.14277782 0.22139373
000300 4d 23 e7 bd 89 23 ef 3c 6a 10 8a 3e 19 00 81 bd
       -0.1128603 0.02919175 0.26965648 -0.06298847
000310 9c 1a 73 be cb b2 58 be 7a 1f 9b bd 35 61 4a 3e
       -0.2374062 -0.21161954 -0.07574363 0.19763644
000320 25 21 f9 bd c4 a4 94 bd 84 a9 4e 3c 59 86 c5 bc
       -0.12164525 -0.07257989 0.012613658 -0.024111914
000330 a5 2f 91 be 99 63 3d be 44 4d 55 be fb 75 57 bd
       -0.28356662 -0.18495025 -0.20830256 -0.05260275
000340 ae 70 2c 3e 6b 52 33 be 8b 0c d3 bd ec 78 ff 3c
       0.16839859 -0.17511909 -0.10305127 0.03118559
000350 49 5e db 3d 46 58 80 3d 82 cf 91 3c f5 a9 0b be
       0.10711343 0.06266837 0.017799143 -0.13639052
000360 39 10 5c be b7 41 d5 3e c6 01 aa 3e 68 ec 5a be
       -0.21490563 0.416517 0.33204478 -0.21379244
000370 f9 6d 9b 3e 63 e6 da 3e 49 4b 80 be 8c 16 a6 3e
       0.3035734 0.42753896 -0.25057438 0.32439077
000380 f5 0c ff 3e 32 60 f5 be 11 ec 7c bd 8d 92 7b 3d
       0.49814573 -0.47924954 -0.061748568 0.06141906
000390 62 08 dd be ff c1 8e 3d bf 07 3a bd 51 7f e8 be
       -0.43170458 0.069705956 -0.045417544 -0.45409635
0003a0 17 57 83 be 74 43 0c 3e 89 e1 a5 be eb a1 15 bd
       -0.25652382 0.13697606 -0.32398632 -0.03653137
0003b0 33 65 49 3e 9e 0c b1 be 10 c9 ee bb f8 c2 09 3e
       0.1966751 -0.3457994 -0.007287152 0.13453281
0003c0 16 cd 0a be ce 47 f0 bd 4f 85 57 3e fa b8 06 3f
       -0.13554797 -0.11732446 0.21046947 0.52626
0003d0 05 57 30 3f 7d af 12 3f 34 f4 92 3e 0d c8 bb 3e
       0.6888278 0.57299024 0.28701937 0.36676064
0003e0 b4 62 b0 3e 96 63 c4 be 08 9f 0d 3e 6a c0 99 be
       0.34450305 -0.38357228 0.13830197 -0.30029613
0003f0 ea 44 f6 3d 30 60 28 3e 51 c3 7f 3e af 1e fc be
       0.12024863 0.16442943 0.24976851 -0.4924216

conv1.bias f4 [16]
000000 10 88 bb 3e 99 b4 52 bf 54 aa 73 3f df a1 22 bf
       0.36627245 -0.8230682 0.95181775 -0.63528246
000010 85 4f dd 3d c7 0c 1f bf a6 17 65 be 03 d5 7d bf
       0.10806183 -0.6212887 -0.22372302 -0.99153155
000020 76 55 27 bf 25 a3 9c bf 9b fb 28 bf 0a b0 26 bf
       -0.6536478 -1.2237288 -0.6600892 -0.65112364
000030 cd 97 e7 be c0 5e 27 bf 39 74 57 bf d8 3a 23 be
       -0.45233002 -0.6537895 -0.84161717 -0.15940416

fc1.weight f4 [10, 3600]
000000 8c 95 16 bd 2d c5 01 bc c9 e1 eb bc 29 d7 ac bc
       -0.036763713 -0.0079205455 -0.028794186 -0.02109869
000010 da 47 08 bd 45 f3 38 bb 17 8d 6b 3d 4e 59 80 3d
       -0.033271648 -0.0028221172 0.0575076 0.062670335
000020 c0 62 b5 3c b0 3c 87 3c 3d 70 2d 3c 9d f1 05 bb
       0.022141814 0.01650843 0.010585842 -0.0020438202
000030 8b 12 cf 3b 20 00 4b 3c e3 5f d5 3b 60 41 d8 bd
       0.006319349 0.0123901665 0.0065116747 -0.10559344
000040 8a 06 96 bd 07 0a 19 bd 54 bb 2e bd b1 58 be bd
       -0.07325466 -0.03736308 -0.04265912 -0.0929426
000050 58 ab ae bd 99 27 39 3c f4 f2 26 3d 1a fa 25 3d
       -0.08528775 0.011300945 0.040759042 0.04052172
000060 60 76 09 3b 1b 08 4e bc 28 d4 94 bc 30 77 9e bb
       0.0020975098 -0.012575175 -0.01816757 -0.0048359856
000070 35 b2 d2 39 32 38 03 bd 9d 3f b5 bd 44 f1 3d bd
       0.00040187096 -0.032036014 -0.08850024 -0.046372667
000080 2d fa 55 bd 1c 78 80 bd b7 72 e1 bd ee 84 ae bd
       -0.05224054 -0.06272909 -0.11008208 -0.08521448
000090 80 44 0c bc b9 db 25 3c ab 57 b4 3c f4 47 96 3a
       -0.008561254 0.010123187 0.02201446 0.0011465535
0000a0 69 67 bd bc 54 5d 22 bc d9 9c d3 bc 8f 15 1f bd
       -0.023120599 -0.0099099465 -0.025831627 -0.03883892
0000b0 74 66 a2 bd 29 6d cd bd 9d 22 a5 bd 1b 21 b9 bd
       -0.07929698 -0.10030586 -0.080632426 -0.090395175
0000c0 b5 31 8d bd e4 03 35 bd 25 46 24 3c 89 f9 28 3d
       -0.068942465 -0.044193164 0.010026489 0.0412536
0000d0 23 3a 89 3d b7 b1 5d 3d 5b 56 f6 3c e7 a1 2e bc
       0.06700542 0.05412456 0.030070474 -0.010658718
0000e0 97 ba 5a bc 71 83 5f bd b2 52 60 bd 5c 03 6e bd
       -0.013350151 -0.05456871 -0.054766364 -0.058108672
0000f0 9c e3 b2 bd f8 27 97 bd 1d 99 8e bd 24 e9 91 bd
       -0.08734819 -0.0738067 -0.06962798 -0.07124546
000100 d9 58 83 bc 25 dc b1 3c 1c cd 95 3d 8b 8e 99 3d
       -0.016033577 0.021711418 0.07314512 0.07497891
000110 09 90 74 3c 20 61 d1 3c f3 63 17 bc bd e2 87 bd
       0.014926919 0.025559008 -0.009240138 -0.06635044
000120 07 6d 25 bd dc 24 8d bd f7 41 f1 bd 3f 6d 92 bd
       -0.04038718 -0.06891796 -0.1178016 -0.07149743
000130 20 04 d1 bd 4f 4d af bd 50 b2 a0 bd 9e 95 2e bd
       -0.10205865 -0.08559667 -0.078465104 -0.042623155
000140 92 0a 19 bb 34 cf 4a 3c b5 27 03 3c e1 a4 51 3d
       -0.0023352248 0.012378503 0.008005072 0.05118263
000150 5b 17 68 3d d4 f8 90 bc d3 66 5e bd 39 46 53 bd
       0.0566629 -0.017696775 -0.05429728 -0.05158064
000160 77 7f 92 bd e2 38 db bd 42 df d9 bd f3 99 f2 bd
       -0.07153218 -0.10704209 -0.10638286 -0.1184577
000170 1e bc f7 bd a1 24 a1 bd 20 40 84 bd 50 18 3d bd
       -0.120964274 -0.078683145 -0.064575434 -0.046165764
000180 5d ea 88 3a 11 e8 bb 3c f5 0c 9d 3d 2b ef a5 3d
       0.0010445822 0.022937806 0.07668487 0.08102258
000190 a2 d7 95 3c 73 8b 87 bb e7 92 a9 bb 92 9f 61 bd
       0.018291298 -0.0041364967 -0.005174983 -0.05508382
0001a0 29 7d f0 bd 3b e5 fc bd 9e 1f f7 bd c3 13 06 be
       -0.117426224 -0.1234841 -0.120665774 -0.13093476
0001b0 4d 4e ce bd 74 0a c2 bd 9a d8 b1 bc 7c 82 2e 3d
       -0.100735284 -0.0947465 -0.021709729 0.04260491
0001c0 cb 7a 5e 3d 01 26 f5 3d 4e 57 cd 3d b5 80 bc bc
       0.054316323 0.11970139 0.10026418 -0.023010591
0001d0 31 f3 01 bd b7 52 af bc ab 61 ed bc ba 76 03 be
       -0.031726066 -0.021401746 -0.028977236 -0.1283826
0001e0 7a a4 0a be 24 2c 21 be 8c 2d b9 bd 9d e7 49 bd
       -0.13539305 -0.15739495 -0.090418905 -0.04929315
0001f0 f5 61 32 ba a4 f5 34 3d 79 8e c1 3d 14 26 5b 3d
       -0.0006804758 0.044179574 0.09451003 0.05350311
000200 22 99 b4 3d 6d 6b 55 3d 9b 25 c1 bc 73 48 87 bd
       0.0881827 0.052104402 -0.023577502 -0.066056155
000210 94 7c 87 bd f8 7a bc bd 06 4a 04 be e7 d1 cf bd
       -0.06615558 -0.09203142 -0.12918863 -0.101474576
000220 31 65 cd bd e8 2f 8b bd a4 a2 8d 3b f1 96 37 3d
       -0.10029066 -0.06796247 0.004322367 0.044821683
000230 62 bf aa 3d a0 bd 98 3d e0 88 80 3d 3e 9b d7 3d
       0.083372846 0.07458043 0.06276107 0.10527657
000240 b6 48 ae 3d 66 54 af 3c 3a 9d 23 bd 7d 29 8b bd
       0.08509962 0.021402549 -0.039944865 -0.06795023
000250 e3 bc de bd 29 7c 09 be 99 88 c5 bd 72 4b 63 bd
       -0.10875871 -0.1342627 -0.096451946 -0.055491872
000260 ea f0 b6 bb 1b 8c 43 bc ac 3a 88 3d ed d1 0e 3e
       -0.0055829184 -0.011935259 0.06651816 0.13947268
000270 31 0a 1c 3e 58 4d 0f 3e b9 0b 3f 3e ee c6 17 3e
       0.15238263 0.13994348 0.18656816 0.1482198
000280 00 72 9a 3d 75 9e 9d 3b a5 9a b9 bc 0a 0a 03 bd
       0.07541275 0.0048101493 -0.022656748 -0.031991996
000290 30 fa 12 bd 2c 1a ea bd 35 18 5c bc 9b a6 24 3d
       -0.03588313 -0.11430773 -0.013433506 0.04019795
0002a0 10 9b a4 3c 98 8a 04 3e 9e 5f 39 3e 27 8a 2a 3e
       0.02009347 0.12943494 0.18102881 0.16654263
0002b0 dc 88 00 3e 8c d5 1b 3e 16 28 f0 3d e1 62 aa 3d
       0.12552208 0.1521818 0.11726396 0.08319641
0002c0 13 44 96 3c ae 67 75 ba cc fb 8c bc f5 e5 80 3c
       0.018343007 -0.0009361458 -0.01720991 0.015734652
0002d0 83 e6 16 be ec a8 d2 bd 70 a3 76 bd 10 c1 3f bd
       -0.1473637 -0.102861255 -0.06021446 -0.046814978
0002e0 eb 7e b9 3c 0f 6e 81 3d d0 e8 9c 3d 1c ee 79 3d
       0.022643527 0.0631982 0.07661593 0.061018094
0002f0 07 3a 0b 3d 96 49 65 3d 9a 53 14 3d ae e7 31 bd
       0.033990886 0.05597838 0.03621254 -0.043433838
000300 6f 2b a2 bc af 66 3c bd bb c5 78 bd 34 d8 14 be
       -0.019796101 -0.045996364 -0.060735445 -0.145356
000310 02 9c ef bd 8f bb c1 bd 30 5f 20 bd 56 a4 bd bc
       -0.11699678 -0.09459602 -0.039153278 -0.02314965
000320 ec 9e a1 bb 13 2b 03 bb 69 39 18 bd 88 63 47 bd
       -0.004932275 -0.0020014688 -0.037164126 -0.048678905
000330 b6 51 6b bd 21 2e 90 bd f8 83 da bd 14 28 e5 bd
       -0.057450972 -0.070400484 -0.10669702 -0.11189285
000340 9e 07 fc bd e5 1c de bd 95 bd cf bd 7b de c7 bd
       -0.1230614 -0.10845355 -0.10143582 -0.09759232
000350 01 1c 18 bd eb f0 82 bc 5e fb 35 bd 5d 0e 3b bd
       -0.03713608 -0.01598402 -0.044429176 -0.045667995
000360 e8 20 16 bd eb 82 6d bd a5 ff b9 bd 7d d2 8e bd
       -0.036652476 -0.05798618 -0.090819634 -0.06973741
000370 53 6f 9c bd b8 22 f3 bd d2 37 ca bd 61 71 d2 bd
       -0.07638421 -0.118718565 -0.09873928 -0.102755316
000380 44 23 bb bd 07 bd b3 bd f2 28 f1 bd 67 cd 04 be
       -0.09137586 -0.087762885 -0.11775388 -0.1296898
000390 05 e9 76 bd 8c 8d 36 be 17 4f 05 be 3f d9 36 be
       -0.06028082 -0.17827433 -0.13018452 -0.1785631
0003a0 47 33 68 3d 2c f1 91 bc e6 f2 f1 bd 72 4e 1e bd
       0.056689527 -0.017815195 -0.11813907 -0.03864903
0003b0 d2 ca c7 3c 5d 3e c7 bd 2a 22 a5 be 37 8c 0a be
       0.024388704 -0.09728692 -0.32252628 -0.1353005
0003c0 16 18 e9 bd 47 f0 7e bd 4e e4 83 bd 43 7c c2 bd
       -0.11381547 -0.062240865 -0.0644003 -0.09496357
0003d0 14 98 f7 bd 11 bd 75 be 98 69 3d be 49 13 c5 3c
       -0.120895535 -0.23997904 -0.18497312 0.024057047
0003e0 51 90 e6 bc ed d4 09 bd 07 26 8d 3d 3b 29 96 3a
       -0.028144987 -0.033650327 0.06892019 0.001145638
0003f0 56 15 5f bc a9 7c 29 be 39 22 dd bd 82 0b 08 bb
       -0.013615927 -0.1655146 -0.10797543 -0.0020758812

fc1.bias f4 [10]
000000 10 87 d4 bd de 95 89 b9 63 44 be 3e 4c 3f 52 b5
       -0.10377324 -0.00026242336 0.3716155 -7.8323205e-07
000010 09 ab 81 34 d2 35 17 bb 47 87 80 b5 a4 30 68 ba
       2.4152567e-07 -0.002307285 -9.576114e-07 -0.00088573457
000020 c1 a6 ab 3e dc 95 fc be
       0.3352566 -0.49333084
