Cifar/lrs_based_problem_final_eps_25/lrs_0.001_model_.pt (torch, 147295 bytes, 4 tensors)

conv1.weight f4 [16, 3, 3, 3]
0.12531635 0.11570195 0.3091219 -0.15980953 0.17597227 0.250724 0.08020836 -0.093713224
-0.06024117 -0.207478 -0.15000081 0.05974008 -0.19348787 -0.1576022 0.11397734 -0.31317896
0.06946043 -0.002197193 -0.10299044 -0.05444476 0.1318501 0.08557931 -0.124470145 -0.08380966
-0.0741871 -0.20803544 0.2320121 0.01252536 -0.09129545 0.2844274 -0.18399933 0.085898794
-0.10490947 0.26426917 0.0032948896 -0.232024 -0.2249033 -0.09653676 0.28645742 0.0257054
-0.063952066 0.087138206 0.34171608 -0.050287288 -0.27663487 -0.2303018 -0.04041144 0.20700638
-0.032098982 -0.13813938 0.068017244 0.09597171 0.13054624 -0.24931337 0.06240285 0.07911051
0.05108639 -0.030487342 -0.07363896 -0.12453565 -0.04126645 -0.21213663 0.17851125 0.18328567
0.06409139 0.08487227 0.09485981 -0.041951172 -0.007268878 0.24125385 0.026554989 0.24388328
-0.18893728 0.11235151 -0.110086285 -0.13462089 -0.18751572 -0.26704988 -0.16475311 0.0101457825
-0.03564501 0.14191104 0.06855301 -0.15228292 -0.15077126 -0.0051499945 -0.14171277 0.0014196492
-0.053250164 0.046712466 -0.14016235 -0.17279454 -0.11992543 -0.18211627 0.048497662 -0.19407108
-0.15918973 -0.0732239 -0.039339907 -0.0757193 -0.057299115 0.14136547 0.1305419 -0.13655992
0.123066664 0.10841818 -0.11860588 -0.12015818 -0.024294527 0.19509308 0.19182909 0.0019851692
-0.15828104 -0.10755342 -0.12598196 -0.26144245 -0.25692827 -0.047720253 0.24765903 0.1375215
0.074743055 -0.14696331 -0.15987304 -0.18191424 -0.038926322 -0.040114168 0.23696597 0.06310326
0.2835544 0.07905795 -0.012818734 -0.026878059 -0.008458709 0.05253327 -0.08511202 -0.14105919
-0.06089683 -0.10821474 -0.0077162855 -0.09480308 0.020408204 0.11568938 0.17169635 -0.007799651
-0.20973678 -0.23763715 0.12135032 -0.12119182 -0.085769944 0.07463638 -0.23692827 -0.032096773
0.18907388 -0.124416575 -0.067960516 0.17737226 -0.23725276 0.24429658 0.25238845 0.10036783
0.07498494 0.21603829 0.23464786 -0.1437536 -0.027040469 0.004150904 -0.21629794 0.07060575
0.17715022 -0.29134047 0.22035831 0.15954784 -0.07953001 0.08493123 0.13535558 -0.32349032
0.21017961 -0.083959416 -0.31514406 0.17724545 0.20522508 -0.16953917 -0.034590088 0.118164726
-0.26345575 -0.06389276 0.12110301 -0.064993665 0.17335472 -0.20257486 -0.11227995 0.15686105
0.14834207 -0.058535323 0.222252 0.09288016 0.12455209 -0.26836976 -0.11664339 0.014023855
-0.009102553 -0.20151868 0.040021542 0.19152091 0.034315348 -0.022321371 -0.2828987 -0.14555533
-0.13265981 0.110040225 0.05683192 0.050758734 0.03893722 0.28862783 0.09622317 -0.17541319
0.081847794 0.10627754 0.2809589 -0.040243726 0.19764303 0.13551925 0.23504527 0.1205011
0.13038349 0.066007085 -0.20296122 -0.103019305 -0.103084624 0.015907653 0.0059186555 -0.06985464
-0.12744996 0.04374836 0.08494854 -8.586681e-05 -0.16614668 -0.15268989 -0.052323684 -0.15873212
0.035774175 -0.14145936 -0.08631941 -0.064059176 -0.23662965 -0.20579864 0.033251844 -0.25204456
-0.23928513 0.065319344 -0.03357805 -0.24286143 -0.11372901 0.040650494 0.050163217 -0.16500543
00000000: ee52 003e 25f5 ec3d 3a45 9e3e 1ca5 23be
00000010: 1332 343e e55e 803e 4844 a43d b8ec bfbd
00000020: 72bf 76bd 1d75 54be d099 19be 04b2 743d
00000030: af21 46be 7962 21be f46c e93d fe58 a0be
00000040: 4541 8e3d c8fe 0fbb a7ec d2bd 7801 5fbd
00000050: b603 073e 3544 af3d 34ea febd 66a4 abbd
00000060: 68ef 97bd 3e07 55be 9494 6d3e 2b37 4d3c
00000070: 1cf9 babd 78a0 913e 526a 3cbe b5eb af3d
00000080: c7da d6bd 4a4e 873e 13ef 573b b397 6dbe
00000090: 0d4d 66be 11b5 c5bd 8caa 923e 2294 d23c
000000a0: 4df9 82bd 8475 b23d 69f5 ae3e 0bfa 4dbd
000000b0: 16a3 8dbe 3cd4 6bbe 7786 25bd 7bf9 533e
000000c0: 397a 03bd 6974 0dbe a04c 8b3d d18c c43d
000000d0: eaad 053e 014c 7fbe 219a 7f3d b104 a23d
000000e0: f63f 513d 97c0 f9bc 06d0 96bd 8c0c ffbd
000000f0: 0207 29bd 583a 59be a7cb 363e 3daf 3b3e
00000100: 5942 833d 83d1 ad3d dc45 c23d fed4 2bbd
00000110: c52f eebb 400b 773e d989 d93c 8abc 793e
00000120: c678 41be 8c18 e63d eb74 e1bd 0fda 09be
00000130: 1f04 40be c3ba 88be 0ab5 28be 7f3a 263c
00000140: 8100 12bd 2151 113e 8565 8c3d 0ef0 1bbe
00000150: c863 1abe 49c1 a8bb 271d 11be 8613 ba3a
00000160: d81c 5abd 9255 3f3d b886 0fbe 0df1 30be
00000170: 779b f5bd b07c 3abe 7ca5 463d 92ba 46be
00000180: a202 23be 69f6 95bd e222 21bd b812 9bbd
00000190: 7ab2 6abd 1cc2 103e c7ac 053e 5dd6 0bbe
000001a0: 600a fc3d 5a0a de3d a4e7 f2bd 7e15 f6bd
000001b0: 5105 c7bc 7bc6 473e d86e 443e 9d19 023b
000001c0: 6d14 22be f844 dcbd 6a01 01be c9db 85be
000001d0: 1a8c 83be 5076 43bd 549a 7d3e 70d2 0c3e
000001e0: e312 993d 8d7d 16be c2b5 23be ba47 3abe
000001f0: 3571 1fbd c14e 24bd 35a7 723e 483c 813d
00000200: 0b2e 913e 22e9 a13d ab05 52bc 602f dcbc
00000210: 6696 0abc 202d 573d 364f aebd d271 10be
00000220: f46e 79bd b19f ddbd e5d8 fcbb 1e28 c2bd
00000230: 1b2f a73c 8eee ec3d 2bd1 2f3e 3794 ffbb
00000240: 3dc5 56be 2757 73be 8486 f83d 6b33 f8bd
00000250: 27a8 afbd f5da 983d 539d 72be e877 03bd
00000260: 959c 413e 1ece febd e22e 8bbd 13a1 353e
00000270: 63f2 72be e228 7a3e 0f39 813e a68d cd3d
00000280: b491 993d 2439 5d3e 8747 703e 2534 13be
00000290: f983 ddbc 4e04 883b 357d 5dbe bf99 903d
000002a0: de66 353e 942a 95be 9ca5 613e 8260 233e
000002b0: a1e0 a2bd 6df0 ad3d a79a 0a3e 86a0 a5be
000002c0: 5339 573e eaf2 abbd 905a a1be d57f 353e
000002d0: 8626 523e ad9b 2dbe 56ae 0dbd 5900 f23d
000002e0: ace3 86be 35da 82bd db04 f83d 661b 85bd
000002f0: e683 313e c96f 4fbe 08f3 e5bd 2fa0 203e
00000300: fce6 173e bcc2 6fbd 0796 633e f437 be3d
00000310: 2b15 ff3d c367 89be bbe2 eebd 50c4 653c
00000320: e022 15bc ea5a 4ebe a1ed 233d 0f1e 443e
00000330: 408e 0c3d 4fdb b6bc 19d8 90be 750c 15be
00000340: f9d7 07be c55c e13d 96c8 683d 64e8 4f3d
00000350: a27c 1f3d 07c7 933e a710 c53d 849f 33be
00000360: d19f a73d 0aa8 d93d d8d9 8f3e 9bd6 24bd
00000370: ef62 4a3e 8fc5 0a3e b5af 703e 48c9 f63d
00000380: 4083 053e b92e 873d 11d5 4fbe c9fb d2bd
00000390: 081e d3bd c450 823c 48f1 c13b f30f 8fbd
000003a0: 3e82 02be 7b31 333d 80f9 ad3d 6513 b4b8
000003b0: 5b22 2abe bd5a 1cbe 5c51 56bd ac8a 22be
000003c0: f187 123d b9da 10be 3bc8 b0bd 7531 83bd
000003d0: 0b4f 72be e1bc 52be 1633 083d fc0b 81be
000003e0: 2907 75be 26c6 853d 2389 09bd abb0 78be
000003f0: c1ea e8bd 2281 263d f277 4d3d 2ff7 28be

conv1.bias f4 [16]
-0.35584438 -0.2243988 0.20809332 -0.08615792 -0.06838996 -0.1340231 0.0036375504 0.1845628
0.25786403 0.26010403 0.20721783 -0.03109965 -0.3854741 -0.16702487 0.16645843 0.045960758
00000000: 3c31 b6be cdc8 65be 6a16 553e 9073 b0bd
00000010: 0910 8cbd 5a3d 09be f863 6e3b 08fe 3c3e
00000020: c106 843e 5b2c 853e e930 543e b1c4 febc
00000030: dc5c c5be 9108 2bbe 1474 2a3e 5941 3c3d

fc1.weight f4 [10, 3600]
-0.057305504 -0.044454996 -0.079075284 -0.066102944 -0.085415475 -0.118748434 -0.08374704 -0.086807184
-0.08539206 -0.08419179 -0.083253995 -0.054988503 -0.06793989 -0.07165452 -0.038173884 -0.01731577
-0.027713103 0.0124869505 -0.0030261073 -0.015376748 -0.028892599 -0.014724592 -0.031072622 -0.053874157
-0.083087824 -0.07800259 -0.029543258 -0.05075767 -0.03216529 -0.030400539 0.03433278 0.043014605
0.030410727 0.047092058 0.01562749 -0.0045304936 0.018670162 0.025256699 -0.006144747 -0.05517683
-0.018459199 -0.025786184 -0.0071111573 0.0007486757 0.019061929 0.075961694 0.05204033 0.07455908
0.033736292 0.028142441 0.008183147 -0.013989676 0.04008551 -0.006781547 -0.02144263 -0.011664656
-0.017141566 0.008822305 0.008546148 0.021838022 0.062434953 0.07166825 0.08481297 0.036258668
0.033163514 -0.0045949784 -0.0062566916 0.014378661 0.0046877195 -0.013210604 -0.021627799 -0.04463684
-0.017284857 0.012934719 0.055662032 0.041990843 0.07233698 0.084521 0.038625844 0.023279084
0.006347837 -0.021507042 -0.023421442 -0.013449909 -0.017557867 -0.048051257 -0.030872561 0.00610144
-0.019471157 0.039831143 -0.021586241 0.03345953 0.05729658 0.027314123 0.0009373904 -0.0225145
-0.043161035 -0.039015245 -0.04600419 -0.04345814 -0.024787787 -0.05310544 -0.030577203 -0.028537476
-0.016223654 -0.065892555 0.007299018 0.03457713 -0.0015682175 -0.024238644 -0.057157915 -0.061510917
-0.031039685 -0.03676859 -0.036050797 -0.049933042 -0.039858203 -0.037116997 -0.031608038 -0.043622736
-0.119704545 -0.05134159 -0.007691615 0.002882715 -0.009886772 -0.019602224 -0.032958344 -0.035359774
-0.010403681 -0.019443737 -0.049222972 -0.04515339 -0.05939583 -0.048689075 -0.073838726 -0.15468931
-0.106488876 -0.04926283 -0.042481624 -0.074746534 -0.03282338 -0.037333813 -0.062398467 -0.034627445
-0.018110866 -0.057127893 -0.030950025 -0.017415479 -0.05164597 -0.08400774 -0.17202547 -0.0962777
-0.08413644 -0.10369042 -0.07378248 -0.03151935 -0.030087888 -0.018455133 0.0025223882 0.008549673
-0.012014514 -0.03208339 -0.017380463 -0.07513837 -0.13281886 -0.2119226 -0.16152148 -0.15175262
-0.12591918 -0.08950633 -0.0727304 -0.014961199 0.0009640771 0.0019684504 0.005641029 0.008295301
-0.0025377236 -0.0049447976 -0.038024776 -0.15396856 -0.22169787 -0.149892 -0.15164377 -0.121314585
-0.0997795 -0.08380731 -0.057266776 -0.030312413 0.00024610042 -0.013993891 -0.004642466 -0.017298913
-0.027397962 -0.024060307 -0.12674342 -0.17296374 -0.15307678 -0.1476447 -0.12721068 -0.11731181
-0.08598986 -0.07900209 -0.06381702 -0.038643375 -0.037576016 -0.025237681 -0.042610563 -0.03937984
-0.038400434 -0.10918435 -0.10253289 -0.10264801 -0.1369361 -0.094634786 -0.12019038 -0.09461156
-0.0871069 -0.094657935 -0.047719218 -0.05944882 -0.044549227 -0.028458154 -0.050939064 -0.06851181
-0.083254084 -0.009240591 -0.004541175 -0.04898771 -0.055149075 -0.078004844 -0.091392234 -0.10758193
-0.10668442 -0.11937669 -0.094123326 -0.12859438 -0.09349829 -0.076961555 -0.10519437 -0.016967973
0.029908944 0.046545755 0.05948533 0.041766368 0.03486322 0.008837657 0.0012519951 -0.03864774
-0.10215819 -0.06584062 -0.084646575 -0.060063373 -0.10993489 -0.054905236 -0.015251776 0.060609795
00000000: 2db9 6abd 7116 36bd 39f2 a1bd fb60 87bd
00000010: 4fee aebd 6132 f3bd 9183 abbd f7c7 b1bd
00000020: 08e2 aebd bf6c acbd 1281 aabd a03b 61bd
00000030: 1224 8bbd 9bbf 92bd 385c 1cbd cdd9 8dbc
00000040: 9706 e3bc 1196 4c3c a851 46bb c1ee 7bbc
00000050: 2cb0 ecbc 6a3f 71bc 038c febc 26ab 5cbd
00000060: f329 aabd d2bf 9fbd b404 f2bc 46e7 4fbd
00000070: c0bf 03bd 8d0a f9bc 87a0 0c3d 1530 303d
00000080: eb1f f93c 9ae3 403d 3905 803c 8974 94bb
00000090: 2bf2 983c 23e7 ce3c e059 c9bb 1a01 62bd
000000a0: bf37 97bc 8c3d d3bc b604 e9bb c742 443a
000000b0: c327 9c3c ce91 9b3d 3e28 553d 6eb2 983d
000000c0: 112f 0a3d fa8a e63c 9b12 063c f434 65bc
000000d0: b430 243d bd37 debb 74a8 afbc 1d1d 3fbc
000000e0: 786c 8cbc 6e8b 103c 2505 0c3c a7e5 b23c
000000f0: cbbb 7f3d cec6 923d 6cb2 ad3d f883 143d
00000100: 77d6 073d 7991 96bb ef04 cdbb 7a94 6b3c
00000110: 719b 993b 4a71 58bc c82c b1bc 1ed5 36bd
00000120: f998 8dbc 25ec 533c dffd 633d 97fe 2b3d
00000130: 6925 943d 5919 ad3d 2236 1e3d c7b3 be3c
00000140: 8401 d03b 892f b0bc 53de bfbc 025d 5cbc
00000150: 84d5 8fbc 65d1 44bd 74e8 fcbc 97ee c73b
00000160: fa81 9fbc fb25 233d a1d5 b0bc dc0c 093d
00000170: d2af 6a3d dec1 df3c 34bb 753a 5470 b8bc
00000180: a0c9 30bd 73ce 1fbd e46e 3cbd 2a01 32bd
00000190: c20f cbbc 1785 59bd 0b7d fabc 6dc7 e9bc
000001a0: 78e7 84bc adf2 86bd 9a2c ef3b c0a0 0d3d
000001b0: a68c cdba 1f90 c6bc 6b1e 6abd dff2 7bbd
000001c0: f046 febc a99a 16bd 00aa 13bd 9786 4cbd
000001d0: 5b42 23bd fe07 18bd 6e77 01bd c1ad 32bd
000001e0: a827 f5bd 8f4b 52bd f109 fcbb efeb 3c3b
000001f0: 21fc 21bc d894 a0bc 54ff 06bd 69d5 10bd
00000200: 3374 2abc 7948 9fbc 079e 49bd c3f2 38bd
00000210: 0b49 73bd 326e 47bd c238 97bd e066 1ebe
00000220: d716 dabd d2c7 49bd 3601 2ebd b614 99bd
00000230: cf71 06bd 57eb 18bd 8995 7fbd 82d5 0dbd
00000240: 3d5d 94bc f0fe 69bd e88a fdbc e8aa 8ebc
00000250: ba8a 53bd 400c acbd 7227 30be 3e2d c5bd
00000260: ba4f acbd a55b d4bd 451b 97bd 6f1a 01bd
00000270: e07a f6bc 382f 97bc a74e 253b ed13 0c3c
00000280: 86d8 44bc df69 03bd 7961 8ebc 25e2 99bd
00000290: ab01 08be 3d02 59be e365 25be 0a65 1bbe
000002a0: f5f0 00be 184f b7bd adf3 94bd d11f 75bc
000002b0: 1eba 7c3a 1e01 013b 62d8 b83b 04e9 073c
000002c0: f04f 26bb f807 a2bb debf 1bbd efa9 1dbe
000002d0: c404 63be 4a7d 19be 8148 1bbe c873 f8bd
000002e0: 3259 ccbd 2ba3 abbd 9190 6abd bd51 f8bc
000002f0: 0a07 8139 a246 65bc d41f 98bb 73b6 8dbc
00000300: b171 e0bc 1f1a c5bc 07c9 01be 681d 31be
00000310: 29c0 1cbe 2c30 17be 8443 02be 2d41 f0bd
00000320: 741b b0bd d9cb a1bd 7fb2 82bd 8448 1ebd
00000330: 4fe9 19bd 41bf cebc 6a88 2ebd c14c 21bd
00000340: c649 1dbd 0b9c dfbd c4fc d1bd 1f39 d2bd
00000350: fa38 0cbe e2cf c1bd 6026 f6bd b5c3 c1bd
00000360: 1a65 b2bd 05dc c1bd 3a75 43bd 9b80 73bd
00000370: 4079 36bd 1321 e9bc 7ba5 50bd eb4f 8cbd
00000380: 1e81 aabd d965 17bc 23ce 94bb 56a7 48bd
00000390: ffe3 61bd 01c1 9fbd da2b bbbd ea53 dcbd
000003a0: 5c7d dabd c47b f4bd bbc3 c0bd 3fae 03be
000003b0: 087c bfbd 059e 9dbd 2570 d7bd 6b00 8bbc
000003c0: 9a03 f53c c3a6 3e3d e4a6 733d 3613 2b3d
000003d0: bccc 0e3d d2cb 103c fc19 a43a 184d 1ebd
000003e0: 5038 d1bd 72d7 86bd 2f5b adbd 0305 76bd
000003f0: 8b25 e1bd 50e4 60bd 96e2 79bc fa41 783d

fc1.bias f4 [10]
-0.0077131055 -0.09850018 0.08692017 0.07729172 0.103174664 0.05121788 -0.056244235 -0.0010099935
0.07670774 -0.12806948
00000000: 38be fcbb 76ba c9bd 3403 b23d 1f4b 9e3d
00000010: 3d4d d33d d7c9 513d 5b60 66bd c261 84ba
00000020: f318 9d3d a524 03be
