Cifar/lrs_based_problem_final_eps_25/lrs_0.0001_model_.pt (torch, 147295 bytes, 4 tensors)

conv1.weight f4 [16, 3, 3, 3]
0	0xbe0534a1	-0.13008358
1	0x3de2c313	0.11072364
2	0x3d9cb6d7	0.076520614
3	0x3e14fbf3	0.14549236
4	0x3e3b59e3	0.18296008
5	0x3e120e02	0.14263156
6	0xbd864342	-0.06555797
7	0xbe2373ad	-0.15962096
8	0xbdbb89ce	-0.091571435
9	0xbe11e799	-0.14248504
10	0xbc2014e2	-0.009770604
11	0x3d01b769	0.031669054
12	0x3c3a4a8a	0.011370311
13	0xbe0ebec6	-0.13939962
14	0xbd87150b	-0.065958105
15	0x3d457fd0	0.048217595
16	0xbb65bfa1	-0.0035056847
17	0x3e0c8c6c	0.13725442
18	0x3d932724	0.071852
19	0x3dacba8a	0.08434017
20	0x3e62c178	0.22144115
21	0xbd0742d5	-0.03302272
22	0x3e077f4c	0.13232154
23	0x3d57e252	0.05270607
24	0x3dbe4940	0.09291315
25	0x3e5fef32	0.2186859
26	0x3e107c62	0.14109948
27	0xbe0f5c47	-0.14000045
28	0x3ce04a78	0.02737926
29	0x3e5d7f37	0.2163056
30	0xbdd1f5aa	-0.10251935
31	0xbdb5965c	-0.088665694
32	0xbdedd1e1	-0.11612297
33	0x3d3aa4f7	0.04556748
34	0xbe24208c	-0.1602804
35	0x3e508edb	0.20366995
36	0x3d0a48d8	0.033760875
37	0xbc1a0bea	-0.009402255
38	0x3e0a713c	0.13519758
39	0x38e41578	0.00010875886
40	0x3bceba4b	0.006308829
41	0x3dfd85be	0.12379025
42	0xbe228b02	-0.1587334
43	0xbbef53e5	-0.007303702
44	0x3e7cedde	0.24700114
45	0xbe6329bb	-0.22183888
46	0x3cad162c	0.021128736
47	0x3e595b3b	0.21226208
48	0xbe644228	-0.22290862
49	0xbe223920	-0.15842104
50	0x3e49d974	0.19711858
51	0xbdee47fa	-0.11634822
52	0xbcc62638	-0.024188146
53	0x3cb5d15b	0.022194555
54	0xbe120543	-0.1425982
55	0xbe2c309f	-0.16815422
56	0xbe3fde53	-0.18737154
57	0xbe81288e	-0.25226253
58	0xbe1d696e	-0.1537225
59	0xbdfe773a	-0.124250844
60	0x3c8d804c	0.01727309
61	0x3bbf5b2d	0.0058397264
62	0x3ce89777	0.028392537
63	0x3c31b1d4	0.01084562
64	0x3d6dfba5	0.058101315
65	0x3e28f191	0.164984
66	0xbe39fda6	-0.18163165
67	0xbdf653c2	-0.12027694
68	0xbb077c6d	-0.0020673529
69	0x3dc6b34d	0.09702168
70	0x3e0f66d9	0.14004077
71	0x3c12c3cd	0.008957815
72	0x3e5e8743	0.21731286
73	0x3d7d18e5	0.06179132
74	0xbd75daca	-0.060023107
75	0x3df6cc6f	0.12050711
76	0xbc018307	-0.0079047745
77	0xbda5f5c6	-0.08103518
78	0x3dc09284	0.09402946
79	0x3e4603fa	0.19337454
80	0x3e1986e3	0.14992861
81	0x3da72414	0.08161178
82	0xbdb52ad3	-0.08846059
83	0xbc39095a	-0.0112937335
84	0xbd59fa00	-0.053216934
85	0xbd1c390a	-0.038140334
86	0xbda6ef82	-0.08151151
87	0xbd92aa94	-0.071614414
88	0x3d61a776	0.055091344
89	0x3e099b41	0.13438131
90	0x3d4fd8fc	0.05074404
91	0x3d5ed7a6	0.054404877
92	0x3dc4cc98	0.09609336
93	0xbba21261	-0.0049460386
94	0x3e597e00	0.21239471
95	0x3de649f4	0.11244574
96	0x3d6330de	0.055466525
97	0x3dfafc5e	0.122551665
98	0x3d7f042f	0.06225985
99	0xbd98d102	-0.0746174
100	0x3d94a89f	0.072587244
101	0x3cc5f36d	0.024163926
102	0x3e109261	0.14118339
103	0xbd8e9042	-0.06961109
104	0x3d7808d2	0.060555287
105	0x3ccc0d86	0.024908792
106	0xbd94ab0d	-0.07259188
107	0x3e3fe0dc	0.18738121
108	0x3e071bdb	0.1319422
109	0x3e1fbae8	0.15598643
110	0x3d25a82e	0.04044359
111	0x3e63f0f9	0.22259893
112	0x3b911ddb	0.004428608
113	0x3e7439ab	0.23850124
114	0x3db194bb	0.08670946
115	0x3e0f3f40	0.13988972
116	0x3d9957e6	0.074874684
117	0xbd9d54cc	-0.07682189
118	0xbd32fc61	-0.04369772
119	0xbdf5b37c	-0.119971246
120	0x3d0861dc	0.03329645
121	0x3e42e482	0.19032481
122	0xbd32fd8a	-0.043698825
123	0xbc42c987	-0.011888868
124	0x3e302df3	0.17205028
125	0xbd00f451	-0.031483
126	0x3bd44273	0.006477648
127	0xbe3d04ab	-0.18458812
128	0x3e2d60f5	0.16931517
129	0x3db8c5dd	0.090221144
130	0xbe18a9d0	-0.14908528
131	0x3e25ca34	0.16190416
132	0x3e057d63	0.13036112
133	0xbd868cc7	-0.0656982
134	0x3b8f1e86	0.0043676523
135	0xbc4cfe2a	-0.012511769
136	0x3e890f54	0.26769507
137	0x3db14ca8	0.08657199
138	0x3e5f750d	0.21821995
139	0x3df29585	0.11844925
140	0xbdbf1882	-0.09330846
141	0xbc95b795	-0.018276015
142	0xbe137cb0	-0.14403033
143	0xbe39f004	-0.18157965
144	0x3d22b044	0.03971888
145	0x3e2ec79c	0.17068332
146	0x3d38ddac	0.045133278
147	0xbdbed4e7	-0.09317952
148	0xbd652fea	-0.055953898
149	0x3d6da84f	0.05802184
150	0xbe357f7f	-0.17724417
151	0xbe4de230	-0.20105815
152	0x3d2fe2cf	0.04294091
153	0x3dafc9f6	0.08583443
154	0x3e7b1fd6	0.24523863
155	0xbe1e3f09	-0.15453734
156	0x3d9ae395	0.07562939
157	0xbe285b6d	-0.16441126
158	0xbe015c5a	-0.12632886
159	0xbe4fe871	-0.20303513
160	0xbe066607	-0.13124858
161	0xbd691a8f	-0.056910094
162	0x3e4b5770	0.19857574
163	0x3d81f571	0.06345642
164	0xbdf21650	-0.11820662
165	0x3db3ae1f	0.08773445
166	0x3d34b011	0.044113223
167	0xbe611f98	-0.21984708
168	0x3de4e5f8	0.111766756
169	0x3e1cbfd9	0.15307559
170	0xbb0e7989	-0.002173992
171	0x3d032e32	0.032026477
172	0xbdf89455	-0.12137667
173	0xbda7ef11	-0.08199895
174	0x3e7d57f7	0.24740587
175	0x3de7b1b1	0.11313189
176	0xbe424965	-0.1897331
177	0x3e21941c	0.15779155
178	0xbd687edc	-0.056761608
179	0xbe3c3011	-0.18377711
180	0x3d0ed5cd	0.034871865
181	0x3e1c0a74	0.15238363
182	0xbc9cea73	-0.019154763
183	0xbe04b346	-0.12959012
184	0xbe2faee2	-0.17156556
185	0xbe0fe042	-0.14050391
186	0x3e5c9f0b	0.21545045
187	0xbd1eae30	-0.038740337
188	0xbe3f7c00	-0.18699646
189	0x3d0ab197	0.03386077
190	0xbe01ecfe	-0.12688062
191	0xbd41afc4	-0.047286764
192	0x3d941344	0.07230237
193	0xbdcde082	-0.10052587
194	0xbdfd5c94	-0.123711735
195	0xbd74a9c5	-0.059732217
196	0xbe02299f	-0.1271119
197	0xbdf51ab6	-0.11967985
198	0xbe0d90e0	-0.13824797
199	0xbd68d7bb	-0.05684636
200	0x3daa3df5	0.083125986
201	0x3e25b48c	0.16182154
202	0x3d04fcd8	0.032467693
203	0x3cedb1cc	0.029015444
204	0x3db4f6fe	0.088361725
205	0x3dc4dfcb	0.096129976
206	0xbe4261b9	-0.1898259
207	0x3de217cd	0.11039696
208	0x3e3abcf4	0.18236142
209	0x3e3bdc38	0.18345726
210	0x3e0edab6	0.13950619
211	0x3e225814	0.15853912
212	0xbd0eb750	-0.03484279
213	0xbe057899	-0.13034286
214	0xbd9d7ae6	-0.07689457
215	0x3e4ccd56	0.20000204
216	0x3db35e11	0.08758176
217	0x3cb172ed	0.021661246
218	0xbe26e042	-0.16296485
219	0xbe00af6d	-0.1256692
220	0xbe2395f8	-0.15975177
221	0x3ddfafea	0.10922225
222	0xbd0981de	-0.033571117
223	0xbdaf032b	-0.08545526
224	0xbd87a36f	-0.06622969
225	0x3da02fd0	0.078216195
226	0xbe047d7a	-0.1293849
227	0x3a1dd1b8	0.0006020325
228	0x3e1cfd15	0.15330918
229	0xbe220d4a	-0.15825382
230	0x3db11ec3	0.086484455
231	0x3c9e5d62	0.019331638
232	0xbe0e0bb6	-0.13871655
233	0xbdbcdf9d	-0.09222338
234	0xbdadb9aa	-0.08482678
235	0xbdaffc27	-0.08593016
236	0x3dac1957	0.08403271
237	0xbe49fa3e	-0.19724366
238	0xbe457171	-0.19281556
239	0xbe46e833	-0.19424514
240	0xbdfef102	-0.12448312
241	0xbc5eb417	-0.013592741
242	0xbd2cb40d	-0.042163897
243	0xbe1b6e90	-0.15178895
244	0xbddbf106	-0.10739331
245	0xbd8698e1	-0.06572128
246	0xbc2d985e	-0.010595409
247	0xbe27eeba	-0.1639966
248	0xbd85fd4f	-0.065424554
249	0xbe59cae9	-0.2126881
250	0xbd095cc3	-0.03353573
251	0xbc8192bf	-0.015817044
252	0xbbc48b67	-0.0059980634
253	0xbdfb9096	-0.12283437
254	0xbde9a5ae	-0.11408554
255	0xbdf37aa1	-0.11888624

conv1.bias f4 [16]
0	0x3e3fd2d9	0.18732776
1	0xbd075d10	-0.033047736
2	0x3e51198f	0.20419906
3	0x3e4011af	0.18756746
4	0xbc71ebbb	-0.014765675
5	0x3d8ba707	0.06818967
6	0x3d1b6336	0.03793641
7	0xbdfbd98b	-0.122973524
8	0x3dccedba	0.1000628
9	0x3dab2834	0.083572775
10	0xbd28dd16	-0.04122647
11	0x3d74e988	0.059793025
12	0xbe4fa674	-0.2027834
13	0xbd890d7d	-0.06692026
14	0x3e5581bb	0.2085027
15	0x3e46e51c	0.19423336

fc1.weight f4 [10, 3600]
0	0x3c69e4f6	0.01427578
1	0x3bc857f6	0.0061140014
2	0x3b58093c	0.0032964488
3	0xbc67a3ff	-0.014138221
4	0xbc1ffd68	-0.009765007
5	0x3c00f697	0.007871292
6	0xbb76a20d	-0.003763321
7	0xbbc6c687	-0.006066147
8	0xbc2bbdf8	-0.010482304
9	0xbc20f9b3	-0.009825158
10	0x3ae1aa4e	0.0017216892
11	0xbc4ba222	-0.012428792
12	0xbbedf884	-0.0072622914
13	0x3c1eea23	0.009699377
14	0x3c638191	0.0138858715
15	0xbc0fc7a6	-0.008775627
16	0xbb1e2036	-0.0024128086
17	0x3c0fbe0e	0.00877334
18	0x3a17f86f	0.00057972124
19	0x3c583e4f	0.013198449
20	0xbba0606b	-0.0048943064
21	0x3c441e7d	0.01197016
22	0x38e87db2	0.00011086035
23	0xbc4318e6	-0.011907792
24	0x3ba31183	0.004976453
25	0xbb86256a	-0.0040938156
26	0x39da3006	0.0004161598
27	0xbb422fda	-0.0029630573
28	0xb9c21b32	-0.00037022826
29	0x3bed363f	0.0072391327
30	0x3c5a0f20	0.01330927
31	0x3c5bcab4	0.013415027
32	0x3bfb3063	0.0076656803
33	0xbb6a71d6	-0.0035773418
34	0x3c8b0150	0.0169684
35	0x3c83172a	0.016002256
36	0xbbfd1c8a	-0.0077243494
37	0x3b95a1e0	0.004566416
38	0x3c0dbbb2	0.008650707
39	0xba00a9be	-0.0004908106
40	0x3be7eba9	0.0070776534
41	0x3c10d51f	0.0088398745
42	0x3ac88891	0.0015299489
43	0x37b0f5ac	2.1095235e-05
44	0x3c8394f6	0.016062241
45	0xbbf4ea23	-0.0074742003
46	0xbb7da1b7	-0.0038701126
47	0xbc04b5c7	-0.00809998
48	0x3a9a6100	0.0011778176
49	0x3c9ea420	0.01936537
50	0x3b623956	0.0034519038
51	0x3c536172	0.012901651
52	0x3bb4f091	0.005521842
53	0x3c91a3a1	0.01777822
54	0x3aec7544	0.0018040319
55	0x3b90f1f2	0.0044233734
56	0x3b2f00a3	0.002670326
57	0x3bb35004	0.005472185
58	0x3c5e7e70	0.01357995
59	0xbbdd945a	-0.0067620696
60	0x3c3f2dfe	0.01166868
61	0x3bc6330e	0.0060485667
62	0xbbf00edd	-0.0073259906
63	0x3c5ad2d6	0.013355931
64	0x3c2b50a6	0.01045624
65	0x3ba054d1	0.0048929234
66	0x3c838b75	0.01605771
67	0x3c3e1a4c	0.011602949
68	0x3a8716e8	0.0010306509
69	0x3bacc705	0.0052727484
70	0xbb328035	-0.0027237062
71	0x3b340643	0.0027469553
72	0x3aa5ca3c	0.0012648772
73	0xbb64fc4c	-0.003494042
74	0xbb89bf92	-0.004203745
75	0x3ca2882e	0.019840326
76	0xbb7f8205	-0.003898741
77	0xbc100c3b	-0.0087919785
78	0x3c051188	0.008121856
79	0x3c82c750	0.01596418
80	0xbbeb9891	-0.007189818
81	0x3cae0497	0.021242423
82	0xbb60d484	-0.0034306357
83	0x3cac6578	0.021044478
84	0x3c86b08e	0.01644161
85	0x3c92dd7c	0.017927878
86	0x3a3594bd	0.0006926766
87	0x3ba204c6	0.0049444167
88	0xbbc415d7	-0.005984049
89	0x3be897e0	0.007098183
90	0xbc1894bd	-0.009312806
91	0x3c8c7eb5	0.017150262
92	0x38e482ac	0.00010896227
93	0x3bfaa0d6	0.0076485677
94	0xbb13b853	-0.0022540286
95	0x3bec9655	0.0072200694
96	0x3caacc10	0.020849258
97	0x3cb18152	0.02166811
98	0x3c864c31	0.016393753
99	0x395bd7fe	0.00020965931
100	0x3b2a3daa	0.0025976696
101	0x3b920263	0.004455851
102	0x3c1fb7ab	0.00974838
103	0xbb336493	-0.002737318
104	0xbbbefedf	-0.005828723
105	0x3aa2a450	0.0012408588
106	0x3cbb1161	0.022835435
107	0xbc04039b	-0.0080575
108	0xbbed6f93	-0.0072459667
109	0x3b00ab7d	0.0019633465
110	0x3ccea965	0.025227258
111	0xbb27b755	-0.0025591452
112	0x3cabff59	0.020995783
113	0x3c701b86	0.014655
114	0x3b8bb1b2	0.0042631263
115	0x3c34e3d8	0.01104065
116	0x3cc4f8e4	0.024044462
117	0x3b68f77d	0.0035547905
118	0x3c8c415f	0.017121015
119	0x3b911aee	0.004428259
120	0x3c871bb6	0.016492706
121	0x3ca31cc4	0.019911177
122	0x3cc6b211	0.02425483
123	0x3c7eb941	0.015547098
124	0x3c881fe6	0.016616773
125	0x3c1a2d83	0.009410265
126	0x3cc0e1e8	0.02354522
127	0x3c82db15	0.015973607
128	0x3ba3c844	0.0049982388
129	0x3ccc4daf	0.024939386
130	0x3c2417a5	0.010015403
131	0x3c5ca7b0	0.013467714
132	0x3c80d394	0.015725888
133	0x3c111828	0.008855857
134	0x3b3b9b17	0.0028626376
135	0xbb91b76e	-0.0044469154
136	0x3cb6ab55	0.022298494
137	0xb8eaf3e1	-0.000112034155
138	0x3c134264	0.008987997
139	0x3c33b974	0.010969508
140	0x3caccbb0	0.02109322
141	0x3ba163d2	0.0049252296
142	0xbae263cb	-0.0017272172
143	0x3cd59be7	0.026075317
144	0x3cca514c	0.024696968
145	0xbbb82bac	-0.0056204405
146	0x3cc566ac	0.02409681
147	0x3bba612f	0.0056878547
148	0x3c3bd2f2	0.0114638675
149	0x3c1d91da	0.009617293
150	0x3c0a2db8	0.008433752
151	0x3cadc20a	0.02121069
152	0x3c7ce98d	0.015436542
153	0x3ccb9a4a	0.024853844
154	0x3c356282	0.011070849
155	0x3c12cd1d	0.008960036
156	0x38ae51db	8.312213e-05
157	0x3cc75de7	0.024336768
158	0x3be04b20	0.006844893
159	0x3cb21096	0.021736424
160	0x3c72ac69	0.014811614
161	0x3bc6fc4b	0.006072556
162	0x3bd311fc	0.006441353
163	0x3c02b997	0.007978818
164	0x3c41f4db	0.011838163
165	0xbb6b07af	-0.0035862734
166	0xbc24c3be	-0.010056434
167	0x3bfc0d58	0.0076920204
168	0xbbc8af0e	-0.006124384
169	0x3c241be1	0.0100164125
170	0x3c53b9b9	0.012922698
171	0x3c659656	0.014012894
172	0x3cd1c2a8	0.025605515
173	0x3c40f5cc	0.011777353
174	0x3cbbb2b3	0.022912359
175	0x3cb3e28b	0.02195861
176	0x3c6e4725	0.014543329
177	0x3c23a6ec	0.009988528
178	0x3c8acb0b	0.016942522
179	0x3c90c7df	0.017673431
180	0x3c13bf01	0.009017707
181	0xba127650	-0.0005587088
182	0x3b8af9ab	0.0042411885
183	0xbb7baaf9	-0.0038401468
184	0x3ab51376	0.0013815004
185	0x3b4159ca	0.0029502981
186	0x3bb10cbc	0.0054031294
187	0x3becac2e	0.007222674
188	0x3be43aca	0.006965016
189	0x3bc7d0c6	0.006097886
190	0xbc0c45e2	-0.008561583
191	0x3a2d9b3a	0.0006622557
192	0x3c926adf	0.017873226
193	0xbb36ff9c	-0.002792335
194	0x3c941539	0.018076526
195	0xbc04ad7a	-0.008098001
196	0xbc3461c5	-0.011009638
197	0x3c6d3e7b	0.014480229
198	0x3c8c2008	0.017105117
199	0x3c9ad561	0.018900575
200	0x3cb54f04	0.022132404
201	0x3ca3da91	0.020001682
202	0x3b647ed0	0.0034865625
203	0x3b9153d4	0.004435042
204	0x3aa76ee5	0.0012774138
205	0x3b2759ff	0.002553582
206	0xbae92983	-0.0017788861
207	0x3af0c53a	0.0018369325
208	0xbbcd5915	-0.006266723
209	0x3c28ea81	0.010309816
210	0x3c5120d9	0.012764179
211	0x3c0532b3	0.008129763
212	0x3ca1e97d	0.019764656
213	0x3bf60e37	0.0075090188
214	0x3c215add	0.009848324
215	0x3cd13774	0.025539137
216	0x3c36315d	0.011120168
217	0x3bd06dc6	0.0063607423
218	0x3c57bf0e	0.01316811
219	0x3c668732	0.014070319
220	0x3c810e27	0.015753819
221	0x3c534f3f	0.012897312
222	0x3c9e9816	0.01935963
223	0xbafcd6e1	-0.0019290113
224	0xba70ab0d	-0.0009180762
225	0xbbbed25f	-0.005823418
226	0xbc7a6f1e	-0.015285281
227	0xbd34931a	-0.0440856
228	0xbd28694f	-0.041116055
229	0xbce16b16	-0.027516883
230	0xbd15b0a5	-0.036545414
231	0xbd571d73	-0.05251832
232	0xbd35a21e	-0.04434406
233	0xbd4e6852	-0.050392456
234	0xbcc878bb	-0.024471631
235	0xbcaa02bd	-0.020753259
236	0xbcc2517d	-0.023720497
237	0xbc6a55c0	-0.014302671
238	0xbcc8d6dc	-0.024516515
239	0xbcf56ed8	-0.029960081
240	0xbc64ac64	-0.013957117
241	0xbc11f932	-0.00890951
242	0xbb8e09f3	-0.004334682
243	0xbd0476eb	-0.03233997
244	0xbc2d4ce9	-0.010577419
245	0xbc9de7d4	-0.019275583
246	0xbd2cd16b	-0.042191904
247	0xbd213056	-0.039352737
248	0xbcfc4a1e	-0.03079706
249	0xbd219c0f	-0.03945547
250	0xbd2bba6f	-0.041925844
251	0xbcc985c4	-0.024599917
252	0xbc63aa23	-0.013895544
253	0xbc4b0759	-0.012391889
254	0xbc064e51	-0.008197383
255	0x3ac75954	0.0015209117

fc1.bias f4 [10]
0	0xbbfd7b9a	-0.0077356817
1	0xbc8f0235	-0.017457107
2	0x3d2f3195	0.042771894
3	0x3ce7dfb7	0.028304918
4	0x3d2b9b87	0.04189637
5	0xbc0ea4db	-0.008706297
6	0xbaaf5f82	-0.0013379904
7	0xbbb1c6ff	-0.0054253335
8	0x3c912a5c	0.017720394
9	0xbd1d3ba2	-0.03838695
