Cifar/reek_weights_trial_80iter_final2/Times2.pt (torch, 47937 bytes, 12 tensors)

conv1.weight f4 [8, 3, 3, 3]
0	0x3e11868b	0.1421148
1	0x3e01719a	0.12640992
2	0x3e1498cd	0.14511414
3	0xbc965f67	-0.018356038
4	0x3d7a3b4a	0.0610917
5	0xbe1d5de1	-0.15367843
6	0x3e33d9a3	0.1756349
7	0x3e1ee65a	0.1551756
8	0xbcb6f5a6	-0.022333931
9	0xbe0b4fef	-0.13604711
10	0xbd77c9c7	-0.060495164
11	0xbda5f690	-0.08103669
12	0xbcff7b0f	-0.031186609
13	0xbde830f0	-0.11337459
14	0xbe149c11	-0.1451266
15	0x3e597e95	0.21239693
16	0x3defe662	0.11713864
17	0x3beba836	0.007191683
18	0x3e67802a	0.22607484
19	0x3e31de29	0.17369904
20	0x3d8350e4	0.06411913
21	0x3e2a932c	0.16657704
22	0x3ddf914b	0.10916384
23	0x3da0ed28	0.07857734
24	0xbd074155	-0.03302129
25	0x3e5fbf1d	0.21850248
26	0x3d228cec	0.039685175
27	0x3dc1d839	0.09465069
28	0x3cdfd840	0.027324796
29	0x3e1b0815	0.15139802
30	0xbce838a6	-0.028347325
31	0xbe615f2a	-0.22008958
32	0xbe476451	-0.19471861
33	0xbce4a600	-0.027911186
34	0xbe58d626	-0.21175441
35	0x3d3956fa	0.045248963
36	0xbe0246ae	-0.12722275
37	0x3e0ecb94	0.13944846
38	0x3e597d35	0.21239169
39	0xbce22e27	-0.027609898
40	0x3db7dd26	0.089777276
41	0xbd79b7fc	-0.060966477
42	0xbe1fed33	-0.15617828
43	0x3e0f0204	0.13965613
44	0xbe28bc1e	-0.16478011
45	0x3c61ec97	0.013789318
46	0x3e044901	0.12918474
47	0x3da29c57	0.07939976
48	0x3e485ca0	0.19566584
49	0x3e2164d2	0.15761116
50	0xbd9ae7b9	-0.07563729
51	0xbdb1d94b	-0.086840235
52	0x3d862eb8	0.0655188
53	0xbdbc7725	-0.092024125
54	0xbdf6fefc	-0.12060353
55	0x3d26a0c9	0.04068068
56	0x3d1aba38	0.03777525
57	0x3e5c17d8	0.2149347
58	0x3de85090	0.11343491
59	0x3d69c17f	0.057069298
60	0xbceb9ded	-0.028761828
61	0x3e514b7e	0.20438954
62	0x3cbafc36	0.022825342
63	0xbcd53ff6	-0.026031476
64	0x3e097d3e	0.13426682
65	0x3e2ad8eb	0.1668431
66	0x3d922653	0.07136216
67	0x3e17100c	0.14752215
68	0x3d563a20	0.052301526
69	0xbd845394	-0.06461254
70	0xbdecc3b3	-0.11560764
71	0xbd07c246	-0.033144258
72	0x3de1f089	0.110322066
73	0x3e3e6beb	0.18595855
74	0x3e7a856a	0.24464956
75	0x3e77d4c2	0.24202254
76	0x3e84ff70	0.25976133
77	0x3de985d7	0.11402481
78	0xbd7a10ea	-0.061051287
79	0xbdc5598e	-0.09636222
80	0x3d2536fe	0.040335648
81	0x3e5b26d2	0.21401528
82	0x3e7b426b	0.24537055
83	0x3e177979	0.14792432
84	0xbc88fe55	-0.016722837
85	0x3e0fdf84	0.14050108
86	0xbe008966	-0.12552413
87	0xbd6cc8fc	-0.05780886
88	0xbc833b6a	-0.016019542
89	0xbe0f2f28	-0.13982832
90	0x3e4d7642	0.20064643
91	0x3e2dc71b	0.16970484
92	0x3e45db85	0.19322021
93	0xbe3d44c8	-0.18483269
94	0xbdfcee0b	-0.123500906
95	0x3d575466	0.052570723
96	0xbe83a291	-0.25709966
97	0xbe090434	-0.1338051
98	0xbe1fbfac	-0.15600461
99	0x3da3a4e1	0.079904325
100	0x3c313ce2	0.010817738
101	0xbdda0816	-0.106460735
102	0x3dc28881	0.09498692
103	0x3cb97f43	0.02264369
104	0xbdc8e1b8	-0.098086774
105	0xbe3f7796	-0.18697962
106	0xbdd1bb7d	-0.10240839
107	0x3d72c9e9	0.059274588
108	0xbd0a9e19	-0.03384218
109	0xbe538b62	-0.20658639
110	0x3d005a79	0.03133628
111	0xbe115307	-0.14191829
112	0xbe17cebf	-0.14824961
113	0xbdd19a00	-0.10234451
114	0xbcd2a467	-0.025713159
115	0x3c86918d	0.016426826
116	0x3dad1536	0.08451311
117	0xbd9ad87f	-0.075608246
118	0xbcb721d3	-0.022354996
119	0x3a58a36c	0.0008264098
120	0x3d3fc047	0.04681423
121	0xbd77347e	-0.060352795
122	0xbdf10c93	-0.117699765
123	0x3dae6707	0.08515745
124	0x3e11fe72	0.1425722
125	0xbda4ddb8	-0.08050102
126	0x3dac8cc3	0.08425286
127	0x3de87842	0.11351062
128	0x3dcd54c0	0.100259304
129	0x3d0ec249	0.034853254
130	0xbc227a6c	-0.009916883
131	0xbb1cb386	-0.0023910715
132	0x3dc32fa4	0.09530571
133	0x3e3d52be	0.18488595
134	0x3dd1592f	0.102220885
135	0x3e7e5cb1	0.24840046
136	0x3d30227f	0.043001648
137	0xbd2001ca	-0.039064206
138	0x3dd61675	0.10453502
139	0x3d883fd1	0.06652797
140	0xbda4de18	-0.080501735
141	0xbe1aa16c	-0.1510064
142	0xbe6aea59	-0.22940959
143	0x3dfa5a78	0.12224287
144	0xbdafb372	-0.08579148
145	0x3b9cc6d7	0.0047844457
146	0xbdad0c16	-0.08449571
147	0xbdf67f45	-0.120359935
148	0xbdff98c7	-0.12480312
149	0xbd455b8a	-0.048183
150	0xbe9343d7	-0.28762695
151	0xbe1f1323	-0.15534644
152	0xbe5f5e0a	-0.21813217
153	0xbd8eeaee	-0.06978403
154	0x3d02cff5	0.031936605
155	0xbd228156	-0.039674126
156	0x3e3cc622	0.18434957
157	0xbdeb6042	-0.11492969
158	0xbe3ffb6e	-0.18748257
159	0xbe2975e0	-0.16548872
160	0x3d008c7f	0.031383988
161	0xbe4f7ba7	-0.20262013
162	0xbde8b0c7	-0.113618426
163	0xbda250b0	-0.07925546
164	0x3c399475	0.011326899
165	0xbe1917be	-0.14950463
166	0xbdcf04a0	-0.10108304
167	0xbe1154a7	-0.14192449
168	0x3bfe0dac	0.0077530947
169	0x3d9272ff	0.0715084
170	0xbe5fdb6e	-0.2186105
171	0x3b8f5fe4	0.0043754447
172	0x3c5d0ad0	0.013491347
173	0xbd67bfe7	-0.056579497
174	0x3c562add	0.013071743
175	0x3c21d00c	0.009876262
176	0xbd0f8972	-0.035043187
177	0x3e03e18f	0.12879013
178	0xbdd687c7	-0.10475116
179	0xbd9cb212	-0.07651152
180	0x3e7c58c3	0.24643235
181	0x3d9d8f15	0.07693306
182	0x3e2201bd	0.15820976
183	0xbd72cb00	-0.059275627
184	0xbda0ceed	-0.07851968
185	0x3e6ce5f8	0.23134601
186	0x3e23a94f	0.15982555
187	0x3df9f2ba	0.122044995
188	0x3e1c4f26	0.15264568
189	0xbddd06f4	-0.10792342
190	0xbdce395e	-0.10069536
191	0x3e88ea14	0.26741087
192	0xbd775805	-0.060386676
193	0xbdd3acaf	-0.10335671
194	0x3d960db4	0.073268324
195	0x3e0f1746	0.13973722
196	0xbded835f	-0.11597323
197	0xbd5d5b01	-0.054041866
198	0xbd51a834	-0.0511858
199	0xbbaf60bc	-0.005352108
200	0x3e266588	0.16249669
201	0xbe4a04c3	-0.19728379
202	0x3e16bd2c	0.14720601
203	0x3e5d4965	0.21610029
204	0x3bf7135e	0.0075401505
205	0x3e34a2dd	0.17640252
206	0xbe2613c9	-0.16218485
207	0xbe2316aa	-0.15926614
208	0xbe0f432f	-0.13990472
209	0x3da3f3b5	0.08005468
210	0xbe506db0	-0.20354342
211	0x3cf7d54b	0.030253073
212	0x3e27429e	0.16334006
213	0x3e16a63f	0.14711855
214	0xbbe0b1e3	-0.0068571432
215	0xbe0ea501	-0.13930131

conv1.bias f4 [8]
0	0xbd435271	-0.047686044
1	0x3ca4f09b	0.02013426
2	0xbcfd6e59	-0.030936407
3	0xbde31103	-0.11087229
4	0x3dc9eadb	0.09859248
5	0xbcbe20ab	-0.023208937
6	0x3e2cc6f2	0.16872767
7	0x3d92f221	0.07175089

conv2.weight f4 [10, 8, 3, 3]
0	0x3ba37ac2	0.004988999
1	0x3be722ab	0.0070536933
2	0x3d889cb8	0.06670517
3	0x3d4b4557	0.049626675
4	0x3d21e733	0.03952713
5	0x3dd86d6b	0.10567745
6	0x3df7f8d2	0.121080056
7	0xbd15b692	-0.036551066
8	0xbcd01318	-0.02539973
9	0x3dcc35bf	0.09971189
10	0x3d13f838	0.03612539
11	0x3e223278	0.15839565
12	0x3c1758c2	0.00923747
13	0xbcc25930	-0.023724169
14	0x3d798306	0.06091597
15	0x3e2d4174	0.169195
16	0x3e3ac8ad	0.18240614
17	0x3e027093	0.12738256
18	0xbd0cacf6	-0.034344636
19	0xbd2b8bec	-0.041881487
20	0xba8500a8	-0.001014729
21	0xbcc19f1e	-0.023635443
22	0x3d9e6db7	0.0773577
23	0xbd053666	-0.03252258
24	0x3dc3f091	0.09567369
25	0x3d8aa86a	0.06770404
26	0x3e016242	0.12635139
27	0x3e2bd873	0.16781788
28	0x3e23a30a	0.15980163
29	0x3e366511	0.17811991
30	0x3e3c350a	0.18379608
31	0x3dd30d5c	0.103052825
32	0x3bb69463	0.0055718883
33	0x3dd6449f	0.10462307
34	0x3e653f97	0.22387539
35	0x3e10bd95	0.1413482
36	0x3e13efab	0.14446895
37	0x3af08437	0.001834995
38	0x3dfb712a	0.12277444
39	0x3d30bb95	0.043147642
40	0xbd595913	-0.053063463
41	0x3e060151	0.1308644
42	0x3cf636b7	0.030055387
43	0xbd3befc4	-0.045882955
44	0xbd30b937	-0.043145385
45	0x3de5a26d	0.11212621
46	0xbc3c1e85	-0.011481886
47	0xbd47f3e8	-0.04881659
48	0x3de343f3	0.11096945
49	0x3c626ac7	0.013819403
50	0x3d9dbc14	0.07701889
51	0x3dd80fac	0.10549864
52	0x3e065757	0.13119255
53	0x3df2c851	0.118546136
54	0xbc4e038f	-0.012574091
55	0x3ddf8022	0.10913111
56	0x3dd2be80	0.10290241
57	0xbd8dd2eb	-0.06924995
58	0xbd9201e0	-0.07129264
59	0xbbdb82bd	-0.006698935
60	0xbcb59160	-0.022164047
61	0xbd8d0905	-0.06886486
62	0xbd73bd8f	-0.05950695
63	0x39807884	0.00024503854
64	0xbd27796d	-0.040887285
65	0xbe0a5a2e	-0.13510963
66	0xbe30da76	-0.17270836
67	0xbe0c48c4	-0.13699633
68	0xbe27d267	-0.16388856
69	0x3d4176ab	0.04723231
70	0xbd9c54e0	-0.07633376
71	0xbca3c3f6	-0.019990902
72	0x3e0bb6bc	0.13643926
73	0xbd1e3e85	-0.038633842
74	0xbd9e9d77	-0.07744878
75	0x3df559ac	0.11979994
76	0x3d7fd5c8	0.062459737
77	0x3da6296e	0.08113371
78	0x3cc19ee3	0.023635333
79	0x3dbf774d	0.09348927
80	0xbdbaf737	-0.09129184
81	0x3d700370	0.05859703
82	0xb9c8f06a	-0.00038326095
83	0xbd1bf456	-0.038074814
84	0x3d0bb1f3	0.034105252
85	0xbc55b35d	-0.013043252
86	0x3cfc54c6	0.030802142
87	0xbc2423cd	-0.010018301
88	0x3e34be7c	0.17650789
89	0x3d7e81cc	0.062135503
90	0x3e1399df	0.14414166
91	0xbd303dc3	-0.04302765
92	0xbe004545	-0.12526424
93	0x3e0aa4b4	0.13539392
94	0x3d7aa803	0.061195385
95	0xbcc2080f	-0.023685483
96	0x3e1ca0e3	0.15295748
97	0x3c660fdc	0.014041867
98	0x3dfc1632	0.12308921
99	0xbdd442f8	-0.10364336
100	0xbd92f936	-0.071764395
101	0xbda62b7c	-0.08113763
102	0xbd6737d9	-0.056449745
103	0xbca8cf78	-0.020606741
104	0xbdaca501	-0.084299095
105	0x3e293f07	0.1652795
106	0x3de53b5e	0.11192964
107	0x3d40a696	0.04703387
108	0x3e47ab34	0.19498903
109	0x3dbd9134	0.09256211
110	0x3dba308b	0.0909129
111	0x3e322d53	0.17400102
112	0x3e668f21	0.22515537
113	0x3e05c132	0.1306198
114	0x3e02c42e	0.12770149
115	0x3e2eb861	0.17062522
116	0x3dd25874	0.10270777
117	0xbdfaba6e	-0.1224259
118	0xbbdafb5d	-0.006682797
119	0x3e2a4e8c	0.16631526
120	0xbdf8f641	-0.12156344
121	0xbd909fd8	-0.07061738
122	0xbac9bc18	-0.0015391139
123	0xbd0d767b	-0.03453682
124	0x3da3c880	0.07997227
125	0x3e0fa52a	0.14027849
126	0x3d89165c	0.06693718
127	0xbd17d601	-0.037069324
128	0x3da76689	0.08173854
129	0xbce1f5fd	-0.027583117
130	0x3e2514de	0.16121241
131	0x3e17125b	0.14753096
132	0x3df0b142	0.11752559
133	0x3c326fa7	0.010890878
134	0x3e19a2ef	0.1500356
135	0xbc966be3	-0.018361991
136	0xbd8d39f4	-0.06895819
137	0xbcb90e37	-0.022589786
138	0x3dd83f71	0.105589755
139	0x3cd9e417	0.02659802
140	0xbd41bf5c	-0.047301635
141	0x3d79efe5	0.061019797
142	0xbd306d83	-0.04307319
143	0x3d7a1295	0.061052877
144	0x3acb7081	0.00155212
145	0x3dcd1227	0.10013228
146	0xbd24feb0	-0.04028195
147	0xbd607bc4	-0.054805532
148	0x3d8b8c27	0.06813841
149	0xbd83a100	-0.06427193
150	0xbd80ff4c	-0.06298694
151	0xbd1927e7	-0.03739157
152	0x3dab70b8	0.08371109
153	0xbc3a7d56	-0.0113824215
154	0x3d23ee04	0.04002191
155	0xbd408bd2	-0.047008343
156	0x3e17925c	0.14801925
157	0xbd2d960b	-0.04237942
158	0xbd97d562	-0.074137464
159	0xbc59c620	-0.013291866
160	0xbdaf7a2a	-0.08568223
161	0x3e027005	0.12738045
162	0xbda6f7f7	-0.08152764
163	0x3cb788ae	0.022404041
164	0xbdeb6bc6	-0.114951655
165	0x3dca9008	0.09890753
166	0xbd10260c	-0.035192534
167	0x3c9a46a5	0.018832514
168	0xbdfe76d6	-0.1242501
169	0x3de94d33	0.11391678
170	0x3d916c7f	0.07100772
171	0x3d9153c2	0.07096054
172	0x3c46e073	0.012138474
173	0x3c6b3630	0.014356181
174	0x3e507897	0.20358501
175	0x3d92297f	0.07136821
176	0x3d8690b6	0.0657057
177	0x3c4dc576	0.012559285
178	0x3d81129e	0.06302379
179	0x3e16480d	0.14675923
180	0x3be033fc	0.0068421345
181	0xbd0ddc12	-0.034633704
182	0x3d8866da	0.066602424
183	0x3de08f5a	0.10964842
184	0x3c060659	0.008180224
185	0x3dfe0917	0.124040775
186	0xbdb27233	-0.08713188
187	0xbdb0420a	-0.08606346
188	0xbd2fb7be	-0.04289984
189	0x3dcda002	0.10040285
190	0xbd2b221d	-0.04178058
191	0x3e370941	0.17874624
192	0x3e269f01	0.16271593
193	0x3d6f5659	0.058431957
194	0x3dc46b9e	0.09590839
195	0x3db64433	0.08899727
196	0x3e19dfb5	0.15026744
197	0x3e07ab29	0.13248886
198	0x3d6b9c6f	0.057522234
199	0x3d8d891c	0.06910917
200	0xbde48de9	-0.1115988
201	0x3d8b9d23	0.06817081
202	0xbd60c076	-0.054871045
203	0xbc1e506d	-0.00966273
204	0xbd9a3d94	-0.07531276
205	0x3da6d38c	0.08145818
206	0x3b96d294	0.0046027396
207	0x3e1b4b39	0.15165414
208	0x3e0de538	0.13856971
209	0x3df76c16	0.12081163
210	0x3e067399	0.13130035
211	0x3e0671fd	0.1312942
212	0x3e0458a1	0.12924434
213	0x3e52b9bb	0.20578663
214	0x3db7474b	0.08949145
215	0x3dd26c51	0.10274566
216	0x3e0a1d9a	0.13487855
217	0xbdaab2c0	-0.08334875
218	0x3d40a016	0.04702767
219	0x3d2d91d0	0.042375386
220	0xb8d19790	-9.994127e-05
221	0xbcea1e9c	-0.028579049
222	0x3e5de6df	0.21670102
223	0x3e4dc85a	0.2009596
224	0xbd3c45b8	-0.045964926
225	0x3e1615b5	0.14656718
226	0xbd03c91f	-0.032174226
227	0x3e026a81	0.1273594
228	0x3dfb24a8	0.12262851
229	0x3d87b2a2	0.066258684
230	0xbd0d939d	-0.034564603
231	0xbd4b3c88	-0.049618274
232	0x3e1beb23	0.15226416
233	0x3e101178	0.14069164
234	0x3c30b0b2	0.010784315
235	0x3da41930	0.08012617
236	0xbdac7362	-0.08420445
237	0x3da0c6cc	0.078504175
238	0x39e81a85	0.00044270247
239	0xbd4f09b2	-0.050546356
240	0xba3b8a7f	-0.00071541214
241	0x3e09170c	0.13387698
242	0x3e007ed5	0.12548383
243	0x3d788dd2	0.060682125
244	0x3de07789	0.109602995
245	0x3d8e1aed	0.069387294
246	0x3dbec669	0.093151875
247	0x3daae876	0.0834512
248	0x3d43fc2d	0.047847915
249	0x3d0545a2	0.03253711
250	0x3e26f1bc	0.16303152
251	0x3c611415	0.013737698
252	0x3d3cff8b	0.046142142
253	0x3dd4b29a	0.10385628
254	0xbd2b98a2	-0.04189361
255	0x3e15f128	0.14642775

conv2.bias f4 [10]
0	0xbcea29a8	-0.028584316
1	0x3e43a5f5	0.19106276
2	0xbd2dfc3e	-0.042476885
3	0xbdff2859	-0.124588676
4	0x3def8593	0.11695399
5	0x3e1dbe9e	0.15404746
6	0x3e469359	0.19392146
7	0x3cebeee4	0.028800435
8	0x3dbeab28	0.09309989
9	0xbde0b77d	-0.109724976

conv3.weight f4 [20, 10, 3, 3]
0	0x3c862049	0.016372817
1	0x3d7968c9	0.060890947
2	0xbdc44b4d	-0.09584675
3	0x3dc7c3e3	0.09754159
4	0xbcced59f	-0.025248347
5	0x3d9e3be4	0.07726267
6	0x3dd75ad9	0.10515375
7	0x3d898aaf	0.06715905
8	0xbd06737c	-0.03282498
9	0xbd79f4d5	-0.061024506
10	0x3b47d348	0.0030490924
11	0xbd06c405	-0.032901783
12	0x3d7a7ace	0.061152272
13	0x3e0aabc7	0.1354209
14	0x3d1d7595	0.038442213
15	0x3dd5fd58	0.10448712
16	0x3e1134f7	0.1418036
17	0x3dfadfd2	0.122497216
18	0xbdd311ff	-0.10306167
19	0xbe03aa39	-0.12857904
20	0xbe299a05	-0.1656266
21	0xbe07890b	-0.13235871
22	0xbda599a7	-0.080859475
23	0xbe27efa6	-0.16400012
24	0x3db694ba	0.08915086
25	0xbdf848e2	-0.12123276
26	0xbc7d5fb0	-0.015464708
27	0x3bcbe217	0.0062220204
28	0xbd9eb2d8	-0.077489555
29	0xbd234e98	-0.039869875
30	0xbd7063c7	-0.058688905
31	0x3de37701	0.111066826
32	0x3de1364a	0.10996683
33	0x3d040cce	0.032238774
34	0x3d01b7b3	0.03166933
35	0xbd6b9e06	-0.05752375
36	0xbcf905a4	-0.030398197
37	0x3d9f1ca6	0.07769136
38	0xbd2247bd	-0.039619196
39	0x3d37117f	0.04469442
40	0xbd17a908	-0.037026435
41	0x3e0a4d3c	0.13506025
42	0xb8959a7e	-7.13365e-05
43	0xbd6e5082	-0.058182247
44	0x3ddf578c	0.1090537
45	0x3ca50c87	0.020147575
46	0xbca59e95	-0.02021722
47	0x3de782c7	0.11304241
48	0xbc8dcf89	-0.017310875
49	0x3db61a70	0.08891761
50	0x3e0b56bc	0.13607305
51	0x3cbfcb3d	0.023412341
52	0xbce1989a	-0.027538586
53	0x3cc40b49	0.023931162
54	0xbcc7e9ae	-0.02440342
55	0xbb69a1bc	-0.003564938
56	0xbd973d8d	-0.07384787
57	0x3d616085	0.05502369
58	0x3d6619d8	0.05617699
59	0xbd97437d	-0.07385919
60	0xbd43b016	-0.04777535
61	0xbd9fdc18	-0.078056514
62	0xbd9f6dec	-0.07784638
63	0x3db898fd	0.09013555
64	0x3d092a77	0.033487763
65	0xbd80768f	-0.06272613
66	0xba3ed7a0	-0.00072800554
67	0x3db1cc41	0.086815365
68	0xbcfded6c	-0.030997
69	0x3df67bb9	0.12035317
70	0x3ddce2e4	0.107854635
71	0xbd7464ad	-0.059666324
72	0xbdb20d60	-0.08693957
73	0xbdf0c488	-0.11756235
74	0xbe1ddee8	-0.15417063
75	0xbe276060	-0.16345358
76	0xbdf88cc7	-0.12136226
77	0xbdff214f	-0.12457525
78	0xbddcdae2	-0.10783936
79	0xbd484a7f	-0.04889917
80	0xbdfd1f5a	-0.123594955
81	0x3d13610c	0.035981223
82	0xbd6a0ead	-0.057142902
83	0xbd52015f	-0.05127084
84	0xbc9b01a0	-0.018921673
85	0x3db44020	0.088012934
86	0xbd14c7b7	-0.036323275
87	0xbd12a8c5	-0.035805482
88	0x3db4793f	0.08812188
89	0x3dc5d1d8	0.09659165
90	0xbd56b5fe	-0.052419655
91	0xbc334a78	-0.010943048
92	0xbdd5257b	-0.104075395
93	0x3d6adf29	0.05734173
94	0xbd1a93b7	-0.037738528
95	0x3dab1f6c	0.083556026
96	0x3db47cc4	0.0881286
97	0x3c106bb2	0.008814739
98	0x3d46c560	0.048528075
99	0x3de255e7	0.11051541
100	0xbce619d8	-0.028088495
101	0x3d35c6e0	0.044379115
102	0x3cdebcbf	0.02718961
103	0xbdb197f1	-0.08671559
104	0xbd799dd8	-0.060941547
105	0x3dbcea8e	0.09224425
106	0xbd833d8a	-0.06408222
107	0x3d7e653f	0.062108275
108	0x3c78ba13	0.015181082
109	0x3dfc6914	0.123247296
110	0xbd02a9f3	-0.031900357
111	0x3e157502	0.14595416
112	0x3cc8e268	0.024522021
113	0x3da50269	0.080571
114	0x3d91ccf7	0.07119172
115	0x3dcedc2b	0.101005875
116	0x3e0e5185	0.13898285
117	0xbd36207d	-0.044464577
118	0xbc3dd130	-0.011585519
119	0x3c61d610	0.013783947
120	0x3d9bcd02	0.076074615
121	0xbded6bd4	-0.11592832
122	0xbcc81a66	-0.02442665
123	0x3ddd6793	0.10810771
124	0x3c95dcce	0.018293764
125	0x3d25bb61	0.0404619
126	0xbd849d8b	-0.064753614
127	0xbc5dd3b9	-0.013539248
128	0xbdc04125	-0.09387425
129	0xbc5d6eae	-0.013515158
130	0xbc84351a	-0.016138602
131	0xbd26c597	-0.04071578
132	0xbd9a1bfc	-0.07524869
133	0xbd9c11d5	-0.07620589
134	0x3db3d1ce	0.087802514
135	0x3dc8458f	0.09778892
136	0xbcf5c419	-0.030000733
137	0xbd865737	-0.06559604
138	0x3cf7f36c	0.03026744
139	0xbdc8726d	-0.0978745
140	0xbe08cfcf	-0.13360523
141	0x3d5403c7	0.051761415
142	0xbdb76506	-0.089548156
143	0xbdc59213	-0.09647002
144	0x3e32c6ee	0.17458698
145	0x3e10ba98	0.1413368
146	0x3dffca30	0.12489736
147	0x3dfab6f8	0.1224193
148	0x3e2f75a8	0.17134726
149	0x3b6965af	0.0035613587
150	0x3dd38a22	0.10329081
151	0x3cb8894a	0.022526402
152	0x3d767a50	0.06017524
153	0x3bc2d3f2	0.005945676
154	0xbd213321	-0.0393554
155	0xbd05e519	-0.032689188
156	0x3d8790d9	0.066194244
157	0xbd792598	-0.060826868
158	0xbae65649	-0.0017573322
159	0xbb27619c	-0.0025540357
160	0xbdb46a6f	-0.08809363
161	0x3d6c7247	0.05772617
162	0x3e18d9f0	0.14926887
163	0x3da23888	0.07920939
164	0xbc9308fb	-0.017948618
165	0x3c492652	0.012277203
166	0x3db29dbd	0.087214924
167	0x3e06ce9d	0.13164754
168	0x3d2db474	0.04240842
169	0x3d5c92e6	0.05385103
170	0x3d2cd19f	0.042192098
171	0xbcd0c1ee	-0.025483098
172	0xbdac67a2	-0.08418204
173	0xbba8db74	-0.005153114
174	0x3d8dcc1d	0.06923697
175	0xbd8a560c	-0.067546934
176	0x3cdc3bba	0.026883949
177	0xbd8e7eec	-0.06957802
178	0x3c36ded4	0.011161525
179	0xbd40406c	-0.046936437
180	0xbc9aa2f7	-0.018876536
181	0x3d97601e	0.0739138
182	0xbd842638	-0.06452602
183	0xbd06463e	-0.032781832
184	0xbd34aa07	-0.044107463
185	0x3d6b0da0	0.05738604
186	0x3ccfba0c	0.025357269
187	0x3e1cdebf	0.15319346
188	0xbcc2b77d	-0.023769135
189	0x3b401330	0.0029308312
190	0xbda951f6	-0.08267586
191	0xbb101aa1	-0.0021988528
192	0xbd3c98a6	-0.046044014
193	0x3dad324c	0.08456859
194	0x3dbce5c0	0.09223509
195	0x3d99b718	0.075056255
196	0xbbc88895	-0.0061197975
197	0xbe01243b	-0.12611477
198	0xbdb7cdc8	-0.089747965
199	0xbbf93e38	-0.007606294
200	0x3dafd857	0.085861854
201	0x3dbc837e	0.09204768
202	0xbd252d73	-0.040326547
203	0x3d7429c8	0.05961016
204	0xbc54a166	-0.0129779335
205	0x3de68014	0.11254898
206	0x3e1b6c8b	0.15178125
207	0xbd33fcbc	-0.0439422
208	0x3d944635	0.072399534
209	0xbccf391f	-0.025295792
210	0x3c42a2cf	0.011879637
211	0x3d31b460	0.04338491
212	0x3d9c4d23	0.076319
213	0x3d5df0ee	0.054184847
214	0xbd91032c	-0.07080683
215	0x3db7b497	0.08969992
216	0x3dbe16f8	0.09281725
217	0xbdb621cf	-0.08893167
218	0xbda37fc9	-0.079833575
219	0x3c24ebe2	0.0100660045
220	0xbc4abbe5	-0.012373899
221	0xbd4f7809	-0.050651584
222	0xbdfbf218	-0.12302035
223	0x3d75f8e6	0.06005182
224	0xbdec26e8	-0.11530858
225	0xbc910e78	-0.017707095
226	0x3d4df453	0.050281834
227	0xbd4b5f62	-0.04965151
228	0xbc7cab94	-0.015421767
229	0xbd987162	-0.07443501
230	0x3da2afbc	0.07943675
231	0xbdfc961b	-0.12333318
232	0xbce7ff01	-0.028319838
233	0xbddc185f	-0.10746836
234	0xbe245a28	-0.16050017
235	0xbe25fd6f	-0.16209958
236	0xbdc47fa6	-0.095946595
237	0xbdd1a863	-0.10237195
238	0xbdbebad5	-0.09312979
239	0xbdf1d8ee	-0.11808954
240	0xbcc626dc	-0.024188451
241	0xbd6b731c	-0.057482824
242	0x3c917038	0.017753705
243	0xbda7979a	-0.081832126
244	0xbd80cdcf	-0.06289255
245	0x3d449d81	0.04800177
246	0xbd3ca535	-0.04605599
247	0x3c8ba2cb	0.0170454
248	0x3d25af14	0.04045017
249	0x3d941d1a	0.07232113
250	0xbde7b65d	-0.1131408
251	0xbddd6673	-0.10810556
252	0xbcfbf028	-0.030754164
253	0x3b25c22b	0.0025292735
254	0xbc3c29f0	-0.011484608
255	0x3df08dff	0.117458336

conv3.bias f4 [20]
0	0x3e108ad2	0.14115456
1	0x3c0c5f2e	0.0085676145
2	0x3d0158da	0.031578876
3	0x3c9c6ba9	0.019094305
4	0xbdb7fac0	-0.08983374
5	0xbd70ddbd	-0.058805216
6	0xbd0d32e0	-0.034472346
7	0xbced8cf7	-0.028997881
8	0xbe25a18a	-0.16174904
9	0x3e522007	0.2052003
10	0x3cd7ad1d	0.026327664
11	0xbdbbfbfe	-0.09178923
12	0x3ccabd9f	0.024748622
13	0x3e0c7e33	0.13720016
14	0xbd0e88fb	-0.034798604
15	0xbd48c998	-0.04902038
16	0xbc1f54e6	-0.009724831
17	0x3e569c23	0.20957999
18	0xbdbef560	-0.09324145
19	0xbd5c8148	-0.05383423

conv4.weight f4 [25, 20, 3, 3]
0	0xbd9c618f	-0.07635795
1	0x3d3c8840	0.046028376
2	0xbda59436	-0.080849096
3	0x3c95902d	0.018257225
4	0xbcd0e693	-0.025500571
5	0x3c892bf7	0.016744597
6	0xbd7e78b2	-0.062126823
7	0xbdc0b2dd	-0.094091155
8	0xbda11251	-0.07864822
9	0xbc73c997	-0.014879606
10	0x3dee3691	0.116315015
11	0x3dee1e1a	0.11626835
12	0x3cd5f9a5	0.026120016
13	0x3bb3b622	0.0054843584
14	0x3d35995b	0.044335704
15	0xbd6375d6	-0.0555323
16	0x3d0fe270	0.035128057
17	0x3cb7ee2a	0.022452433
18	0xbc395b60	-0.011313289
19	0x3dc596ca	0.09647901
20	0x3cd846e6	0.026400995
21	0xbcec9eb5	-0.028884271
22	0xbd591929	-0.05300251
23	0xbb6690df	-0.0035181565
24	0x3d2c9702	0.0421362
25	0xbdc5db0e	-0.09660922
26	0xbdb92239	-0.090397306
27	0x3d591bac	0.053004906
28	0x3c9f41ef	0.01944062
29	0x3d6f51af	0.05842751
30	0xbc3d5825	-0.01155666
31	0x3d6dbf90	0.058044016
32	0x3cd69adb	0.026196888
33	0xbd983c31	-0.074333556
34	0xbcbbb3cf	-0.022912888
35	0x3c263c76	0.010146251
36	0x3d3a05c8	0.04541567
37	0x3d8c2166	0.06842308
38	0xbadc00eb	-0.0016784942
39	0x3dac0e2c	0.084011406
40	0xbd2e19ec	-0.04250519
41	0x3d15b11f	0.03654587
42	0x39acd5b5	0.0003296562
43	0x3d86ad5e	0.06576036
44	0xbdabbe16	-0.083858654
45	0x3d71486a	0.05890695
46	0x3d6367ba	0.055518843
47	0x3d4c8864	0.04993476
48	0x3d1cccf3	0.038281392
49	0xbc7cad18	-0.015422128
50	0xbbbd830b	-0.005783444
51	0xbd16e93d	-0.036843527
52	0xbd9420ad	-0.07232795
53	0x3b66eea0	0.0035237446
54	0x3ce26275	0.027634839
55	0xbd578a30	-0.05262202
56	0x3cf8dece	0.030379679
57	0x3ce73f3a	0.028228391
58	0xbc9afe2a	-0.018920023
59	0x3d61aa4f	0.05509406
60	0x3d0bbe7c	0.034117207
61	0xbcd07c98	-0.025450036
62	0x3d0f8c77	0.035046067
63	0xbab83a0e	-0.0014055388
64	0x3dce3b73	0.10069933
65	0xbbdd7fbf	-0.0067596133
66	0x3da03534	0.07822648
67	0x3d98b015	0.0745546
68	0x3d48f42e	0.049060993
69	0xbc85535b	-0.016275099
70	0xbd105a0d	-0.03524213
71	0xba564dbe	-0.00081750366
72	0xbc87a490	-0.016557962
73	0x3d635663	0.055502307
74	0xbc9a7030	-0.018852323
75	0xbc3f8c13	-0.011691111
76	0x3cb20c8b	0.021734497
77	0xbd89d7b0	-0.06730592
78	0xbc9dee7d	-0.01927876
79	0xbd5e6bfc	-0.0543022
80	0xbd932662	-0.07185055
81	0xbd3c409f	-0.045960065
82	0xbd2abf0e	-0.04168611
83	0x3b6a1139	0.0035715832
84	0x3d9f1784	0.07768157
85	0x3ca26d0c	0.019827388
86	0xbd169193	-0.036759924
87	0xbcfe5c57	-0.03104989
88	0xbd5ba8ee	-0.0536279
89	0x3ca334ce	0.01992264
90	0x3cad2144	0.021134026
91	0x3d0c9c6e	0.03432887
92	0x3cc1a12c	0.023636423
93	0xba84eeb4	-0.001014194
94	0x3cb02dba	0.02150618
95	0x3cb82da7	0.022482706
96	0x3d5d4777	0.054023232
97	0x3d79e8e5	0.06101312
98	0xbd368903	-0.04456426
99	0xbb970d9a	-0.0046097757
100	0xbcd87ea3	-0.026427573
101	0xbca20b1f	-0.019780694
102	0xbb673b0f	-0.0035283004
103	0x3d00da98	0.031458467
104	0xbc150b1c	-0.009096887
105	0x3d3b53c2	0.045734175
106	0xbcf32b85	-0.029683838
107	0x3d51357e	0.051076405
108	0x3d9f3c56	0.0777518
109	0x3d66dbcc	0.05636196
110	0x3d41ab08	0.04728225
111	0x3dfaabc7	0.12239795
112	0x3dcc367f	0.09971332
113	0x3e11966c	0.14217538
114	0xbc3d4c49	-0.011553832
115	0xbd055970	-0.032555997
116	0xbc99df47	-0.018783225
117	0x3b862d3d	0.0040947483
118	0xbd5cedb1	-0.053937618
119	0xbcb9cee3	-0.02268166
120	0xbd62ff2a	-0.055419125
121	0x3d28a0ab	0.04116885
122	0xbd687167	-0.056748774
123	0xbd97439e	-0.07385944
124	0xbd9b4d6e	-0.07583128
125	0x3d003ebb	0.031309824
126	0xbd8545f0	-0.0650748
127	0xbc729260	-0.014805406
128	0xbd37d810	-0.044883788
129	0x3d7b892a	0.061410107
130	0x3d80125c	0.06253502
131	0x3aeb496d	0.001795096
132	0xbdad4dc3	-0.084620975
133	0x3c973d07	0.018461717
134	0xbc5533be	-0.013012825
135	0xbc48083a	-0.012208993
136	0xbbd0f456	-0.0063767834
137	0x3c8cdc9c	0.017195038
138	0x3d828de6	0.06374721
139	0xbce29f2f	-0.027663795
140	0x3cff2f9d	0.031150633
141	0xbd30c976	-0.043160878
142	0xbd306eab	-0.04307429
143	0xbd988853	-0.07447877
144	0x3d225fc3	0.039642107
145	0xbc851937	-0.016247375
146	0xbcb23c57	-0.021757288
147	0xbd607bca	-0.054805554
148	0x3dbe5061	0.09292675
149	0xbcf858ba	-0.030315746
150	0x3d81bc0a	0.06334694
151	0xbd338df1	-0.043836538
152	0x3d49f4cb	0.04930572
153	0xbd6b0619	-0.057378862
154	0xbd3fd38b	-0.046832602
155	0xbdb902e1	-0.09033752
156	0xbd2b38a0	-0.04180205
157	0xbd67071d	-0.056403268
158	0xbd920aed	-0.0713099
159	0x3d4ae91f	0.049538728
160	0xbcd9a507	-0.026567949
161	0xbcd9370f	-0.026515512
162	0xbd1c4676	-0.038153134
163	0xbac54450	-0.0015050266
164	0x3d8be5c8	0.06830937
165	0x3cdf9ed9	0.027297424
166	0x3d90a72d	0.07063136
167	0x3da45b22	0.08025195
168	0xbb792038	-0.0038013589
169	0x3d78e7aa	0.060767807
170	0xbdc460e8	-0.09588796
171	0x3dbdd815	0.0926973
172	0x3c9885d2	0.018618498
173	0xbb6b1d5c	-0.0035875654
174	0xbabae1b5	-0.001425794
175	0xbc7959df	-0.015219181
176	0x3d9e80ee	0.07739435
177	0x3d09245d	0.033481944
178	0x3d4daf26	0.050215863
179	0x3ce7e7a8	0.028308704
180	0x3d6679dd	0.05626856
181	0x3d0b53a4	0.034015313
182	0x3d9e4730	0.07728422
183	0x3a4c1d43	0.0007786343
184	0xbdacd8e8	-0.08439809
185	0xbd3033e1	-0.043018226
186	0xbc476a58	-0.01217135
187	0xbd6e3575	-0.05815645
188	0x3d1a0931	0.03760642
189	0xbd84103c	-0.06448409
190	0xbd42845a	-0.0474895
191	0xbb383d6b	-0.002811278
192	0xbc1db8e2	-0.009626599
193	0x3dae1dd1	0.08501781
194	0x3cdc31b9	0.026879178
195	0x3de944a7	0.113900475
196	0xbc9ea179	-0.019364106
197	0x3b9ffab6	0.004882182
198	0xbd56c129	-0.052430306
199	0xbc2d2a04	-0.010569099
200	0xbccacb24	-0.024755068
201	0x3d73743d	0.059437025
202	0x3d50e1fb	0.05099676
203	0x3d99609b	0.07489129
204	0x3d61bee6	0.055113696
205	0xbcdc764e	-0.02691188
206	0x3bc34ea9	0.0059603048
207	0xbe0e8192	-0.13916615
208	0xbda4cfed	-0.08047471
209	0xbd7c0206	-0.061525367
210	0x3c8c0f4d	0.01709714
211	0xbcd7a69f	-0.026324568
212	0x3cdadecc	0.026717566
213	0x3d665692	0.056234904
214	0xbd4e4e79	-0.050367806
215	0xbbf88c2a	-0.0075850682
216	0xbcb4ec54	-0.022085346
217	0x3d70e6da	0.058813907
218	0x3d1e8df4	0.038709596
219	0xbd9ebf5d	-0.077513434
220	0x3d296dbd	0.04136442
221	0xbd2886da	-0.04114423
222	0x3dab2437	0.08356517
223	0x3d02cef1	0.031935636
224	0xbd075036	-0.03303548
225	0xbd8d6655	-0.06904284
226	0xba694264	-0.00088981376
227	0x3d8d6dba	0.06905694
228	0xbd7392f5	-0.05946632
229	0x3d51212b	0.051057022
230	0x3cfb09df	0.030644355
231	0x3aa6b029	0.0012717295
232	0x3d8923a5	0.06696252
233	0x3d8b8d7e	0.06814097
234	0x3d871481	0.06595708
235	0x3dd453ac	0.10367522
236	0x3c3231a8	0.010876097
237	0xbc8c4932	-0.017124746
238	0xbd0c8ca0	-0.034313798
239	0x3a91eaaf	0.0011132563
240	0x3d46805d	0.04846226
241	0xbd25783c	-0.040397868
242	0xbd4ce902	-0.0500269
243	0xbdb7a8e8	-0.08967763
244	0xbd18c783	-0.037299644
245	0xbdb52afa	-0.08846088
246	0xbd3f3fc1	-0.04669166
247	0xbc4ba06e	-0.012428386
248	0x3c8e1b78	0.017347082
249	0x3d3f456c	0.046697065
250	0xbc6338e6	-0.013868546
251	0xbc13a2b9	-0.009010964
252	0xbcd6a6af	-0.026202528
253	0x3d7786de	0.060431354
254	0x3cb7f24c	0.022454403
255	0x3dabd698	0.0839054

conv4.bias f4 [25]
0	0xbd1556d8	-0.036459774
1	0xbdc9c1fe	-0.09851454
2	0x3da7ad02	0.081872955
3	0xbc77abe1	-0.015116663
4	0xbe016a22	-0.12638143
5	0xbd6d14e5	-0.057881255
6	0xbce865bd	-0.028368825
7	0xbdf20fa1	-0.11819387
8	0x3d458c9e	0.048229806
9	0xbc96942c	-0.0183812
10	0x3e442319	0.19154014
11	0xbdba2b2a	-0.09090264
12	0x3a242b2d	0.0006262537
13	0xbdd6fc8f	-0.104973905
14	0xbcb36e12	-0.021903072
15	0xbd6933ca	-0.056934156
16	0x3e1abd0e	0.15111181
17	0x3ca358f9	0.019939886
18	0xbbc8c803	-0.006127359
19	0x3c849eaf	0.016188947
20	0x3d8b39a2	0.06798102
21	0x3dcd00af	0.10009896
22	0x3da6c1a1	0.081424005
23	0x3e36ff56	0.1787084
24	0x3d686361	0.0567354

conv5.weight f4 [16, 25, 3, 3]
0	0x3c828bf3	0.015935874
1	0x3d41a261	0.047273997
2	0x3dc206b9	0.094739385
3	0x3cd8a3b9	0.026445257
4	0x3c99c73b	0.018771758
5	0xbc9a3840	-0.01882565
6	0xbc93952c	-0.018015467
7	0xbd352cf3	-0.04423232
8	0xbd5adef7	-0.053435292
9	0x38a20957	7.726502e-05
10	0x3cf3d7bd	0.029765958
11	0xbd9a9545	-0.07548002
12	0xbc8dfb27	-0.017331673
13	0x3d85a984	0.06526473
14	0x3d388948	0.045052797
15	0xbab84be0	-0.0014060698
16	0xbd6990cb	-0.05702285
17	0x3cd24edd	0.02567237
18	0xbccb22d4	-0.02479688
19	0x3d56b29c	0.05241643
20	0x3d41ce82	0.04731608
21	0x3cb5e28d	0.022202754
22	0xbcce3a98	-0.025174424
23	0x3ca01a6b	0.019543847
24	0xbba2b472	-0.0049653584
25	0x3d0073a2	0.031360276
26	0xbd16e2e0	-0.03683746
27	0x3b979eda	0.004627091
28	0xbc7c8ef7	-0.015414945
29	0xbc8ad0b5	-0.016945222
30	0x3d0e173b	0.034690123
31	0xbd2ae024	-0.041717663
32	0xbd4232d1	-0.047411744
33	0xbb3cbf53	-0.0028800562
34	0xbd59faf0	-0.05321783
35	0x3ce5b342	0.028039578
36	0xbb254737	-0.002521945
37	0xbc80a6b6	-0.015704494
38	0x3b9b6294	0.004741976
39	0xbd07b6fa	-0.033133484
40	0x3d41223c	0.04715179
41	0x3d31588f	0.043297347
42	0xbb1c92d5	-0.002389123
43	0xbd00e404	-0.031467453
44	0xbc83ab3d	-0.016072864
45	0xbd09e5ae	-0.033666305
46	0xbd894b76	-0.06703846
47	0x3d6f0e0f	0.058363017
48	0xbc0fa2b9	-0.008766823
49	0x3d53ccdb	0.051709037
50	0x3c8737d9	0.016506122
51	0xbc025151	-0.007953958
52	0xbd358a30	-0.04432124
53	0x3cc341e5	0.023835132
54	0xbd5ba75f	-0.053626414
55	0x3ba24f19	0.004953277
56	0x3cfcc5c0	0.030856013
57	0x3cb414df	0.021982608
58	0x3d04d575	0.03243013
59	0x3d286a42	0.04111696
60	0xbd52bd12	-0.051449843
61	0xbd68c7f8	-0.05683133
62	0x3d0646da	0.032782413
63	0x387f0517	6.0801478e-05
64	0xbcc27597	-0.023737712
65	0x3d2ed52a	0.042683758
66	0xbb6dd1e6	-0.003628844
67	0xbcd50dce	-0.02600756
68	0xbd3fc62e	-0.04681986
69	0x3c8efe33	0.017455196
70	0x3c88e22e	0.016709413
71	0xbd726922	-0.059182294
72	0xbd776ad4	-0.060404614
73	0x3b53859e	0.0032275687
74	0x3bcd9af2	0.0062745744
75	0x3d15d610	0.0365811
76	0xbd15a1a5	-0.03653111
77	0xbd852776	-0.06501667
78	0xbb74d7e1	-0.003736012
79	0xbcaf9fd8	-0.021438524
80	0x3c2511ce	0.010075046
81	0xbb88cb36	-0.0041746153
82	0xbcdeb85f	-0.027187524
83	0x3d5a643a	0.05331824
84	0xbb9e3c21	-0.0048289453
85	0xbce5a65e	-0.028033432
86	0x3add93d2	0.0016905016
87	0x388b3c1a	6.639231e-05
88	0x3c93da21	0.018048348
89	0xbd06a312	-0.03287036
90	0xb9f5145b	-0.00046745208
91	0xbcb644d9	-0.022249626
92	0x3cd7314c	0.026268624
93	0x3b32c74b	0.0027279432
94	0x3cd0600a	0.02543642
95	0xbd6723e0	-0.056430697
96	0x3b86037a	0.00408977
97	0x3c49be1e	0.012313394
98	0x3c584cf3	0.01320194
99	0xbd3502cb	-0.044192117
100	0x3d78b0d2	0.060715504
101	0xbc8b9f08	-0.017043605
102	0x3c9bb690	0.019007951
103	0x3d9d21f0	0.07672489
104	0xbd02db1d	-0.031947244
105	0xb81b431a	-3.7017373e-05
106	0x3d0c87d3	0.03430922
107	0x3cb64c8d	0.0222533
108	0x1eb2f65d	1.8948377e-20
109	0xbd656cfa	-0.05601213
110	0x3d5fe526	0.054661892
111	0xbbeb5c0c	-0.0071826037
112	0xbd2c5511	-0.042073313
113	0x3db7a301	0.089666374
114	0x2e7aac72	5.699658e-11
115	0xbb285590	-0.0025685765
116	0xbc3ac8f2	-0.011400448
117	0xb5a9d8eb	-1.2654613e-06
118	0x3c76b43c	0.01505762
119	0x3d026460	0.031834006
120	0xbca750fd	-0.02042436
121	0xbd049b41	-0.032374624
122	0x3d51377c	0.051078305
123	0xbb410640	-0.0029453188
124	0xbae09023	-0.00171328
125	0x3ce154f3	0.027506327
126	0xba2761bf	-0.000638511
127	0x3ce2e055	0.02769486
128	0x3d877193	0.066134594
129	0x3c8d1756	0.017223042
130	0xbd3562ef	-0.044283804
131	0x3d2344ed	0.039860655
132	0x287eefd8	1.415184e-14
133	0xbbe5166c	-0.0069911983
134	0x3cea6841	0.028614165
135	0xbc42834b	-0.011872123
136	0x3d228519	0.039677713
137	0x3d8c53f7	0.068519525
138	0xbd749e90	-0.05972153
139	0x3d65bbaa	0.056087174
140	0x3cba5364	0.022744842
141	0xbada4713	-0.0016653262
142	0xbc2e3ff0	-0.010635361
143	0x3d0d52ca	0.034502782
144	0xa645d10e	-6.8631427e-16
145	0xbd18a987	-0.03727105
146	0xbca87e52	-0.020568047
147	0xbc18ba40	-0.009321749
148	0xbd309bce	-0.043117337
149	0xbcdc6558	-0.026903793
150	0xb789bd04	-1.641969e-05
151	0xbcaac12b	-0.020844063
152	0x3b333de9	0.0027350134
153	0x3a051e56	0.0005078068
154	0x3d88a774	0.06672564
155	0xbd366714	-0.044531897
156	0x3ac56972	0.0015061332
157	0xbcc8a385	-0.024492035
158	0xbdc462b9	-0.09589142
159	0x3c0e2215	0.008675118
160	0x3a87ee35	0.0010370674
161	0xbc9ee025	-0.01939399
162	0x3c86637d	0.016404862
163	0xbd689a13	-0.05678756
164	0x3d8fe6ed	0.070264675
165	0xbc3170ee	-0.010830147
166	0xbd094782	-0.03351546
167	0x3cc8f5f0	0.024531335
168	0x3bb00a7c	0.0053723436
169	0xbccec579	-0.025240647
170	0x3a5222a9	0.0008016029
171	0x3ac400c1	0.0014953838
172	0xbd2695bd	-0.040670145
173	0x3aabb1e7	0.0013099284
174	0x3b9ec4f6	0.004845257
175	0xbbf94543	-0.0076071336
176	0xbc7a4ce4	-0.015277121
177	0x39f0be88	0.00045918324
178	0xbc093190	-0.008373633
179	0xbd42a531	-0.04752082
180	0x3cb0d14e	0.02158418
181	0x3d3276b3	0.04357023
182	0x3a5857e5	0.00082528434
183	0x3cdefaf2	0.02721927
184	0xbd20f405	-0.039295215
185	0xbc1110c9	-0.0088541
186	0x3c0d58e4	0.00862715
187	0xbce51c09	-0.02796747
188	0x3c268b85	0.0101651
189	0xbd6948c9	-0.05695418
190	0xbd1415af	-0.03615349
191	0x3be230dd	0.0069027976
192	0x3c8b8fa5	0.017036268
193	0x3d73e789	0.05954698
194	0xbbde48d3	-0.0067835837
195	0xbd139f54	-0.03604062
196	0x3c9fafe5	0.019493053
197	0xb9164a9f	-0.00014332913
198	0xbd0acccc	-0.033886716
199	0xbc81e93e	-0.015858289
200	0xbd9f3b1c	-0.07774946
201	0xbd5dc1f4	-0.054140046
202	0xbceb8bb5	-0.028753141
203	0xbd92c227	-0.07165938
204	0xbcf2835a	-0.029603649
205	0x3c3fc1bc	0.011703905
206	0xbd37b9dd	-0.044854987
207	0xbd9213ef	-0.07132708
208	0x3d809adc	0.06279537
209	0xbd12f702	-0.035880096
210	0xbc8619f6	-0.016369801
211	0xbd0be667	-0.034155276
212	0xbd572595	-0.052526075
213	0xbcc3e0cc	-0.023910902
214	0x3ca658e4	0.020306058
215	0xbcf5c663	-0.030001825
216	0xb9a50235	-0.00031472897
217	0xbb5a7fae	-0.0033340263
218	0xbc990fa2	-0.018684212
219	0xbcb7ea42	-0.02245057
220	0xbb934078	-0.0044937693
221	0x3c33537e	0.010945199
222	0x280eb048	7.920808e-15
223	0x3b8e1f71	0.004337244
224	0xba272175	-0.000637553
225	0xbd647e2f	-0.0557844
226	0xbd8586be	-0.06519841
227	0xbd8a7ad3	-0.06761708
228	0x3d15cc9a	0.036572076
229	0xbc80cd6f	-0.015722958
230	0xbc9d525b	-0.01920431
231	0xbc6e5d06	-0.014548546
232	0xbca58dc8	-0.020209208
233	0xbd031c8b	-0.032009643
234	0x3bc251c6	0.0059301583
235	0x3cfaf1a8	0.030632809
236	0x3da6a591	0.08137048
237	0xbbeef0df	-0.0072918977
238	0x3b9228ef	0.004460446
239	0xbe0ca42b	-0.137345
240	0x3ba75fea	0.0051078694
241	0xbc3d8435	-0.011567165
242	0x3c9f2c06	0.019430172
243	0x3d5f1a22	0.05446828
244	0x3d34b2bd	0.04411577
245	0xbd9123a2	-0.070868745
246	0x3b51a4ee	0.0031989175
247	0xbc56e33a	-0.0131156985
248	0xbce7cfcf	-0.028297333
249	0x39bc0397	0.0003586083
250	0x3c947459	0.018121885
251	0x3c9e1ee8	0.019301847
252	0xbcdfb067	-0.027305795
253	0x3c4b3ee3	0.01240513
254	0xbc6bf9c4	-0.0144028105
255	0x3c4172c9	0.011807152

conv5.bias f4 [16]
0	0xbca3514f	-0.019936232
1	0x3de9df84	0.11419585
2	0x3d4af046	0.04954555
3	0xbdb80e9c	-0.089871615
4	0xbd10051c	-0.035161123
5	0x3c00c9e8	0.007860638
6	0x3dbb1a4f	0.09135877
7	0x3dddf377	0.10837453
8	0xbc98ecce	-0.018667605
9	0xbd2bfb83	-0.041987907
10	0xbd0b3bbb	-0.03399251
11	0xbcc99613	-0.024607694
12	0xbdf3cc05	-0.11904148
13	0x3c145d6a	0.009055475
14	0x3d31c93d	0.043404806
15	0xbc932e92	-0.017966542

classifier.1.weight f4 [10, 16]
0	0xbe6f6477	-0.23378168
1	0x3e3744e4	0.17897373
2	0xbe34a347	-0.1764041
3	0xbd55be59	-0.052183483
4	0x39a746d0	0.00031905482
5	0x3e18afb0	0.1491077
6	0x3d3fc20e	0.046815924
7	0x3e81cc60	0.25351238
8	0xbd9da51d	-0.076975085
9	0x3aa91faf	0.0012903119
10	0x3e14f893	0.14547949
11	0x3e5bec77	0.21476923
12	0x3e78a615	0.24282105
13	0xbd44bbbf	-0.04803061
14	0xbdf527f1	-0.11970509
15	0xbce9d8ee	-0.028545823
16	0x3e62aff5	0.22137435
17	0x3d820214	0.063480526
18	0xbe4e9517	-0.20174061
19	0x3e504bc0	0.20341396
20	0xbb0c6697	-0.0021423453
21	0x3e8dfc44	0.27731526
22	0xbe1e34be	-0.15449807
23	0xbeb0bcbb	-0.3451899
24	0xbd9142a0	-0.07092786
25	0xbc245379	-0.010029667
26	0x3d57e0bf	0.05270457
27	0xbe6738c8	-0.22580254
28	0x3e65a086	0.22424516
29	0x3d5cd513	0.05391414
30	0x3d9b5701	0.07584954
31	0x3e234ca8	0.15947211
32	0x3dae7a87	0.08519464
33	0x3d4ccd4a	0.050000466
34	0x3d20ab45	0.039225835
35	0xbcfc0706	-0.030765068
36	0xbd4d63fc	-0.05014418
37	0x3d09aa0c	0.033609435
38	0x3e777e09	0.24169172
39	0x3d787652	0.060659714
40	0x3e1ac7bd	0.15115257
41	0x3c6623a6	0.014046585
42	0x3e47d1cf	0.1951363
43	0xbe78819f	-0.24268197
44	0xbe3b4adf	-0.1829028
45	0x3d1847b2	0.03717775
46	0x3e4d8d0b	0.20073335
47	0xbd4bc4ba	-0.04974816
48	0xbe1aef07	-0.15130244
49	0xbe5600b6	-0.20898709
50	0xbc8df443	-0.017328387
51	0x3cab9296	0.020943921
52	0xbd8a2486	-0.067452475
53	0x3d33ffd2	0.04394514
54	0xbe17336d	-0.14765711
55	0xbcfe290b	-0.03102543
56	0x3e439bf6	0.19102463
57	0xbd1a528f	-0.03767639
58	0x3e7b179b	0.24520724
59	0x3d31003a	0.043213107
60	0xbe810bbd	-0.25204268
61	0x3d16994b	0.036767285
62	0xbdd15822	-0.10221888
63	0x3e84f1c2	0.25965697
64	0xbe3adb20	-0.18247652
65	0x3bc982e7	0.006149638
66	0x3e842a5e	0.25813574
67	0xbd8eeb2f	-0.069784515
68	0x3d7f3ca7	0.062313702
69	0x3e305bd7	0.17222534
70	0x3e2a3744	0.16622645
71	0x3dfe5386	0.124182746
72	0xbe223045	-0.15838726
73	0x3a6e7dcf	0.00090977264
74	0xbe20b4f4	-0.15694028
75	0xbe2e096d	-0.16995783
76	0xbe857cbc	-0.26071727
77	0xbd5a9ff5	-0.053375203
78	0x3e485e8e	0.1956732
79	0xbdf1717c	-0.117892236
80	0x3e4c9fcf	0.19982837
81	0xbe321e42	-0.17394355
82	0x3e19ab55	0.15006764
83	0xbd6caaec	-0.05778019
84	0x3d3736c5	0.044729967
85	0xbdece3a8	-0.115668595
86	0xbe0e7bd3	-0.13914423
87	0xbd8bcb4a	-0.06825884
88	0x3e373369	0.17890705
89	0x3d5dc8c8	0.054146558
90	0x3e7f99fe	0.24961087
91	0x3cd173c2	0.025567893
92	0xbbe03202	-0.006841899
93	0xbe7f59ab	-0.2493655
94	0x3e7aa531	0.24477078
95	0x3e00e986	0.12589082
96	0xbd9b29d0	-0.075763345
97	0xbe2b79f4	-0.1674574
98	0x3dac6329	0.08417351
99	0x3e89b5d8	0.26896548
100	0xbd1651f8	-0.036699265
101	0x3d8f0815	0.069839634
102	0x3e77a0bc	0.24182409
103	0xbdb6809b	-0.08911248
104	0xbe4d0178	-0.20020092
105	0x3d0541cd	0.032533456
106	0xbc93298c	-0.017964147
107	0xbd49476d	-0.049140383
108	0xbe3ea85e	-0.18618914
109	0x3d0fc24b	0.0350974
110	0xbeb8024c	-0.35939252
111	0x3e2b6a74	0.16739827
112	0x3e629010	0.22125268
113	0xbe8bb839	-0.27288988
114	0x3cd6ee19	0.02623658
115	0x3d838019	0.06420917
116	0x3cca7344	0.024713166
117	0xbdfb0774	-0.12257281
118	0xbe2855b7	-0.16438948
119	0x3d88ca2b	0.066791855
120	0xbe3aaa8f	-0.18229125
121	0xbd1c64d3	-0.03818209
122	0x3cb2d406	0.021829616
123	0xbd8e5bcb	-0.06951102
124	0xbe5dee1c	-0.21672863
125	0x3e416248	0.18885148
126	0x3d012eb3	0.031538676
127	0xbd8645e4	-0.06556299
128	0x3e44c83c	0.19217008
129	0x3e3ee0ad	0.18640395
130	0xbe4ecddb	-0.20195715
131	0x3e7e7653	0.24849825
132	0x3d549e6d	0.0519089
133	0x3e7c6883	0.24649243
134	0x3b97742f	0.0046220045
135	0x3dacffd2	0.08447231
136	0x3e83b936	0.25727242
137	0x3c2aa227	0.010414637
138	0xbd161f81	-0.03665114
139	0x3e3409c8	0.17581856
140	0x3d118af6	0.035532914
141	0xbdcb5f33	-0.09930267
142	0x3a76e7e8	0.0009418712
143	0xbe915302	-0.28383642
144	0xbe207cd8	-0.15672624
145	0xbe4a0184	-0.1972714
146	0xbe2e8a0e	-0.17044851
147	0xbe255f5f	-0.16149662
148	0xbbf518a4	-0.007479744
149	0x3dd189cb	0.1023136
150	0xbdce113a	-0.100618795
151	0xbeb99e5f	-0.3625364
152	0x3dda8060	0.10669017
153	0x3d09a435	0.033603866
154	0xbe396f7a	-0.18108931
155	0x3df8ab5c	0.12142059
156	0x3dd2c38a	0.10291202
157	0x3e4aaf52	0.19793442
158	0x3bb998eb	0.005663981
159	0xbd3d5559	-0.046223972

classifier.1.bias f4 [10]
0	0xbd6be683	-0.05759288
1	0xbdd2ec83	-0.10299017
2	0xbd7364c6	-0.059422277
3	0xbdde8438	-0.108650625
4	0x3e1ab9f3	0.15109996
5	0x3e1b9d4d	0.15196724
6	0x3dc05058	0.09390324
7	0xbda8847a	-0.08228393
8	0x3e570a50	0.21000028
9	0xbd2e6cf6	-0.042584382
