Cifar/reek_weights_trial_80iter_final2/Times1.pt (torch, 47937 bytes, 12 tensors)

conv1.weight f4 [8, 3, 3, 3]
000000 54 28 3b be bc 1a 19 be c9 d8 93 bd c3 40 5e be
       -0.18277103 -0.14951605 -0.07219083 -0.21704392
000010 30 eb 7a be 92 2a 09 bd ec 2f f5 3c 70 15 51 be
       -0.2450378 -0.033487864 0.029930077 -0.20418334
000020 ac 43 05 3e 58 5f b3 bd 00 7c 58 be e0 77 25 be
       0.13014096 -0.0875842 -0.21141052 -0.1615901
000030 1b e2 40 be 4c f2 95 be eb b4 23 bd 85 9d be 3c
       -0.18836252 -0.2928642 -0.03996746 0.02326847
000040 a1 37 1f be 5b 4a 38 be f7 b0 4f bd c5 27 2a 3e
       -0.15548564 -0.17997114 -0.050705876 0.16616733
000050 33 6d 43 3d 3a 06 24 be e9 83 19 be 39 0d e4 3c
       0.047711562 -0.16018 -0.14991726 0.027838336
000060 9c 0b d6 3c 34 35 1c 3e 92 a7 45 ba f9 ac be 3d
       0.026128583 0.1525467 -0.00075399235 0.09310336
000070 a6 50 f2 bd 82 ce 70 3d e3 cb 47 3e c2 79 05 3e
       -0.11831789 0.05879069 0.1951137 0.13034728
000080 d6 53 63 3e 25 1f 40 3e 0d f8 26 bc f2 21 31 3e
       0.2219995 0.1876188 -0.010190976 0.17298105
000090 17 96 f5 bb c6 ef 42 3c 3d 17 16 bc ce e1 6b bd
       -0.0074946987 0.011897987 -0.009160814 -0.05758839
0000a0 2b 04 09 be 18 66 35 3d 8e c8 60 be 60 28 d9 bd
       -0.13380496 0.044286817 -0.21951506 -0.10603404
0000b0 e0 2b a1 bd 7b 3c 8f bd b5 56 00 3d 92 16 d2 bd
       -0.078696966 -0.069939576 0.03133269 -0.10258211
0000c0 18 66 c3 3d ae 30 60 3d 4d eb 1f be a7 39 ce bd
       0.09540957 0.054733925 -0.15617104 -0.1006959
0000d0 24 a1 1d 3d d4 a1 5a 3d 1e 07 73 bd a8 70 f8 bd
       0.038483754 0.053376988 -0.05933296 -0.121308625
0000e0 dc ae 5f 3e 7f ed 22 bd d1 8a 39 3e fc ba dc 3d
       0.21844047 -0.039777275 0.1811936 0.10777852
0000f0 bb a2 55 3e 80 ac f5 bd 0b 39 2f 3e 77 a5 4e 3d
       0.20862858 -0.119957924 0.17111604 0.05045077
000100 9d b9 cb 3d 98 5a 70 3d d7 92 3e 3e d8 bd 21 3e
       0.09947512 0.058680147 0.18610702 0.15795076
000110 81 92 53 bd 2a 73 02 3e 28 19 26 3e f8 38 7b bd
       -0.05165339 0.12739244 0.16220534 -0.061333627
000120 0f 88 2f bd d8 9b b8 3d 55 55 dc 3d 4e 54 cf 3d
       -0.042854365 0.090141 0.10758463 0.10123502
000130 a7 ae 74 3c 89 4a 88 3e 29 94 1e 3e f5 af 49 3d
       0.0149342185 0.26619366 0.15486206 0.04924007
000140 4f 07 f0 3b 67 22 44 bd 65 43 d3 3d ec 4a 93 bc
       0.00732509 -0.04788437 0.10315589 -0.017980061
000150 fd af 51 3e e4 17 77 3d 8c 53 07 3e 7b 11 3b 3e
       0.2047729 0.06032552 0.13215464 0.18268387
000160 02 bc 40 3e 37 1b 53 3d 87 49 be 3d ab 4e ff 3d
       0.1882172 0.051539626 0.09291368 0.124661766
000170 b3 ac 7d bc f3 b7 20 be 37 2f 6e 3e e0 eb 11 3e
       -0.015483069 -0.15695171 0.23260199 0.14250135
000180 79 c2 37 bc 9f 71 fa bc 94 19 60 3d 3d 5b 2e 3e
       -0.0112157995 -0.030571757 0.054711893 0.17026992
000190 fa 6e ba bd 0c b2 9e 3c bf 1d a7 3d 83 ab c6 3d
       -0.09103198 0.019372009 0.081599705 0.09700682
0001a0 ff 8d 1c 3e 91 45 01 bd 94 7c 1f 3e 20 7d 80 3e
       0.15288542 -0.031560484 0.15574867 0.25095463
0001b0 b6 75 67 be 72 4c fd 3b 52 55 08 bc 13 24 72 3d
       -0.22603497 0.0077300603 -0.008321123 0.059116434
0001c0 e7 8c 61 3e e7 c3 1f 3e 39 0d 76 3d a8 1c 3f be
       0.22026406 0.15602075 0.060071204 -0.18663275
0001d0 94 08 ba bc ec 61 d0 bd ac a0 64 3d 2a 76 08 be
       -0.022709168 -0.10174927 0.05581729 -0.13326326
0001e0 51 01 00 3e a7 67 42 3e 46 fa 0a 3d 87 b7 5a 3d
       0.12500502 0.18984853 0.033930086 0.05339768
0001f0 d5 92 a7 bd 92 da a5 3d a6 bc c8 bd 41 74 50 3d
       -0.08182303 0.080983296 -0.09801607 0.05089212
000200 06 6a c2 bc f8 15 2e bb 71 6e 07 3e fe f0 90 bd
       -0.023732197 -0.0026563387 0.13225724 -0.070772156
000210 6d 16 04 be 84 2f 0c be 1a 61 d9 3c 50 c3 af bd
       -0.1289918 -0.13690001 0.02653556 -0.08582175
000220 55 ae 25 be 03 e2 b7 bd 63 61 b2 bd cd dc a8 bd
       -0.16179784 -0.08978655 -0.08709981 -0.082452394
000230 52 0b d0 3d 09 81 26 3e 21 c2 bb bd df 8a 1e be
       0.10158409 0.1626016 -0.091678865 -0.15482663
000240 29 14 10 be a4 73 4e be 44 29 bb 3d 43 d5 99 bc
       -0.1407019 -0.20161301 0.0913873 -0.018778449
000250 2b 12 e2 3d 0e b2 14 3e f3 0a 3d be b6 67 1f be
       0.110386215 0.14521047 -0.18461208 -0.15566906
000260 ce 36 14 be 86 c0 19 bd 92 05 41 be d1 14 55 be
       -0.14474031 -0.03753712 -0.18849781 -0.20808722
000270 5a ad db bd ae 7f e3 3c db 9f c1 3c 5b ce 5b be
       -0.107264236 0.027770843 0.023635795 -0.21465437
000280 26 f5 54 bc 6e 54 7a be b7 67 03 3e 9e 47 98 3d
       -0.012997901 -0.2444627 0.12832533 0.07435535
000290 07 89 7e 3e 28 e1 73 bd eb b8 ad 3b 29 4f 13 3e
       0.2485696 -0.059540898 0.005301585 0.14385666
0002a0 37 06 e6 bb ec f2 33 be 17 fe d6 bd d5 ec 2a 3e
       -0.007019784 -0.17573136 -0.104976825 0.16691907
0002b0 f0 68 c2 3d e3 c2 3e 3d ad d2 38 be d6 c4 ad bd
       0.094926715 0.046572577 -0.18049116 -0.08484809
0002c0 b6 11 9e 3d 74 1c 67 be 05 67 35 3c 21 d9 82 be
       0.07718222 -0.22569448 0.011071925 -0.2555628
0002d0 0c cb 1a 3e e3 40 0f 3e 46 d9 66 3e 7b 48 0d bd
       0.15116519 0.13989596 0.2254382 -0.03449295
0002e0 49 57 96 bc a3 c7 2f 3e 71 49 d6 bd d2 2b 23 3e
       -0.018352168 0.17165999 -0.104632266 0.15934685
0002f0 3c c9 32 be 99 45 86 3d b3 a4 3f 3e c9 1b c5 bd
       -0.17459577 0.065562434 0.18715172 -0.0962444
000300 01 4a 0e 3e 46 b4 fa 3d 01 a4 8f bc b7 f5 ee 3d
       0.13895418 0.12241416 -0.017534258 0.1166796
000310 ad 26 d5 3d 3f a0 00 be 9b 1f d4 bd 71 af 71 3d
       0.104077674 -0.12561129 -0.10357591 0.059005205
000320 5d d5 59 be 45 5e ad bd 75 fc 8c 3d f0 fa e9 bd
       -0.21272798 -0.08465246 0.0688409 -0.11424816
000330 62 2d 83 3e ad 57 86 bb bf 3a bb bd 35 7d 29 3e
       0.25620562 -0.0040998072 -0.09142064 0.16551669
000340 46 10 fd 3d 4a 26 38 be 56 22 3a bd 82 a2 d5 bd
       0.123566195 -0.17983356 -0.0454429 -0.104313865
000350 8c 1e 05 bd a6 83 84 3b 35 b1 48 be 2c d7 c6 bd
       -0.032499835 0.004044014 -0.19598849 -0.097090095

conv1.bias f4 [8]
000000 7d b4 e6 3d 01 5e 33 be b0 30 76 3e 65 ea 1e bd
       0.11264894 -0.17516328 0.2404201 -0.038797755
000010 2d 0b 93 3d 13 fb 9c 3d e5 2b 87 bd cd 34 50 3e
       0.07179866 0.07665076 -0.06600169 0.20332642

conv2.weight f4 [10, 8, 3, 3]
000000 aa 7e b9 3c 8c b4 ff 3d 07 45 70 3c 17 47 6a bd
       0.022643406 0.124856085 0.014664895 -0.057196703
000010 a5 53 be 3d 78 84 5f bd 86 0e 7b 3d 5f be 7b 3d
       0.09293298 -0.05456969 0.061293148 0.06146085
000020 5d 06 3d bc 39 a2 ef bc 43 16 e4 bd 86 17 70 bd
       -0.011537162 -0.029252158 -0.111370586 -0.058616184
000030 ff 6c 98 3d 91 9c d2 bc 91 7e 8f bd a2 b7 d7 bd
       0.07442664 -0.025709422 -0.070065625 -0.10533072
000040 ca bc b4 3d 0f 2a e6 bd 2a c3 14 3e 52 74 1e 3b
       0.08825071 -0.11238491 0.14527574 0.002417822
000050 ee a4 8b 3b 61 a1 6e 3d 24 c4 a9 bc ad 98 56 3d
       0.0042616045 0.05825937 -0.02072341 0.052391697
000060 8b 73 11 3e 31 bf 1c 3e 64 e6 9e bb cf b5 db 3c
       0.14204232 0.15307309 -0.004849242 0.026820092
000070 3c 87 f5 3d 5b 77 37 3c 28 7a 30 3e a1 c2 09 bd
       0.119886845 0.01119789 0.17234099 -0.03363288
000080 ea 61 9f bc 98 4b eb bc e9 a1 1e 3e 94 1d 98 3d
       -0.019455869 -0.02872257 0.15491451 0.074275166
000090 09 e6 a8 3d 34 9f 7c bd 18 64 b8 bd 6b 5c 7c bc
       0.08247001 -0.061675265 -0.09003466 -0.015402894
0000a0 86 f9 f2 bd 58 9d bc b9 c5 6e b6 bd 8a 32 5f bb
       -0.11863999 -0.00035975385 -0.08907846 -0.0034057223
0000b0 22 b3 b2 bc fa 25 84 bd 3d 51 d9 3d b1 79 94 3d
       -0.021813933 -0.06452556 0.10611198 0.07249773
0000c0 fa 49 29 3b d5 25 fd 3d 4f a1 3b 3d 37 f5 82 3d
       0.0025831447 0.123607315 0.045808133 0.06394427
0000d0 0b 7e 6b bd 7a e2 34 3e a0 13 d5 3c 28 e7 a4 3d
       -0.05749325 0.17664519 0.026010334 0.08051902
0000e0 43 1e 4e bd a4 71 13 3e 36 58 1e bd d2 0a b5 3d
       -0.05032183 0.14398819 -0.038658343 0.088399544
0000f0 f7 a9 14 3d e0 37 4d bd b4 63 9d 3c 73 3d 7f 3d
       0.036294904 -0.050102115 0.019212581 0.062314462
000100 e4 1e 30 3e 14 a5 0f 3e d9 e3 ba 3d 86 f7 f2 3d
       0.17199284 0.14027816 0.0912549 0.118636176
000110 b4 6b 38 3d 3e ca 1d 3e 66 02 a9 bb 9b 2e 9d bb
       0.04502459 0.1540918 -0.0051577566 -0.0047968156
000120 b0 f5 dc bd e1 4c b6 bd 25 2c 86 bd 3b 9f 31 3c
       -0.10789049 -0.08901382 -0.06551389 0.010841186
000130 8f 1f e1 3c 1f bd 4d bd b5 d5 18 bc 20 58 14 3e
       0.027480869 -0.050229188 -0.0093282955 0.14486742
000140 f5 5a 84 bc 16 b5 f5 3d d9 58 1d 3e 30 78 f0 3d
       -0.016156653 0.1199743 0.15365924 0.11741674
000150 3c e3 27 3e 30 bb e9 3d 76 ab 85 3d 89 39 a6 3d
       0.16395277 0.11412656 0.06526844 0.08116443
000160 d1 75 a6 bc de 9d 4b bd 67 7a 37 3d df 3a 27 3d
       -0.020319851 -0.0497111 0.044794466 0.04082763
000170 cf 65 07 3e 1a f5 97 bd c6 95 00 be 4b f5 8d bd
       0.1322243 -0.07419796 -0.12557134 -0.069315515
000180 ca 12 ef bd 13 e0 94 bc ef 63 07 be 3b e4 b3 3d
       -0.116735056 -0.018173253 -0.13221715 0.08783766
000190 8f 20 47 bd 9a 3b 8d bd 2c 0b 06 3d 78 4d 9c 3d
       -0.048615035 -0.06896134 0.032725498 0.076319635
0001a0 28 72 05 3d 05 79 0e 3c 5f a0 f6 bc 0d 3d 20 3c
       0.03257957 0.0086958455 -0.030105768 0.009780181
0001b0 43 8d 41 3e cd 93 49 3e 73 d3 0f 3e 49 3e fa 3d
       0.18901543 0.19685288 0.14045505 0.12218911
0001c0 9d b8 f8 3d 6d 4f 34 3c d1 b3 c9 3d bb 13 8a bd
       0.12144587 0.011005265 0.098487504 -0.067420445
0001d0 28 5b a8 3d 13 c4 07 3c 5f 7f 6d 3d b0 89 f0 3c
       0.08220512 0.008286494 0.0579828 0.02936253
0001e0 f3 0b a3 3d 63 b9 8d bd ac 4c 9d 3c 9e f6 e6 bc
       0.079612635 -0.06920125 0.019201599 -0.028193768
0001f0 37 56 39 3d cb e5 b0 3d 44 c7 30 3e f9 32 2b 3e
       0.045248237 0.086375795 0.17263514 0.16718663
000200 5a 32 21 3e 56 86 3a 3d d9 15 5f bd 92 9e a6 bc
       0.15741864 0.04553827 -0.054464195 -0.020339284
000210 46 3d 0d bd 4b 73 a4 bc 02 92 90 3d 29 06 1f bd
       -0.034482263 -0.020074507 0.07059099 -0.038824234
000220 bb b7 a4 bd 24 c5 96 38 e4 44 a2 bd 49 f1 b9 bc
       -0.08042856 7.189278e-05 -0.07923296 -0.022698062
000230 e1 e4 ef bb ad 7a 0d 3d 4f 9b f1 3c 52 ad 34 3d
       -0.0073209857 0.03454082 0.029493002 0.044110604
000240 c6 af bd 3d e3 21 33 3d 21 38 ae bc ed 04 a6 bc
       0.09262042 0.04373349 -0.021266999 -0.02026602
000250 6b 9f 6c bd 4c 40 a8 39 0a f0 23 bd 84 ae 7c 3d
       -0.05776922 0.00032091362 -0.04002384 0.06168987
000260 cc 9e 89 bd e8 8f f1 3c 5a 6f ac 3d b3 ec b6 3c
       -0.06719741 0.029487565 0.08419676 0.022329664
000270 30 b2 05 3e c7 95 25 3e ab bc cf 3b 99 7d f1 3d
       0.13056254 0.16170417 0.0063396296 0.11791534
000280 55 81 fd 3d 0c 99 3e bc 97 a6 0c 3e 54 74 52 3d
       0.12378184 -0.011633169 0.13735424 0.05138047
000290 fd b6 e8 3c 0e 8a 06 3e 88 08 cb 3c 6f 7a 12 3e
       0.028407568 0.13138601 0.024784341 0.14304517
0002a0 a3 1d 4f bd 65 4a 01 3e 32 89 8a ba 4f 59 f8 3c
       -0.050565373 0.12626036 -0.0010569452 0.030316023
0002b0 b3 ba 88 bd ae 97 c4 3b 4b b5 ab 3d 47 ad a8 3d
       -0.06676235 0.005999527 0.08384188 0.08236175
0002c0 5b b1 60 3d 61 e0 3c 3d 93 d5 ca 3d 9e d4 06 3a
       0.05485664 0.046112422 0.09904017 0.0005143377
0002d0 33 44 2a be e8 f0 32 be 82 88 20 be de b0 29 bc
       -0.16627578 -0.17474711 -0.15677074 -0.01035711
0002e0 1a 92 21 be ce 5e 70 be d0 ee cb bd 1d 21 8c bd
       -0.1577839 -0.23473665 -0.09957659 -0.06842253
0002f0 41 fc 01 be 61 2b d3 3d 71 42 17 bd 7e 26 5b 3d
       -0.12693883 0.10311008 -0.036928598 0.053503506
000300 b2 8c 52 3b 19 45 89 bd 60 13 0d 3e fe e5 2a bd
       0.0032127318 -0.067026325 0.13776922 -0.041723244
000310 bb 72 d0 bd d0 29 9d bd cd a8 04 3e 6e a5 a7 3d
       -0.10178133 -0.07673991 0.12955017 0.0818585
000320 59 d6 3b 3d f8 7e ad 3d 33 d6 3c 3d 27 5c 2b 3d
       0.045858715 0.08471483 0.046102714 0.04183593
000330 e4 68 e7 3d d2 56 db 3d 4f c9 fd 3b ef f9 01 bd
       0.11299303 0.10709919 0.007744945 -0.031732496
000340 0f 20 10 3d 8c 2f 20 3e d4 cf f8 3c 37 ac d0 bc
       0.035186823 0.15643138 0.030372538 -0.025472743
000350 12 6c 23 3e 18 e7 54 bd 9a 3a b9 bc a6 92 0f 3d
       0.15959194 -0.0519782 -0.022610951 0.035051964
000360 88 8d 0b be 63 a2 17 3d 4e 84 46 bd 73 52 60 3d
       -0.13628209 0.0370201 -0.04846602 0.05476613
000370 2b 35 3a bd 62 23 ee 3c a6 84 07 3e c7 92 6e 3d
       -0.04546086 0.029069606 0.13234195 0.058245447
000380 20 9c 4e 3e 14 01 5e 3e 05 f0 1b 3e 57 cc 93 3d
       0.20176744 0.21680099 0.15228279 0.07216709
000390 b2 4d d0 3d 1c 16 d4 3d c4 e5 8c 3b 83 24 a8 bc
       0.10171069 0.103557795 0.004299851 -0.020525223
0003a0 77 35 21 bd 96 b0 79 3d 1f a8 1a 3e 5a 5d 3b 3d
       -0.03935763 0.06095942 0.15103196 0.045743324
0003b0 62 a4 5a bd 06 78 35 3d 79 26 d0 3d ea 36 b4 bd
       -0.053379424 0.044303916 0.10163588 -0.087995365
0003c0 ca dd ab bc 4f d5 a8 bb 5b f3 32 be 8a 45 1f 3e
       -0.02097978 -0.0051523815 -0.17475645 0.15553871
0003d0 0a ec 0f 3d 33 25 54 bc 88 f1 5c 3d 14 ed 98 bc
       0.035137214 -0.012948322 0.05394128 -0.018667735
0003e0 3d 34 4f 3c 62 cc 25 bd 4d 0f a5 bd 66 8c b8 bd
       0.012646732 -0.040478118 -0.08059559 -0.09011154
0003f0 0e 27 32 3e 0d af 2a 3e 06 4d 19 3e b9 ed 49 3e
       0.1739771 0.16668339 0.14970788 0.1971959

conv2.bias f4 [10]
000000 3e 3d 25 3e 1d 48 0c bd 7a 6f fd 3c 12 28 fd bd
       0.16136643 -0.03424846 0.030936945 -0.123611584
000010 f3 dd 54 bd 07 14 05 bd a2 99 96 3d 81 24 8b bd
       -0.05196948 -0.032489803 0.07353522 -0.06794072
000020 b8 3e 0e bd d8 cc 64 3b
       -0.034727782 0.0034912135

conv3.weight f4 [20, 10, 3, 3]
000000 f9 b1 34 bc bc 09 f0 3d 8f 90 8d 3d 60 56 97 bd
       -0.01102876 0.11720607 0.06912338 -0.073895216
000010 a7 e3 ce 3c ba 2f 4e bc 99 6b 02 3d f6 e0 a3 3d
       0.025255037 -0.012584621 0.031840894 0.08001892
000020 05 ac e0 bc 11 ca 89 bd 7c 24 63 3d ae 3f 8a 3d
       -0.027425775 -0.06727994 0.055454716 0.06750427
000030 97 47 b9 3d 0a a1 b8 3d 93 cb a8 bc 3f 67 0a 3d
       0.09046858 0.09015091 -0.020604884 0.03378987
000040 f9 53 fe bc ed b4 1a bc 48 2d 01 3d c3 14 0b 3e
       -0.0310459 -0.00944255 0.031537324 0.13582139
000050 4e 64 b6 3c c8 3b 95 3d 54 fe cf 3c f2 bf ae 3d
       0.022264626 0.07286793 0.025389828 0.085327044
000060 1d 8e 50 3d 1a 5f 0b bd 3b 13 5d 3d c1 68 a4 bd
       0.05091678 -0.034026243 0.053973418 -0.08027793
000070 10 04 e1 ba 58 5e c9 3d 6e 51 f4 3c 90 3c 25 bb
       -0.0017167348 0.09832448 0.029823985 -0.00252131
000080 42 14 a0 bd 1b c0 97 bd e4 de 01 3d 90 d5 fc 3d
       -0.07816364 -0.07409688 0.031706706 0.12345421
000090 84 80 9e 3c 03 0e c1 3d f0 5e 9e 3c 44 2c a1 3d
       0.01934839 0.09426501 0.01933238 0.07869771
0000a0 ad 99 b0 3c cd 90 b2 3d 64 e6 09 3d cb 38 3c 3c
       0.021557653 0.08719025 0.033666983 0.01148815
0000b0 72 fc 0b 3d 9f 97 de 3d 64 f7 8b bd 7b 07 5e bd
       0.034176297 0.10868763 -0.068342954 -0.054206353
0000c0 a9 10 ba bd 21 00 a3 3d 2b 97 54 3d 39 e9 52 3d
       -0.09085209 0.07959009 0.051901978 0.05149195
0000d0 b5 d4 bf 3d cd 6f b2 bd a6 30 31 3d 1f a9 d3 3d
       0.093667425 -0.087127306 0.043259285 0.10334992
0000e0 1f b0 21 bc 69 cb 5a bc ea 96 b1 3d fb 56 0c 3e
       -0.009868651 -0.013354161 0.08671363 0.13705055
0000f0 29 32 ad 3d e4 26 28 bd 33 50 64 3d 25 42 0a be
       0.08456833 -0.041052714 0.055740546 -0.13501795
000100 a9 11 07 be ff a0 03 be 69 a5 53 3b 76 dd 4e 3c
       -0.1319033 -0.12854384 0.0032294637 0.012626043
000110 89 92 5b 3d 37 fb 8a bd 85 e6 45 bd fd 05 ca bd
       0.053606544 -0.06786197 -0.048315544 -0.098644234
000120 84 34 0f 3c 19 ab 83 3c 55 c6 b7 bb 62 56 2d bc
       0.008740548 0.016072797 -0.00560836 -0.010579677
000130 b7 10 f6 bd 39 6b bc bb 82 00 66 bd 96 41 9c bd
       -0.12014907 -0.0057500866 -0.056152828 -0.07629697
000140 27 3a 09 bd 3b f2 65 3d ae 1c d3 3d 8f 19 26 3e
       -0.033502724 0.056139212 0.103082046 0.16220687
000150 da f6 01 bd 51 09 3c bd ed 7b eb 3d ea 7c c0 3c
       -0.031729557 -0.045907322 0.11498246 0.023497064
000160 28 90 05 3e 19 30 df 3d e7 1b c7 bd 2f 6a de 3c
       0.13043272 0.10897846 -0.09722119 0.027150242
000170 e7 95 34 3d 06 12 69 3d d6 ff c1 3d 3e c2 03 3a
       0.04408827 0.056901954 0.09472625 0.0005026198
000180 62 79 dd ba 64 06 7b 3d a7 f7 23 3a b0 96 e8 3d
       -0.0016897137 0.06128539 0.00062548596 0.11356866
000190 39 7f 2c 3d 4d c2 d1 3d 43 b3 9a 3d 2f d8 9e 3d
       0.042113516 0.10242138 0.07553723 0.077560775
0001a0 9e e5 44 3d 90 a8 07 3e 15 3d 10 3d f9 3c 42 3d
       0.048070543 0.13247895 0.035214502 0.04742143
0001b0 5f 7a 39 3d 55 60 e6 3d bb 23 e0 3d 8d a3 0e 3d
       0.045282718 0.112488426 0.10944315 0.034823943
0001c0 58 69 19 bd 59 c7 d4 bb 9e 99 cf bd 3a a8 b0 bd
       -0.03745398 -0.0064934907 -0.10136722 -0.08625837
0001d0 66 44 21 3c 72 f0 e0 3d 7a 49 1f bd bc 33 de bc
       0.009842968 0.10983361 -0.038888432 -0.027124278
0001e0 13 8a fd 3d ef 40 fb 3d 1f 73 56 3d 79 25 aa 3d
       0.12379851 0.122682445 0.05235588 0.083079286
0001f0 eb 42 b7 3d cd e3 70 3d 81 ad 75 bd 51 36 84 3d
       0.089483105 0.058810998 -0.05997992 0.064556725
000200 97 68 a8 3d 39 2b 1f 3d 67 e3 a3 bd 47 be 62 bd
       0.08223074 0.03885958 -0.08002358 -0.055357244
000210 5d 7f cf bd 56 9e 19 3c b3 21 09 be 51 f0 ad bd
       -0.101317145 0.009376129 -0.13391761 -0.08493102
000220 05 90 1a 3c d5 b7 ce bd 62 f2 00 3d 39 b4 b8 3c
       0.009433751 -0.10093657 0.031481154 0.022546874
000230 da 00 43 3d a8 14 e1 3c b0 09 c0 3d 35 7d 17 3d
       0.047608234 0.02747567 0.09376848 0.03698464
000240 62 97 8f 3c 53 38 98 bc cf ea fd 3d 65 81 0b 3e
       0.01752824 -0.018581545 0.12398302 0.13623579
000250 a7 d9 c3 3d 06 75 5d bd fc 81 b4 3d 71 72 95 bb
       0.09562998 -0.05406668 0.08813855 -0.0045607616
000260 a9 f9 fd bc be 6f 91 bd f4 7f a8 3b af 1b f4 3c
       -0.031002836 -0.07101391 0.0051422063 0.029798357
000270 70 44 06 bd d1 8a 1f 3d bd 30 ba bc fa ee 49 3d
       -0.03278011 0.038950745 -0.022728318 0.04930017
000280 da bb ce 3d db 5b 8c bc 8e 42 23 be 3a 7b c9 bd
       0.100944236 -0.017133644 -0.15943357 -0.09837957
000290 81 f8 d5 3c 52 ac 1f bc 3a 12 1a bd c3 7c cb bc
       0.026119472 -0.009745674 -0.03761504 -0.024839764
0002a0 eb c3 0c 3d 84 87 e5 3c e3 53 74 3d 0e bb 8b 3d
       0.03436653 0.02801872 0.059650313 0.06822787
0002b0 be 84 6f 3d f9 e9 d0 bc 53 45 8a bd c9 67 11 bd
       0.058476202 -0.025502192 -0.06751504 -0.035499368
0002c0 02 81 55 bc 6a 4b 47 3d 7f f1 46 3c 76 be ec 3c
       -0.013031246 0.048655905 0.012142538 0.028899413
0002d0 a8 03 08 be 5c 85 18 bc a3 4f 7d bc 65 3c ea bc
       -0.13282645 -0.009309139 -0.015460881 -0.028593251
0002e0 23 58 96 bd e0 eb a5 3c 02 95 c4 3d 27 4a ed 3d
       -0.073410295 0.020254076 0.095987335 0.11586409
0002f0 a8 d5 dd 3d 55 7a e5 3d 83 db df 3d 90 bf 06 3d
       0.10831767 0.112049736 0.109305404 0.032897532
000300 50 a4 c1 3d f5 09 56 3e 35 60 5d 3e 07 75 91 3d
       0.09455168 0.20902236 0.21618731 0.07102399
000310 55 3e b9 3c 55 0c d2 3c a9 db 78 bc 87 7d c6 3c
       0.02261273 0.025640646 -0.01518909 0.024229778
000320 58 fb ab bd ba d0 13 be 4b 32 c8 bd ce 32 0f be
       -0.083975494 -0.14435092 -0.097752176 -0.13984224
000330 5c b3 59 bd 3f a6 33 bc e1 64 74 bd dc 16 f3 3d
       -0.053149566 -0.010964929 -0.059666518 0.118695945
000340 ea e8 08 bd e5 29 9d 3c f0 2a 16 3e 84 52 50 3e
       -0.03342525 0.019185016 0.14664817 0.20343977
000350 5f 43 17 3d db d7 cf 3d 30 0e ec bc df 71 01 3e
       0.036929484 0.10148593 -0.028815359 0.12641095
000360 13 80 99 3b 44 45 22 3d ae 9c f1 3c 03 64 9a 3d
       0.004684457 0.039616838 0.029493656 0.07538607
000370 be fb dc bc 35 b1 b1 bc 76 ae 86 3d 22 ef 5b 3c
       -0.026975509 -0.021690944 0.065762445 0.013423713
000380 3f 0d 27 bd 1a 5c 41 3d 90 8d df 3d f0 28 d9 bc
       -0.040784117 0.047206976 0.10915673 -0.026508778
000390 7f f7 1b 3e c7 9e 85 3d 7b 49 0c 3e 45 5d be 3d
       0.15231131 0.06524425 0.13699906 0.092951335
0003a0 dd 6b 21 3e d4 6e c1 3c 3a 7c 23 3d 1a c4 de 3d
       0.15763803 0.023612417 0.039913394 0.10877247
0003b0 9c f2 8b 3d ea 65 d2 bb 4f 70 1b 3d c4 0b ac 3d
       0.068333834 -0.0064208405 0.037948903 0.084006816
0003c0 31 ac 6c bd 01 a5 2e 3d b0 76 d7 3d 73 9b 78 bd
       -0.057781402 0.04263783 0.10520685 -0.060695123
0003d0 e1 c8 b4 3d ac e0 55 bd fe 1c fa 3c df b9 db 3d
       0.08827377 -0.052216217 0.030531403 0.107288115
0003e0 83 3f 8a 3c c4 c4 f0 bc e1 44 07 3e 6d df 01 3c
       0.016875988 -0.0293907 0.13209869 0.007926804
0003f0 e5 1d bd bb 83 8a a1 bd 4f 43 c7 bc bd 86 e3 3b
       -0.005771386 -0.07887747 -0.024324087 0.0069435523

conv3.bias f4 [20]
000000 44 56 3f 3d b0 87 dd bd 06 5e 56 bb 57 17 fb 3c
       0.04671313 -0.10816896 -0.003270985 0.030650778
000010 45 ff b4 bd 74 2a 35 3e 6b 2c ab bd 47 40 88 bd
       -0.08837751 0.17691976 -0.083580814 -0.06652885
000020 9c ef 86 3c 51 1a 96 3a 17 87 9e bd c5 68 20 bd
       0.016471677 0.0011451935 -0.0774061 -0.039162416
000030 69 24 04 3e eb f6 cb 3d 9d d4 e6 bd 69 5d 16 bc
       0.12904514 0.09959205 -0.112710215 -0.009177544
000040 62 84 11 3e e0 92 41 3e 5a 4a c4 bd 18 f5 9b bd
       0.14210656 0.18903685 -0.09584494 -0.07615107

conv4.weight f4 [25, 20, 3, 3]
000000 0d 44 ba bc 95 ab 86 3d e9 24 98 bd 72 de 09 bd
       -0.022737527 0.065756954 -0.07428915 -0.033659406
000010 b8 7b 6a 3d aa 86 de bc 84 ab 17 bb 17 4c b3 3c
       0.057246894 -0.027163822 -0.0023143003 0.021886868
000020 bb 35 01 3d de 50 04 bd e9 c3 ae 3d 9a 3f a1 3d
       0.031545382 -0.032303683 0.08533461 0.07873459
000030 f7 c8 81 3d 7a 7b 92 3d 8b 43 8b bb 7f fe 86 bd
       0.06337159 0.071524575 -0.004249995 -0.0659151
000040 36 99 00 3c 3f 12 1d 3d 15 44 d3 3d 4d bb c7 ba
       0.007849028 0.03834748 0.1031572 -0.0015238315
000050 67 10 28 3d f7 05 4b 3d ef 9e d1 3d 90 4b 14 3e
       0.041031267 0.049566235 0.10235392 0.1448195
000060 05 2b 07 bd f5 bf 90 bd 48 70 d9 3d 92 91 a3 3d
       -0.03300001 -0.07067863 0.10617119 0.0798675
000070 0e f4 cf 3c d9 5d 5f 3d 48 4c 27 3d 31 e6 ad bd
       0.025384929 0.05453286 0.04084423 -0.08491171
000080 55 72 1c 3d 94 fd 79 bd ed 4f 9f bd 9b 7d 23 3d
       0.038194973 -0.061032847 -0.077789165 0.03991471
000090 e1 a8 c2 3d 21 3f 2b bd 69 52 97 3d 55 e3 fd 3d
       0.09504867 -0.04180825 0.07388765 0.12396876
0000a0 ff ec 1e 3d 3f 78 2b 3d d4 a4 99 3c c1 5b 51 3d
       0.038800236 0.041862722 0.018755354 0.051112894
0000b0 ad 1a f2 ba dc eb 5c bb 36 f5 80 bc 30 c9 83 bd
       -0.0018471085 -0.003370992 -0.015741926 -0.06434858
0000c0 5a 8d 91 3c 12 e2 82 3b 7b a3 15 bd 3c 28 c2 bc
       0.017767597 0.003994235 -0.03653286 -0.023700826
0000d0 d8 64 b6 3d c1 ff 93 3c d0 ad 95 3d 32 fc a7 bd
       0.08905953 0.018066289 0.07308543 -0.08202399
0000e0 13 f4 68 3d 40 bc 82 3d 62 48 b9 bd bc bc 2f bd
       0.056873392 0.06383562 -0.09047009 -0.0429046
0000f0 14 f4 3e 3d a6 b8 d2 3d e2 9c 75 bc eb 2a 8f 3d
       0.04661949 0.10289125 -0.014991017 0.06990608
000100 30 3e 4f 3d 6e 11 1a b8 fa 0d e9 3d 79 ce 02 3e
       0.050596416 -3.6732694e-05 0.11379619 0.12774076
000110 d5 64 f0 3d eb 65 44 bc 2c 2e 8f 3d be 18 45 3d
       0.11737982 -0.01198719 0.069912285 0.0481193
000120 e5 c9 66 bd bb 38 5a bd 51 76 cd bd 3c c4 a0 bd
       -0.056344885 -0.05327676 -0.10032333 -0.07849929
000130 c4 d4 4d bd 80 cf 08 be 1f 69 38 3c 09 58 e1 bd
       -0.050251737 -0.13360405 0.011255532 -0.110031195
000140 d1 b3 82 bd 6b e1 99 3d fb f0 55 bd 93 bb cb 3c
       -0.063819535 0.07513698 -0.05223177 0.024869716
000150 ae ef 8a 3a 65 4d 5b 3d ea 79 a9 bc 38 a2 00 bb
       0.0010599995 0.053540606 -0.020688016 -0.001962794
000160 91 f7 61 bd 3b 14 90 3d ca f0 01 3d 23 68 19 bd
       -0.05516774 0.07035109 0.031723775 -0.03745283
000170 df d6 a2 3d 15 a6 34 3d 04 e7 96 bb dc bb ae 3c
       0.0795114 0.0441037 -0.004605176 0.021329813
000180 44 67 61 3c f4 f7 1c bd c0 21 70 bd ab be e8 bb
       0.013757531 -0.038322404 -0.058625937 -0.0071028075
000190 07 56 5c bd 51 1f 94 3c b3 19 18 bd 66 ec b6 ba
       -0.05379298 0.01808134 -0.037133884 -0.001395595
0001a0 58 34 7c bd 5d ba 80 bc 85 83 98 bc dc d2 99 bd
       -0.061573356 -0.015713865 -0.0186174 -0.07510921
0001b0 47 10 84 bb 59 23 76 3d bf d2 88 bd 8d 65 d1 3c
       -0.0040302607 0.060092304 -0.066808216 0.025561118
0001c0 14 7c e1 3d 7f 27 3e 3d 3e 5a 48 3c 7b 0d 8c 3d
       0.11009994 0.046424385 0.012228547 0.06838509
0001d0 2d ab 16 3b 54 9a 59 bd bd 56 9e bc a4 c1 01 3c
       0.0022990212 -0.053125694 -0.01932847 0.007919703
0001e0 dd 16 cc bd 45 43 29 bd a8 82 0f be 87 9a 0c be
       -0.09965298 -0.04132392 -0.14014685 -0.13730823
0001f0 11 3a f1 bd a1 28 6e bd 75 55 26 3d 3a a7 86 3d
       -0.117786534 -0.058144215 0.040608842 0.06574865
000200 db 0b 9a 3d bf 55 06 3c 1d 4e 0a bd b1 05 6b 3c
       0.075217925 0.008199154 -0.0337659 0.014344619
000210 62 33 05 3d 73 f4 a4 bd 45 f0 06 3c 4a 31 16 bd
       0.032519706 -0.080544375 0.008235996 -0.0366681
000220 1b 89 4f bc 14 58 ae bd f8 43 cc 3b f7 f2 8b 3c
       -0.012666966 -0.08512893 0.0062336884 0.017083628
000230 e3 51 be bb 83 64 c1 bd b4 57 35 3c 4f 9b 8e 3c
       -0.0058081015 -0.09442999 0.011068273 0.017408041
000240 48 99 ae bd e1 24 76 bd 36 ce e1 bd 6c b3 cb bc
       -0.0852533 -0.060093764 -0.1102566 -0.024865828
000250 ee b8 52 bd b6 da d8 bd ef 5b 5d 3c 68 1e 22 bd
       -0.051445894 -0.10588591 0.013510688 -0.03957978
000260 65 7d b9 bd d8 b0 02 bd 40 d8 2d 3d 51 33 99 bb
       -0.0905712 -0.031906933 0.04244256 -0.004675307
000270 a3 85 a4 bb e2 11 8e 3d b8 be 5a 3d b8 22 bd bd
       -0.0050208136 0.069370046 0.05340454 -0.09235138
000280 e3 5d 68 bd 4c fe 74 3d 7c ce 20 3e bc 38 bf 3d
       -0.056730162 0.05981283 0.15703768 0.09336993
000290 98 8c 52 3d a9 f7 30 bd 34 ad 30 bd 2e 8e ab 3c
       0.051403612 -0.043204937 -0.04313393 0.02094182
0002a0 cb 38 58 bd bb 89 86 bd 38 59 6c bc 56 d6 b7 3c
       -0.052788537 -0.06569239 -0.014425568 0.02244107
0002b0 11 04 ec 3d 44 0d ae 39 ef 6d d3 3d 5a e6 b7 3d
       0.11524213 0.0003319775 0.103237025 0.08979483
0002c0 b0 0b 61 3d c3 f9 ab bc 55 d6 22 bc a4 04 1c 3d
       0.054942787 -0.02099312 -0.009938796 0.038090363
0002d0 be 27 82 bb 43 cf 59 3c be dc 60 bd a3 e6 02 3d
       -0.003972023 0.013294044 -0.054898016 0.031958234
0002e0 72 d1 aa bc d3 c6 d4 3c e1 0e 01 3d f0 bf 00 3d
       -0.020851824 0.025973713 0.03150833 0.031433046
0002f0 b9 0a ab bc d4 7f 38 bd c1 ab 75 bd 9e d1 6c 3d
       -0.020879136 -0.04504378 -0.05997825 0.057817094
000300 67 18 dc bc 3b 86 6f 3d 48 06 b1 3d 78 b0 bf 3d
       -0.026867105 0.05847762 0.08643776 0.093598306
000310 a6 4d 26 bc 3e 3b 78 3d 22 85 00 3d e0 30 91 3d
       -0.010150349 0.060603373 0.031376965 0.070894
000320 f1 f1 3f 3d f2 a2 c7 3d 34 57 ae 3b 2a 12 82 3d
       0.046861593 0.09747876 0.005320454 0.06351121
000330 37 8d b5 3d 1f 54 a9 3d cd fb 2b 3d 45 e5 ad bc
       0.08864825 0.08267998 0.041988183 -0.021227488
000340 6d 69 3f 3d 55 85 ef bc 46 24 c0 bd a2 c1 c2 3c
       0.0467314 -0.029238382 -0.093819186 0.023773972
000350 50 57 1c 3d 98 4b c9 bc fc e9 7e bd 1d 99 a0 bd
       0.038169205 -0.024572179 -0.062234864 -0.07841704
000360 e0 bb 86 3d c1 c2 6a bd 8c 9c a2 bc 88 14 95 3c
       0.06578803 -0.057314638 -0.019850038 0.018198267
000370 c8 fa 07 bc 38 d9 72 3d d7 e5 13 bc e0 4c 08 3c
       -0.008299537 0.059289187 -0.009026966 0.00831911
000380 a9 ad a6 bc 26 4a a3 bc 02 0c 98 bd a9 ee 00 bd
       -0.02034648 -0.019932818 -0.07424165 -0.031477604
000390 b3 c1 a7 bd a4 76 81 bc 53 e6 01 bc cf 91 4e bd
       -0.08191242 -0.015803643 -0.007928449 -0.050432023
0003a0 61 2f 83 bd f2 e0 c8 bd 6f e9 ac 3d bd 6e 5c 3d
       -0.06405521 -0.0980853 0.084429614 0.053816546
0003b0 d5 b7 6b 3c ec 74 72 bd 29 53 87 bd 48 0f 29 bd
       0.014387091 -0.059193537 -0.066076584 -0.04127434
0003c0 6f fc 39 bd 18 91 12 3d 39 28 80 3c a7 ec 6b 3d
       -0.045406755 0.035782903 0.01564418 0.057598736
0003d0 93 0f 3a 3d 62 f3 36 bb 33 bf c4 3d a7 3f c3 3c
       0.04542501 -0.0027916064 0.09606781 0.023834063
0003e0 28 af 5b 3d 6b ef 99 bc 5a 04 1f 3d 80 5e 29 3d
       0.05363384 -0.018790921 0.03882251 0.041349888
0003f0 b8 02 5f 3d 69 c1 25 3d 2c d5 6c 3d 6d e4 f1 bc
       0.054445952 0.040467653 0.057820484 -0.029527867

conv4.bias f4 [25]
000000 aa 13 4a bc bf 52 81 3d 6e c9 00 bc 71 69 70 bb
       -0.01233379 0.06314611 -0.007860525 -0.0036683942
000010 4f 24 e0 3d 39 e8 db bd a1 53 9e 3c 45 27 02 3e
       0.10944425 -0.10737652 0.019326987 0.12710293
000020 0c ca 13 be d6 f1 87 bd 50 af 8c 3c c9 4b dc bc
       -0.14432544 -0.066379234 0.01717344 -0.026891606
000030 7a a1 22 3d d4 93 51 be 5f 4d d8 3d 60 a6 1c be
       0.039704777 -0.20466548 0.10561632 -0.15297842
000040 2a 1d 72 3c a7 db dc bd c2 83 54 3c c8 ea 26 3d
       0.014777461 -0.10784083 0.012970867 0.04075125
000050 a2 21 3c 3d ad 35 3a 3e a1 f8 13 be d2 de 08 bb
       0.045930512 0.18184538 -0.14450313 -0.0020884764
000060 39 73 28 bd
       -0.04112551

conv5.weight f4 [16, 25, 3, 3]
000000 a7 b1 13 bb e7 12 66 3d 1e be e2 3c 99 d2 b9 bb
       -0.002253631 0.05617037 0.027678546 -0.005670857
000010 d8 fd 82 3d d5 d0 0a 3d 43 25 b0 39 2b 47 3f bc
       0.06396073 0.033890564 0.00033597098 -0.011674683
000020 fc 9b c5 3c 17 67 00 bb d9 30 27 bd 5a 4a 04 bd
       0.02412223 -0.0019592696 -0.04081807 -0.03229747
000030 ea 0f c5 3a c4 9d e2 b9 1c da d3 3d 3f 2d dd bb
       0.001503465 -0.00043223624 0.103443354 -0.0067497785
000040 44 61 70 3d 51 19 1e 3d 22 0c ed b6 24 79 12 ba
       0.05868651 0.038598362 -7.064563e-06 -0.00055875094
000050 07 3b 00 b8 a5 f5 fa a1 43 39 62 b4 af b6 db 32
       -3.057255e-05 -1.700568e-18 -2.1068722e-07 2.557803e-08
000060 81 e7 e2 02 d8 5e 1f 94 9c 9a c2 b2 f3 44 1e bb
       3.3340592e-37 -8.046153e-27 -2.265488e-08 -0.0024149984
000070 23 e7 c0 3c 93 39 d8 bb 6b 4f 94 3b 72 47 1b 3d
       0.023547715 -0.0065986603 0.004526069 0.037909932
000080 de 53 e7 3d 02 0b 68 ba 96 fd f7 bc 34 1f d1 bc
       0.11295293 -0.0008851738 -0.030272286 -0.025527574
000090 03 0f 79 bb 77 ac 6e 3d 66 53 b6 bc 9d e8 5e bc
       -0.0038003332 0.058269944 -0.022256564 -0.013605264
0000a0 3d f7 84 3d 45 b0 26 bd b3 b4 26 bc a9 d8 e0 bc
       0.064924695 -0.040695447 -0.010174918 -0.027447062
0000b0 69 17 a7 bd 83 e5 0d bb 1f df 0e bd d5 e8 ee ba
       -0.08158762 -0.0021651692 -0.034880754 -0.0018227348
0000c0 33 30 79 bb 10 00 59 bb fe da 8f 3d a7 83 e7 bb
       -0.0038023114 -0.003311161 0.07024191 -0.0070652547
0000d0 df aa f3 3b d1 dd 0a bd 37 86 a5 bb b6 b7 4e 3c
       0.007436141 -0.033902947 -0.0050514 0.012617042
0000e0 14 7e 6e bc c4 d2 9c bb 7a 59 12 bc 80 bc a6 3c
       -0.014556427 -0.0047858674 -0.008932466 0.020353556
0000f0 b4 6b 32 bc 5b 48 00 3b 55 11 4a bd e1 15 24 bc
       -0.010889936 0.0019574377 -0.049332935 -0.010014982
000100 db 53 be bc 48 74 e7 3c af 9d a7 bb ed db 70 3c
       -0.023233345 0.02825369 -0.005115233 0.014700872
000110 d3 85 28 bd 05 db 01 bb 09 39 a8 bd e5 ab 8c bd
       -0.04114325 -0.0019814384 -0.082140036 -0.06868724
000120 5e 81 1a bb 7e 61 34 bd 03 ac 1d 3d d1 8b 85 bb
       -0.0023575644 -0.04403829 0.03849412 -0.0040755053
000130 8c 47 bf 3c 12 c7 52 3d f5 c0 87 ba b6 b4 b1 bc
       0.023349546 0.05145938 -0.0010357188 -0.021692615
000140 49 5d f2 bc 9d 1d 39 bb 42 99 5e bc 9d ff 21 bc
       -0.029585497 -0.002824641 -0.013586344 -0.009887603
000150 8c d3 ac bb df 69 3f 3c 9d 8c 56 bc 95 a7 0b bb
       -0.005274242 0.0116829565 -0.013095048 -0.0021309603
000160 09 c3 b7 3b e0 0b 71 3c 46 0b 86 3a 79 1c 42 3d
       0.005607967 0.014712304 0.0010226748 0.047390435
000170 0c 63 e4 3a 9c 50 2a bc 23 42 22 3c b2 ba 02 bb
       0.0017424538 -0.010395195 0.009903464 -0.0019947705
000180 d0 fd 23 bb 5c bb 71 bc a1 98 61 3d 53 b7 6a b8
       -0.002502311 -0.014754143 0.0550772 -5.596068e-05
000190 9f 1d 35 bb 68 6e 03 bd d1 b2 78 ba 1c 43 bb 3d
       -0.0027636064 -0.032087713 -0.0009487095 0.091436595
0001a0 80 a0 43 bd 32 6b 6d 19 83 f8 61 3c 62 cb 32 bc
       -0.047760487 1.2274261e-23 0.01379216 -0.010912748
0001b0 62 f8 1c b7 1e 0b 74 bc a3 86 b2 bc 60 d2 72 3a
       -9.356156e-06 -0.014895229 -0.021792715 0.00092629157
0001c0 f8 45 b5 3d ff 2b a9 3d 68 3f 50 b8 63 2b 6a 3d
       0.08851236 0.08260345 -4.9650116e-05 0.057170283
0001d0 b2 5a 7c bc 75 49 a3 b5 f8 fd 80 3d ec a9 18 3d
       -0.015402483 -1.2165825e-06 0.06298441 0.037271425
0001e0 c3 06 2f bc 17 33 b7 3c d1 6f 25 bd 42 b0 ee 3b
       -0.010682764 0.022363229 -0.04038984 0.007284195
0001f0 ea 95 02 bd 13 c6 17 bd db 74 2d bb 66 07 39 bd
       -0.03188125 -0.037054133 -0.0026467356 -0.04517307
000200 d4 c7 e3 bb ed 9a 98 bb 8c 12 96 3a 0d 17 45 3d
       -0.0069513116 -0.0046571405 0.0011449619 0.048117686
000210 0d 6a 1d bb cc 65 b9 bc 1b b8 11 3d 39 e7 c0 ba
       -0.002401951 -0.022631548 0.035575967 -0.0014717347
000220 8a 86 19 3d ea be 0a bd 24 a7 21 bb 8e bb b6 bd
       0.037481822 -0.033873476 -0.0024666274 -0.08922492
000230 57 c5 84 bc 31 ce 93 3b bc 25 b9 bc 3e 9c 4c bc
       -0.01620738 0.004510664 -0.022601001 -0.012488423
000240 02 f5 3f bb aa 5d f1 3b 15 f3 e6 3c dd 97 a8 bb
       -0.0029290323 0.007365902 0.028192082 -0.0051450566
000250 db c0 f6 bd 74 ea ce bd f3 b5 02 bb 05 ee 9f bd
       -0.12048503 -0.10103312 -0.0019944876 -0.078090705
000260 c6 96 66 3c fb 85 46 b9 50 0d ad 3a 42 ed 83 bc
       0.014074033 -0.00018932663 0.001320282 -0.016104344
000270 7c 9f f7 bb 9e 92 37 bc 57 1e 90 3a fe c2 cd 3b
       -0.007556854 -0.01120439 0.001099537 0.0062793484
000280 ec a9 33 bd 87 82 63 bc 18 c9 6d bb 5f 61 43 bd
       -0.043863222 -0.013886101 -0.0036283191 -0.047700282
000290 5c 25 41 3d 71 ce a9 bb d0 91 07 bd 86 f1 7b bd
       0.04715477 -0.0051820804 -0.033098042 -0.06150963
0002a0 0c a1 c4 bb 0b d8 6a bd cd d5 9f bd 0d d9 bd ba
       -0.0060006436 -0.05733494 -0.07804451 -0.0014484242
0002b0 f1 c2 d3 bc 4c 75 c2 bc bb 99 da bb c0 ac d1 bc
       -0.025849791 -0.023737572 -0.006671158 -0.025595069
0002c0 eb 8b af 3d dc 50 76 bb 44 bc bb 3c 49 7d c1 3c
       0.08571609 -0.0037584817 0.02291692 0.02361931
0002d0 48 a0 91 b7 6a 7b 4e bd 76 a0 49 3d 9c a8 a1 bb
       -1.7359984e-05 -0.050410666 0.049225293 -0.00493343
0002e0 ab f5 66 3b eb ce 80 3c 02 1d 26 bb 49 26 25 bc
       0.0035241644 0.015723666 -0.002534688 -0.010079929
0002f0 b5 3a 71 3b f2 8e 75 bb 7a 99 d9 3b d2 cb 8e 3d
       0.0036808674 -0.0037469235 0.0066406103 0.069724694
000300 39 60 37 bc bf 34 df ba 64 2d ab 3c 8a 50 ef ba
       -0.011192375 -0.0017029269 0.020895667 -0.0018258255
000310 51 88 5b 3d 7c 8a 32 bc 52 55 ba bb 61 10 3d bc
       0.0535968 -0.010897275 -0.0056864405 -0.01153955
000320 ec e8 f6 3c 93 1a a3 bb 50 b9 42 3d 28 d5 21 bd
       0.030140363 -0.004977533 0.04754001 -0.039509922
000330 8b 47 16 bb 52 86 2b 3d 2d 32 90 3b 44 80 65 ba
       -0.0022930827 0.041876145 0.0044005127 -0.000875477
000340 6b c6 9a bb c5 e4 3f 3b 01 ba ad bb a8 76 b2 3a
       -0.0047233603 0.0029280644 -0.0053017144 0.0013615685
000350 de 45 0e bd d2 91 22 bb 1f e4 01 3d a5 de 59 bd
       -0.0347346 -0.0024806154 0.031711694 -0.053190846
000360 12 01 61 bb 37 89 88 bd bf d6 32 3d 5d 84 b3 bb
       -0.0034332913 -0.06666797 0.04366183 -0.0054784254
000370 08 5f d8 3c 97 90 ae 3b b0 5a 1b bb b6 ae 76 3c
       0.026412502 0.005327295 -0.0023705177 0.015056303
000380 70 34 bc bc a7 88 c4 bc f9 ae 91 3d 58 5e c5 bb
       -0.022974223 -0.023990942 0.071134515 -0.0060232095
000390 4c 7b ba 3d bb 83 8f 3d fe 3f 2d 3d 10 c0 84 bd
       0.09105548 0.070075475 0.042297356 -0.064819455
0003a0 cf 58 f5 bc f4 06 f8 30 5f bd f1 3b 7c 93 30 3d
       -0.029949574 1.8046351e-09 0.007377311 0.043109402
0003b0 23 26 82 bd 92 ca c6 3d 17 16 11 3d f4 ba 8e ba
       -0.0635493 0.09706606 0.035421457 -0.0010889457
0003c0 59 c0 06 bd 3c 34 d9 bb 13 be 2d b2 8d 08 d8 38
       -0.03289828 -0.0066285413 -1.0113143e-08 0.00010301275
0003d0 f9 d6 cd 35 25 c6 f9 2a 93 22 ae b2 88 e9 19 12
       1.5336256e-06 4.4368776e-13 -2.0271989e-08 4.8566137e-28
0003e0 4e 23 a2 2b 5e c6 81 21 ed 15 a7 b5 5b ee 56 ab
       1.1520591e-12 8.793887e-19 -1.2448851e-06 -7.635886e-13
0003f0 47 38 9f bd e7 3e 37 3d c9 a9 44 bd 07 e8 70 3d
       -0.07774406 0.044737723 -0.048013482 0.05881503

conv5.bias f4 [16]
000000 4e 75 4c bd f2 33 fe bd df bf 3b bd 10 2f f5 3d
       -0.049916558 -0.124122515 -0.04583728 0.11971867
000010 7f 2f c9 3b 65 ba 34 3c 8a 62 d8 3d d6 d0 09 3e
       0.006139695 0.011030768 0.1056567 0.13458571
000020 19 b7 11 be 12 7a a2 bd 5b fe a4 3d f6 e8 96 bd
       -0.14230002 -0.07933439 0.08056327 -0.073686525
000030 ac 22 8d 3d 85 e5 c6 bc a3 0b 0e 3e e8 f4 2c be
       0.06891379 -0.024279365 0.13871627 -0.168903

classifier.1.weight f4 [10, 16]
000000 b2 55 de 3d 0f 83 ec 3d be fe 5b bc b9 cb 1a be
       0.10856189 0.11548435 -0.0134274345 -0.15116777
000010 bb f8 0b 3d 5a 50 ad 3e 83 ce 09 3e 6c da 47 3e
       0.034172755 0.33850366 0.13457684 0.19516915
000020 a6 ca 22 3e d7 5a 92 3e c8 9e 14 bd 60 db ae bd
       0.15897617 0.2858493 -0.036284238 -0.08537936
000030 b4 bc 4a 3e 3c f7 00 3e 79 8f 36 3d d3 dc 4b be
       0.19798547 0.12594312 0.04457042 -0.19908457
000040 8b c1 83 3e e6 1d a5 3e 02 61 dc 3d cf 03 98 bd
       0.257336 0.32249373 0.1076069 -0.074226014
000050 65 d9 82 3e 81 16 00 be 7a ee 30 be 3c a8 4e 3e
       0.25556484 -0.12508585 -0.17278472 0.20181364
000060 86 5d 35 bd 0e e4 21 bb 62 bf 80 be 86 72 84 be
       -0.044278644 -0.0024702582 -0.25146013 -0.25868624
000070 2a 64 c8 bd 18 fa 17 bd 2b 66 9e bd c0 4e 27 3e
       -0.0978473 -0.037103742 -0.07734331 0.16338634
000080 f5 7d 9b 3b b2 05 bd be 4a 83 80 bd 3b 15 e8 bc
       0.00474524 -0.36918408 -0.062750414 -0.028330436
000090 a1 b7 08 3d c2 74 85 bc 5a de 17 3e 8d bc d1 3b
       0.033378247 -0.016291026 0.14830914 0.006400651
0000a0 f7 cb e7 bd 8f 20 4b be b0 ec 8b 3e 19 e0 67 be
       -0.113182 -0.19836639 0.27329016 -0.2264408
0000b0 65 81 55 3d f3 8b c2 bd 6f 24 5f 3e df 6b 2b 3c
       0.052125353 -0.094993494 0.21791242 0.01046273
0000c0 79 78 4a 3e 91 f2 70 3e aa 8f 21 3e 36 52 4f 3d
       0.19772519 0.23530032 0.1577746 0.05061551
0000d0 ce 95 c6 3d f5 94 23 3e 12 7f 1b be 21 bc dd bd
       0.09696542 0.15974791 -0.15185192 -0.10826898
0000e0 2f fe 37 3e 24 97 84 bd 00 ad 0b bd 33 d8 a1 3e
       0.17968057 -0.0647414 -0.034100533 0.3161026
0000f0 18 4d 79 3d 25 72 1c be 9d b4 21 3d d5 35 b5 bd
       0.060864538 -0.15277918 0.039478887 -0.08848158
000100 48 1e 97 be 98 a9 a9 bd 2d f7 f2 3c 6d e4 ab 3d
       -0.2951529 -0.082843006 0.029658878 0.08393178
000110 d6 59 6d 3e 95 9d 47 be 46 36 64 bc 7f b6 1e 3e
       0.23178801 -0.19493707 -0.013928955 0.15499304
000120 21 b3 e0 bd 7c 95 16 3d c0 90 16 3e d6 04 1f be
       -0.10971666 0.036763653 0.14703655 -0.15529189
000130 66 c9 50 3e 25 2b 6b be 5f 9a 97 3e 6c cf 18 be
       0.20389327 -0.22965677 0.29609963 -0.14922875
000140 ba ce e7 bd fa 93 c8 bd 17 a5 8a 3e 8c 7e a7 b8
       -0.11318727 -0.09793849 0.2707908 -7.986752e-05
000150 05 dc c2 bd fa da d9 bd d0 52 d1 bd dd 2d 70 bc
       -0.09514622 -0.106374696 -0.10220873 -0.014659372
000160 a1 a5 e3 3d 5e 5f 3c be ec 04 e8 3d 47 29 84 3e
       0.111155756 -0.18395755 0.11329064 0.25812742
000170 5b 8b 9f be c6 57 35 3d 76 54 3c be 4b 6d 2d 3e
       -0.31161007 0.04427316 -0.18391594 0.16936223
000180 6e b8 fc bd d7 59 02 3e 95 1a 30 bc 24 83 7a be
       -0.12339865 0.12729584 -0.010748525 -0.24464089
000190 08 70 d7 bd 70 be cb 3c 78 ad a2 bd 8a 47 ab 3e
       -0.10519415 0.024871081 -0.07943243 0.33453017
0001a0 ee 53 24 be 31 2d 6f bd af 20 51 be 10 06 70 3e
       -0.16047642 -0.058392707 -0.20422624 0.23439813
0001b0 c1 1c 00 3d 32 6d 1a bc 9e 0a 8a 3e b0 52 5d 3e
       0.03127742 -0.009425448 0.26961225 0.21613574
0001c0 56 19 9d be ff 46 c5 bb 82 d5 23 3e 70 a8 ef 3a
       -0.30683392 -0.0060204263 0.15999416 0.0018284451
0001d0 77 7e 48 bd 40 44 49 3e 32 3e 3c be 2e 40 a1 be
       -0.04894873 0.19654942 -0.183831 -0.31494278
0001e0 1d c6 7a 3e 8e 98 89 3e cc 5e 33 be c8 63 1f be
       0.24489637 0.26874202 -0.17516631 -0.15565407
0001f0 68 89 6c 3e 20 fb 9f bd 2d 7b 6c 3e e6 0a 4b 3e
       0.23099291 -0.0781157 0.23093863 0.19828376
000200 28 61 fb 3d 0f 81 3b bd 66 d4 46 3e 40 ca 2c be
       0.122743905 -0.045777377 0.19416961 -0.16874027
000210 92 97 54 3e f6 b8 2c 3d d5 1d 61 3e 26 82 79 be
       0.20760944 0.04216858 0.21984036 -0.24366054
000220 ad 30 1d be cd 08 07 3e c8 8c d4 bd fa d0 30 be
       -0.153506 0.13186951 -0.103784144 -0.17267218
000230 66 0a 87 3e 76 11 7c 3e 2f ff 09 bc a4 06 29 be
       0.2637512 0.24616036 -0.008422657 -0.1650644
000240 a2 e1 db bd 3b 84 27 3e 7e 8d 81 be 23 72 46 be
       -0.107363954 0.16359036 -0.25303262 -0.19379477
000250 b0 01 1b 3d 47 20 c7 bd f4 3d 29 3e 30 6b a3 be
       0.037843406 -0.09722953 0.1652754 -0.31917715
000260 b2 d2 97 3d 41 1a 48 3d 9c 5f 1f be b2 00 78 be
       0.07413234 0.048853163 -0.15563816 -0.24219015
000270 4e 79 5a be 56 0d cc bc 5f 4f 86 3d 10 3b 61 3e
       -0.21335337 -0.024908703 0.065581076 0.21995187

classifier.1.bias f4 [10]
000000 75 8a 8e 3d 19 0b 91 be 96 40 9c 3e 0f 3f d7 bd
       0.06960002 -0.2832878 0.30518025 -0.10510074
000010 30 3e ea 3d e7 9e 99 ba 82 44 df 3d 67 96 5e bd
       0.114376426 -0.001172033 0.10901739 -0.054342654
000020 4d 62 0b 3e 30 1e b4 bc
       0.13611718 -0.02198705
