Cifar/reek_weights_trial_80iter_final2/Times6.pt (torch, 47937 bytes, 12 tensors)

conv1.weight f4 [8, 3, 3, 3]
0.02934118 0.24651027 0.24563102 -0.0950342 0.045139406 0.23505226 0.08867713 0.2560313
0.064065374 -0.04827399 0.13071306 0.0075954604 0.23591617 0.16053335 -0.0064531723 0.18802555
0.09030963 -0.13565405 -0.10243076 0.15161602 -0.005693668 0.052933265 0.25293127 0.194384
0.111181036 -0.06864371 -0.119861126 -0.058613807 -0.05031346 0.083925895 -0.16412917 -0.08928876
0.10553593 0.040337164 0.031584077 -0.21320078 -0.024755964 -0.08807063 0.20593652 0.0057837637
0.22070606 -0.01037275 0.04642081 -0.14670683 0.08680522 0.19233645 0.14886993 -0.019623343
0.024968848 0.118429504 0.22647013 0.059113782 0.15770431 0.0026924843 0.16874257 -0.009212361
-0.24439037 0.071066365 -0.045074657 0.05698342 0.13618161 -0.1856499 -0.16872938 0.15522559
-0.02049993 -0.12381525 0.27482632 0.097036235 -0.13679087 0.1887938 0.0755628 0.1307487
0.16362235 -0.05080326 -0.10625046 0.09993937 -0.1440498 -0.19523042 0.08039483 -0.12892571
-0.19224538 0.13255641 -0.069798365 -0.09519572 0.035293177 -0.07641955 0.089313924 -0.0500769
-0.2045261 -0.22633828 -0.050209716 0.16502376 -0.08070239 -0.06266432 0.15037838 0.04492217
-0.20996638 -0.026982445 -0.019133525 -0.079225324 0.06689887 -0.019379575 0.19517726 0.23619692
0.18984024 0.016225858 0.08338391 -0.08913707 0.14144738 0.19933736 0.07101343 -0.009966902
0.108366616 0.07100396 0.16809951 -0.06158524 0.08234748 -0.04590478 0.19356824 -0.02070518
0.042828318 0.12153987 -0.044219147 -0.0472802 0.07028068 -0.17073351 0.13862577 0.25472137
-0.024636986 0.14765583 0.18752594 -0.08351318 0.25672498 0.20639163 -0.1210242 -0.16805293
-0.12277298 0.06010311 -0.04533532 -0.18206991 -0.024283951 -0.1916944 0.095720924 -0.11058215
-0.11287025 -0.012019309 0.10310445 -0.21573336 -0.102376245 -0.19166274 0.04295204 -0.25017145
-0.03353287 0.09003266 -0.1327567 -0.083102286 -0.15307482 -0.23147488 0.056552373 -0.20573221
0.15485711 0.03455328 0.21262753 0.042700376 0.24171987 -0.20437402 -0.21317607 0.12776794
-0.19145702 -0.26383945 -0.12644891 -0.18673295 -0.09319897 0.03713558 0.012675065 -0.07019417
-0.15082033 -0.19059448 -0.31366146 -0.22726655 -0.14311364 0.1165457 -0.12882653 -0.29293963
-0.14451721 -0.27323964 -0.24512851 0.043448683 -0.15490483 -0.1789147 0.031563435 0.13702853
-0.11372727 -0.121414155 0.0751123 0.07730511 0.004937787 -0.13357821 -0.13181707 -0.09422348
0.07314541 -0.20730126 0.0018232815 0.13379036 -0.10384695 0.09631304 0.19079643 -0.21866152
-0.024256973 -0.081895396 -0.113010384 0.060086887 0.07717768 -0.088479236 -0.13529988 0.014364111
00000000: ea5c f03c 306d 7c3e b386 7b3e 4aa1 c2bd
00000010: 19e4 383d 8ab1 703e 5b9c b53d 8916 833e
00000020: b534 833d f3ba 45bd a5d9 053e 57e3 f83b
00000030: 0294 713e db62 243e 2275 d3bb c589 403e
00000040: 41f4 b83d e5e8 0abe 38c7 d1bd 3b41 1b3e
00000050: f391 babb 8dd0 583d 3580 813e 990c 473e
00000060: e2b2 e33d 1395 8cbd c079 f5bd 0815 70bd
00000070: 7d15 4ebd 57e1 ab3d 7a11 28be 07dd b6bd
00000080: 3923 d83d 9538 253d 4e5e 013d 4e51 5abe
00000090: 05cd cabc 605e b4bd 06e1 523e ba85 bd3b
000000a0: c500 623e 78f2 29bc bf23 3e3d 513a 16be
000000b0: efc6 b13d d9f3 443e 5c71 183e 22c1 a0bc
000000c0: 788b cc3c 2b8b f23d c9e7 673e 4b21 723d
000000d0: 3d7d 213e 6474 303b daca 2c3e 71ef 16bc
000000e0: 7841 7abe 3e8b 913d 34a0 38bd 7267 693d
000000f0: 3173 0b3e 021b 3ebe 65c7 2cbe 75f3 1e3e
00000100: 78ef a7bc da92 fdbd 09b6 8c3e efba c63d
00000110: e812 0cbe 2953 413e abc0 9a3d fde2 053e
00000120: 9e8c 273e 1417 50bd d799 d9bd 03ad cc3d
00000130: ca81 13be 7cea 47be 0ba6 a43d 1a05 04be
00000140: f9db 44be debc 073e 72f2 8ebd f9f5 c2bd
00000150: 948f 103d da81 9cbd 38ea b63d 6f1d 4dbd
00000160: 4a6f 51be 39c5 67be b4a8 4dbd fdfb 283e
00000170: 4b47 a5bd 2756 80bd cafc 193e 4f00 383d
00000180: 6d01 57be 4a0a ddbc e9bd 9cbc e340 a2bd
00000190: 4602 893d eac1 9ebc 8cdc 473e 9bdd 713e
000001a0: 7b65 423e 17ec 843c 2fc5 aa3d 7f8d b6bd
000001b0: 95d7 103e 181f 4c3e 7d6f 913d 384c 23bc
000001c0: 51ef dd3d 866a 913d 4722 2c3e ce40 7cbd
000001d0: cca5 a83d a706 3cbd c136 463e e99d a9bc
000001e0: bf6c 2f3d e5e9 f83d 231f 35bd e2a8 41bd
000001f0: 51ef 8f3d c4d4 2ebe eaf3 0d3e d76a 823e
00000200: 81d3 c9bc 1733 173e cd06 403e f508 abbd
00000210: 7571 833e 5458 533e 89db f7bd 1116 2cbe
00000220: 6670 fbbd ae2e 763d 87b1 39bd 8970 3abe
00000230: 23ef c6bc 894b 44be 5509 c43d e578 e2bd
00000240: 8528 e7bd a3ec 44bc 6d28 d33d 35e9 5cbe
00000250: a3aa d1bd 3d43 44be 7aee 2f3d 7916 80be
00000260: c359 09bd 0b63 b83d 5ff1 07be 8831 aabd
00000270: a5bf 1cbe c007 6dbe 76a3 673d 77ab 52be
00000280: dd92 1e3e bd87 0d3d 08bb 593e 97e6 2e3d
00000290: 6a85 773e 6c47 51be d44a 5abe 99d5 023e
000002a0: 4f0d 44be f715 87be d37b 01be ec36 3fbe
000002b0: 1adf bebd 7a1b 183d 13ab 4f3c f6c1 8fbd
000002c0: a570 1abe 332b 43be 3c98 a0be 90b8 68be
000002d0: 628c 12be 83af ee3d 1aeb 03be 2ffc 95be
000002e0: 52fc 13be 11e6 8bbe f802 7bbe 3ff7 313d
000002f0: 5f9f 1ebe 6a35 37be a948 013d 3551 0c3e
00000300: d8e9 e8bd fca7 f8bd 7ad4 993d 2452 9e3d
00000310: 29cd a13b bac8 08be 0efb 06be 3df8 c0bd
00000320: 43cd 953d c846 54be 2dfb ee3a 5700 093e
00000330: b6ad d4bd c53f c53d 2460 433e cee8 5fbe
00000340: 8fb6 c6bc c6b8 a7bd fd71 e7bd ab1d 763d
00000350: 550f 9e3d 9a34 b5bd 0d8c 0abe 7357 6b3c

conv1.bias f4 [8]
0.13241333 0.051704943 -0.020829082 0.094616026 0.25227705 0.29519174 0.20074578 -0.040692955
00000000: 5c97 073e 90c8 533d c0a1 aabc 0cc6 c13d
00000010: 752a 813e 5f23 973e 4d90 4d3e a8ad 26bd

conv2.weight f4 [10, 8, 3, 3]
0.12181858 0.14199011 0.039950643 0.008073626 -0.016233968 -0.105081126 -0.07059937 -0.029349627
0.071808025 0.11525435 -0.026301533 0.1026928 -0.11155403 -0.09291986 -0.1504734 -0.10790445
-0.13336657 -0.16142014 -0.081142776 0.027309034 0.03736462 -0.0033446797 -0.08976723 -0.14458488
-0.087656096 -0.0066453824 -0.011213198 0.13729039 -0.010296344 0.15029387 -0.03699322 0.061820354
0.09670487 0.16818318 0.029148692 0.14097182 0.10660941 0.1407826 0.013162804 -0.09474379
0.08033373 0.042257454 -0.082614325 -0.15025812 -0.08691116 0.1223874 0.100742154 0.013622561
-0.070761874 -0.011060777 0.091103524 0.033184946 0.019387074 -0.036260523 -0.03269155 0.15566722
0.05430945 0.0021217072 0.18251309 0.17394581 0.03598311 -0.020986192 0.12539871 0.12049156
-0.009583518 0.020377118 0.09960508 0.07413299 -0.005308465 0.13795395 0.06712916 0.10381683
-0.027140742 0.109636694 0.047941912 0.014823506 0.062106706 0.031067567 -0.045054317 -0.017405195
-0.030905258 0.0086756805 -0.058817916 -0.08290856 -0.05616004 -0.13234682 -0.16910845 -0.05288826
-0.044182677 -0.072135925 0.18481481 0.14554662 0.100007914 0.12668164 0.16698731 0.08622513
0.054700825 0.0073540434 -0.03897242 -0.01029599 0.15178409 0.02143903 0.18325658 0.13992886
0.05853925 0.20839009 0.19650634 0.015310065 0.07242229 0.01342775 -0.001005771 0.08304593
-0.0117793605 0.07576882 -0.12511241 -0.15201366 0.043408193 0.0265709 -0.008410106 -0.041757975
0.053691484 0.15759052 0.063732095 -0.006901722 0.03255277 0.10150516 0.039701294 0.026213959
0.13329126 0.026304256 0.017253969 0.020025084 0.20363112 0.21617278 0.16249493 0.16137356
0.019551724 0.047945026 0.052033603 0.13284801 0.09731441 -0.024815898 0.013175041 -0.022267092
-0.0438143 0.123979405 0.012017735 0.08661451 0.013072285 0.09296222 -0.019597756 -0.005744605
-0.09381842 0.11162253 0.11377116 -0.05967154 0.08557515 0.10613819 -0.10078529 0.0167534
-0.10444918 0.059676033 -0.074146636 -0.026445894 0.106782705 -0.0128638735 0.07589574 0.07730456
0.05278229 0.071143225 -0.084237486 0.09720767 0.10535872 0.15372753 0.0015121313 -0.019424312
-0.06664731 0.118974686 0.1296685 0.14942339 0.024932737 0.13877833 -0.08992902 0.069913045
0.12253129 0.103620216 -0.14321929 -0.12178066 -0.12356858 -0.09006078 -0.092633404 0.016958747
-0.05780851 0.081424996 -0.023086078 0.056338202 -0.04141784 -0.05740981 -0.13442658 0.0018695878
-0.027924754 0.12253052 0.00036438272 0.008233953 0.093622744 0.12632047 0.044742063 0.10559316
-0.0034363496 -0.061866127 -0.08157871 0.09455594 -0.013873151 -0.06478875 -0.10398358 -0.06712909
0.045163903 0.016387396 -0.048624538 0.041771024 0.012586398 0.114287056 -0.11334409 -0.036012687
0.1222957 0.067762196 0.020655604 0.0061776796 -0.104315996 -0.055368125 0.13205945 0.11082815
-0.016918248 0.044633355 0.09673395 0.058087137 0.0014623066 0.09002588 0.07813933 0.001436215
0.17964104 -0.051455062 0.109393924 -0.14357081 -0.08737755 -0.12214565 -0.10452594 -0.12576449
-0.074937105 -0.051122308 -0.12469226 -0.123045534 0.005470567 0.11378372 0.032848135 -0.05422302
00000000: 057c f93d db65 113e 49a3 233d 3e47 043c
00000010: 19fd 84bc c634 d7bd 6796 90bd a16e f0bc
00000020: 1610 933d 790a ec3d 5076 d7bc 9a50 d23d
00000030: 7076 e4bd c44c bebd b315 1abe 02fd dcbd
00000040: 3f91 08be 524b 25be 2f2e a6bd 32b7 df3c
00000050: a50b 193d 6a32 5bbb e2d7 b7bd 0f0e 14be
00000060: 0a85 b3bd 82c1 d9bb 90b7 37bc da95 0c3e
00000070: ffb1 28bc a3e6 193e 3486 17bd 5737 7d3d
00000080: 340d c63d 3638 2c3e 3dc9 ee3c eb5a 103e
00000090: 0956 da3d 5029 103e cda8 573c 0809 c2bd
000000a0: 0386 a43d 2716 2d3d b331 a9bd 44dd 19be
000000b0: 7afe b1bd 3fa6 fa3d e751 ce3d 2931 5f3c
000000c0: 9aeb 90bd 4338 35bc 7c94 ba3d f0ec 073d
000000d0: a4d1 9e3c ea85 14bd 93e7 05bd 3a67 1f3e
000000e0: 9673 5e3d 570c 0b3b b6e4 3a3e da1e 323e
000000f0: 0763 133d 3ceb abbc 8568 003e 47c4 f63d
00000100: 3004 1dbc eaed a63c c0fd cb3d 09d3 973d
00000110: a2f2 adbb cd43 0d3e 037b 893d eb9d d43d
00000120: 4356 debc 3489 e03d bd5e 443d 4ade 723c
00000130: 9a63 7e3d 6981 fe3c e08a 38bd 5795 8ebc
00000140: 062d fdbc 7124 0e3c 0eeb 70bd f7cb a9bd
00000150: 1208 66bd ed85 07be c42a 2dbe 5ca1 58bd
00000160: e5f8 34bd 00bc 93bd 1840 3d3e 2c0a 153e
00000170: f3d0 cc3d d5b8 013e b9fe 2a3e cd96 b03d
00000180: f90d 603d 30fa f03b 8ba1 1fbd 83b0 28bc
00000190: 4a6d 1b3e e8a0 af3c 9da7 3b3e 8349 0f3e
000001a0: dac6 6f3d 3664 553e f538 493e 11d7 7a3c
000001b0: 2352 943d 1100 5c3c 13d4 83ba fc13 aa3d
000001c0: 38fe 40bc af2c 9b3d 781d 00be 78a9 1bbe
000001d0: cacc 313d 37ab d93c 8bca 09bc 690a 2bbd
000001e0: 9aeb 5b3d 695f 213e f985 823d d727 e2bb
000001f0: 0e56 053d f0e1 cf3d d39d 223d a8be d63c
00000200: 817d 083e 067c d73c 3258 8d3c a50b a43c
00000210: ad84 503e 665c 5d3e 1265 263e 1c3f 253e
00000220: f02a a03c 0162 443d 3021 553d 4f09 083e
00000230: c74c c73d b64a cbbc 21dc 573c 7a69 b6bc
00000240: a076 33bd eae8 fd3d 09e6 443c f362 b13d
00000250: 232d 563c fa62 be3d 798b a0bc 3d3d bcbb
00000260: df23 c0bd 5a9a e43d db00 e93d 256a 74bd
00000270: 0642 af3d fb5e d93d 8568 cebd 6d3e 893c
00000280: 74e9 d5bd db6e 743d 31da 97bd 0fa5 d8bc
00000290: e4b0 da3d ffc2 52bc 3a6f 9b3d da51 9e3d
000002a0: 3e32 583d 8ab3 913d b484 acbd d114 c73d
000002b0: 50c6 d73d c06a 1d3e b532 c63a bc1f 9fbc
000002c0: 637e 88bd 00a9 f33d d2c7 043e 7202 193e
000002d0: bd3f cc3c e81b 0e3e b52c b8bd 922e 8f3d
000002e0: aff1 fa3d d636 d43d 14a8 12be 2368 f9bd
000002f0: 8611 fdbd c971 b8bd 95b6 bdbd 12ed 8a3c
00000300: 9ec8 6cbd 26c2 a63d 041f bdbc e3c2 663d
00000310: c1a5 29bd 8d26 6bbd 1fa7 09be f50c f53a
00000320: 74c2 e4bc 48f1 fa3d 9f0a bf39 b4e7 063c
00000330: 48bd bf3d 275a 013e 7443 373d 3a41 d83d
00000340: 6134 61bb 5667 7dbd bd12 a7bd 8ba6 c13d
00000350: 364c 63bc f7af 84bd 58f5 d4bd fa7a 89bd
00000360: c9fd 383d dc3e 863c 862a 47bd 1818 2b3d
00000370: 2e37 4e3c 550f ea3d f220 e8bd 0a82 13bd
00000380: 2b76 fa3d e8c6 8a3d f135 a93c 226e ca3b
00000390: a0a3 d5bd b0c9 62bd 983a 073e def9 e23d
000003a0: 2398 8abc 77d1 363d 731c c63d c7ec 6d3d
000003b0: deaa bf3a 7d5f b83d 8307 a03d 613f bc3a
000003c0: d2f3 373e 8bc2 52bd ec09 e03d 3a04 13be
000003d0: 00f3 b2bd 8027 fabd b211 d6bd 68c8 00be
000003e0: a078 99bd a065 51bd a85e ffbd 4cff fbbd
000003f0: 7142 b33b 7007 e93d c48b 063d f518 5ebd

conv2.bias f4 [10]
0.002527998 -0.056401744 -0.110276796 0.079478145 0.017893014 0.0077196686 0.06888017 0.19117822
-0.080957785 -0.05492029
00000000: c5ac 253b 8405 67bd cdd8 e1bd 70c5 a23d
00000010: 5f94 923c 46f5 fc3b 0c11 8d3d 39c4 433e
00000020: 32cd a5bd 19f4 60bd

conv3.weight f4 [20, 10, 3, 3]
0.09280597 0.10312767 0.028903209 -0.062712975 0.0092638405 -0.04466808 -0.07768138 -0.09184708
0.11219239 0.108434744 -0.0046041664 0.010082972 -0.032176625 0.09246537 0.07304557 0.11212097
-0.047902793 0.105969734 0.029471317 -0.09135865 -0.0124451 0.020397574 -0.08261552 -0.09905678
0.085614555 -0.044542696 0.10939775 0.089955986 0.07581813 0.004164038 -0.03477469 0.009600945
0.053390916 0.06455041 0.125405 -0.016535511 0.10938919 0.064339116 0.075303316 0.10963674
0.05727208 0.13115965 0.11812486 0.14101994 0.083061606 -0.020665407 0.029943865 -0.13501468
-0.13541414 0.02176699 0.012959982 -0.11507149 -0.078737885 -0.06394871 0.02578628 0.0531903
0.027007809 0.06463203 -0.015839064 0.104374915 0.09366822 -0.022029534 0.033274315 0.013054709
0.03246315 0.099600635 -0.021551657 0.028297631 -0.029000344 0.04118267 0.06463604 0.0953519
0.006849227 0.0112897055 -0.12708908 -0.06387405 -0.071333356 0.022634232 -0.0026280726 -0.11578593
0.0019855506 0.09925054 0.09527822 -0.003475721 -0.06415297 -0.037917912 -0.033398442 -0.05258518
-0.01863167 0.101208515 0.112810396 -0.060433667 0.08505744 -0.037491716 0.11282474 -0.072153695
0.14923598 0.0793423 -0.066487186 0.09272616 -0.09472739 -0.054108758 0.12620747 -0.08919417
0.040219083 0.0037760674 -0.010253788 0.064486645 0.091991246 0.046618823 -0.0016307642 -0.09145773
0.044253275 -0.03652725 -0.041391708 -0.0269373 -0.017359242 -0.1421278 0.001148278 -0.08755484
-0.07287941 0.0019490985 -0.14317265 -0.12190593 -0.0007880045 -0.0604606 -0.07630863 -0.05608681
0.063118964 -0.013290858 -0.057032354 -0.055400535 -0.054632142 -0.030404879 -0.033254568 0.053318683
0.07308229 0.00057468563 0.1728054 0.05877989 0.066547476 0.055852853 0.014805421 0.03351461
-0.16575156 -0.018628031 0.002553447 -0.102484204 -0.020495638 -0.15894613 -0.1309707 -0.13107696
0.0036721572 0.021613693 0.08308998 0.050531253 0.010967418 0.011481464 -0.08716834 0.050175723
-0.008803124 -0.016201029 0.086764015 0.13571718 0.13840003 -0.08939903 0.08374651 0.08200625
-0.028975105 0.06738209 0.0701926 0.024923965 0.104168355 0.0771058 -0.004933148 -0.05122416
0.13833949 0.08287621 0.0967584 0.10547472 -0.06504422 0.045827318 0.104647085 0.05303264
-0.15199932 0.027858794 -0.08879298 0.029221442 0.033034813 -0.10099364 -0.0887259 0.13397725
-0.06292591 -0.044962168 -0.0839465 -0.046003696 -0.087139115 -0.07908974 0.1108456 0.114788346
-0.0041868743 -0.010377479 -0.027639804 0.08451702 0.16019455 0.17251588 0.04124416 -0.027028974
-0.019504791 0.08693565 -0.038831756 -0.0010495362 0.14388025 0.0012072109 0.046004605 0.0748958
0.033992592 -0.05940634 -0.07587712 -0.0065888595 0.047436014 0.08734079 -0.02053692 0.03697085
0.0669114 -0.055275023 -0.026178392 0.040908147 -0.04168649 -0.02905531 -0.07223074 0.024072874
0.08699856 -0.07701396 -0.047763877 -0.061931327 0.12022904 -0.06614481 0.10588268 0.060294554
0.002547469 -0.062713176 0.13358437 0.046370473 -0.062683 -0.05301885 0.042049598 -0.019812599
0.083646424 0.06664923 -0.10234492 0.11969964 0.0010536365 0.040846035 0.066760264 -0.0032169223
00000000: 0e11 be3d 9a34 d33d 6cc6 ec3c a96f 80bd
00000010: 5dc7 173c e0f5 36bd 6a17 9fbd 521a bcbd
00000020: 20c5 e53d 0913 de3d 8cde 96bb 0d33 253c
00000030: a3cb 03bd 7c5e bd3d ea98 953d ae9f e53d
00000040: b835 44bd a906 d93d d56d f13c 3e1a bbbd
00000050: 88e6 4bbc d018 a73c 5332 a9bd 48de cabd
00000060: af56 af3d 6772 36bd ed0b e03d d83a b83d
00000070: 8946 9b3d 7c72 883b e86f 0ebd 484d 1d3c
00000080: 6fb0 5a3d 0133 843d 2b6a 003e 7b75 87bc
00000090: 7107 e03d 3ac4 833d a038 9a3d 3a89 e03d
000000a0: 2196 6a3d b74e 063e 72eb f13d 8867 103e
000000b0: 341c aa3d 804a a9bc d64c f53c 4a41 0abe
000000c0: 01aa 0abe b050 b23c 1b56 543c 9aaa ebbd
000000d0: 5441 a1bd 8bf7 82bd c03d d33c 12de 593d
000000e0: 7b3f dd3c cc5d 843d edc0 81bc 84c2 d53d
000000f0: 20d5 bf3d 4877 b4bc a64a 083d 6be3 553c
00000100: 14f8 043d 6bfb cb3d 1a8d b0bc 6fd0 e73c
00000110: 2192 edbc 29af 283d e65f 843d db47 c33d
00000120: 7b6f e03b 75f8 383c a423 02be 66d0 82bd
00000130: 3917 92bd 6d6b b93c be3b 2cbb 2c21 edbd
00000140: 0320 023b de43 cb3d 3a21 c33d ecc8 63bb
00000150: a262 83bd d04f 1bbd cecc 08bd 8f63 57bd
00000160: 72a1 98bc 6946 cf3d 2309 e73d 4b89 77bd
00000170: 9832 ae3d ea90 19bd a810 e73d 51c5 93bd
00000180: 51d1 183e 377e a23d 6f2a 88bd 37e7 bd3d
00000190: 6f00 c2bd 25a1 5dbd 883c 013e 6fab b6bd
000001a0: c4bc 243d e677 773b 81ff 27bc 9311 843d
000001b0: e865 bc3d 61f3 3e3d 5ebf d5ba 314e bbbd
000001c0: ec42 353d 999d 15bd 5a8a 29bd 9dab dcbc
000001d0: f834 8ebc f389 11be d181 963a f44f b3bd
000001e0: cd41 95bd e578 ff3a da9b 12be d1a9 f9bd
000001f0: 1692 4eba 89a5 77bd b347 9cbd 48bb 65bd
00000200: 8444 813d e6c1 59bc c29a 69bd aceb 62bd
00000210: f4c5 5fbd a713 f9bc f135 08bd b164 5a3d
00000220: 2bac 953d 80a6 163a e6f3 303e 2fc3 703d
00000230: 0b4a 883d f6c5 643d 7092 723c 9e46 093d
00000240: c7ba 29be d099 98bc bb57 273b 3de3 d1bd
00000250: 78e6 a7bc c6c2 22be 2f1d 06be 0a39 06be
00000260: 93a8 703b 330f b13c 142b aa3d dcf9 4e3d
00000270: afb0 333c c01c 3c3c 5185 b2bd 0f85 4d3d
00000280: fa3a 10bc 05b8 84bc 55b1 b13d 72f9 0a3e
00000290: bdb8 0d3e d716 b7bd 4a83 ab3d e5f2 a73d
000002a0: 335d edbc 9fff 893d 23c1 8f3d 582d cc3c
000002b0: 3856 d53d a5e9 9d3d 3fa6 a1bb 6dd0 51bd
000002c0: dea8 0d3e 01bb a93d 4529 c63d 2103 d83d
000002d0: e735 85bd 6db5 3b3d 3651 d63d c138 593d
000002e0: b6a5 1bbe 2038 e43c 18d9 b5bd ce61 ef3c
000002f0: 834f 073d c1d5 cebd edb5 b5bd 5531 093e
00000300: 4ddf 80bd 402a 38bd 25ec abbd 5f6e 3cbd
00000310: fe75 b2bd cdf9 a1bd 0503 e33d 2716 eb3d
00000320: 0c32 89bb 4d06 2abc df6c e2bc 4217 ad3d
00000330: 0a0a 243e 01a8 303e a3ef 283d de6b ddbc
00000340: 83c8 9fbc 510b b23d 0c0e 1fbd 9790 89ba
00000350: 5855 133e 473b 9e3a 536f 3c3d f862 993d
00000360: d13b 0b3d 1054 73bd 7765 9bbd 5ce7 d7bb
00000370: 444c 423d badf b23d 0b3d a8bc bf6e 173d
00000380: d808 893d 1068 62bd 1174 d6bc 4d8f 273d
00000390: 74bf 2abd 6705 eebc b6ed 93bd 7a34 c53c
000003a0: 4d2c b23d 7fb9 9dbd 0ea4 43bd b4ab 7dbd
000003b0: a53a f63d ee76 87bd 05d9 d83d 6cf7 763d
000003c0: 70f3 263b c46f 80bd 57ca 083e f7ee 3d3d
000003d0: f25f 80bd 4b2a 59bd 333c 2c3d 084e a2bc
000003e0: d14e ab3d 647f 883d 379a d1bd 1625 f53d
000003f0: 2d1a 8a3a 2c4e 273d 9bb9 883d 00d3 52bb

conv3.bias f4 [20]
0.17740934 -0.06687459 -0.0058911503 0.15231761 0.020175477 -0.20434925 -0.008541425 -0.14613461
-0.033429135 0.039889585 -0.07092431 -0.064965926 0.007566878 -0.052159768 -0.11171267 0.038012814
-0.000311609 0.08740397 0.0008832537 0.1679508
00000000: cbaa 353e 8cf5 88bd 8d0a c1bb 26f9 1b3e
00000010: 0b47 a53c ee40 51be 55f1 0bbc 50a4 15be
00000020: fdec 08bd 4363 233d c440 91bd db0c 85bd
00000030: 93f3 f73b 7ba5 55bd 9dc9 e4bd 53b3 1b3d
00000040: 745f a3b9 da00 b33d 278a 673a 4bfb 2b3e

conv4.weight f4 [25, 20, 3, 3]
0.02264035 0.07823047 0.017166158 0.052495264 0.05437818 0.07093881 0.06328311 0.056926604
-0.029481558 -0.04797574 -0.03547759 -0.080019 -0.007999789 -0.10863902 -0.026670525 -0.06166961
-0.006447316 0.019443763 0.09051992 -0.013926292 0.09927312 0.053600036 -0.027120039 0.0690382
0.05155879 0.028117869 -0.002974266 -0.03246505 0.07747285 0.015058922 0.08888783 -0.018670768
0.05160813 0.04959262 0.07710001 0.059126914 -0.060884044 -0.060500007 0.0045453548 -0.030299004
0.0009985996 0.06055636 0.033463772 -0.029817259 0.01921986 -0.035432372 0.061256547 0.05577295
0.03552277 -0.05907113 0.021693764 -0.05808425 -0.08228061 -0.09627998 0.075215355 0.048501283
-0.052784726 -0.07002975 0.03647225 -0.00963804 -0.051316258 0.0109230215 0.03163307 0.022482254
-0.049786568 0.06360861 0.0105971275 -0.04080946 -0.011987352 -0.0066484036 -0.02078504 -0.0856447
-0.11102052 -0.101471275 -0.034494303 -0.024682706 -0.085634306 -0.08956256 -0.14225751 -0.09836413
-0.004057762 -0.021057129 -0.073889814 -0.06629485 -0.10978537 -0.0554369 -0.107343465 -0.06446836
-0.11253766 -0.116452396 -0.08313984 -0.09008292 0.012476754 -0.08297767 -0.08492695 -0.06316259
-0.05375264 -0.041748106 -0.06031731 -0.077050194 -0.04861512 0.002896175 -0.045277115 -0.02921524
-0.011838068 -0.008294449 0.048140325 0.02421318 -0.11429074 0.01228993 -0.10214282 -0.00058870326
-0.13381936 -0.10894454 -0.022322236 -0.06891714 0.021501385 -0.048227526 0.008368376 -0.0885343
-0.012960772 -0.005935403 -0.032748267 -0.013839321 -0.10064639 -0.009562168 0.008501521 0.02045794
0.017147249 -0.035682306 -0.02334694 0.0056043654 -0.08643175 -0.0618276 -0.055393383 0.08067198
0.046783037 -0.004576178 -0.043365628 -0.008223635 -0.061747596 0.03896573 -0.03062778 0.027346822
-0.012388586 0.08265661 0.12193298 0.05041086 0.038807716 0.0055662836 0.006136434 0.045986556
0.07470604 0.10117406 0.10888512 0.025487896 0.042894274 0.1241067 0.04096023 0.09106792
0.09368938 0.0027002748 -0.0011023585 0.0022340394 0.08614939 0.034834728 -0.022292553 -0.021247495
0.03815768 0.03606817 0.042382494 0.004817396 0.029259061 -0.05358305 0.011905197 -0.07743955
-0.026415344 -0.019688418 -0.043991413 -0.0022992776 0.080795854 0.054909974 0.07415059 0.03422303
0.047203302 0.1010562 0.040990457 -0.06460731 -0.047473535 -0.031582907 0.06342931 -0.018298607
0.0025937275 -0.0110248085 -0.030766144 -0.052602746 0.13104783 0.041009758 0.028638238 0.07790288
0.03926329 -0.022577314 -0.03704868 0.0042530484 -0.13856132 0.07484821 0.115336545 0.01527859
-0.043637626 -0.010828771 0.1077965 -0.03444635 -0.04822164 -0.04424897 -0.009050071 -0.062718004
-0.01632104 -0.07684134 0.003474219 0.08093046 -0.04473313 0.03524512 0.055746086 0.03860442
-0.044621255 -0.053593744 -0.0634287 0.0005203761 -0.01132474 -0.08273197 0.037938856 0.0008641114
-0.120175116 -0.11478188 -0.08127311 0.003788004 0.04790705 0.0017315757 -0.060532536 0.0066381255
-0.041028988 -0.01609442 0.02264798 0.032218892 0.0064569693 -0.017605945 0.013444412 0.0048429416
-0.015813617 -0.008721619 -0.08887341 0.0044593057 -0.013975741 -0.052105334 -0.04666315 -0.17291021
00000000: 4178 b93c 4c37 a03d 0ba0 8c3c 4605 573d
00000010: a8bb 5e3d 5e48 913d 939a 813d df2b 693d
00000020: 4f83 f1bc 3682 44bd f350 11bd 00e1 a3bd
00000030: 8c11 03bc 227e debd 257c dabc 4699 7cbd
00000040: 0244 d3bb 8748 9f3c 8262 b93d 1a2b 64bc
00000050: b54f cb3d b68b 5b3d d82a debc e663 8d3d
00000060: 4f2f 533d 7257 e63c e7eb 42bb 13fa 04bd
00000070: 16aa 9e3d b2b9 763c d30a b63d 70f3 98bc
00000080: 0c63 533d a221 4b3d 9ce6 9d3d 102f 723d
00000090: 8c61 79bd dbce 77bd 33f1 943b 9e35 f8bc
000000a0: 71e3 823a f209 783d 4f11 093d 5343 f4bc
000000b0: f872 9d3c 8921 11bd 25e8 7a3d 2d72 643d
000000c0: 5380 113d 92f4 71bd 1fb7 b13c c0e9 6dbd
000000d0: bd82 a8bd 702e c5bd 820a 9a3d 48a9 463d
000000e0: cc34 58bd c26b 8fbd ed63 153d dfe8 1dbc
000000f0: ff30 52bd 79f6 323c ae91 013d b42c b83c
00000100: 00ed 4bbd 3b45 823d 939f 2d3c d227 27bd
00000110: 9966 44bc dada d9bb 6345 aabc 7d66 afbd
00000120: ba5e e3bd 2cd0 cfbd e649 0dbd 6333 cabc
00000130: 0a61 afbd 936c b7bd f4ab 11be 2273 c9bd
00000140: faf6 84bb 0080 acbc 8b53 97bd 98c5 87bd
00000150: 27d7 e0bd ce11 63bd e4d6 dbbd fd07 84bd
00000160: 257a e6bd 987e eebd 3845 aabd 657d b8bd
00000170: 4d6b 4c3c 32f0 a9bd 2eee adbd 635b 81bd
00000180: ba2b 5cbd 1000 2bbd 490f 77bd 7ecc 9dbd
00000190: a620 47bd c1cd 3d3b 7f74 39bd cd54 efbc
000001a0: 75f4 41bc 71e5 07bc ca2e 453d b85a c63c
000001b0: 4311 eabd b45b 493c 4130 d1bd 3553 1aba
000001c0: f107 09be 511e dfbd 1fdd b6bc 6e24 8dbd
000001d0: ac23 b03c 3a8a 45bd 831b 093c 7951 b5bd
000001e0: 6b59 54bc c57d c2bb 0c23 06bd 52be 62bc
000001f0: b21f cebd a4aa 1cbc f749 0b3c 6997 a73c
00000200: 6378 8c3c 9c27 12bd 1542 bfbc d3a4 b73b
00000210: 2103 b1bd f03e 7dbd 2ce4 62bd 5a37 a53d
00000220: 929f 3f3d c3f3 95bb 28a0 31bd 6dbc 06bc
00000230: 0ceb 7cbd 889a 1f3d 1ce7 fabc 7106 e03c
00000240: 7ff9 4abc de47 a93d 00b8 f93d 9e7b 4e3d
00000250: d7f4 1e3d 5f65 b63b 2414 c93b 665c 3c3d
00000260: 7bff 983d 5834 cf3d 29ff de3d fecb d03c
00000270: e8b1 2f3d a72b fe3d eac5 273d d181 ba3d
00000280: 38e0 bf3d 18f7 303b 037d 90ba f668 123b
00000290: 176f b03d dcae 0e3d df9e b6bc 3a0f aebc
000002a0: 3a4b 1c3d 38bc 133d 4499 2d3d 3fdb 9d3b
000002b0: b3b0 ef3c e679 5bbd 040e 433c a098 9ebd
000002c0: fe64 d8bc 9b49 a1bc 5730 34bd 7aaf 16bb
000002d0: 4c78 a53d 48e9 603d 44dc 973d 732d 0c3d
000002e0: 4058 413d 8ef6 ce3d 9ce5 273d d650 84bd
000002f0: 9c73 42bd 145d 01bd 3ae7 813d f6e6 95bc
00000300: 87fb 293b 66a1 34bc 4809 fcbc fa75 57bd
00000310: 6731 063e d9f9 273d bd9a ea3c 8c8b 9f3d
00000320: 8bd2 203d 0ff4 b8bc 5bc0 17bd 285d 8b3b
00000330: 05e3 0dbe 054a 993d 9135 ec3d 0d53 7a3c
00000340: 5ebd 32bd 286b 31bc 69c4 dc3d 9e17 0dbd
00000350: 0e84 45bd 683e 35bd c046 14bc 4c72 80bd
00000360: b4b3 85bc fe5e 9dbd b9af 633b debe a53d
00000370: 163a 37bd 305d 103d 0256 643d ab1f 1e3d
00000380: c7c4 36bd 1d85 5bbd e8e6 81bd d969 083a
00000390: 678b 39bc 616f a9bd c665 1b3d 8985 623a
000003a0: 5f1e f6bd c312 ebbd 8472 a6bd 2940 783b
000003b0: 2f3a 443d 0af6 e23a f7f0 77bd a284 d93b
000003c0: 030e 28bd 72d8 83bc 4288 b93c f5f7 033d
000003d0: fc94 d33b 583a 90bc f345 5c3c 8ab1 9e3b
000003e0: 8f8b 81bc 1fe5 0ebc 4303 b6bd 5e1f 923b
000003f0: 82fa 64bc 676c 55bd dc21 3fbd 600f 31be

conv4.bias f4 [25]
0.08675694 0.1809515 -0.0935384 0.08121876 -0.101322144 -0.039271798 0.008944341 -0.021668082
0.16623802 -0.02868487 0.007927036 -0.09346525 0.038909085 -0.013825224 -0.041071236 0.07121978
0.025807675 0.03191399 -0.09427373 0.033021815 0.023345089 0.06325917 0.05799958 0.038357273
0.097950324
00000000: 9fad b13d 5a4b 393e 1091 bfbd 0556 a63d
00000010: fc81 cfbd 77db 20bd 498b 123c 4381 b1bc
00000020: 4d3a 2a3e 88fc eabc 66e0 013c b66a bfbd
00000030: 225f 1f3d 3183 62bc 503a 28bd addb 913d
00000040: 9e6a d33c 3eb8 023d 9612 c1bd e241 073d
00000050: 333e bf3c 068e 813d f890 6d3d 841c 1d3d
00000060: 2e9a c83d

conv5.weight f4 [16, 25, 3, 3]
-0.0008868027 -0.06762367 -0.06553816 0.012081778 0.038559053 0.024939487 -0.045621064 0.06071431
0.042028997 -0.00087399903 -0.14940841 -0.01513802 -0.0039615287 0.0666703 0.00633932 -0.0062441556
0.017972521 -0.016870609 -0.0008446806 0.06103281 0.11613072 -0.015794693 0.06466467 0.046181846
-0.007585968 -0.10805365 -0.029379213 -0.00074890675 0.027376248 -0.029668149 -0.00077283883 -0.04253814
-0.002181685 1.7673029e-15 0.025047543 0.061352514 -0.0009067169 -0.028777856 -0.05462553 -0.010954106
0.020156112 -0.0077503123 0.014834942 -0.025573643 -0.060780745 -0.0009032567 -0.07623728 -0.024092918
-0.039625186 -0.010033448 -0.059458777 0.014831508 0.009664657 -0.0137191815 -0.00086535694 0.08149063
0.07662737 -0.0009428949 -0.051907156 0.06875696 0.026350519 -0.11622803 -0.076420814 -0.0005131475
-0.06955497 -0.0036255629 -0.00079792977 0.033445656 -0.03253025 -3.4276666e-06 0.06447568 0.053622108
-0.000841674 0.015961044 -0.07006404 -0.027674109 -0.05402996 0.02423904 -0.029421588 0.035245053
-0.0059342682 -8.606952e-10 0.05042836 0.10056381 -0.004758001 0.038600925 0.040598083 -0.009426563
-0.116315395 -0.045047175 -0.0008981623 -0.0052322405 -0.047176287 -0.05208506 0.0028670544 -0.06426819
0.029311882 0.004425449 -0.0048030596 -0.00082957203 0.0004361278 0.09921665 0.021707201 0.01691272
0.07592859 -0.040017467 -0.11810974 -0.017199036 -0.0008945078 -0.029155655 -0.13213842 0.029418396
0.034335766 0.056266934 -0.047255293 0.038455505 0.066656224 -0.00089194893 -0.056647923 -0.0077703795
-0.027648067 0.08316263 0.086398184 0.037973028 0.013401646 -0.008226499 -0.0008682454 0.07011093
0.06526723 -0.0006318716 0.015019435 0.023375574 -0.014833063 -0.03134933 -0.07278519 -0.0008956536
0.05210447 -0.05328378 -0.03027203 0.04893022 0.026715385 0.034185175 0.009010478 -0.0042221667
-0.00087228237 -0.06074853 0.036591507 -0.028071959 -0.09426549 -0.045931537 0.03554315 -0.05577815
0.003378067 -0.0008583393 0.01071401 0.07913544 -0.05442285 0.0062913327 -0.059371945 -0.04270371
-0.09623291 -0.17325537 -0.0008940786 0.05062739 0.07462258 0.03716336 0.02254849 0.006781202
-0.059560552 -0.0058607785 -0.0006845501 -0.0008188804 -0.023503218 0.025036462 -0.0626458 0.024196535
-0.035361253 0.03231348 -0.10714768 -0.046185166 -0.00089789263 -0.05775618 -0.0076350784 -0.07007166
-0.039946254 0.04167523 -0.0012748565 -0.027148321 0.010480084 -0.0008380028 0.02427164 0.052887056
-0.0175007 0.0062482394 0.06886452 0.009872934 -0.0504135 -0.14991051 -0.0009039992 -0.017619792
0.022832844 -0.023595704 -0.048438422 0.059725378 -0.04466828 0.0009884989 -0.031571224 -0.0008534331
-0.008506278 -0.01386399 0.043985855 0.059123337 0.043599915 0.037968006 -0.007989625 0.048179302
-0.0008904143 0.038786195 0.004176516 0.040028267 0.04768233 -0.058490254 0.026205514 -0.025022801
0.030807782 0.021233104 -0.06548764 -0.061991267 -0.07053735 -0.02497498 0.01063422 -4.2163183e-06
0.008875487 0.0045314953 -0.037356492 -0.15435728 -0.09655673 -0.039840657 -0.12139509 -0.047644887
-1.2214255e-07 -0.0063746083 -0.0035269517 0.015384191 0.085337006 0.055527534 0.0064959754 0.008596915
0.09628059 9.37844e-11 -0.044402994 -0.0056715766 -0.0013034912 -0.023589175 -0.012857245 -8.11436e-07
00000000: 5278 68ba 477e 8abd df38 86bd a6f2 453c
00000010: 19f0 1d3d e54d cc3c 27dd 3abd 91af 783d
00000020: 9926 2c3d 151d 65ba 85fe 18be 7505 78bc
00000030: b6cf 81bb 708a 883d 12ba cf3b c69b ccbb
00000040: 1c3b 933c 3b34 8abc 8e6d 5dba 8afd 793d
00000050: f1d5 ed3d df63 81bc e96e 843d 2d29 3d3d
00000060: b693 f8bb 3b4b ddbd adac f0bc 4852 44ba
00000070: 2744 e03c 9e0a f3bc 5698 4aba 793c 2ebd
00000080: 9afa 0ebb f8b1 fe26 8130 cd3c c64c 7b3d
00000090: beb0 6dba 8abf ebbc 05bf 5fbd da78 33bc
000000a0: 6e1e a53c 55f6 fdbb 420e 733c d17f d1bc
000000b0: 3bf5 78bd 88c8 6cba 4b22 9cbd 835e c5bc
000000c0: 054e 22bd 5563 24bc 0c8b 73bd daff 723c
000000d0: 8258 1e3c 6bc6 60bc 1fd9 62ba 8fe4 a63d
000000e0: d0ee 9c3d 9b2c 77ba 999c 54bd 73d0 8c3d
000000f0: 0bdd d73c f608 eebd 8482 9cbd bf84 06ba
00000100: d672 8ebd da9a 6dbb 292c 51ba 50fe 083d
00000110: 703e 05bd dd06 66b6 d30b 843d dba2 5b3d
00000120: c9a3 5cba bcc0 823c bc7d 8fbd d0b4 e2bc
00000130: 854e 5dbd f490 c63c 8b05 f1bc 1e5d 103d
00000140: 4074 c2bb 0a96 6cb0 f88d 4e3d 66f4 cd3d
00000150: 01e9 9bbb 011c 1e3d 2d4a 263d df71 1abc
00000160: c436 eebd 6383 38bd a772 6bba 3773 abbb
00000170: ec3b 41bd 2557 55bd 31e5 3b3b 0a9f 83bd
00000180: 791f f03c 5b03 913b fc62 9dbb a377 59ba
00000190: 15a8 e439 1932 cb3d 4dd3 b13c 8b8c 8a3c
000001a0: 7380 9b3d 5be9 23bd 85e3 f1bd fee4 8cbc
000001b0: 677d 6aba d7d7 eebc 4b4f 07be d9fe f03c
000001c0: a9a3 0c3d 2878 663d c48e 41bd 8583 1d3d
000001d0: 0f83 883d aed1 69ba a707 68bd ab9e febb
000001e0: 337e e2bc 2b51 aa3d 88f1 b03d 9b89 1b3d
000001f0: 9492 5b3c 70c8 06bc f69a 63ba 5296 8f3d
00000200: d3aa 853d 2fa4 25ba 1414 763c 227e bf3c
00000210: 6006 73bc 2868 00bd 6710 95bd 4cca 6aba
00000220: 7f6b 553d 1840 5abd 0cfd f7bc 0e6b 483d
00000230: 39da da3c c105 0c3d afa0 133c 1a5a 8abb
00000240: e1a9 64ba 73d3 78bd fae0 153d 2af7 e5bc
00000250: 440e c1bd b522 3cbd b295 113d a177 64bd
00000260: 8f62 5d3b 2d02 61ba d189 2f3c c311 a23d
00000270: 7fea 5ebd 8627 ce3b ff2f 73bd 16ea 2ebd
00000280: c315 c5bd db69 31be 9960 6aba ab5e 4f3d
00000290: b9d3 983d 9b38 183d 9cb7 b83c d834 de3b
000002a0: c4f5 73bd c60b c0bb 6173 33ba 22aa 56ba
000002b0: d289 c0bc 4419 cd3c 714c 80bd d037 c63c
000002c0: f6d6 10bd 245b 043d 3e70 dbbd a82c 3dbd
000002d0: 8e60 6bba bf91 6cbd ae2f fabb bb81 8fbd
000002e0: af9e 23bd a5b3 2a3d 1619 a7ba 2866 debc
000002f0: a9b4 2b3c 6aad 5bba 52d5 c63c 19a0 583d
00000300: a15d 8fbc 08be cc3b d708 8d3d 16c2 213c
00000310: 637e 4ebd 2482 19be 5cfa 6cba 6257 90bc
00000320: f20b bb3c c74b c1bc 5e67 46bd 99a2 743d
00000330: 16f6 36bd 8590 813a d450 01bd edb8 5fba
00000340: ea5d 0bbc ca25 63bc 832a 343d 502b 723d
00000350: d395 323d 5784 1b3d ebe6 02bc a957 453d
00000360: b16a 69ba 46de 1e3d 28db 883b aef4 233d
00000370: 8c4e 433d 7a93 6fbd f2ac d63c 9efc ccbc
00000380: 9a60 fc3c 0cf1 ad3c 621e 86bd 8eea 7dbd
00000390: e375 90bd 5498 ccbc 273b 2e3c e679 8db6
000003a0: 7e6a 113c f07c 943b 1f03 19bd d60f 1ebe
000003b0: 89bf c5bd f52f 23bd fd9d f8bd 4927 43bd
000003c0: 4a26 03b4 17e2 d0bb 6e24 67bb f90d 7c3c
000003d0: 2bc5 ae3d d770 633d 31dc d43b 13da 0c3c
000003e0: c22e c53d ec3b ce2e eadf 35bd a2d8 b9bb
000003f0: e8d9 aaba 163e c1bc 32a7 52bc 75d1 59b5

conv5.bias f4 [16]
0.030732935 -0.10234534 0.023317346 -0.0728185 0.046231683 -0.059706602 0.05251529 0.1208697
0.04402222 0.1495184 -0.06989493 -0.016469292 -0.09007441 0.04958766 -0.017043658 0.04084493
00000000: a3c3 fb3c 6f9a d1bd 0504 bf3c de21 95bd
00000010: 6f5d 3d3d e98e 74bd 461a 573d 898a f73d
00000020: a550 343d 5a1b 193e 1325 8fbd 9cea 86bc
00000030: ef78 b8bd 6e1c 4b3d 249f 8bbc 034d 273d

classifier.1.weight f4 [10, 16]
0.11714745 -0.079980604 -0.10086461 0.08604835 0.18851462 0.0030107377 -0.006958328 0.10140414
-0.122814834 -0.022724524 -0.144051 -0.1075578 0.19692099 0.070676185 -0.28343394 -0.10431996
-0.07503573 0.0672289 -0.25667182 -0.029657181 -0.15876375 -0.0484309 0.12403397 -0.039610427
-0.15629059 -0.21370566 -0.20146395 0.19469115 0.26535553 0.100404516 0.2903284 -0.09701624
-0.05035821 -0.030736199 0.14096777 -0.0773236 -0.12664072 -0.077921525 -0.21959318 0.048484366
-0.1439469 0.28138465 0.022209631 -0.23071422 -0.15086614 0.13384557 0.02562505 0.27886164
-0.15580752 -0.2848114 -0.052728225 -0.111681074 -0.17793436 -0.010326748 0.1424539 0.18288335
0.12321783 -0.22768205 -0.07272247 0.14747225 0.17441022 -0.084638275 0.044292197 0.062270384
0.16292423 -0.06454467 -0.14411695 -0.14125884 0.044504825 0.016547794 0.10196397 0.3074479
-0.075255826 -0.13092797 -0.21529348 -0.22230496 -0.07859608 0.2898341 0.21679369 0.0395728
-0.28770116 -0.071161166 -0.0024950495 -0.3119008 -0.022309547 -0.00040727045 -0.049657255 -0.153793
0.15424585 -0.15633139 0.07570194 -0.11454521 0.05091829 -0.107494 0.0018736764 0.102256745
-0.09562366 -0.1419959 -0.12976949 -0.1853556 0.0051127425 -0.050188396 -0.24432494 0.0967113
0.19672737 -0.1044872 0.15465298 0.07464186 -0.10082417 0.30736285 0.11279561 -0.15722354
0.0023936923 0.11576481 -0.28649774 0.044795856 0.1258837 -0.0063889828 -0.04160843 -0.04784365
0.0020467662 0.02357357 0.15003543 -0.28874463 -0.23627396 -0.2428275 0.047383703 0.10299619
-0.2205516 0.111501165 0.09354551 0.21912435 0.030343026 -0.005776277 0.017809369 -0.13244645
-0.22132201 0.100467615 0.03399066 0.10677581 0.02933605 -0.005799761 0.08806593 -0.25936726
0.11958201 0.20242634 0.04327379 0.120253555 -0.2091756 0.008311563 -0.20775653 -0.107233986
-0.022029752 -0.25914258 -0.029324751 0.19914937 -0.19970538 0.06485941 0.11709268 0.061686303
00000000: 01eb ef3d dfcc a3bd 1b92 cebd 1e3a b03d
00000010: fa09 413e cc4f 453b b002 e4bb f9ac cf3d
00000020: 5886 fbbd c828 babc 1b82 13be 4447 dcbd
00000030: a8a5 493e adbe 903d 411e 91be b4a5 d5bd
00000040: 55ac 99bd 4eaf 893d 7d6a 83be 9ef3 f2bc
00000050: f792 22be 7b5f 46bd 8605 fe3d 8b3e 22bd
00000060: a40a 20be a8d5 5abe 914c 4ebe 1e5d 473e
00000070: aedc 873e e2a0 cd3d eda5 943e 73b0 c6bd
00000080: 6944 4ebd 7bca fbbc db59 103e d65b 9ebd
00000090: 1bae 01be 5295 9fbd 09dd 60be 8b97 463d
000000a0: d166 13be a611 903e f9f0 b53c 5940 6cbe
000000b0: a77c 1abe d00e 093e a0eb d13c f4c6 8e3e
000000c0: 028c 1fbe cdd2 91be 8df9 57bd 0cb9 e4bd
000000d0: 6d34 36be 8531 29bc 6fdf 113e c645 3b3e
000000e0: a159 fc3d 7c25 69be 85ef 94bd f702 173e
000000f0: 9898 323e d556 adbd bc6b 353d 3b0f 7f3d
00000100: 9cd5 263e ff2f 84bd 6593 13be 28a6 10be
00000110: b14a 363d 3d8f 873c 7cd2 d03d d069 9d3e
00000120: ba1f 9abd fb11 06be e575 5cbe e9a3 63be
00000130: fbf6 a0bd 2365 943e 2aff 5d3e 1717 223d
00000140: 914d 93be f2bc 91bd fc83 23bb 76b1 9fbe
00000150: 83c2 b6bc ea86 d5b9 6865 4bbd ea7b 1dbe
00000160: a0f2 1d3e 5615 20be 9e09 9b3d ae96 eabd
00000170: b28f 503d d025 dcbd 2696 f53a fc6b d13d
00000180: 56d6 c3bd 6067 11be 4be2 04be dccd 3dbe
00000190: cb88 a73b 5992 4dbd 5130 7abe 9310 c63d
000001a0: e672 493e 63fd d5bd 5a5d 1e3e d5dd 983d
000001b0: e77c cebd aa5e 9d3e 6301 e73d 35ff 20be
000001c0: 7edf 1c3b 1a16 ed3d d5af 92be dc7b 373d
000001d0: a8e7 003e ac5a d1bb 9a6d 2abd b4f7 43bd
000001e0: 0a23 063b 5c1d c13c e3a2 193e 56d6 93be
000001f0: cdf1 71be c6a7 78be 6a15 423d abef d23d
00000200: 47d8 61be b95a e43d ca94 bf3d 2262 603e
00000210: f091 f83c ec46 bdbb f4e4 913c 0ba0 07be
00000220: 3da2 62be f7c1 cd3d ca39 0b3d 47ad da3d
00000230: 2852 f03c ec0b bebb e95b b43d c9cb 84be
00000240: 6ae7 f43d da48 4f3e dc3f 313d 7f47 f63d
00000250: 2132 56be 392d 083c 21be 54be 7e9d dbbd
00000260: bd77 b4bc 56ae 84be 763a f0bc d0ed 4b3e
00000270: 917f 4cbe 03d5 843d 49ce ef3d c7aa 7c3d

classifier.1.bias f4 [10]
0.057132766 -0.17104334 0.013319474 -0.18517837 0.056822553 0.20806031 0.27771205 0.14531994
0.15642521 0.0012764195
00000000: 0c04 6a3d fc25 2fbe ec39 5a3c 669f 3dbe
00000010: c4be 683d c30d 553e 4630 8e3e c0ce 143e
00000020: ee2d 203e 884d a73a
