Cifar/reek_weights_trial_80iter_final2/Times4.pt (torch, 47937 bytes, 12 tensors)

conv1.weight f4 [8, 3, 3, 3]
0	0x3c294dd3	0.010333496
1	0xbe6c45d7	-0.23073517
2	0xbe508197	-0.20361935
3	0xbe44d0db	-0.19220297
4	0x3da13da6	0.07873087
5	0xbdf6ff37	-0.12060397
6	0x3c9c6b97	0.019094272
7	0x3e82a238	0.25514388
8	0x3e4cf4fc	0.20015329
9	0x3e0249a1	0.127234
10	0xbe41fee1	-0.18944885
11	0xbdfb764e	-0.12278424
12	0xbdef003d	-0.11669967
13	0x3d17b5f3	0.037038755
14	0xbe15f3e1	-0.14643814
15	0x3e526240	0.20545292
16	0x3e27c1bc	0.16382498
17	0x3e38350d	0.17988987
18	0x3ba1c9ea	0.0049374
19	0xbcf84c0b	-0.030309698
20	0xbc957aff	-0.018247126
21	0x3a36b666	0.00069699285
22	0xbddbbcfd	-0.10729406
23	0xbdaff7f4	-0.08592215
24	0x3e5f5bfd	0.21812434
25	0x3dd61c3d	0.10454605
26	0x3e331aba	0.17490664
27	0x3e3c9e8e	0.18419859
28	0xbd98ad63	-0.07454946
29	0x3d96de8b	0.073666655
30	0x3e281252	0.16413239
31	0xbdab890e	-0.083757505
32	0xbd16f5c3	-0.03685547
33	0x3e8432e1	0.25820068
34	0xb831cfe4	-4.23937e-05
35	0xbe240766	-0.16018447
36	0x3c21f6f7	0.009885541
37	0x3d8df54c	0.06931552
38	0x3d9f3f4c	0.07775745
39	0x3e7a2732	0.24429014
40	0x3e0d5907	0.13803492
41	0xbe644093	-0.22290258
42	0xbde726ee	-0.11286722
43	0xbe0866cc	-0.13320464
44	0x3cc51bf0	0.024061173
45	0xbd1f196f	-0.038842615
46	0x3d0491ff	0.032365795
47	0xbe649cbd	-0.22325416
48	0x3bc8c9eb	0.006127586
49	0xbe359077	-0.1773089
50	0xbe04c8f6	-0.12967286
51	0x3e3a3b1c	0.18186611
52	0x3d8cd21a	0.06876011
53	0xbe57a3ef	-0.2105863
54	0x3e4629cd	0.19351883
55	0x3c4c23fa	0.012459749
56	0xbe260004	-0.16210943
57	0x3df3e826	0.11909513
58	0xbcbb0a45	-0.022832045
59	0xbdc984e7	-0.09839802
60	0xbd7fd1ff	-0.062456127
61	0xbdc52b1b	-0.09627362
62	0xbe67d2a5	-0.22638948
63	0xbe64461f	-0.22292374
64	0x3dbf3c08	0.09337622
65	0x3c0172e1	0.007900924
66	0xbe3e88c3	-0.18606858
67	0x3e1588f5	0.14603026
68	0xbd1ca8c3	-0.03824688
69	0xbe81b79e	-0.253354
70	0xbe117090	-0.14203095
71	0xbe7803f9	-0.24220265
72	0x3e1d9add	0.15391107
73	0xbe17fac6	-0.14841756
74	0xbd31bb3a	-0.043391444
75	0x3e289dec	0.16466492
76	0x3e1ebf29	0.1550261
77	0x3b7b6bce	0.0038363817
78	0xbe5cc176	-0.21558174
79	0xbe3a718a	-0.18207374
80	0xbe1d5810	-0.15365624
81	0x3e2d28a0	0.16910028
82	0xbe2b6d58	-0.1674093
83	0xbd9d7956	-0.076891586
84	0xbde696b1	-0.11259211
85	0xbe2a8ff9	-0.16656484
86	0xbd5bd676	-0.053671323
87	0xbdea0983	-0.114275955
88	0x3e044be6	0.12919578
89	0xbe2d5a77	-0.16929041
90	0xbd9ffff5	-0.07812492
91	0x3e0add2f	0.13560937
92	0x3d4b3cc7	0.04961851
93	0xbd901600	-0.07035446
94	0xbd48013b	-0.0488293
95	0x3cae9eb3	0.021315908
96	0xbe0407e0	-0.12893629
97	0xbd211f21	-0.039336327
98	0xbccd7df9	-0.025084483
99	0xbdcfe407	-0.10150915
100	0x3e1a0024	0.15039116
101	0xbd1e0e8d	-0.038588095
102	0x3c98cf9c	0.018653683
103	0xbd6a6053	-0.05722077
104	0xbcdf920f	-0.027291326
105	0x3d5c94c7	0.053852823
106	0x3e025d3f	0.12730883
107	0xbd73aef7	-0.05949303
108	0xbe444990	-0.19168687
109	0xbe8b0e9a	-0.27159578
110	0xbe838f16	-0.25695103
111	0xbe4e5708	-0.20150387
112	0x3dc32709	0.0952893
113	0x3c46850d	0.012116683
114	0xbb5b6077	-0.0033474246
115	0xbe3e7f25	-0.1860319
116	0xbdb2957a	-0.08719917
117	0x3e1b3900	0.15158463
118	0xbe5e651d	-0.21718259
119	0xbdd140d2	-0.102174416
120	0xbe186d07	-0.1488534
121	0xbc97cbc0	-0.018529773
122	0x3c59243c	0.013253268
123	0xbd913e33	-0.07091942
124	0x3e342b49	0.17594637
125	0xbd657309	-0.05601791
126	0x3da0a3c3	0.07843735
127	0xbd22a21a	-0.039705373
128	0xbdd66110	-0.10467732
129	0xbd98cb39	-0.07460637
130	0xbe59a7ef	-0.21255468
131	0xbe2fc0bb	-0.17163365
132	0x3e3945ac	0.18092984
133	0x3bcb85d1	0.0062110205
134	0xbcb51988	-0.0221069
135	0xbe194856	-0.14969
136	0x3e230898	0.15921247
137	0xbe4358ba	-0.19076815
138	0x3e04d778	0.1297282
139	0xbe15e438	-0.1463784
140	0xbd6b740a	-0.05748371
141	0x3e4bb814	0.19894439
142	0xbe72b59b	-0.2370209
143	0x3d625f33	0.05526657
144	0xbd9a5d80	-0.07537365
145	0x3e1ae1f2	0.15125254
146	0xbdcfc00e	-0.101440534
147	0xbdb32961	-0.08748127
148	0xbd3b4ac2	-0.04572559
149	0xbe4a3eee	-0.19750568
150	0x3e046d09	0.12932219
151	0xbdaee392	-0.08539499
152	0xbe3c5d8e	-0.18395063
153	0x3d57011f	0.052491304
154	0xbdb8844d	-0.09009609
155	0x3d778f34	0.060439304
156	0x3cf648b6	0.030063968
157	0xbd548e1d	-0.051893342
158	0xbe02c20b	-0.12769334
159	0x3c043951	0.008070306
160	0xbe0b7b13	-0.13621168
161	0xbdf71b1d	-0.12065718
162	0x3e8d2616	0.2756812
163	0x3e3c9bb8	0.18418777
164	0xbd16c966	-0.036813162
165	0x3e8070d6	0.25086087
166	0x3de6710f	0.11252033
167	0x3e6bab4e	0.23014566
168	0xbe14bcd6	-0.1452516
169	0xbd14ce73	-0.036329698
170	0xbe147050	-0.14495969
171	0x3e1feeea	0.15618482
172	0xbd1099f2	-0.035303064
173	0x3d736d78	0.05943057
174	0xbe36ef7d	-0.17864795
175	0x3dced604	0.10099414
176	0xbe03ae37	-0.12859426
177	0xbe82eb10	-0.25569963
178	0xbe81fee7	-0.25389788
179	0xbdd9d9f4	-0.106372744
180	0x3df56020	0.11981225
181	0x3e4ef576	0.20210823
182	0xbd3e4dec	-0.04646103
183	0xbd7a7d2c	-0.06115453
184	0xbe061d5c	-0.13097137
185	0xbda50d95	-0.08059231
186	0x3dd56940	0.104204655
187	0xbd45447f	-0.048161026
188	0xbe322275	-0.17395957
189	0xbd84416a	-0.06457789
190	0xbe2c7ab2	-0.1684368
191	0x3e1bf8d1	0.15231635
192	0x3b83186f	0.0040007154
193	0x3da7a6e7	0.08186131
194	0x3e1669b7	0.14688765
195	0x3e2104d3	0.15724497
196	0xbdb060db	-0.08612224
197	0xbdc5c2fc	-0.09656331
198	0xbce6e6a7	-0.028186155
199	0x3e213bd3	0.15745477
200	0xbe2106d2	-0.15725258
201	0x3d84cf7a	0.064848855
202	0x3e3fe5f4	0.18740064
203	0x3b97a7d1	0.0046281596
204	0xbda26188	-0.07928759
205	0x3df4b4a4	0.11948517
206	0x3bd4ac8d	0.006490296
207	0xbd1d2ce6	-0.038372897
208	0xbdecb43b	-0.11557814
209	0xbd6df1bb	-0.05809186
210	0xbc2cf869	-0.0105572725
211	0xbd577751	-0.052604023
212	0xbe5cacbd	-0.2155027
213	0xbe0bf5f2	-0.1366804
214	0x3c8a9c7b	0.016920319
215	0xbe723236	-0.23651966

conv1.bias f4 [8]
0	0xbc5e4b70	-0.01356779
1	0x3e68216f	0.22669004
2	0x3e1a9527	0.1509596
3	0xbe189102	-0.14899066
4	0xbdb9ff05	-0.09081844
5	0x3e41d60b	0.18929307
6	0xbdc93476	-0.09824459
7	0xba1a3f5c	-0.0005884075

conv2.weight f4 [10, 8, 3, 3]
0	0x3e1993de	0.14997813
1	0x3e0b87ff	0.13626097
2	0x3de2090c	0.11036882
3	0x3d96921f	0.07352089
4	0x3e5e3848	0.21701157
5	0x3d1b4172	0.03790421
6	0x3e28c1fe	0.16480252
7	0x3cf38d3d	0.029730434
8	0x3d34ef49	0.044173513
9	0x3da6a3c9	0.08136708
10	0x3d9da046	0.07696585
11	0x3e3dacce	0.18522951
12	0x3e62fc41	0.2216654
13	0x3e22e159	0.15906276
14	0x3e4ad9b3	0.19809608
15	0x3e1b8e0d	0.15190907
16	0x3e37dd27	0.17955457
17	0x3d701742	0.05861593
18	0x3daf83b6	0.08570044
19	0x3d3f9ff9	0.04678342
20	0xbd4b9948	-0.049706727
21	0x3d27e6cc	0.04099159
22	0x3d858b20	0.065206766
23	0x3de8a159	0.113588996
24	0xbd9b5618	-0.075847805
25	0xbdc25244	-0.09488347
26	0xbd66b6f8	-0.056326836
27	0x3c25f17d	0.010128376
28	0xbd3f8821	-0.046760682
29	0x3d97a7e1	0.07405067
30	0xbda2ac4e	-0.07943021
31	0xbda5932f	-0.08084714
32	0xbc615959	-0.013754212
33	0xbe10c52e	-0.14137718
34	0xbddeebb8	-0.108848035
35	0x3dde0686	0.10841088
36	0x3d78e9d3	0.060769867
37	0x3d3c28c8	0.04593733
38	0x3cccd670	0.025004596
39	0xbc9ac447	-0.01889242
40	0x3ca6b7c5	0.0203513
41	0x3d85e4f2	0.065378085
42	0x3d6fa70a	0.05850891
43	0x3b3490a4	0.0027552033
44	0xbd03005f	-0.031982776
45	0x3dd4a18b	0.103823744
46	0xbd85df81	-0.065367706
47	0xbcb0433b	-0.021516433
48	0xbdb28f64	-0.08718756
49	0x3dd45d39	0.10369343
50	0x3d727ca7	0.05920091
51	0x3dbe1d0e	0.092828855
52	0xbc90da11	-0.017682107
53	0x3c96f31b	0.018426469
54	0x3d50d122	0.050980695
55	0x3e55b6dc	0.20870537
56	0x3e3585ea	0.17726865
57	0x3e0b6abb	0.13614933
58	0x3d574e19	0.052564714
59	0x3e1f0f7f	0.15533255
60	0xbca931e8	-0.02065368
61	0xb9de00ba	-0.0004234368
62	0x3da51aac	0.08061728
63	0xbd882bd6	-0.06648986
64	0xbdfdd63c	-0.123943776
65	0x3c6f6087	0.014610416
66	0xbce3ad2a	-0.027792532
67	0x3ba4dc60	0.0050311536
68	0xbd064068	-0.032776266
69	0xbe4f9780	-0.20272636
70	0xbc0b278c	-0.008493315
71	0x3c795ffb	0.015220637
72	0xbd9a1f4f	-0.07525503
73	0x3dffbb29	0.1248687
74	0x3dd22932	0.10261764
75	0x3db5f00e	0.088836774
76	0x3d891276	0.06692974
77	0x3d9a1662	0.075238004
78	0x3dcce335	0.10004274
79	0xbbb9cc03	-0.005670072
80	0x3e17aa30	0.14811015
81	0xbd136395	-0.03598364
82	0xbde66e50	-0.11251509
83	0xbd6ea730	-0.05826491
84	0x3dda2728	0.10652
85	0x3e1197e6	0.14218101
86	0x3d6fb98e	0.058526568
87	0x3ba5a4a0	0.005055025
88	0xbda54f9c	-0.08071825
89	0xbd8e1b78	-0.06938833
90	0x3cebc2d1	0.02877942
91	0xbd2389f6	-0.03992649
92	0xbdab72d8	-0.08371514
93	0x3db62e9a	0.08895607
94	0x3d9e0f8a	0.077178076
95	0x3dd21aac	0.102589935
96	0x3e10528b	0.14093988
97	0x3dc6c018	0.09704608
98	0x3e210e23	0.15728049
99	0xbd6dfb7f	-0.058101173
100	0x3c95a917	0.018269105
101	0xbd853048	-0.065033495
102	0xbb1c2dbd	-0.0023830973
103	0x3d7019f9	0.05861852
104	0xbcf10f6f	-0.029426305
105	0x39b08c2c	0.00033673772
106	0x3e1c355f	0.15254734
107	0xbd7abdf6	-0.061216317
108	0xbd7340c1	-0.059387926
109	0xbdbf9adc	-0.09355709
110	0xbdf29ccf	-0.11846315
111	0x3cd1580b	0.025554677
112	0x3dafab8d	0.085776426
113	0xbcc20bfb	-0.023687353
114	0xbbd41a3b	-0.0064728535
115	0xbd836ac2	-0.06416847
116	0x3d05c6d5	0.032660324
117	0x3d7f546f	0.06233638
118	0xbcb74142	-0.022369985
119	0xbd19e260	-0.037569404
120	0x3ddc110b	0.10745438
121	0xbc6533e0	-0.013989419
122	0x3b89c44f	0.00420431
123	0xbd359e93	-0.04434068
124	0x3bc5755c	0.006025953
125	0x3d421508	0.04738334
126	0x3dfe66ab	0.12421926
127	0x3cc82b1a	0.024434615
128	0x3caadab6	0.020856243
129	0x3e4a01d5	0.19727261
130	0x3e51d9fa	0.20493308
131	0x3d4cf47a	0.05003784
132	0xbbd0c7d6	-0.0063714786
133	0x3e545c25	0.20738275
134	0x3dee9eef	0.11651408
135	0xbd3979ef	-0.0452823
136	0xbd369347	-0.04457405
137	0xbd8035ae	-0.062602386
138	0x3bf2bc24	0.007407682
139	0xba7f3651	-0.0009735572
140	0xbd9f48d9	-0.077775665
141	0xbb5da5e6	-0.0033820807
142	0x3d0e06f8	0.034674615
143	0xbdada61e	-0.0847895
144	0x3dec42b6	0.115361616
145	0x3e09c738	0.13454902
146	0x3e2c4a0d	0.16825123
147	0xbdaf8e5d	-0.085720755
148	0x3d118c83	0.035534393
149	0x3da61ca0	0.081109285
150	0x3dca49c5	0.09877352
151	0x3d30524a	0.043047227
152	0xbd28d8ab	-0.041222256
153	0xbd01dbb8	-0.03170368
154	0xbcd42fbf	-0.025901673
155	0xbe2fcee0	-0.1716876
156	0xbe103f6a	-0.1408669
157	0x3d3df69c	0.046377763
158	0x3d6422ce	0.055697255
159	0xba9e1d1b	-0.0012063117
160	0x3d330e4d	0.04371481
161	0xbc924f25	-0.017860005
162	0x3d19d25f	0.03755414
163	0xbdf050c7	-0.11734157
164	0xbd98b6ea	-0.07456763
165	0x3b6b4842	0.0035901223
166	0x3dd19ea0	0.102353334
167	0x3c96ada0	0.018393338
168	0x3de0f15a	0.10983534
169	0xbd469774	-0.04848428
170	0xbd9c989f	-0.07646298
171	0x3beb9ee4	0.007190572
172	0x3dcb3c31	0.0992359
173	0x3df3519f	0.11880802
174	0x3d48f8f0	0.04906553
175	0xbcd48acd	-0.025945092
176	0xbc1a88a4	-0.009431992
177	0xbd9ae72c	-0.07563624
178	0xbcb21de5	-0.02174277
179	0x3ddcab0d	0.10774813
180	0x3c742d61	0.014903397
181	0x379307ad	1.752734e-05
182	0xbda74fdf	-0.08169531
183	0xbcce5faa	-0.0251921
184	0x3d9dde1e	0.07708381
185	0xbd48f5f0	-0.04906267
186	0x3d1355e7	0.035970595
187	0x3d86a8fe	0.065752015
188	0x3dc72091	0.097230084
189	0xbe01b73c	-0.12667555
190	0xbdf4ff77	-0.119627886
191	0x3c1fcea4	0.009753857
192	0xbd96a993	-0.073565625
193	0xbd5e2ab8	-0.05423996
194	0xbd500565	-0.050786395
195	0xbd8cd600	-0.06876755
196	0xbd8369a1	-0.064166315
197	0x3dde3bfc	0.10851285
198	0x3d49f8dc	0.049309596
199	0x3cc93c1c	0.024564795
200	0xbd7bd7f3	-0.061485242
201	0xbcef479b	-0.029208949
202	0xbde0d4f3	-0.10978117
203	0x3c56d061	0.013111205
204	0x3d8cfc41	0.06884051
205	0x3dfb42ae	0.122685775
206	0x3d8705db	0.06592914
207	0xbdb9b9c0	-0.09068632
208	0xbd3c6905	-0.045998592
209	0xbde9fd71	-0.11425293
210	0xbb8ed655	-0.0043590465
211	0xbcfd2f29	-0.030906277
212	0xbdc02df2	-0.093837634
213	0x3d62ab58	0.055339187
214	0x3db363d7	0.08759277
215	0x3d4eaee7	0.05045977
216	0x3da67bfc	0.08129117
217	0x3de7ccf4	0.113183886
218	0x3d3e7a9a	0.04650364
219	0x3d2c3640	0.042043924
220	0x3db480ac	0.08813605
221	0x3ce9ea5b	0.028554132
222	0x3ca59359	0.020211862
223	0x3da85b10	0.08220494
224	0x3d8455ac	0.06461653
225	0xbac33869	-0.0014894131
226	0xbdd7d1bb	-0.1053805
227	0xbdf0cba8	-0.11757594
228	0xbdf1d77c	-0.118086785
229	0xbaed13ad	-0.0018087529
230	0xbdc991f0	-0.098422885
231	0xbe128689	-0.14309134
232	0xbe0b7afb	-0.13621132
233	0x3c89977c	0.016795866
234	0x3c7b36e2	0.015332909
235	0x3d490e33	0.049085807
236	0xbcb7d014	-0.022438087
237	0xbd14adb4	-0.03629847
238	0x3dab03db	0.08350345
239	0x3e061cfe	0.13096997
240	0x3d54f1d4	0.051988438
241	0xbd3bb836	-0.045829974
242	0xbb1fe23f	-0.0024396328
243	0x3c84d6ac	0.016215645
244	0x3c9a88f4	0.018864132
245	0x3c4fa301	0.0126731405
246	0xba99426a	-0.0011692767
247	0x3c6a5986	0.014303571
248	0x3ce549b9	0.027989255
249	0xbd76f132	-0.060288616
250	0xbd257c40	-0.040401697
251	0xbd89606e	-0.06707846
252	0x3da19f74	0.078917414
253	0xbd333d55	-0.043759663
254	0x3d9c2606	0.0762444
255	0x3daab594	0.083354145

conv2.bias f4 [10]
0	0x3cc94823	0.02457053
1	0xbdcf4674	-0.1012086
2	0xbdb2508d	-0.0870677
3	0x3d9b5f4c	0.07586536
4	0xbada6093	-0.0016660861
5	0x3dd1ddbe	0.10247372
6	0xbddf1d67	-0.1089428
7	0xbd9eeccf	-0.077600114
8	0xbc939ce6	-0.018019151
9	0x3c83c0ba	0.01608311

conv3.weight f4 [20, 10, 3, 3]
0	0xbd2af51a	-0.041737653
1	0x3d0ebf0e	0.034850173
2	0x3ccb3191	0.024803909
3	0x3e023b39	0.12717904
4	0x3e3823ec	0.17982453
5	0x3dc8f379	0.09812064
6	0x3e1eb53c	0.15498823
7	0x3d8ebcf6	0.06969635
8	0x3e08474d	0.13308449
9	0xbd3b7c95	-0.045773108
10	0x3e197eac	0.14989728
11	0x3dae30e0	0.08505416
12	0x3ddfeabb	0.10933443
13	0x3e32363e	0.17403504
14	0x3df8b14b	0.12143191
15	0x3c4b2214	0.012398262
16	0x3e3ab28e	0.18232176
17	0x3d1031a2	0.035203584
18	0xbd659203	-0.05604745
19	0xbbc8aa42	-0.006123812
20	0xbd689c26	-0.05678954
21	0xbc2e0127	-0.010620392
22	0x3d624443	0.05524088
23	0xbc1e6ef2	-0.009670006
24	0x3d5f099a	0.054452516
25	0x3e15b40e	0.14619467
26	0x3d2983ca	0.04138545
27	0xbd993a25	-0.07481793
28	0xbcfd8892	-0.03094891
29	0xbdbcbaf8	-0.09215349
30	0x3d8319a1	0.06401373
31	0x3cbde76c	0.02318164
32	0x3de70368	0.112799466
33	0x3e282d88	0.16423619
34	0x3e4fc1af	0.20288728
35	0x3e32f45d	0.1747603
36	0x3d4c2ca2	0.049847253
37	0x3e17a11a	0.14807549
38	0x3c87fc80	0.016599894
39	0x3e32a83e	0.17446992
40	0x3de04f59	0.10952634
41	0x3d8e394f	0.069445245
42	0x3db60db4	0.088893324
43	0x3e401249	0.18756975
44	0x3e2b2e12	0.16716793
45	0x3d984fe4	0.07437113
46	0x3ccc49b0	0.02493748
47	0xbd4a1bd6	-0.049342953
48	0x3c74be60	0.014937967
49	0x3dbf8fbf	0.09353589
50	0x3dc5a3f4	0.09650412
51	0x3d162c1c	0.03666316
52	0x3d9ceac7	0.07661968
53	0xbd5307d7	-0.05152115
54	0x3ddd6a3b	0.108112775
55	0x3d687722	0.05675424
56	0x3e42da37	0.19028555
57	0x3c30ddcd	0.010795069
58	0x3de972ba	0.113988355
59	0x3e26be58	0.16283548
60	0x3e871b3a	0.2638796
61	0x3e94ed95	0.2908751
62	0x3e7c16ce	0.24618074
63	0x3d7c66b7	0.061621394
64	0x3c8250a3	0.015907591
65	0x3b1f8751	0.002434213
66	0xbd2be7b7	-0.041969027
67	0x3d819325	0.06326894
68	0x3e51cf1c	0.20489162
69	0x3e0f8f51	0.14019515
70	0x3da5fa6c	0.08104405
71	0x3d50dd57	0.050992336
72	0x3bac4275	0.0052569457
73	0x3d87ec0f	0.066368215
74	0x3e12a54d	0.1432087
75	0x3e2ee012	0.17077664
76	0x3d748187	0.05969384
77	0x3e431e6a	0.19054571
78	0x3b32db54	0.0027291374
79	0x3d2f0778	0.042731732
80	0x3e4aa84c	0.19790763
81	0x3d86c7d3	0.06581082
82	0x3cfeb6f3	0.031093096
83	0x3dc6fdfa	0.09716411
84	0x3ca35a87	0.019940628
85	0x3e14e86e	0.1454179
86	0x3c94a616	0.018145602
87	0xbcafd1d0	-0.021462351
88	0x3e106688	0.14101613
89	0x3e226550	0.1585896
90	0xbdb64e0c	-0.08901605
91	0x3d6a194e	0.05715304
92	0x3d55cff6	0.05220028
93	0xbdaf0747	-0.0854631
94	0xbdc5b047	-0.09652763
95	0x3d6aafba	0.057296492
96	0x3c6ec588	0.014573462
97	0x3dc4fa30	0.09618032
98	0xbdae6134	-0.08514634
99	0x3d92a979	0.071612306
100	0xbd1cb50b	-0.038258594
101	0xbd48b66a	-0.04900209
102	0xbd5d7872	-0.054069944
103	0x3daf9ed2	0.085752144
104	0xbcad0755	-0.02112166
105	0xbce0ec7b	-0.027456513
106	0x3e03557c	0.12825578
107	0x3c71cd59	0.014758431
108	0xbd2ab0d6	-0.04167255
109	0xbdaf1e55	-0.08550707
110	0xbdc77aeb	-0.097402416
111	0x3bb4b8e0	0.005515203
112	0x3ccd4d2d	0.025061214
113	0x3cc6665b	0.024218729
114	0x3d8c158d	0.06840048
115	0xbdae615d	-0.08514664
116	0xbd0dd8c6	-0.03463056
117	0x3dc19676	0.09452526
118	0x3d8432aa	0.06454976
119	0x3cd925fc	0.02650737
120	0x3ada646b	0.0016662007
121	0x3d8aa469	0.0676964
122	0x3de379f4	0.11107245
123	0x3e4e3872	0.2013872
124	0x3e4004c8	0.18751824
125	0x3d57cd02	0.052685745
126	0xbc9ab36f	-0.018884389
127	0x3d94ee18	0.07271975
128	0xbd67cd3e	-0.05659222
129	0xbc9888c7	-0.018619908
130	0xbd08edf9	-0.033430073
131	0x3dc678c4	0.09691003
132	0x3d9309a7	0.071795754
133	0x3ce5321a	0.027977992
134	0x3e043395	0.12910302
135	0xbcc92936	-0.024555784
136	0xbd087427	-0.033313897
137	0x3c929fc3	0.017898446
138	0x3ccb7317	0.024835153
139	0x3df19247	0.11795478
140	0x3db30062	0.087403074
141	0x3db0f79a	0.08640976
142	0xba86b2d4	-0.0010276684
143	0x3d84fc6b	0.064934574
144	0xbb12a970	-0.0022378825
145	0x3d4c8520	0.049931645
146	0x3c05a71a	0.008157516
147	0xbc19d719	-0.009389662
148	0x3bf0be4e	0.007346905
149	0x3c9d8a95	0.01923112
150	0xbd1eb9e5	-0.0387515
151	0x3d31579c	0.04329644
152	0x3ddc7865	0.10765151
153	0xbcb25c0e	-0.02177241
154	0x3dbacff8	0.09121698
155	0xbd9d925e	-0.07693933
156	0x3d95969a	0.073041156
157	0x3defffcb	0.117187105
158	0xbc47eac2	-0.012201967
159	0x3e0ad871	0.13559128
160	0x3e1675bc	0.1469335
161	0x3e203283	0.15644269
162	0xbdebd6f3	-0.11515608
163	0xbd6e4a32	-0.058176227
164	0xbd9fc70e	-0.078016385
165	0x3c78eccd	0.015193176
166	0xbbd9d614	-0.0066478346
167	0xbdadddc1	-0.08489562
168	0x3dcf47f1	0.101211436
169	0xbd4e1961	-0.050317172
170	0xbd624736	-0.055243693
171	0xbd9a9299	-0.075474925
172	0xbc394716	-0.011308452
173	0x3d78b89f	0.060722943
174	0xbc433952	-0.011915522
175	0x3c0f4fa4	0.008747015
176	0xbd921497	-0.071328335
177	0xbd5f1578	-0.054463834
178	0x3d695f64	0.056975737
179	0xbc84cfff	-0.016212462
180	0xbd48fc50	-0.04906875
181	0x3d8dc51d	0.06922362
182	0xbcf95d03	-0.03043986
183	0xbdac2baa	-0.08406766
184	0xbdc50bea	-0.09621413
185	0xbcadf586	-0.021235239
186	0x3d861c40	0.06548357
187	0x3d87a4f7	0.066232614
188	0x3c6cd08b	0.014454017
189	0xbd3603d8	-0.04443726
190	0x3d80d7c0	0.06291151
191	0xbd45e201	-0.048311237
192	0xbc1ffcf1	-0.009764896
193	0x3e03a514	0.12855941
194	0x3e07ff71	0.13281037
195	0x3e026a6c	0.12735909
196	0xbaaf59de	-0.0013378223
197	0x3c7802ca	0.015137384
198	0x3da0c5b3	0.07850208
199	0x3df0d30a	0.117590025
200	0x3d93f5ef	0.072246425
201	0xbbc968f6	-0.0061465455
202	0x3d9846ae	0.07435356
203	0x3cbe8771	0.023257943
204	0x3dbc42a4	0.09192398
205	0x3d05f3f4	0.032703355
206	0x3d025a1b	0.031824213
207	0xbcb2747a	-0.021784056
208	0x3e1cb9c7	0.15305243
209	0x3d8ccaf4	0.06874648
210	0xbd0dc9d4	-0.034616306
211	0xbd32d034	-0.04365559
212	0x3d3cb4cb	0.046070855
213	0x3cb6e89d	0.022327716
214	0x3d398aac	0.045298263
215	0x3d8251c8	0.06363255
216	0x3d970638	0.07374233
217	0x3dd117ff	0.10209655
218	0x3d9895aa	0.07450421
219	0x3e1fe809	0.15615858
220	0x3d0b5104	0.03401281
221	0xbc8eda03	-0.01743794
222	0x3dbd494a	0.092424944
223	0x3d024508	0.031804115
224	0x3ddf60ef	0.109071605
225	0x3d97a2d2	0.074041024
226	0xbce6f6fa	-0.02819394
227	0xbda78d8e	-0.08181296
228	0xbdb56b43	-0.08858349
229	0xbd8fc925	-0.07020787
230	0x3ca56985	0.020191917
231	0x3c752f83	0.014964941
232	0xbdc012f8	-0.09378618
233	0xbd83ed4f	-0.064417474
234	0x3d90cd84	0.07070449
235	0x3de79bdb	0.11309024
236	0x3e44863a	0.19191828
237	0x3de65bd7	0.11247986
238	0x3e3c6352	0.18397263
239	0x3df54b9d	0.11977313
240	0x3d663293	0.056200575
241	0x3bf4744a	0.007460152
242	0x3e313696	0.17305979
243	0x3da619b3	0.081103705
244	0x3d7bdeb3	0.06149168
245	0xbba466b9	-0.0050171283
246	0x3def5a7d	0.11687181
247	0xbcf50060	-0.029907405
248	0x3d8e0b99	0.06935806
249	0xbd7284dd	-0.05920874
250	0x3e110476	0.14161858
251	0xbd4ac68b	-0.04950575
252	0xbd838329	-0.06421501
253	0xbdc2270c	-0.09480104
254	0x3cb326e8	0.021869138
255	0xbd37a19d	-0.04483186

conv3.bias f4 [20]
0	0xbd6cddc9	-0.0578287
1	0x3d970f1a	0.07375927
2	0x3da1d0b9	0.07901139
3	0x3ce38ca3	0.027777022
4	0x3de7ebc3	0.11324265
5	0xbe1934bc	-0.14961523
6	0x3e3c88b3	0.18411522
7	0xbdf0299c	-0.11726686
8	0xbd4ef214	-0.050523832
9	0x3d29c7de	0.041450374
10	0x3dfd3d6d	0.12365232
11	0xbc966d56	-0.018362682
12	0xbe0cbc3e	-0.13743684
13	0x3e0b113b	0.13580792
14	0xbc267a5e	-0.010161011
15	0xbdacbe8a	-0.0843478
16	0xbe24e49a	-0.1610283
17	0x3cc2220d	0.023697877
18	0xbda9ecb6	-0.08297102
19	0x3d6388c4	0.05555035

conv4.weight f4 [25, 20, 3, 3]
0	0xbd4d169d	-0.050070394
1	0xbd7f2b77	-0.06229731
2	0xbca12bb6	-0.019674163
3	0xbd37ffbb	-0.044921618
4	0x3d983896	0.07432668
5	0xbc84da2e	-0.016217317
6	0x3d93bb31	0.07213438
7	0x3d95b072	0.07309045
8	0x3d4107d7	0.047126617
9	0x3d4012d7	0.046892967
10	0xbd312d31	-0.04325599
11	0xbce4f7dc	-0.02795022
12	0xbbba40ce	-0.005683995
13	0x3b5b38ed	0.0033450678
14	0xbca56700	-0.020190716
15	0xbc0d48c1	-0.008623303
16	0xbd0435a5	-0.032277722
17	0x3c0f0cca	0.0087310765
18	0xbd86c194	-0.06579891
19	0xbb8652cd	-0.004099226
20	0xbce07178	-0.027397856
21	0xbd9e89ff	-0.077411644
22	0xbcfc6e2c	-0.030814253
23	0x3d15df6b	0.03659002
24	0xbd9f53c9	-0.077796526
25	0x3b6158df	0.0034385247
26	0xbc8ce07a	-0.017196883
27	0xbcacd1a3	-0.021096056
28	0xbc9a94f3	-0.018869853
29	0xbccc78f2	-0.024960015
30	0x3cc729ad	0.024311865
31	0x3d1fbadd	0.038996566
32	0xbca94cda	-0.020666528
33	0x3d014313	0.031558108
34	0x3d25689d	0.04038297
35	0x3cbc9f2d	0.02302512
36	0xbdd6b226	-0.10483198
37	0xbb4674b8	-0.0030281972
38	0xbd233889	-0.039848838
39	0xbd1d9923	-0.03847612
40	0xbdc32df5	-0.0953025
41	0xbd41f490	-0.047352374
42	0xbb57f108	-0.0032950062
43	0xbdb12a67	-0.08650666
44	0x3c96953b	0.018381706
45	0xbd637558	-0.05553183
46	0xbd72c510	-0.059269965
47	0xbd8b21c6	-0.06793551
48	0xbd073e0e	-0.033018164
49	0xbd49071f	-0.049079057
50	0xbbb18e87	-0.005418602
51	0xbd578471	-0.05261654
52	0xbcbb7143	-0.022881156
53	0xbd641f32	-0.055693813
54	0xbd0f71a8	-0.0350205
55	0x3c48e541	0.01226169
56	0xbdb44ba7	-0.08803492
57	0xbcb6dd2e	-0.022322264
58	0x3d4fc442	0.050724275
59	0x3ce5a6f7	0.028033717
60	0xbd358a06	-0.044321083
61	0x3d54806a	0.051880278
62	0x3bef73aa	0.0073074894
63	0xbc98f22e	-0.018670168
64	0xbcbcb377	-0.023034794
65	0xbdb8e5f9	-0.09028239
66	0xbb372868	-0.0027947668
67	0xbd500a53	-0.050791096
68	0xbd7b0612	-0.061285086
69	0xbda51b67	-0.08061867
70	0xbc8cd05e	-0.017189201
71	0xbd4078fb	-0.046990376
72	0x3db553ac	0.0885385
73	0x3d1c0550	0.038091004
74	0x3d60b4cf	0.054859933
75	0x3d7a300b	0.061080974
76	0x3ca65016	0.02030186
77	0xbcbfed6c	-0.023428641
78	0x3d28386a	0.041069426
79	0x3d4d94b8	0.050190657
80	0x3d1b6a26	0.037943028
81	0x3ddd78a7	0.10814028
82	0xbbafdd8a	-0.0053669857
83	0x3d42eeda	0.047591068
84	0xbcd847d3	-0.026401436
85	0xbcd8d7f7	-0.026470168
86	0x3d90d974	0.07072726
87	0xbceaf49d	-0.028681094
88	0x3dca815e	0.09887956
89	0x3d1b52c5	0.037920732
90	0x3cdcaaf7	0.026936991
91	0x3d813d8c	0.06310567
92	0xbd9ff09c	-0.078095645
93	0xbd4971ed	-0.049180914
94	0xbcf6c3e2	-0.030122701
95	0xbc2e9e7a	-0.010657901
96	0x3d5fa1ab	0.054597538
97	0xbd7005fd	-0.05859946
98	0x3d2a1ea5	0.04153313
99	0x3c828f4e	0.015937474
100	0xbcb24fa0	-0.021766484
101	0x3a7d2d83	0.0009657966
102	0xbd63a351	-0.055575673
103	0x3d25634c	0.0403779
104	0xbbc226b8	-0.005925026
105	0xbc9d9281	-0.019234898
106	0xbc45a9da	-0.012064422
107	0x3b1feaa8	0.002440134
108	0x3d372fac	0.044723198
109	0x3c4eae7d	0.012614843
110	0xbd80c265	-0.06287078
111	0x3cd20dcc	0.025641344
112	0x3ce5f9fa	0.0280733
113	0xbcddca14	-0.027073897
114	0x3b4072a2	0.0029365201
115	0x3c553ab7	0.013014487
116	0xbc9a6311	-0.018846067
117	0x3d3d4f0b	0.04621796
118	0xbcc8d1e2	-0.024514142
119	0x3d10916e	0.035294943
120	0x3d9dc0f5	0.07702819
121	0x3cae2d89	0.021261947
122	0x3d569718	0.052390188
123	0xbc274bd0	-0.010210946
124	0x3da93051	0.08261169
125	0xbcb88658	-0.022524998
126	0x3d54ee32	0.051984973
127	0x3e04b7bf	0.12960719
128	0x3d3570e0	0.0442971
129	0x3dd4aa7f	0.10384082
130	0x3b59b843	0.00332214
131	0xbc391c0e	-0.011298193
132	0x3d9590ce	0.0730301
133	0x3dd844ac	0.10559973
134	0x3c8608c7	0.016361607
135	0x3d9e3b02	0.077260986
136	0x3ddaccd7	0.10683601
137	0xbcaaeb7c	-0.02086424
138	0x3dad7c8a	0.084710196
139	0x3d07a088	0.03311208
140	0x3d90075e	0.07032655
141	0xbccfc3d4	-0.025361933
142	0x3dafd7fd	0.08586118
143	0x3d751d60	0.059842467
144	0x3cdab093	0.026695525
145	0x3c45955d	0.012059537
146	0xbd75682b	-0.059913795
147	0xbdaa7ebe	-0.083249554
148	0xbd770fb3	-0.060317706
149	0xbd62df51	-0.055388752
150	0xbd9e2be6	-0.07723217
151	0x3c9762ab	0.018479666
152	0xbd889f4b	-0.06671008
153	0x3da443e9	0.08020765
154	0x3e18e06c	0.1492936
155	0x3cdf4ae1	0.027257385
156	0x3dee2626	0.1162837
157	0x3dea4e69	0.11440737
158	0x3d87f323	0.066381715
159	0x3e31164b	0.1729366
160	0x3b960942	0.0045787403
161	0x3b84dc0d	0.0040545524
162	0x3c0309ef	0.007997974
163	0x3d47f3ce	0.048816495
164	0x3d7791c8	0.060441762
165	0xbc8c369f	-0.01711589
166	0x3d094a27	0.033517983
167	0xbc1c5b8a	-0.009543309
168	0x3d6629c7	0.056192186
169	0xbcd7d40f	-0.026346235
170	0xbb324368	-0.0027200822
171	0xbcb3b4f2	-0.021936867
172	0x3cf7aa2b	0.03023251
173	0xbc900d57	-0.017584486
174	0x3d78d790	0.06075245
175	0x3c04c8d5	0.008104523
176	0x3d91a982	0.07112409
177	0x3d5c54ed	0.05379193
178	0xbcb52d4c	-0.022116326
179	0x3a8deb42	0.0010827559
180	0x3d2d50eb	0.042313498
181	0x3d050ab1	0.0324809
182	0x3dbd8fed	0.09255967
183	0xbc682ecd	-0.014171314
184	0xbd1918d2	-0.037377186
185	0xbd8186a5	-0.063245095
186	0x3c37bcb0	0.01121442
187	0x3c7d1b7f	0.01544845
188	0x3de76608	0.11298758
189	0x3defa155	0.117006935
190	0x3ceb2041	0.028701903
191	0xbdaba40f	-0.08380901
192	0x3cf51aab	0.029919943
193	0xbce58b58	-0.028020546
194	0xbca6c55f	-0.020357786
195	0x3e2fbd21	0.1716199
196	0x3da71b92	0.081595555
197	0x3dcac33f	0.099005215
198	0x3d06dd99	0.032926176
199	0xbc558f0c	-0.013034593
200	0xbbc8bb09	-0.006125812
201	0x3e0e68eb	0.1390721
202	0x3cd61dd4	0.02613727
203	0xbdead35e	-0.11466096
204	0x3d7e80e4	0.06213464
205	0x3d379782	0.044822223
206	0xb71c668b	-9.3222e-06
207	0x3dfdd8c2	0.12394859
208	0x3d5bd225	0.053667206
209	0x3cdb3bc5	0.026761899
210	0x3e00572a	0.1253325
211	0x3d9769dc	0.07393238
212	0xbdd6d7f1	-0.10490406
213	0x3d3dd2de	0.046343677
214	0xbd8d64b8	-0.06903976
215	0xbbd865ea	-0.006603946
216	0x3d9c9b26	0.0764678
217	0x3dde0740	0.108412266
218	0xbd04d3bf	-0.0324285
219	0xbbfb115d	-0.007661982
220	0xbd2b3b93	-0.04180486
221	0xbb01c1d7	-0.0019799375
222	0xbd277fba	-0.040893294
223	0x3dd5d8eb	0.104417644
224	0x3d0755c4	0.033040777
225	0x3d3f51f1	0.046709005
226	0x3da712c7	0.08157878
227	0xbd758da7	-0.059949543
228	0x3d484f33	0.048903655
229	0x3cb74a82	0.022374395
230	0x3d03565b	0.032064777
231	0x3a801c34	0.000977403
232	0xbcc872fd	-0.024468893
233	0x3d5dc823	0.054145943
234	0x3d570e19	0.05250368
235	0x3db8128c	0.089879125
236	0x3cdadd17	0.026716752
237	0xbbdc8ffa	-0.0067310305
238	0xbc0bbe94	-0.008529324
239	0xbbfad48e	-0.007654733
240	0xbc97d072	-0.018532012
241	0xbcf88cc8	-0.030340567
242	0x3dbb7142	0.091524616
243	0x3d92a6cb	0.071607195
244	0x3d2acb9e	0.04169809
245	0x3be81f65	0.0070838206
246	0x3d11661f	0.03549778
247	0xbc94513c	-0.018105142
248	0x3d2f5189	0.042802367
249	0x3df0ef6a	0.117644146
250	0xbccdd873	-0.025127625
251	0x3d1f8bfe	0.038951866
252	0x3d9ed9cb	0.077563845
253	0x3d7e4de0	0.062085986
254	0x3db15403	0.08658602
255	0x3dd52ac2	0.10408546

conv4.bias f4 [25]
0	0x3cb50119	0.02209525
1	0x3c3c3956	0.011488279
2	0xbd006ae8	-0.031351954
3	0x3d440a43	0.04786135
4	0x3e0a77eb	0.13522308
5	0x3d8c40df	0.06848311
6	0xbe32461d	-0.17409559
7	0xbd1018f4	-0.035180047
8	0x3d76b77c	0.060233578
9	0xbd8c54f4	-0.06852141
10	0x3e47f560	0.19527197
11	0x3d3c2e36	0.045942508
12	0x3d355357	0.044268932
13	0xbc882587	-0.016619457
14	0x3dbfe704	0.093702346
15	0xbdff4246	-0.124638125
16	0xbd8a9b84	-0.067679435
17	0xbdf929bd	-0.12166164
18	0x3e084752	0.13308457
19	0xbd9e8ed7	-0.07742088
20	0xbe02ad82	-0.127615
21	0x3c774986	0.015093213
22	0xbc9fb970	-0.019497603
23	0x3c8de6c2	0.017321948
24	0xbd8c4f33	-0.068510436

conv5.weight f4 [16, 25, 3, 3]
0	0xbcc372c3	-0.023858434
1	0x3db294e3	0.08719804
2	0xbbc879e5	-0.0061180466
3	0x3d392be8	0.045207888
4	0x3d24676c	0.040137693
5	0x3cf8bd69	0.030363755
6	0x3b669bbc	0.003518804
7	0xbca19304	-0.019723423
8	0xbc4c54a7	-0.012471355
9	0xbd39a84c	-0.045326516
10	0x3ce2d142	0.027687673
11	0x3d4f8141	0.050660376
12	0x3ce02751	0.027362498
13	0xbceca030	-0.028884977
14	0x3d2ba231	0.041902725
15	0x3b3f38e5	0.00291782
16	0x3c36b392	0.011151211
17	0xbd33b7a0	-0.04387629
18	0x2a341478	1.5994313e-13
19	0xbb5bace5	-0.0033519801
20	0xbc48bd4c	-0.012252163
21	0xb9381b21	-0.00017557714
22	0xbc7f8c4a	-0.015597412
23	0x3af52e11	0.0018705745
24	0xb94d1778	-0.00019559066
25	0x389935e0	7.3056435e-05
26	0xb76891be	-1.3862211e-05
27	0xbc5d26f2	-0.013498055
28	0xbd80d9a4	-0.06291512
29	0x3b2450b9	0.0025072529
30	0xbd823591	-0.06357873
31	0xbcd35434	-0.025796987
32	0x3d337fd0	0.043823063
33	0xbade0692	-0.0016939214
34	0xbd22b538	-0.039723605
35	0x3c8485e1	0.01617712
36	0xbca91a78	-0.020642504
37	0x3da92a28	0.08259994
38	0xbd34f0d6	-0.04417499
39	0xbbffc12e	-0.0078050112
40	0x3dce2ea7	0.10067492
41	0x3b5de023	0.003385552
42	0x3b4093bc	0.0029384932
43	0xbc04ca13	-0.008104819
44	0xbd35fe67	-0.04443207
45	0x3c873c52	0.016508255
46	0xbd67d880	-0.056602955
47	0xbd199753	-0.03749783
48	0xbd415f12	-0.047209807
49	0x3d45c665	0.048284907
50	0x3d7d34e5	0.061818022
51	0xbc05619e	-0.0081409495
52	0xbcdbc463	-0.026827043
53	0x3cd87ec4	0.026427634
54	0x3d2f7242	0.042833574
55	0xbd8741ae	-0.06604324
56	0xbc90778d	-0.017635131
57	0xbcd23284	-0.025658853
58	0xbcc5a206	-0.02412511
59	0x3c3b6e2b	0.01143984
60	0x3bd698a7	0.0065489593
61	0xbd185614	-0.037191465
62	0xbce4690a	-0.027882118
63	0x3d248bbf	0.040172335
64	0xbda3c4f3	-0.079965495
65	0xbdbb2f18	-0.09139842
66	0x3d0acc41	0.033886198
67	0x3c7cc307	0.0154273575
68	0xbbc4e333	-0.0060085296
69	0x3a76b085	0.0009410459
70	0xbcc3a677	-0.023883088
71	0xbd5747ff	-0.052558895
72	0x280099f7	7.138813e-15
73	0x3b6118cb	0.0034347053
74	0xbc0e34a1	-0.00867954
75	0x3a2e8e01	0.00066587335
76	0x3b49bee1	0.0030783939
77	0x3c0b6f42	0.008510413
78	0x3b41ae05	0.0029553187
79	0x3b4b9be3	0.0031068258
80	0xb8d86f1c	-0.00010320378
81	0x3d6f63f5	0.058444936
82	0x3db9839b	0.09058305
83	0x3d83c76c	0.06434521
84	0xbc025a44	-0.007956091
85	0xbc88d885	-0.016704807
86	0x3d86c78d	0.0658103
87	0x3b4c4203	0.0031167276
88	0xbd0f18bf	-0.03493571
89	0xbca613ff	-0.020273207
90	0xbbc7d50b	-0.0060983947
91	0x3d88da6d	0.066822864
92	0x3d853cc4	0.06505731
93	0xbd259a25	-0.040430207
94	0xbc94449d	-0.018099124
95	0xbd38644f	-0.045017537
96	0x3b8ebaa7	0.004355747
97	0xbce45214	-0.02787117
98	0xbd3c2b28	-0.045939595
99	0x3b26008a	0.002532991
100	0xbd0c5cf2	-0.034268327
101	0xbae9196f	-0.0017784069
102	0xbd0c1bfa	-0.034206368
103	0x3d733085	0.059372444
104	0xbd40707d	-0.046982277
105	0x3af6f663	0.001884174
106	0x3b8ea8a1	0.004353598
107	0xbbc1a721	-0.005909816
108	0xbc9e6016	-0.019332927
109	0xbd46f68f	-0.04857498
110	0x3cafdd0b	0.021467706
111	0x3b5983ce	0.0033190134
112	0x3c6c198c	0.014410388
113	0x3c963cda	0.018339563
114	0x3a208218	0.0006122901
115	0xbcb6a8d4	-0.0222973
116	0x3c8a2976	0.016865473
117	0x3cb1af6d	0.021690095
118	0xbcaddcbc	-0.021223418
119	0x3d8a8e7f	0.0676546
120	0xbbace4ab	-0.005276283
121	0x3becff1b	0.0072325594
122	0xbd29a99c	-0.041421518
123	0x3b367743	0.0027842082
124	0x3cc448a9	0.023960428
125	0xbd0e210e	-0.034699492
126	0xbd0ededa	-0.034880497
127	0xbd5f2df7	-0.054487195
128	0xbd93d366	-0.072180554
129	0xbce0aed2	-0.02742711
130	0xbd45bd46	-0.04827621
131	0xbd270271	-0.040773813
132	0x391eaaa2	0.0001513162
133	0x3cb40715	0.021976033
134	0xbcfc4624	-0.030795164
135	0xbc8046d3	-0.015658772
136	0xbd87bc30	-0.06627691
137	0xbd37f0b8	-0.0449073
138	0xbc8afa17	-0.016964955
139	0x3d0e36d2	0.03472025
140	0xbd92f3c5	-0.071754016
141	0x3affac61	0.0019506329
142	0xbbbb9f2a	-0.005725761
143	0xbc9bd088	-0.019020334
144	0x3c464f65	0.01210389
145	0x3cec8316	0.0288711
146	0xbb3b4735	-0.0028576378
147	0xbc371e9e	-0.011176733
148	0xbc3e83fb	-0.011628146
149	0xbc070560	-0.008241028
150	0x3b98162e	0.004641316
151	0x3bd7d251	0.006586351
152	0xbd0c94b0	-0.034321487
153	0x3cfe36ed	0.03103205
154	0x3d72c9b7	0.0592744
155	0x3d6217cc	0.055198476
156	0xbd17d140	-0.03706479
157	0x3ce17c5e	0.027525123
158	0xbcc5c750	-0.024142891
159	0x3b60713c	0.003424718
160	0xbb996a83	-0.0046818866
161	0xb937ebcd	-0.00017540083
162	0x3c6575b8	0.014005117
163	0x3c86751a	0.01641326
164	0xbd3ff769	-0.046866808
165	0x3b4a414e	0.0030861679
166	0xbc8f1e4d	-0.017470503
167	0x3bc1836b	0.005905559
168	0xb8fb471a	-0.000119818564
169	0xbb5ecae0	-0.0033995435
170	0xba44e782	-0.0007511304
171	0xbcec3a2d	-0.028836334
172	0x3d6c633c	0.057711825
173	0xbd4ff5a8	-0.050771385
174	0x3d1b2034	0.03787251
175	0x3d418138	0.047242373
176	0x3d850fe0	0.064971685
177	0xb80c8847	-3.350552e-05
178	0x3c311aaf	0.0108095845
179	0x3a8aeca9	0.0010599095
180	0xbd514178	-0.051087826
181	0xbc1e2558	-0.009652458
182	0x3dcc3c73	0.09972467
183	0x3c43ab44	0.011942688
184	0xbd94d3ce	-0.07266961
185	0x3cef06de	0.02917808
186	0x3b4c8030	0.0031204335
187	0xbc1fbd4e	-0.009749724
188	0xb8004e49	-3.0590487e-05
189	0xbd0861c7	-0.033296373
190	0x3d992610	0.07477963
191	0x3d14c9ce	0.03632527
192	0xbcbf8e1a	-0.023383189
193	0x3d298d37	0.04139444
194	0x3d7e899b	0.06214295
195	0xbbb0be71	-0.005393796
196	0xbd576aab	-0.05259196
197	0xbd59d524	-0.053181782
198	0x3d509902	0.05092717
199	0x3d54b923	0.051934373
200	0x3c0cb732	0.008588599
201	0xbd1dc7cd	-0.038520623
202	0x3d0aba6e	0.0338692
203	0xbc98d49a	-0.018656064
204	0xb9b91d8f	-0.00035307973
205	0xbca50f7b	-0.020148983
206	0x3c895de7	0.016768409
207	0xbcff5515	-0.0311685
208	0x3c10bbda	0.00883385
209	0xbdc45a8b	-0.09587582
210	0x3c314840	0.010820448
211	0x3d5ebc7b	0.054378968
212	0xbba4f29b	-0.0050338036
213	0xbab91196	-0.0014119621
214	0xbcce1b20	-0.025159419
215	0x3c93590e	0.0179868
216	0xba9ff5ef	-0.0012204031
217	0x3cf1cb08	0.029515758
218	0x3c023479	0.007947081
219	0x3d0d2c1b	0.03446589
220	0x3bc9026d	0.0061343224
221	0xbcacf67b	-0.021113625
222	0x3af6c4fc	0.0018827016
223	0xbba0e98d	-0.004910654
224	0x3aff4fb8	0.0019478714
225	0x3ce44d17	0.02786879
226	0x3bdab974	0.0066749398
227	0x3766bf63	1.3753629e-05
228	0x3daa1219	0.08304233
229	0xbb2b46c7	-0.0026134716
230	0xbbc647b6	-0.006051029
231	0x3d6f219c	0.05838166
232	0x3d43c543	0.047795545
233	0xbc021454	-0.007939417
234	0x3cafabe4	0.021444269
235	0x3d587867	0.0528492
236	0x3cf04002	0.029327396
237	0xbd3607d0	-0.044441044
238	0xbd821c8d	-0.06353102
239	0xbc2607e6	-0.010133719
240	0xbc97cb4a	-0.018529553
241	0x3d723a22	0.05913747
242	0xbd36c469	-0.044620905
243	0xb8b6424b	-8.690784e-05
244	0xb9f4e153	-0.00046707186
245	0x32d096b5	2.428292e-08
246	0x3c48fbc4	0.012267057
247	0x3c0060a7	0.007835544
248	0x3a49b775	0.0007694879
249	0x3beea1a4	0.0072824527
250	0x3ae5a381	0.0017520041
251	0x393efa9e	0.00018213174
252	0x3d19a5ce	0.03751164
253	0xbd5293df	-0.051410552
254	0x3bd7ac63	0.0065818294
255	0xbda640d2	-0.08117832

conv5.bias f4 [16]
0	0xbbc17085	-0.005903306
1	0x3d36610d	0.04452615
2	0xbd10dc8e	-0.035366587
3	0xbd6e1772	-0.058127828
4	0x3da57238	0.08078426
5	0x3d84003c	0.06445357
6	0xbb8e3061	-0.0043392633
7	0xbdba289c	-0.09089777
8	0xbc4310f6	-0.011905899
9	0xbd9c3e23	-0.07629039
10	0x3c04fb0d	0.008116496
11	0x3c1201bf	0.008911549
12	0xbd3a31dc	-0.045457706
13	0x3d85c057	0.065308265
14	0x3d983e6d	0.07433782
15	0x3e1ad489	0.15120138

classifier.1.weight f4 [10, 16]
0	0xbe86bb8d	-0.26314965
1	0x3cd0a9cf	0.025471596
2	0x3b4e7cca	0.0031507486
3	0xbe6868d8	-0.22696245
4	0x3e04aecf	0.12957309
5	0xbe25a6af	-0.16176866
6	0xbe148299	-0.14502944
7	0xbd331c8c	-0.043728396
8	0x3e307b13	0.17234449
9	0x3d9d1153	0.0766932
10	0x3e95ebf5	0.29281583
11	0xbdf9cbb0	-0.121970534
12	0xbe179c4a	-0.14805713
13	0x3e0566a9	0.13027443
14	0xbcca42b4	-0.02469001
15	0x3e7569b5	0.23966105
16	0x3d7a9130	0.061173618
17	0xbe534596	-0.20632014
18	0xba71de81	-0.0009226576
19	0x3e680ff0	0.2266233
20	0xbe9a0103	-0.30078897
21	0xbe191875	-0.14950736
22	0x3be9fbf7	0.0071406323
23	0xbe0dd92e	-0.13852379
24	0x3d451e1c	0.048124418
25	0x3e801cd1	0.25021985
26	0x3eabf4e8	0.33585286
27	0xbd5c2c37	-0.053753104
28	0x3d7684b4	0.06018515
29	0xbd999593	-0.07499232
30	0xbe5ec70c	-0.21755618
31	0xbd0fcddb	-0.03510843
32	0x3e124b79	0.14286603
33	0x3e8c73f9	0.2743223
34	0xb89156d8	-6.930315e-05
35	0x3d936ddc	0.071986884
36	0x3d5b641e	0.053562276
37	0xbcc89d54	-0.024489082
38	0xbdacba40	-0.08433962
39	0xbe5ef160	-0.21771765
40	0x3e722b34	0.23649293
41	0xbc75cbb0	-0.015002176
42	0x3d91e861	0.07124401
43	0x3e3a232f	0.18177484
44	0xbdcef907	-0.10106092
45	0xbe73fc34	-0.23826677
46	0x3dcd47fb	0.10023495
47	0x3e5eca12	0.21756771
48	0x3da743f1	0.08167256
49	0x3d7f6d3e	0.06236004
50	0xbc5ce91e	-0.013483314
51	0x3cec40a8	0.028839424
52	0x3e5bbfe2	0.21459916
53	0xbe561728	-0.20907271
54	0xbd958e82	-0.07302572
55	0x3e2cb7ce	0.16866991
56	0xbeb5c390	-0.35500765
57	0x3e872b3f	0.26400182
58	0x3cf69b30	0.030103296
59	0xbe43ab3f	-0.19108294
60	0x3dcf85f0	0.101329684
61	0xbe7a6700	-0.24453354
62	0xbda4e153	-0.0805079
63	0xbd354085	-0.044250984
64	0x3e6efcf5	0.23338683
65	0xbdd50885	-0.104020156
66	0x30592bda	7.9006457e-10
67	0xbd2617b0	-0.040549934
68	0x3e3fd781	0.18734552
69	0xbd0aa4a3	-0.033848416
70	0x3e297af8	0.16550815
71	0xbb231f42	-0.0024890457
72	0x3e901211	0.28138784
73	0xbe75c68f	-0.24001525
74	0x3cc27291	0.02373627
75	0xbd3993b8	-0.04530689
76	0x3e5a4a4e	0.21317407
77	0xbd612c16	-0.054973684
78	0xbe6d1c2b	-0.23155276
79	0x3dde11de	0.10843252
80	0x3cc7780c	0.024349235
81	0xbe5dae0a	-0.21648422
82	0xbd833b35	-0.06407777
83	0x3daaa96b	0.08333095
84	0x3e85d298	0.26137233
85	0x3c936ca2	0.017996136
86	0xbe1c1ef6	-0.15246186
87	0xbe1d3f36	-0.15356144
88	0x3dae1e0e	0.08501826
89	0x3e06d448	0.13166916
90	0xbdadae6b	-0.08480533
91	0xbe4b13c2	-0.19831756
92	0xbe37aa7a	-0.17936125
93	0xbe4d966f	-0.20076917
94	0x3da1eae7	0.07906132
95	0xbe834661	-0.25639632
96	0x3e347ad4	0.1762498
97	0x3e830037	0.255861
98	0x3cfb5605	0.030680666
99	0x3e4d91c8	0.20075142
100	0xbd1c149e	-0.0381056
101	0xbe81069d	-0.25200358
102	0x3ccb999b	0.024853518
103	0x3e660fbd	0.22466941
104	0x3c995449	0.018716948
105	0x3dd536af	0.10410821
106	0x3cbdfd15	0.023191968
107	0x3d6786ff	0.056525227
108	0x3e504c2f	0.20341562
109	0xbe2fcf6e	-0.17168972
110	0xbe0f0791	-0.1396773
111	0xbdc8a781	-0.09797574
112	0x3c72d092	0.014820235
113	0xbe237a97	-0.15964733
114	0xba953238	-0.0011382764
115	0xbe598ec3	-0.21245866
116	0xbe3e20d6	-0.18567213
117	0xbe03bd90	-0.12865281
118	0xbe9c91e9	-0.3058007
119	0x3e8b6e98	0.27232814
120	0x3e634a29	0.22196259
121	0x3df313a2	0.11868979
122	0x3dddd2fb	0.10831257
123	0xbe654299	-0.22388686
124	0x3e48b670	0.19600844
125	0x3dfdecf2	0.12398709
126	0x3cddb2c1	0.027062776
127	0xbe4d30c9	-0.20038141
128	0xbe19e2b1	-0.15027882
129	0x3d9482b9	0.07251496
130	0xbc56c8b6	-0.013109377
131	0x3e4f7c5f	0.20262288
132	0xbd38a2c1	-0.04507709
133	0xbe48b032	-0.19598463
134	0x3d471dde	0.048612468
135	0xbe5b1441	-0.21394445
136	0xbe185c0c	-0.14878863
137	0xbdd9e42b	-0.10639223
138	0x3e87937a	0.26479703
139	0x3e879832	0.26483303
140	0xbdedff49	-0.116209574
141	0x3e232f6d	0.1593606
142	0x3e22055e	0.1582236
143	0x3ea2dc19	0.31808546
144	0xbe876643	-0.26445207
145	0xbe80fe67	-0.25194094
146	0xbb552bff	-0.0032527444
147	0x3e703501	0.2345772
148	0x3e3436fb	0.17599098
149	0xbe9bd4ed	-0.30435887
150	0x3e7314f9	0.23738469
151	0x3e3cfc9d	0.1845574
152	0x3e15c276	0.14624962
153	0xbdc43c09	-0.09581763
154	0x3e76a161	0.24084999
155	0xbd3569fe	-0.044290535
156	0xbdf33581	-0.118754394
157	0x3e37906b	0.17926185
158	0x3dd63635	0.10459558
159	0x3c96d67d	0.018412823

classifier.1.bias f4 [10]
0	0x3ddb4960	0.107073545
1	0xbe5ad7d0	-0.21371388
2	0x3e82c186	0.25538272
3	0xbd36da69	-0.044641886
4	0x3de9a037	0.11407512
5	0xba1b2a45	-0.00059190794
6	0x3e24e34d	0.16102333
7	0x3d7eb0eb	0.06218044
8	0x3dbc8aaa	0.092061356
9	0xbea23a99	-0.3168533
