Cifar/reek_weights_trial_80iter_final2/Times3.pt (torch, 47937 bytes, 12 tensors)

conv1.weight f4 [8, 3, 3, 3]
-0.18184565 -0.1006367 -0.23989743 -0.1560993 -0.14967257 0.069964975 -0.26836222 -0.14310038
-0.081134126 -0.10446889 -0.075675465 -0.25118917 -0.15102154 -0.13432294 -0.13813742 0.04251014
-0.25816786 -0.1854435 -0.2118352 -0.23121473 0.15150522 0.042603765 -0.039537378 -0.16541241
-0.20928195 -0.13768342 -0.19014482 -0.13074465 0.072123416 0.23882313 0.0018063092 0.046179976
0.25289142 -0.078014426 0.15382242 0.09358145 -0.1556524 0.04856398 -0.16069621 -0.14713795
-0.046529822 -0.1322216 -0.1482128 0.14368129 0.06079321 -0.2179661 -0.088764116 0.12993588
0.07660573 -0.062240727 0.11511858 -0.16155651 -0.1342657 -0.139528 0.0415527 -0.057420697
-0.12013314 0.0056533013 0.096008345 0.16533153 -0.13878997 -0.14745063 0.15855695 0.1400385
-0.06727032 0.13883178 -0.07597835 -0.08392427 0.20084451 -0.125255 0.0260493 0.20701443
0.109294735 -0.11272519 -0.14509323 -0.22153813 -0.1511798 0.03914153 0.03686326 -0.09127591
0.116999365 -0.19920653 -0.030264378 -0.22192045 -0.09828852 -0.19487324 -0.13888483 0.15747584
0.23177263 -0.11687803 -0.09188538 -0.22162722 0.041062865 -0.0473444 -0.09714678 -0.059412096
0.06335282 0.045864798 0.24588662 -0.17407751 0.025223894 -0.124128796 -0.06827679 -0.05291444
0.16106388 -0.112584785 0.22067334 0.0060175606 0.07503452 0.08457961 0.16795617 -0.14256868
-0.13969022 -0.14233911 -0.104060754 -0.023319347 0.00744834 -0.16595104 -0.043994952 -0.1706378
0.109358855 0.1211952 -0.13652098 -0.21327035 -0.1160287 -0.1631509 0.16479553 0.053940758
-0.07994546 -0.13356796 0.014629155 0.026437216 -0.05108826 -0.121330164 0.077879444 0.16182607
0.247596 0.26763093 -0.20017415 -0.16709717 -0.065406956 -0.089807674 -0.040540673 -0.16544437
0.14261752 -0.06918786 0.18238989 0.097320974 -0.03333656 -0.06607252 -0.067255005 -0.15949139
-0.09458402 0.15315284 -0.012915134 0.2620755 -0.04449309 -0.06294311 -0.07507838 0.05786181
-0.12905692 -0.12352101 -0.14706689 0.06596613 0.12553467 0.13136719 0.013563862 0.028732665
-0.15701875 -0.09439607 0.13000411 -0.14986992 -0.13633803 -0.03268561 -0.18510984 0.15703814
0.07792285 0.04862257 -0.0047679488 -0.15273853 -0.15326782 -0.2058231 -0.13327412 0.047764204
0.021000583 -0.19065519 -0.11086759 -0.17014755 -0.08226019 0.043183837 -0.13004799 0.024023868
0.10548351 -0.1994701 -0.096901864 0.05026379 -0.031481013 -0.12116164 0.05764928 -0.03249651
-0.21946913 0.15699525 0.11741688 -0.0079304455 0.14475015 -0.13943338 -0.13260677 -0.06525858
-0.042130686 -0.19572653 -0.075800225 -0.16277993 0.07587878 -0.12906577 0.02699822 0.1337437
00000000: bf35 3abe 9d1a cebd aca7 75be 7fd8 1fbe
00000010: c443 19be cc49 8f3d c666 89be e888 12be
00000020: a629 a6bd c9f3 d5bd bdfb 9abd de9b 80be
00000030: 64a5 1abe f48b 09be e573 0dbe 1d1f 2e3d
00000040: 942e 84be e7e4 3dbe 54eb 58be 8ec3 6cbe
00000050: 2f24 1b3e 4981 2e3d f2f1 21bd df61 29be
00000060: 024e 56be e2fc 0cbe 53b5 42be ede1 05be
00000070: 71b5 933d 0d8e 743e aec1 ec3a 3727 3d3d
00000080: fc7a 813e 07c6 9fbd a083 1d3e a2a7 bf3d
00000090: 5863 1fbe 06eb 463d 8c8d 24be 55ab 16be
000000a0: 0e96 3ebd 1965 07be 19c5 17be 3021 133e
000000b0: 4d02 793d 8132 5fbe f6c9 b5bd e90d 053e
000000c0: 77e3 9c3d 22f0 7ebd 4ac3 eb3d 126f 25be
000000d0: f37c 09be 6ee0 0ebe 2a33 2a3d f731 6bbd
000000e0: 5d08 f6bd 543f b93b 06a0 c43d ab4c 293e
000000f0: f51e 0ebe 4cfd 16be c15c 223e 4166 0f3e
00000100: 06c5 89bd eb29 0e3e 8a9a 9bbd 7de0 abbd
00000110: 2faa 4d3e d942 00be 5765 d53c 97fb 533e
00000120: ebd5 df3d 77dc e6bd 5293 14be e4da 62be
00000130: e1ce 1abe de52 203d eefd 163d ddee babd
00000140: 5d9d ef3d ccfc 4bbe 00ed f7bc 1d3f 63be
00000150: 7e4b c9bd da8c 47be d337 0ebe 5941 213e
00000160: ce55 6d3e c05d efbd 672e bcbd 3ff2 62be
00000170: 8931 283d 34ec 41bd e4f4 c6bd 195a 73bd
00000180: 20bf 813d badc 3b3d b4c9 7b3e 6041 32be
00000190: 57a2 ce3c 3d37 febd b4d4 8bbd d0bc 58bd
000001a0: eeed 243e da92 e6bd 31f8 613e f52e c53b
000001b0: b3ab 993d 1338 ad3d b4fc 2b3e 86fd 11be
000001c0: f40a 0fbe 58c1 11be ce1d d5bd 3708 bfbc
000001d0: 3411 f43b 12ef 29be 0d34 34bd adbb 2ebe
000001e0: 89f7 df3d 3035 f83d 28cc 0bbe 8b63 5abe
000001f0: 74a0 edbd 0811 27be 29c0 283e fcf0 5c3d
00000200: 72ba a3bd 0ac6 08be 20af 6f3c dc92 d83c
00000210: ec41 51bd f37b f8bd 427f 9f3d bcb5 253e
00000220: ce89 7d3e ec06 893e 74fa 4cbe 851b 2bbe
00000230: 15f4 85bd 16ed b7bd fa0d 26bd 406a 29be
00000240: 540a 123e 5db2 8dbd 6ac4 3a3e 3850 c73d
00000250: eb8b 08bd 0851 87bd febc 89bd b651 23be
00000260: 44b5 c1bd 19d4 1c3e 009a 53bc c32e 863e
00000270: 633e 36bd 51e8 80bd b2c2 99bd 8100 6d3d
00000280: 7f27 04be 95f8 fcbd b498 16be 4019 873d
00000290: 298c 003e 1f85 063e f63a 5e3c c460 eb3c
000002a0: 86c9 20be ba52 c1bd cc1f 053e 8077 19be
000002b0: 329c 0bbe 59e1 05bd 6f8d 3dbe 9bce 203e
000002c0: 0496 9f3d 7628 473d 743c 9cbb 7d67 1cbe
000002d0: 3df2 1cbe 4ac3 52be 0379 08be 66a4 433d
000002e0: 6a09 ac3c 1d3b 43be 8c0e e3bd 293b 2ebe
000002f0: 0878 a8bd 89e1 303d 4d2b 05be b4cd c43c
00000300: bd07 d83d e441 4cbe 7c74 c6bd 67e1 4d3d
00000310: 3cf2 00bd 9823 f8bd a721 6c3d 0f1b 05bd
00000320: 84bc 60be 5dc3 203e 4378 f03d b3ee 01bc
00000330: 6239 143e a0c7 0ebe 12ca 07be 4aa6 85bd
00000340: 3a91 2cbd 896c 48be 263d 9bbd c8af 26be
00000350: 5566 9b3d d129 04be 5f2b dd3c 1cf4 083e

conv1.bias f4 [8]
0.15998477 -0.06557398 0.13738783 0.08535088 -0.164149 0.06676638 0.030184895 0.19529231
00000000: 0cd3 233e a74b 86bd 65af 0c3e 71cc ae3d
00000010: ad16 28be d0bc 883d 5046 f73c b5fa 473e

conv2.weight f4 [10, 8, 3, 3]
0.072526306 -0.01518141 -0.05677117 0.051335394 0.15927368 -0.047321044 0.055771254 0.102719136
0.05598477 -0.013741667 0.01053525 -0.0754019 0.083212 0.1529215 -0.07900366 -0.014439424
-0.030225849 0.052890033 0.1954024 0.18291566 0.09240851 -0.021054935 0.20181307 0.20829402
0.04946655 0.14152196 0.08894351 0.12064349 0.022743143 -0.07402097 0.08131458 0.16349351
0.11982938 0.105992354 0.15172565 0.028808156 0.093522236 0.1261061 -0.11355228 0.12849694
0.025540436 0.030460235 0.043519296 -0.019276578 -0.08787849 0.10726153 -0.05844878 -0.023439793
0.061782815 0.02605153 0.12487219 0.06625553 -0.025515223 0.14295681 0.08072052 0.035076678
-0.024760634 -0.017313724 0.02216403 0.109866396 -0.0080113895 0.025804128 0.107323274 0.08320767
0.03185633 0.11112303 0.1719941 0.06217993 -0.03230471 0.042622883 -0.016990809 0.1448924
-0.082499504 -0.115335956 -0.051888935 0.046878256 0.040483996 -0.0524405 -0.027796816 0.04138331
0.09024751 0.10412412 0.17630705 0.18324932 0.17471127 0.08205026 0.10856987 0.11714659
0.17795582 0.1907822 0.19149502 0.20387684 0.19407164 0.06839552 0.2080553 0.031123536
0.16640726 0.08787191 0.07587033 0.04375138 0.016785035 -0.09304677 0.051872235 0.08227171
0.050738852 0.088796616 0.1678675 0.15608874 -0.030721467 -0.012713904 0.0889965 0.07888106
0.10557608 -0.013397699 0.08011368 0.17450428 0.07915365 0.05607416 0.1159103 0.10161889
-0.012796486 0.1803478 0.018192707 0.1328401 0.1967992 0.17582896 0.09573685 0.041031193
0.15182464 0.10772571 -0.033266887 0.007946309 -0.022854462 0.13636039 0.1362515 -0.07016587
0.09270953 0.13119353 -0.03768382 0.16311434 0.061822847 0.16641039 0.10290304 0.15055956
-0.051843822 -0.10679108 -0.11173544 -0.0769942 0.10651837 -0.04815077 -0.015964052 -0.071368955
-0.05772537 -0.087118335 -0.10124699 -0.16149345 -0.14688578 -0.098746076 0.03825298 0.019199498
-0.055083275 0.054495707 -0.0952736 -0.027048653 -0.00321539 -0.055084605 -0.12998113 0.024694785
0.030478863 -0.041025426 -0.123020716 0.095137805 -0.05027472 0.15010773 0.08182853 0.115853496
-0.05909892 0.10370843 -0.044441614 0.1085373 0.060409 0.09038381 -0.08119639 -0.025156721
0.0015550667 0.025225667 0.093410954 -0.057120338 -0.04063469 0.008866226 0.08818444 0.024421396
0.11818301 0.05091778 0.18070477 0.07079363 -0.037535276 -0.07597771 -0.08132101 -0.14164865
-0.052315157 -0.1327284 -0.16076842 -0.056588367 0.09564612 0.052068345 -0.04710366 -0.032135107
-0.08508105 0.052147415 0.022478461 0.06662571 -0.033554275 -0.07422989 0.08457391 0.10053492
-0.029109363 -0.024630038 0.031046564 -0.050721224 0.0015241597 -0.008452179 -0.0072830063 -0.024841307
0.041770987 -0.15189682 0.047757026 -0.03911024 -0.102171466 -0.024050113 0.07830666 -0.09603547
-0.017042516 0.086661726 0.1721609 -0.012007256 0.08004329 0.019616282 0.14841953 0.19118688
0.08592314 0.144631 0.11012411 -0.04577177 -0.05696978 0.121413074 -0.08180773 0.009889573
0.07832921 -0.023278834 0.055613507 0.1551284 -0.0676127 0.1051393 0.04537986 0.038741376
00000000: ac88 943d 73bb 78bc e388 68bd 1045 523d
00000010: a418 233e b6d3 41bd 6670 643d 695e d23d
00000020: 4950 653d bb24 61bc 0b9c 2c3c 506c 9abd
00000030: 0e6b aa3d 7497 1c3e accc a1bd 5593 6cbc
00000040: 339c f7bc 38a3 583d 9117 483e 3e4e 3b3e
00000050: ac40 bd3d 667b acbc 16a8 4e3e 074b 553e
00000060: 709d 4a3d 22eb 103e 0428 b63d ef13 f73d
00000070: d44f ba3c 4e98 97bd 4288 a63d d86a 273e
00000080: 1b69 f53d 8512 d93d f85d 1b3e 15ff eb3c
00000090: 9688 bf3d f521 013e 198e e8bd b494 033e
000000a0: 2d3a d13c be87 f93c 4a41 323d eae9 9dbc
000000b0: a3f9 b3bd efab db3d fd67 6fbd cf04 c0bc
000000c0: fa0f 7d3d 056a d53c febc ff3d fbb0 873d
000000d0: 4d05 d1bc 4563 123e cd50 a53d 90ac 0f3d
000000e0: d0d6 cabc 83d5 8dbc 5791 b53c a201 e13d
000000f0: 3442 03bc 2e63 d33c 4ecc db3d c868 aa3d
00000100: c87b 023d 7994 e33d 391f 303e 62b0 7e3d
00000110: f251 04bd 5595 2e3d 4f30 8bbc ac5e 143e
00000120: 80f5 a8bd 4235 ecbd 7e89 54bd 6a03 403d
00000130: 8cd2 253d dacb 56bd 26b6 e3bc 8c81 293d
00000140: b0d3 b83d 073f d53d d689 343e b6a5 3b3e
00000150: 83e7 323e f709 a83d e159 de3d 8dea ef3d
00000160: 0d3a 363e 695c 433e 4517 443e 17c5 503e
00000170: b7ba 463e f312 8c3d 730c 553e c9f6 fe3c
00000180: aa66 2a3e 30f6 b33d e761 9b3d a634 333d
00000190: c580 893c 4e8f bebd fb77 543d 127e a83d
000001a0: 8bd3 4f3d 00db b53d 75e5 2b3e bad5 1f3e
000001b0: 96ab fbbc fa4d 50bc cc43 b63d 658c a13d
000001c0: 4638 d83d 0682 5bbc a412 a43d 40b1 323e
000001d0: 4f1b a23d 05ae 653d 6162 ed3d 911d d03d
000001e0: 5aa8 51bc 18ad 383e df08 953c 3c07 083e
000001f0: bb85 493e 820c 343e ae11 c43d 5310 283d
00000200: eb77 1b3e 4c9f dc3d dc42 08bd 3c31 023c
00000210: 4839 bbbc 0fa2 0b3e 8385 0b3e 20b3 8fbd
00000220: 7ede bd3d 9957 063e 595a 1abd 7207 273e
00000230: f439 7d3d 7c67 2a3e d4be d23d 492c 1a3e
00000240: 305a 54bd 48b5 dabd 8dd5 e4bd 23af 9dbd
00000250: 4e26 da3d be39 45bd 0bc7 82bc e329 92bd
00000260: 7071 6cbd 196b b2bd 955a cfbd 8a5e 25be
00000270: 3a69 16be 623b cabd 28af 1c3d 4448 9d3c
00000280: 009f 61bd e436 5f3d ce1e c3bd 2395 ddbc
00000290: 4bb9 52bb 65a0 61bd c619 05be b84c ca3c
000002a0: cfae f93c 470a 28bd 49f2 fbbd 9cd7 c23d
000002b0: ddec 4dbd d7b5 193e b795 a73d 9944 ed3d
000002c0: b611 72bd 1665 d43d 6908 36bd ce48 de3d
000002d0: 6d6f 773d 261b b93d 4b4a a6bd 7815 cebc
000002e0: 61d3 cb3a 0fa6 ce3c 3e4e bf3d 04f7 69bd
000002f0: 9070 26bd a643 113c 0b9a b43d 610f c83c
00000300: ef09 f23d 298f 503d ac0a 393e 40fc 903d
00000310: 97be 19bd 349a 9bbd a18b a6bd 580c 11be
00000320: 6b48 56bd f4e9 07be 7aa0 24be 34c9 67bd
00000330: 1de2 c33d 9e45 553d c4ef 40bd 1aa0 03bd
00000340: f93e aebd 8798 553d c024 b83c 0f73 883d
00000350: 3570 09bd d705 98bd 1635 ad3d 41e5 cd3d
00000360: c276 eebc efc4 c9bc 5d55 fe3c 0fc1 4fbd
00000370: 50c6 c73a 027b 0abc 49a6 eebb ff7f cbbc
00000380: 0e18 2b3d d78a 1bbe df9c 433d 0f32 20bd
00000390: 463f d1bd be04 c5bc 3e5f a03d 3fae c4bd
000003a0: bf9c 8bbc b47b b13d f24a 303e 15ba 44bc
000003b0: bded a33d 53b2 a03c 4afb 173e 7ec6 433e
000003c0: 79f8 af3d 261a 143e c088 e13d 2e7b 3bbd
000003d0: 2559 69bd 6ba7 f83d d08a a7bd e007 223c
000003e0: 116b a03d 41b3 bebc fdca 633d fbd9 1e3e
000003f0: 8778 8abd 4653 d73d 3be0 393d 47af 1e3d

conv2.bias f4 [10]
-0.01184409 0.0052219583 0.08347633 0.06192033 0.13558191 -0.09305644 0.1511732 0.024387766
-0.010049539 0.11833483
00000000: b70d 42bc f61c ab3b a3f5 aa3d 2ca0 7d3d
00000010: fcd5 0a3e 6094 bebd 26cd 1a3e dac8 c73c
00000020: d2a6 24bc 8859 f23d

conv3.weight f4 [20, 10, 3, 3]
-0.04036584 -0.098281816 0.024188375 -0.031795587 0.0980096 -0.00044776997 -0.015039323 0.03358924
-0.12181178 0.08557483 0.115038104 -0.038198672 -0.050546303 0.08059616 0.030695267 0.026040448
0.014092582 -0.05339476 0.042439643 0.038976077 0.027209224 0.06621673 0.138034 0.16947381
0.11528786 0.005779993 0.05407807 -0.020092107 0.027357383 -0.07280466 0.032469023 -0.083218925
-0.14361744 -0.0666275 0.00498438 -0.058996145 0.13478675 0.03370257 0.061385497 -0.021593373
0.12468089 0.036789432 0.05901393 0.0038194056 -0.068329655 -0.009615655 0.08884968 0.074595
0.094878905 0.093001254 0.13665125 0.039619368 0.16016318 0.061858382 -0.073045164 -0.051523402
-0.0626775 0.081811115 0.072410986 0.064005055 -0.022995487 -0.09051653 -0.11354895 -0.016631648
-0.04491531 -0.014362926 0.12306345 -0.08941836 -0.047507454 -0.025214843 0.075769186 0.02994989
0.03654334 0.12660868 0.123527564 0.088048466 0.0011298507 0.10641241 0.11783759 0.10222864
0.0006824791 0.07304887 0.109533414 0.04888895 0.13589655 0.07952745 -0.09250444 0.04358001
0.10548161 -0.008011454 -0.07483751 -0.012968904 0.012795291 0.13093874 0.11959566 0.03557789
0.101858914 0.1090382 -0.0010235731 0.014851541 0.06955468 0.098241806 -0.05424706 -0.051875412
-0.052276 0.088153735 -0.06573289 -0.073100194 -0.025112461 0.006557517 0.02309769 -0.043535613
-0.0512946 0.00014669556 -0.073072836 -0.053011972 -0.10131225 0.09743062 0.105152346 0.021397457
0.11070599 0.08822607 0.07294662 -0.020128336 0.12599285 0.15513161 -0.088747196 -0.006903643
-0.01527596 0.06784235 -0.10957719 -0.10935727 -0.08602019 -0.09478115 -0.12646312 0.016085114
-0.05484167 0.02482466 -0.10984382 -0.14296666 -0.087719604 -0.14863129 -0.15871245 -0.13579176
0.001419947 0.07215532 0.122544914 0.1423212 0.091663994 -0.01259459 0.12584603 0.0121069
0.107173696 0.12178603 0.0941389 0.02256119 0.033258397 -0.0558117 -0.094111204 0.008205198
0.10511648 -0.07622763 -0.1298411 -0.03287451 -0.08241061 0.014125382 -0.14135863 -0.08723463
0.011828449 -0.11115691 -0.023854578 0.03295167 0.016440995 -0.070407495 -0.026190763 0.027066505
-0.013585143 -0.041763585 0.09685499 -0.014854758 -0.04868262 0.050670512 0.05640645 0.08332584
0.051994227 0.05804798 -0.06565307 0.06436577 -0.028928066 -0.017930327 -0.02580749 0.15346229
0.00093199866 0.036808535 0.15430443 0.064190626 0.07856612 0.1201354 0.041850835 -0.011048103
-0.018432833 -0.096606456 -0.11608857 -0.1626009 -0.079702094 -0.0431573 -0.01862648 0.006670992
0.053360015 -0.0015526918 0.0011364768 0.1492941 0.018853629 -0.027175585 0.100805424 -0.015798155
-0.13581705 -0.07184379 -0.0927461 -0.15226084 -0.021002896 -0.15580185 0.09782076 -0.084561236
-0.025166392 0.03387162 0.034648508 0.02025057 0.071962334 -0.03292868 -0.069923945 0.13155887
0.03376924 -0.004674595 0.06849022 0.072758436 0.10121139 0.010021632 0.011966195 -0.04196226
-0.10181647 0.0015835281 0.12206921 -0.057043888 -0.08884691 0.039955717 0.020035952 0.11242334
0.061239097 0.059300195 0.044746872 0.09611534 0.009276307 0.083824486 -0.05842249 -0.066120386
00000000: a756 25bd fa47 c9bd b326 c63c 173c 02bd
00000010: 42b9 c83d abc2 eab9 7e67 76bc df94 093d
00000020: 7478 f9bd db41 af3d 1999 eb3d 3676 1cbd
00000030: a409 4fbd 990f a53d a474 fb3c c752 d53c
00000040: 93e4 663c 77b4 5abd 31d5 2d3d 61a5 1f3d
00000050: e1e5 de3c a39c 873d c958 0d3e 8b8a 2d3e
00000060: 0b1c ec3d 1866 bd3b f780 5d3d 3498 a4bc
00000070: 971c e03c 9c1a 95bd 3dfe 043d af6e aabd
00000080: 7310 13be 0074 88bd 0354 a33b f1a5 71bd
00000090: 8a05 0a3e b50b 0a3d 5c6f 7b3d 96e4 b0bc
000000a0: b258 ff3d 84b0 163d 97b8 713d fe4e 7a3b
000000b0: 6bf0 8bbd fb8a 1dbc d2f6 b53d 43c5 983d
000000c0: df4f c23d 7177 be3d 4eee 0b3e eb47 223d
000000d0: d101 243e 375f 7d3d b498 95bd 340a 53bd
000000e0: 105d 80bd 968c a73d 364c 943d 1515 833d
000000f0: 0861 bcbc bb60 b9bd 5a8c e8bd 183f 88bc
00000100: 1ef9 37bd 7a52 6bbc b108 fc3d f920 b7bd
00000110: 2d97 42bd 5c8f cebc e02c 9b3d 7959 f53c
00000120: 78ae 153d b5a5 013e 05fc fc3d c152 b43d
00000130: 8017 943a c0ee d93d d654 f13d 405d d13d
00000140: 66e8 323a a59a 953d 0e53 e03d c83f 483d
00000150: 7728 0b3e 4adf a23d f872 bdbd f480 323d
00000160: be06 d83d 7942 03bc 6944 99bd 877b 54bc
00000170: 57a3 513c ce14 063e 92ee f43d 1fba 113d
00000180: 689b d03d 6b4f df3d 6a29 86ba e153 733c
00000190: af72 8e3d 0033 c93d 2a32 5ebd 507b 54bd
000001a0: 5c1f 56bd f289 b43d f79e 86bd 8eb5 95bd
000001b0: a6b8 cdbc 71e0 d63b 5e37 bd3c 6652 32bd
000001c0: 491a 52bd 4ad2 1939 36a7 95bd 1523 59bd
000001d0: cc7c cfbd b489 c73d 1d5a d73d b849 af3c
000001e0: d2b9 e23d dfaf b43d 0a65 953d 2ee4 a4bc
000001f0: 4504 013e d2da 1e3e 17c1 b5bd f437 e2bb
00000200: 0548 7abc eef0 8a3d 016a e0bd b4f6 dfbd
00000210: 5a2b b0bd 9f1c c2bd 8c7f 01be eec4 833c
00000220: a9a1 60bd 165d cb3c ccf5 e0bd da65 12be
00000230: 56a6 b3bd cd32 18be 8485 22be ff0c 0bbe
00000240: 841d ba3a 2bc6 933d d4f8 fa3d a6bc 113e
00000250: 55ba bb3d 8a59 4ebc c8dd 003e 055c 463c
00000260: e27d db3d f46a f93d e5cb c03d 3fd2 b83c
00000270: f539 083d cf9a 64bd 60bd c0bd 186f 063c
00000280: 4f47 d73d 3b1d 9cbd 11f5 04be 6ca7 06bd
00000290: e5c6 a8bd 256e 673c 51c0 10be 12a8 b2bd
000002a0: 1ccc 413c 3ca6 e3bd ad6a c3bc 55f8 063d
000002b0: 44af 863c ce31 90bd 038e d6bc 93ba dd3c
000002c0: 3894 5ebc 4b10 2bbd e95b c63d 5f61 73bc
000002d0: 6d67 47bd e28b 4f3d 730a 673d bda6 aa3d
000002e0: e6f7 543d b8c3 6d3d 1e75 86bd 33d2 833d
000002f0: 8dfa ecbc 9fe2 92bc 3b6a d3bc 3825 1d3e
00000300: 5f51 743a 8cc4 163d fb01 1e3e 6076 833d
00000310: 46e7 a03d 8c09 f63d c86b 2b3d 1a03 35bc
00000320: 7400 97bc 9bd9 c5bd d8bf edbd da80 26be
00000330: da3a a3bd b6c5 30bd 8f96 98bc 5698 da3b
00000340: 0890 5a3d b183 cbba d5f5 943a 8de0 183e
00000350: ed72 9a3c 559f debc 1373 ce3d 226b 81bc
00000360: a013 0bbe d622 93bd abf1 bdbd 44ea 1bbe
00000370: 440e acbc 858a 1fbe 4056 c83d 712e adbd
00000380: c029 cebc f8bc 0a3d 98eb 0d3d 86e4 a53c
00000390: fd60 933d 39e0 06bd 4934 8fbd 5eb7 063e
000003a0: 9d51 0a3d 582d 99bb 9a44 8c3d 6002 953d
000003b0: eb47 cf3d c531 243c dc0d 443c 9ee0 2bbd
000003c0: 2785 d0bd 638e cf3a 6cff f93d daa6 69bd
000003d0: 5ef5 b5bd 9ba8 233d 7022 a43c 353e e63d
000003e0: d9d5 7a3d c3e4 723d 7f48 373d 1fd8 c43d
000003f0: a7fb 173c 2cac ab3d 6c4c 6fbd 206a 87bd

conv3.bias f4 [20]
-0.04473122 0.10406899 0.005303567 -0.108072236 -0.052607052 -0.1384235 -0.015869545 0.18620355
-0.024101393 0.144173 0.10087217 0.0914062 0.008626277 -0.031498946 0.041943904 -0.06367494
-0.07862098 0.20946564 0.12800449 -0.06750371
00000000: 1538 37bd 1f22 d53d 8bc9 ad3b fa54 ddbd
00000010: 7e7a 57bd e4be 0dbe d900 82bc 25ac 3e3e
00000020: 4970 c5bc 16a2 133e 1196 ce3d 2c33 bb3d
00000030: 3a55 0d3c 0a05 01bd 5fcd 2b3d 0268 82bd
00000040: 0904 a1bd 297e 563e 9c13 033e 633f 8abd

conv4.weight f4 [25, 20, 3, 3]
0.00629699 -0.04823381 -0.02538524 -0.043490674 -0.028518122 -0.055199195 0.10750569 0.029371863
0.029582532 -0.01624008 0.029078726 -0.068034746 0.019117998 0.036799435 0.04107545 0.042313173
-0.035304125 -0.04110303 -0.018442066 0.045370884 -0.03466127 0.0715035 0.051568694 -0.0199415
0.016080871 0.006954158 0.034264382 -0.013248793 0.0026380648 -0.03406371 -0.04625325 0.007618359
0.04480961 -0.021435421 -0.0016808185 0.014795205 -0.02926901 0.0004921684 0.01217651 0.0229215
-0.00040926985 -0.045726426 0.050370783 -0.042488586 0.079137124 -0.08562088 -0.019579602 0.011982451
0.047294308 0.002467794 0.043534733 0.044377226 -0.027646212 -0.08247432 -0.0018403248 -0.037420224
-0.06437391 0.10596918 -0.02681496 0.046327695 -0.008408038 0.0042601335 -0.016597826 0.01555569
0.057435997 -0.025520943 0.10710805 0.012922021 0.071359284 0.014740486 0.07530222 0.0745053
-0.059415493 -0.11701157 -0.07645671 0.07094173 0.053171095 0.039359123 0.037105273 0.032755777
0.0486753 0.020665335 -0.09601373 0.00020542032 0.08609016 -0.0009950931 0.082654245 0.0262316
0.008886723 -0.02354462 0.00822024 -0.055173613 -0.060435895 -0.0025011967 0.055246584 0.079410866
0.034790047 0.06306009 0.017024083 0.007529192 -0.054001506 0.054628637 -0.006412183 0.004181383
0.062197827 -0.053172287 0.0023162405 0.006119132 -0.017630199 -0.018979356 0.035337232 0.03524087
-0.034655802 -0.023673916 0.06375822 -0.032951266 0.031707752 -0.04472036 0.001829656 -0.05095427
0.08623547 0.020638682 -0.034552887 0.0012968379 0.05828307 0.027942788 -0.1562357 -0.18074273
-0.10256707 -0.06995535 -0.08253502 -0.029831553 -0.035305794 0.030027907 -0.0722127 0.054691043
0.031616893 0.018740479 0.041101124 -0.007473784 0.014122538 0.07818348 -0.0016463213 -0.0013684403
0.09543624 -0.030247035 -0.042862184 0.123788744 -0.037848867 0.033390913 0.11334968 0.0683552
0.016562445 -0.026356123 0.048209883 0.020235075 -0.149164 0.024194406 0.032016564 -0.13555056
-0.117127106 -0.04628842 0.066329405 -0.022629011 -0.031043427 0.001869374 -0.07148928 -0.011173617
-0.09802456 -0.12197626 -0.021491101 -0.034672316 0.07939913 0.011276179 -0.009426248 0.043842714
-0.07679794 -0.03672621 0.028693095 -0.05722782 0.10079738 -0.018522281 0.015648913 0.06100135
-0.027137082 0.039310265 0.07266541 -0.015653167 0.020676902 0.029325003 0.07001157 0.050264746
0.0824142 -0.008462036 0.03805119 0.0781292 0.021603702 -0.09283828 -0.017761545 -0.02103415
0.013198291 -0.05122824 -0.031110374 -0.0008005087 -0.03621517 -0.050804373 -0.03198076 -0.06361555
-0.02909652 0.009400141 0.0030637977 0.002515061 -0.029805107 0.050155893 -0.101906024 -0.11547502
0.04313684 -0.027956897 0.029801983 0.0630145 -0.017336277 0.019869035 -0.009682957 0.06451673
-0.028694805 0.038852215 0.08218259 -0.055086877 -0.0149692595 0.0151247755 -0.01473862 -0.04676217
-0.1498582 -0.0134509755 0.074016035 -0.030876236 0.038009383 -0.005809094 0.058174346 0.0634587
0.008053099 -0.10840591 -0.059468783 0.13201375 0.11113924 0.07455662 0.03004419 0.07712303
0.07391606 0.038246665 -0.03830837 0.00039593063 -0.036790956 0.09770216 0.013635697 0.09694976
00000000: fb56 ce3b d190 45bd b5f4 cfbc 4723 32bd
00000010: d69e e9bc 8d18 62bd f12b dc3d 439d f03c
00000020: 1157 f23c eb09 85bc 8236 ee3c cd55 8bbd
00000030: 599d 9c3c 01bb 163d bb3e 283d 9450 2d3d
00000040: 0f9b 10bd a75b 28bd d113 97bc d2d6 393d
00000050: faf8 0dbd 6d70 923d b239 533d 5b5c a3bc
00000060: 08bc 833c b5df e33b cf58 0c3d 7711 59bc
00000070: 62e3 2c3b 6486 0bbd 0c74 3dbd 6da3 f93b
00000080: 488a 373d 5699 afbc e94e dcba 9667 723c
00000090: 90c5 efbc dd04 013a fc7f 473c dfc5 bb3c
000000a0: 4593 d6b9 a24b 3bbd 9851 4e3d 8308 2ebd
000000b0: a512 a23d 005a afbd 6765 a0bc 0b52 443c
000000c0: adb7 413d b7ba 213b 7a51 323d e5c4 353d
000000d0: 4f7a e2bc 4ce8 a8bd 0e37 f1ba f345 19bd
000000e0: 78d6 83bd 5f06 d93d 0cab dbbc 1cc2 3d3d
000000f0: dec1 09bc 9798 8b3b 2af8 87bc 4bdd 7e3c
00000100: 0242 6b3d 4c11 d1bc 775b db3d e2b6 533c
00000110: d124 923d 1482 713c 0d38 9a3d 3c96 983d
00000120: a95d 73bd c3a3 efbd 5695 9cbd e649 913d
00000130: efc9 593d 0837 213d b3fb 173d ec2a 063d
00000140: c05f 473d 594a a93c d9a2 c4bd 1966 5739
00000150: 0a50 b03d c96d 82ba a146 a93d a7e3 d63c
00000160: 9e99 113c a6e0 c0bc 2fae 063c bafd 61bd
00000170: a18b 77bd 1eeb 23bb 3e4a 623d 2aa2 a23d
00000180: 0280 0e3d a625 813d 1776 8b3c 71b7 f63b
00000190: af30 5dbd 47c2 5f3d 4a1d d2bb fc03 893b
000001a0: 26c3 7e3d 2fcb 59bd 11cc 173b 0083 c83b
000001b0: 356d 90bc 987a 9bbc c6bd 103d bb58 103d
000001c0: 3ef3 0dbd cdef c1bc ab93 823d e8f7 06bd
000001d0: fddf 013d b22c 37bd 11d1 ef3a 6db5 50bd
000001e0: 399c b03d 7412 a93c 5487 0dbd a9fa a93a
000001f0: 3aba 6e3d 46e8 e43c 40fc 1fbe 9f14 39be
00000200: af0e d2bd c044 8fbd 1f08 a9bd 4d61 f4bc
00000210: cf9c 10bd 16fd f53c 41e4 93bd b703 603d
00000220: b780 013d a285 993c a759 283d a5e6 f4bb
00000230: 3862 673c a91e a03d 60c9 d7ba 3d5d b3ba
00000240: 1374 c33d a1c8 f7bc 4290 2fbd f484 fd3d
00000250: 6a07 1bbd e9c4 083d e123 e83d d0fd 8b3d
00000260: f7ad 873c cce8 d7bc ba77 453d 07c4 a53c
00000270: 73be 18be 5933 c63c cd23 033d c4cd 0abe
00000280: 56e0 efbd ed98 3dbd b6d7 873d 7a60 b9bc
00000290: c94e febc c805 f53a f968 92bd 8c11 37bc
000002a0: 1ac1 c8bd b0ce f9bd 1b0e b0bc 8f04 0ebd
000002b0: 039c a23d b9bf 383c 8d70 1abc 6b94 333d
000002c0: 3d48 9dbd 396e 16bd c80d eb3c b867 6abd
000002d0: db6e ce3d 0abc 97bc 2632 803c 8ddc 793d
000002e0: 964e debc cd03 213d 9ad1 943d 123b 80bc
000002f0: 9b62 a93c fd3a f03c 3a62 8f3d 68e2 4d3d
00000300: c7c8 a83d 5aa4 0abc 91db 1b3d 3402 a03d
00000310: 3ffa b03c ff21 bebd a980 91bc cf4f acbc
00000320: a53d 583c b4d4 51bd 2fdb febc 3bd9 51ba
00000330: 5c56 14bd 3f18 50bd 42fe 02bd df48 82bd
00000340: d35b eebc 0d03 1a3c ffc9 483b b9d3 243b
00000350: d729 f4bc 4470 4d3d 1bb4 d0bd 2b7e ecbd
00000360: 41b0 303d dd05 e5bc 4a23 f43c bf0d 813d
00000370: cf04 8ebc 63c4 a23c 44a5 1ebc 5921 843d
00000380: 5e11 ebbc 8023 1f3d 594f a83d c7a2 61bd
00000390: a041 75bc e8cd 773c 417a 71bc b089 3fbd
000003a0: 6e74 19be 7b61 5cbc b895 973d 29f0 fcbc
000003b0: baaf 1b3d 365a bebb 3948 6e3d a3f6 813d
000003c0: 25f1 033c eb03 debd 8a95 73bd 9d2e 073e
000003d0: f89c e33d 24b1 983d 3c1f f63c aef2 9d3d
000003e0: 4e61 973d 89a8 1c3d 3de9 1cbd e994 cf39
000003f0: 1db2 16bd 1218 c83d 4268 5f3c 998d c63d

conv4.bias f4 [25]
0.12537116 0.13542946 -0.03899488 0.056421228 -0.025608126 -0.043887507 -0.064861886 0.009606644
-0.0691031 0.011055045 0.079800025 0.09092863 0.10403492 0.01304733 0.036867425 -0.0771845
-0.047045276 0.1449264 -0.06956909 -0.03752621 -0.11846878 -0.14984618 0.046637274 -0.07604945
-0.014810795
00000000: 4c61 003e 05ae 0a3e 18b9 1fbd f219 673d
00000010: 22c8 d1bc 63c3 33bd 4fd6 84bd 2f65 1d3c
00000020: ed85 8dbd 3820 353c 326e a33d ca38 ba3d
00000030: 4310 d53d 78c4 553c 4c02 173d e812 9ebd
00000040: 8cb2 40bd 9667 143e 3d7a 8ebd 15b5 19bd
00000050: c29f f2bd 4771 19be ba06 3f3d d0bf 9bbd
00000060: faa8 72bc

conv5.weight f4 [16, 25, 3, 3]
0.01017579 -0.045974303 -0.018053146 -0.023269879 0.082175456 -0.027572688 0.034229323 0.1253452
0.020596785 0.052851465 -0.013434331 -0.015495402 0.0032395658 0.08345761 -0.046401065 0.03646581
0.084055424 0.011254702 -0.01711625 0.03548816 0.03327768 0.013951598 0.025485942 -0.0139266085
0.03086849 0.04148675 0.039908547 -0.017048836 -0.004146493 -0.00010197174 -0.080677226 -0.095164075
-0.024257615 0.12202556 0.049482323 0.08904677 -0.018684898 0.037120905 -0.028342994 -0.014792788
0.02109098 0.053317524 0.041876644 -0.06617713 0.037457045 0.046923164 0.040759716 -0.042416036
0.024757585 -0.038558 -0.04850003 -0.015569625 0.05391885 0.049456447 -0.023978094 0.028626544
-0.000341983 -0.037365515 0.020883262 -0.06415329 0.041879553 0.029476501 0.0018625832 -0.023400351
-0.0008990366 -0.008375456 0.01499905 -0.030431231 -0.041258503 -0.0054874388 -0.050250974 -0.06264214
-0.051281553 0.04584551 0.02005493 0.031045703 -0.04307944 -0.019264257 -0.0136444885 0.024677848
0.050737713 0.004526959 -0.05221523 -0.005251208 0.011274433 0.09090069 -0.01521237 0.0050004628
0.028100736 0.071918786 0.045485668 -0.065734796 -0.05432781 -0.0005201606 0.06856925 -0.07804971
-0.062706195 0.06991897 0.03201648 -0.0015711006 0.040998463 -0.032360762 -0.0012584534 -0.056218144
0.052061938 0.09248009 0.061593268 -0.016781485 -0.013260922 0.016545901 -0.03702026 -0.026084894
0.046111524 0.068321966 0.031679917 0.1047954 0.013662496 -0.020667937 0.048646834 0.029163536
0.04314335 0.0698964 0.09524739 -0.042386625 -0.077620015 -0.03371964 0.019769408 -0.07668718
-0.027682897 -0.0031409876 -0.014402099 0.05225234 -0.010402407 -0.026912259 -0.040898204 -0.036261234
-0.037199035 -0.080583975 0.029361665 -0.022443531 -0.0104071265 -0.078845136 -0.015526682 -0.00018143437
-0.053215936 0.010348315 -0.0076151625 -0.06932516 0.025975503 -0.02300065 -0.01794693 -0.04547
-0.05049616 0.008676767 0.034568526 0.022096872 0.031060472 0.019681334 -0.024710441 -0.06282707
0.018682878 -0.08441975 0.029322905 -0.057911817 0.03433889 -0.034902845 0.030608436 0.017461067
0.032966536 -0.01049215 -0.061086945 -0.059186254 -0.029055752 0.016525105 0.02203219 0.0027460624
0.05932053 -0.034248322 -0.03332254 0.04475453 0.02035743 -0.034353495 -0.021621514 -0.057020046
-0.006181715 0.036574453 -0.030389786 -0.044375945 -0.025855353 -0.07273542 0.036947154 -0.006009009
-0.0097286 -0.065758616 -0.018414691 -0.055360578 -0.08451383 0.00706816 -0.043362547 -0.011030887
0.024954066 -0.03313029 -0.054654155 -0.017768603 0.00886261 0.055315055 0.017800754 -0.029849418
-0.00846824 0.031012863 0.023622708 0.089320734 0.052484076 -0.05325003 0.109936945 -0.043557335
0.039724566 0.011734263 -0.03954255 0.05436782 -0.011528225 -0.021794628 0.022950727 0.07547093
0.025572414 0.020792134 -0.04616946 -0.0026661386 0.030867832 -0.07404289 -0.07775957 -0.026212022
-0.007854786 0.08660127 0.016498504 -0.003847753 0.0009815113 0.035579458 -0.051581625 -0.061044868
0.0003480763 -0.061153162 -0.040683515 0.001075906 -0.020357842 -0.02390009 -0.05314188 0.026467267
-0.0029451496 0.03672948 0.08441105 0.00017670653 0.020898497 0.015533332 0.00043282274 -0.013121231
00000000: 5bb8 263c 8d4f 3cbd 31e4 93bc 79a0 bebc
00000010: 9b4b a83d 1ee0 e1bc 0c34 0c3d 7e5a 003e
00000020: 97ba a83c c77a 583d ab1b 5cbc 6de0 7dbc
00000030: e54e 543b d3eb aa3d 0b0f 3ebd 2c5d 153d
00000040: 4025 ac3d a465 383c 6137 8cbc 085c 113d
00000050: 2d4e 083d 3e95 643c e5c7 d03c 6e2c 64bc
00000060: eadf fc3c 03ee 293d 2577 233d 00aa 8bbc
00000070: 4edf 87bb a9d9 d5b8 1a3a a5bd 62e5 c2bd
00000080: e8b7 c6bc 89e8 f93d faad 4a3d 275e b63d
00000090: 1211 99bc 170c 183d 912f e8bc 735d 72bc
000000a0: fec6 ac3c 7a63 5a3d d886 2b3d e087 87bd
000000b0: 8f6c 193d 8132 403d a9f3 263d 70bc 2dbd
000000c0: 6bd0 ca3c feee 1dbd f8a7 46bd be17 7fbc
000000d0: 03da 5c3d d892 4a3d b56d c4bc 3782 ea3c
000000e0: 2e4c b3b9 950c 19bd 6013 ab3c cd62 83bd
000000f0: e589 2b3d b478 f13c ec21 f43a 18b2 bfbc
00000100: 53ad 6bba 3539 09bc 93be 753c eb4a f9bc
00000110: adfe 28bd f9cf b3bb f7d3 4dbd 864a 80bd
00000120: 9b0c 52bd 80c8 3b3d 3d4a a43c 8f53 fe3c
00000130: 1174 30bd 13d0 9dbc 228d 5fbc 3329 ca3c
00000140: 59d2 4f3d e256 943b a3df 55bd 5312 acbb
00000150: 66b8 383c 242a ba3d 4e3d 79bc ecda a33b
00000160: 8433 e63c 284a 933d 2e4f 3a3d f79f 86bd
00000170: d686 5ebd 635b 08ba 096e 8c3d 87d8 9fbd
00000180: 1b6c 80bd ad31 8f3d b623 033d 63ed cdba
00000190: 01ee 273d b88c 04bd b0f2 a4ba ff44 66bd
000001a0: e63e 553d 3466 bd3d 3949 7c3d 5379 89bc
000001b0: 5744 59bc 458b 873c 8ea2 17bd fdaf d5bc
000001c0: 70df 3c3d 63ec 8b3d cdc2 013d f89e d63d
000001d0: a9d8 5f3c ce4f a9bc e741 473d 5ee8 ee3c
000001e0: 15b7 303d d825 8f3d 1011 c33d 999d 2dbd
000001f0: 3ef7 9ebd 9b1d 0abd 74f3 a13c 2b0e 9dbd
00000200: 3ec7 e2bc 07d9 4dbb c8f6 6bbc 8d06 563d
00000210: db6e 2abc 1977 dcbc e084 27bd a986 14bd
00000220: 045e 18bd 3609 a5bd e087 f03c 7fdb b7bc
00000230: a782 2abc 8f79 a1bd a063 7ebc 6b3f 3eb9
00000240: f4f8 59bd fb8b 293c 9d88 f9bb 59fa 8dbd
00000250: 94ca d43c dc6b bcbc 7105 93bc c03e 3abd
00000260: 10d5 4ebd 0029 0e3c ba97 0d3d 8004 b53c
00000270: 8872 fe3c c03a a13c 8d6d cabc 7bab 80bd
00000280: d60c 993c 43e4 acbd 9736 f03c f134 6dbd
00000290: f0a6 0c3d 49f6 0ebd 8bbe fa3c 830a 8f3c
000002a0: eb07 073d 44e7 2bbc 4e36 7abd 496d 72bd
000002b0: 5406 eebc a85f 873c da7c b43c 48f7 333b
000002c0: 16fa 723d f847 0cbd 377d 08bd 8750 373d
000002d0: a0c4 a63c 40b6 0cbd 9a1f b1bc da8d 69bd
000002e0: fc8f cabb 18cf 153d 00f4 f8bc 8dc3 35bd
000002f0: 9bce d3bc 4ff6 94bd e655 173d 39e7 c4bb
00000300: b564 1fbc 74ac 86bd 68da 96bc c6c1 62bd
00000310: 9615 adbd 069c e73b ed9c 31bd e5ba 34bc
00000320: 786c cc3c a1b3 07bd 09dd 5fbd 768f 91bc
00000330: 7b34 113c 0a92 623d e3d2 913c c486 f4bc
00000340: 5fbe 0abc b00e fe3c 6984 c13c caed b63d
00000350: 8bf9 563d b41c 5abd 9f26 e13d 2d69 32bd
00000360: 3ab6 223d 1141 403c 5ef7 21bd cbb0 5e3d
00000370: e1e0 3cbc a68a b2bc 2a03 bc3c 8190 9a3d
00000380: 3d7d d13c 4454 aa3c 301c 3dbd 62ba 2ebb
00000390: 89de fc3c cca3 97bd 6940 9fbd 98ba d6bc
000003a0: 5cb1 00bc 025c b13d df27 873c 952a 7cbb
000003b0: 0ea6 803a c4bb 113d 4147 53bd 2f0a 7abd
000003c0: 037e b639 bd7b 7abd c2a3 26bd 6a05 8d3a
000003d0: 7dc5 a6bc 1fca c3bc 4dab 59bd e2d1 d83c
000003e0: 6903 41bb a771 163d b3df ac3d 4c4a 3939
000003f0: 5333 ab3c 847f 7e3c 7cec e239 6ffa 56bc

conv5.bias f4 [16]
0.0461697 -0.051635195 0.021116396 0.0010744594 0.12659737 -0.048664685 0.06149873 -0.083986826
0.043018162 -0.08096662 0.096056655 -0.023902595 0.033662397 0.0031757462 -0.08231787 0.16719641
00000000: 701c 3d3d 6d7f 53bd 4bfc ac3c e0d4 8c3a
00000010: bea2 013e 9f54 47bd 18e6 7b3d 4901 acbd
00000020: d033 303d d4d1 a5bd 5ab9 c43d 60cf c3bc
00000030: 95e1 093d 2e20 503b 4596 a8bd 8935 2b3e

classifier.1.weight f4 [10, 16]
0.019793967 -0.08339879 -0.06598138 -0.25064683 -0.19299378 0.19988607 0.296554 -0.1417821
0.051965374 0.15434569 0.060019683 -0.09704644 -0.23096314 -0.14866522 -0.20231195 0.17813215
-0.039674476 0.17948128 -0.14184786 -0.16340964 -0.3147169 -0.07822455 -0.042850632 -0.17748515
-0.007041747 0.2961262 -0.21738553 0.027421145 -0.26507857 0.09036006 0.23254047 -0.06486505
0.028807444 -0.19108619 -0.18901803 0.027097423 -0.0135764405 -0.010511855 -0.17409354 0.151586
0.023340698 -0.09414849 0.01345939 0.08008689 -0.19584599 -0.20039445 -0.0802254 0.2565337
0.13560474 0.13497978 -0.19025233 0.16435288 -0.15214808 0.08519064 -0.033433516 0.0760568
-0.20809606 0.03733919 0.10328622 0.13601328 0.3161337 -0.2424307 -0.19432741 0.16716205
-0.30211934 -0.33058774 -0.0052095163 0.018881906 0.20477396 0.109094605 -0.08499564 -0.17989431
0.02193037 0.012828063 0.12369671 -0.07951738 -0.14587761 0.15442593 0.00055789156 0.07870426
0.1020618 -0.037846416 0.008771487 0.20633776 0.056651786 -0.18788245 -0.0073038423 -0.17373192
-0.08020888 -0.20667571 0.22503181 0.042104222 0.162051 0.011018232 -0.18087518 0.1593637
0.052121054 0.033451058 0.15666176 0.23013118 -0.026003394 -0.3026564 -0.164069 0.1255089
-0.20249707 -0.020033952 -0.06496179 0.1332851 0.1113396 -0.05991749 0.08508166 0.01919914
-0.31471086 0.057268284 0.11249364 0.023919458 -0.076835 -0.25301254 0.16016187 0.09935675
-0.19013824 -0.10623524 0.18875088 0.30098134 -0.20823649 0.15576905 -0.1601055 0.03307728
0.27540454 0.10697696 0.27635622 -0.1406492 -0.23783737 0.10784386 0.091202155 -0.28734523
0.21563376 -0.19789685 0.2575417 -0.084700406 0.037902556 0.12833096 -0.19460693 -0.08522734
-0.14450862 0.3048112 0.04224765 0.17114505 -0.14348704 0.24848506 0.042810068 0.13990226
-0.014725692 -0.0034394464 -0.053805195 -0.06321483 -0.14130095 0.06253771 -0.058606863 -0.16303672
00000000: f526 a23c fccc aabd 3f21 87bd c854 80be
00000010: 29a0 45be efae 4c3e edd5 973e 542f 11be
00000020: a5d9 543d cc0c 1e3e 33d7 753d 49c0 c6bd
00000030: 9a81 6cbe b23b 18be dd2a 4fbe 4668 363e
00000040: b481 22bd f1c9 373e 9140 11be db54 27be
00000050: 9322 a1be 3134 a0bd 2584 2fbd abbe 35be
00000060: 75be e6bb da9d 973e 509a 5ebe 4fa2 e03c
00000070: 61b8 87be b20e b93d 171f 6e3e f8d7 84bd
00000080: 97fd eb3c 19ac 43be f18d 41be 6afb dd3c
00000090: b86f 5ebc ea39 2cbc 9445 32be 5c39 1b3e
000000a0: fe34 bf3c ecd0 c0bd c684 5c3c 9804 a43d
000000b0: da8b 48be 3434 4dbe 374d a4bd 6358 833e
000000c0: f8db 0a3e 2438 0a3e 82d1 42be 1f4c 283e
000000d0: b5cc 1bbe 6e78 ae3d 95f1 08bd abc3 9b3d
000000e0: 2217 55be faf0 183d ba87 d33d 1147 0b3e
000000f0: 47dc a13e c13f 78be c4fd 46be 872c 2b3e
00000100: 63af 9abe cc42 a9be 97b4 aabb 3aae 9a3c
00000110: 44b0 513e fe6c df3d 3212 aebd 3736 38be
00000120: 52a7 b33c cc2c 523c b354 fd3d 02da a2bd
00000130: f160 15be d521 1e3e 783f 123a b32f a13d
00000140: c705 d13d d804 1bbd 48b6 0f3c 354a 533e
00000150: b40b 683d 4264 40be 1255 efbb c8e6 31be
00000160: 8e44 a4bd cca2 53be bd6e 663e 7a75 2c3d
00000170: b3f0 253e d185 343c 5837 39be 3d30 233e
00000180: e37c 553d fa03 093d f16b 203e 82a7 6b3e
00000190: 1205 d5bc c8f5 9abe b401 28be 6885 003e
000001a0: 645b 4fbe 3e1e a4bc b00a 85bd e47b 083e
000001b0: 0406 e43d 0b6c 75bd 4b3f ae3d 8447 9d3c
000001c0: c821 a1be 2692 6a3d 1163 e63d bdf2 c33c
000001d0: ab5b 9dbd dc8a 81be 7901 243e 8d7b cb3d
000001e0: 99b3 42be dd91 d9bd e947 413e 3a1a 9a3e
000001f0: f23b 55be ec81 1f3e b2f2 23be 0b7c 073d
00000200: d301 8d3e bd16 db3d 907e 8d3e 5806 10be
00000210: a48b 73be 3edd dc3d 32c8 ba3d ea1e 93be
00000220: 19cf 5c3e 79a5 4abe 81dc 833e 6877 adbd
00000230: b63f 1b3d 3169 033e 0a47 47be ac8b aebd
00000240: 11fa 13be 3710 9c3e df0b 2d3d a640 2f3e
00000250: 44ee 12be de72 7e3e 9c59 2f3d 8a42 0f3e
00000260: 0744 71bc 5668 61bb d662 5cbd c776 81bd
00000270: 32b1 10be c513 803d c00d 70bd 19f3 26be

classifier.1.bias f4 [10]
0.21474333 -0.2563026 0.29772562 0.046885464 0.22451055 -0.23451017 -0.23449935 -0.061111145
0.12283953 -0.15745987
00000000: ade5 5b3e 183a 83be 7e6f 983e f90a 403d
00000010: 18e6 653e 6f23 70be 9920 70be ae4f 7abd
00000020: 4b93 fb3d 293d 21be
