Cifar/reek_weights_trial_80iter_final2/Times5.pt (torch, 47937 bytes, 12 tensors)

conv1.weight f4 [8, 3, 3, 3]
000000 cd 6e 28 3e 35 28 f4 3d 11 3d f4 3c 97 0d a5 bd
       0.16448517 0.119217314 0.029814275 -0.08059233
000010 63 1c 38 3e a6 c3 ae 3b 99 af 1e 3e 3d 58 af bd
       0.17979579 0.0053333817 0.15496673 -0.08561752
000020 8f d0 48 3c 9f 52 44 3e 11 0a 31 3e 48 6c d4 3d
       0.0122567555 0.19172142 0.17288996 0.103722155
000030 2d e3 67 be e2 88 68 bd 0d 8e 76 3d 5e 06 75 be
       -0.22645254 -0.056771167 0.060194064 -0.2392821
000040 f0 70 fe bd ce c9 79 bd fc 0e 79 3d 91 ae c1 bc
       -0.12423885 -0.06098347 0.060805306 -0.02364281
000050 80 f4 f3 bd 9b be 07 be bd 83 0e be 21 50 03 3e
       -0.11911869 -0.13256304 -0.13917442 0.12823536
000060 a5 70 23 bc cf 2d e7 3d ed d5 c6 bd 90 66 8a 3e
       -0.009975587 0.11288034 -0.09708772 0.27031374
000070 7e 2d bd bd 94 90 be bc e8 13 b2 bb 4f 3a 87 3d
       -0.092371926 -0.0232623 -0.005434502 0.06602918
000080 58 1c 8b 3c 0b db b7 bc 03 12 b2 bd 65 7b b1 3d
       0.016981289 -0.022443315 -0.08694842 0.08666114
000090 30 14 47 3d 09 d0 23 3e 9a 15 31 3e 16 a4 7d ba
       0.048603237 0.15997328 0.17293397 -0.0009675635
0000a0 c4 35 59 3c 91 b4 83 3d 9f 08 39 3d d4 ed e4 bd
       0.013257448 0.06430925 0.045174237 -0.111781746
0000b0 9f a2 84 3d 44 bc 4a 3e fb f4 7e 3e cf 8b c2 bd
       0.0647633 0.1979838 0.2489814 -0.094993226
0000c0 0b 35 da bd 06 6b 21 3d fb b3 6d 3e 90 e5 18 be
       -0.106546484 0.039408706 0.23213188 -0.14931321
0000d0 c3 e9 4a 3e e6 2e 73 3e 95 c4 50 3e 18 4e 30 bd
       0.19815736 0.23748359 0.2038749 -0.043043226
0000e0 c7 02 0d be ff ed 41 3d da c2 f2 bc 2f d8 f7 bd
       -0.1377059 0.04734611 -0.029633928 -0.121017806
0000f0 97 87 7f 3d 15 47 11 bd 56 08 c5 3c 13 67 3f 3e
       0.062385168 -0.03546818 0.024051826 0.18691663
000100 7b e0 ba 3d 26 01 ea 3d 61 08 3f bd 37 12 4c 3d
       0.091248475 0.11426 -0.04663885 0.04982206
000110 87 54 8f 3c 25 0d 0c 3e 0f 28 93 bd 1a 29 a6 bc
       0.01749636 0.13676889 -0.07185375 -0.02028327
000120 d0 38 e1 bd 32 02 42 be fa 0f e3 bd 7e 02 82 bb
       -0.10997164 -0.1894615 -0.11087032 -0.0039675822
000130 7c 7a 08 3d 84 3e fb bd 52 3e 13 3e 22 b1 fd bd
       0.033319935 -0.12267783 0.14379242 -0.12387301
000140 32 83 51 be 3d c7 6e bd 97 84 7a be 74 c4 d4 bd
       -0.20460203 -0.058295477 -0.24464642 -0.10389033
000150 ee 1a 96 bd 89 85 45 be b3 73 6d be 54 05 33 3d
       -0.07329355 -0.19289221 -0.23188667 0.043706253
000160 7d 24 ec 3d 5d ab ab bd 14 c3 2d be 12 1a 6e bb
       0.11530397 -0.08382294 -0.16968948 -0.0036331457
000170 df 87 56 3d e4 69 0e be 48 18 b5 bd ac 34 4c bc
       0.05237567 -0.13907582 -0.08842522 -0.01246373
000180 7f 0a dc bd fd 4b ae 3c 78 d0 48 bd 19 93 19 be
       -0.107441895 0.021276468 -0.049026936 -0.1499752
000190 2a 10 32 bd 07 ce 6c be 39 38 df 3d 21 26 15 3d
       -0.043472447 -0.23125468 0.108993955 0.036413316
0001a0 46 2c 45 bc 5c fe d6 bc 15 b7 39 bd 81 33 63 be
       -0.012034481 -0.026244335 -0.045340616 -0.22187616
0001b0 6d 03 58 bd ec 55 83 3e 8b 34 a0 3d 0e 65 b9 bc
       -0.052737642 0.2565149 0.07822522 -0.022631194
0001c0 7d fc a6 3e 79 98 8a 3e 45 11 b5 3c 1a bf 8a bd
       0.32614508 0.27069452 0.022102961 -0.06774731
0001d0 7a 7b 23 3d d5 09 cd 3d cc af e3 3d 01 58 2c be
       0.03991268 0.10011641 0.11117515 -0.16830446
0001e0 64 f2 6d 3e 18 b1 77 bd 02 f7 ea 3d ba 0e 12 3e
       0.23236996 -0.060471624 0.11472894 0.1426343
0001f0 ff 24 2b 3e 32 90 00 bd 68 ac 39 3e ad b1 d2 bd
       0.16713332 -0.031387515 0.18132174 -0.10287795
000200 dd 05 fa 3d d1 7f 8b 3e 56 3d 92 3e cd f4 02 3e
       0.122081496 0.27245954 0.2856242 0.12788697
000210 20 5f db 3d 5f a6 4f bd 1c 8c 2e 3e 89 53 c2 bd
       0.10711503 -0.050695773 0.17045635 -0.09488589
000220 c6 8b 4b 3d 18 b8 ac bd 09 93 36 be 1f 28 99 bd
       0.049693845 -0.084335506 -0.17829527 -0.074783556
000230 68 fd 28 be de 3c 15 bd 0a fb 2c 3d e7 c3 10 bd
       -0.16502917 -0.036435 0.042231597 -0.035343077
000240 c2 d6 ec 3d 1e c0 38 be 29 e4 21 3d 3b a9 25 be
       0.11564399 -0.18042037 0.03952423 -0.16177838
000250 e0 8b 32 3c 67 3d 96 bd d4 57 91 3c 6f ed 67 3d
       0.010897607 -0.0733593 0.017742075 0.05662292
000260 17 a1 47 3d 1a 48 0d 3e 5f 87 93 bc 6c 09 48 3e
       0.04873761 0.13797036 -0.018008886 0.19534844
000270 d5 a3 e3 bd 77 20 eb 3d 23 1b ef 3b 3e f2 62 bd
       -0.11115233 0.114808016 0.007296936 -0.0554068
000280 16 4e 23 3e 25 6e aa 3d 01 58 41 3c a6 1a 95 bd
       0.15947756 0.0832179 0.011800767 -0.072804734
000290 d3 52 5a bc 4d c8 4f 3d ad 5f 93 bd c5 c6 16 be
       -0.013325411 0.05072813 -0.07195983 -0.14724262
0002a0 0e 16 54 be 6e d3 7c be d0 a8 09 be 03 a1 46 3e
       -0.20711538 -0.24690029 -0.13443303 0.19397359
0002b0 b8 94 f6 3d ad 26 91 3c 87 6d 41 be e0 6a 94 bd
       0.120400846 0.017718637 -0.18889438 -0.07246947
0002c0 27 dd ea 3c 94 f1 36 3d ed 00 df 3d 9d 70 5c 3d
       0.028669907 0.04466398 0.108888485 0.053818334
0002d0 aa fe 5f 3e 38 2f 1a 3d 46 6e 6a 3e 9e 23 14 3e
       0.2187449 0.037642688 0.22893628 0.14466712
0002e0 0c 1b ac bc ce 4a 74 3e 73 b2 12 3d 06 a5 ff 3d
       -0.02100899 0.2385666 0.035814714 0.124826476
0002f0 14 d9 67 bd e6 77 b9 3d 1f b2 5c be fc 04 3e be
       -0.056603506 0.09056072 -0.21552323 -0.18556589
000300 00 8f f6 bd 03 6a 6a be be f7 05 3e 1f c5 1d be
       -0.12038994 -0.22892003 0.13082787 -0.15407227
000310 9d 7e f1 3d d5 7f f8 3c 15 f1 35 be 0e dc ef bd
       0.11791728 0.030334393 -0.17767747 -0.11711894
000320 5f 9a 6e be bc 69 b8 3c 58 0b 8d be 64 a2 ec bd
       -0.23301075 0.022511356 -0.27547717 -0.11554411
000330 75 83 7c be 03 40 12 be dd 6b 3a bc dd 8b 5d be
       -0.24659522 -0.14282231 -0.011378256 -0.21635385
000340 c1 eb cf bd 95 dc f1 bd 37 19 29 bd 36 fa b7 bd
       -0.10152388 -0.11809651 -0.041283812 -0.08983271
000350 2b f7 f7 3c f4 7d 28 3c 67 ae ab bc 72 82 39 bd
       0.030269226 0.010283936 -0.020957185 -0.045290418

conv1.bias f4 [8]
000000 fa 2c 91 3c f7 b6 70 3e 53 55 79 bd 8c d1 4c 3e
       0.017721642 0.23507296 -0.060872387 0.20001811
000010 19 34 23 bd 29 f7 df 3c 90 b4 5a 3a f9 1d 9c bd
       -0.039844606 0.027339535 0.0008342946 -0.07622904

conv2.weight f4 [10, 8, 3, 3]
000000 2c 9c e0 3d 10 6d 65 bd c3 3a da 3c b3 7e 2d 3d
       0.109672874 -0.056012213 0.026639348 0.042357158
000010 c7 e8 ef 3d 4d 2f 4d bd 95 89 15 bd 90 c3 0f 3d
       0.11714321 -0.050093938 -0.03650816 0.035098612
000020 d4 ba aa 3d a3 ba c2 3d d7 4c 1c 3e 20 d0 de bc
       0.08336416 0.095082544 0.15263687 -0.027198851
000030 a3 02 f5 bc 5e dc 95 bc ba ce fa 3c 98 5a fa 3d
       -0.029908484 -0.018293556 0.030616153 0.12224311
000040 4c e9 1d 3d a4 b9 99 3b 44 96 ad bd c3 80 1d 3e
       0.038552567 0.0046913195 -0.084759265 0.1538115
000050 7b c1 ae bb ad f9 cb 3d aa 77 4f bc fe 93 89 bc
       -0.0053331233 0.09959731 -0.0126628075 -0.016794201
000060 2f 8b bc 3d bd f6 b8 3d aa e0 5f bd dc 6e f3 3d
       0.09206235 0.090314366 -0.054657616 0.11886379
000070 b0 6a 86 3d 9f d7 3f bd b6 90 00 3e 39 c9 85 bd
       0.06563318 -0.04683649 0.12555203 -0.06532521
000080 67 57 45 ba 88 0c db bc 7e 2d 6c 3d 42 bf c8 bd
       -0.00075279776 -0.026739374 0.057660572 -0.098021045
000090 9b 71 a4 3d 07 70 a2 bd 79 0e bd bd 6f fe c6 bd
       0.08029481 -0.07931524 -0.09231276 -0.09716498
0000a0 67 2c f8 bc 95 63 3b 3d aa 2d ce ba cb 3e 77 3d
       -0.03029461 0.045749266 -0.0015730162 0.06036262
0000b0 07 8c fb 3c 4c 6e f1 bd 50 f0 03 be 9c 0a 11 be
       0.030706419 -0.117886156 -0.1288464 -0.14164203
0000c0 60 0c c8 bc 68 69 93 3d 8c 30 c9 bd 68 6c 0a be
       -0.024419963 0.07197839 -0.09823713 -0.13517916
0000d0 12 7e cd 3d 91 49 da bc 6a fb f6 bd 5c 61 3b be
       0.10033812 -0.026646407 -0.12059672 -0.18298858
0000e0 7a 6e f1 bc d6 db 58 bd 25 51 0c bd b7 0b 33 be
       -0.029471625 -0.052944027 -0.034257073 -0.17484938
0000f0 98 0f 90 bd 6a 8f bc bd 42 bd cf bd 65 ed 55 bc
       -0.07034224 -0.092070416 -0.1014352 -0.013057088
000100 da fd e0 bd e2 43 88 bd 5f f2 e3 bd 03 39 e5 bc
       -0.10985918 -0.066535726 -0.11130213 -0.027981287
000110 a4 0f b2 3d aa 4c e2 3d 1e a6 6a bd ba d9 85 3d
       0.086943895 0.11049779 -0.057287328 0.06535669
000120 e7 0e 46 3e 6a 25 94 3d 78 29 69 3e c3 22 08 bd
       0.19341622 0.07233699 0.22769725 -0.033236276
000130 fe 59 3a 3e 1b 25 18 3e 89 b8 ac 3d 79 3c f2 3c
       0.18198392 0.14857905 0.08433635 0.029569851
000140 86 da 00 3e 09 03 ac 3d 45 a2 c1 3d 9e ec ca bc
       0.1258336 0.083990164 0.094547786 -0.024771031
000150 4b 4c b7 3b 41 37 19 be 8b 4e 0e bd 8e f8 b9 3d
       0.0055938116 -0.14962484 -0.034742873 0.09080611
000160 b5 83 53 bd f2 e1 f0 3d 2a 29 94 3d 16 fc fa 3b
       -0.051639277 0.11761846 0.07234414 0.0076594455
000170 0f 7e a0 bd 44 94 28 3e bc 20 98 bc eb 5f bc 3d
       -0.07836544 0.16462809 -0.018570296 0.091979824
000180 24 08 c3 bd 7d 21 a3 bd 1e dc 0a 3c 7c e2 72 3d
       -0.09523037 -0.07965372 0.008475332 0.059298024
000190 85 94 21 3d 84 e7 19 3d e3 19 cc bc 02 46 55 3d
       0.03944828 0.037574306 -0.024914687 0.052068718
0001a0 a5 f9 27 3e b9 28 a0 3d 0c a1 1a 3b b7 c6 2a bc
       0.16403826 0.07820267 0.0023594527 -0.010423354
0001b0 e3 98 b4 bc 2e 80 c9 3d 0f e1 02 3c 74 69 2a be
       -0.022045558 0.098389015 0.007988228 -0.1664179
0001c0 17 74 1f be 51 65 12 3d cd 0d 6d 3d 6c a7 60 3d
       -0.15571629 0.035741154 0.05787449 0.054847166
0001d0 d3 eb 43 bd 15 a8 e1 bd d6 ba c4 bc 6c 2e 19 3d
       -0.04783232 -0.11018387 -0.024014872 0.037397787
0001e0 42 4f ee 3c e2 ab 29 bd 57 c6 e1 bc 3d b9 c7 3c
       0.029090527 -0.041423686 -0.027560396 0.02438032
0001f0 4d 7c 69 bd a3 d8 7e 3d 8d 21 ae bc e3 83 18 3c
       -0.057003308 0.06221832 -0.021256233 0.009308788
000200 2c 70 0d 3e 75 d9 83 bc f3 8f 13 bd f9 50 92 bd
       0.13812321 -0.016094903 -0.036025953 -0.071443506
000210 e5 c2 bc 3c a3 71 34 bd dc 2d 82 bd 3b a3 27 3d
       0.023042152 -0.044053685 -0.06356403 0.040927153
000220 7d ee 27 3d 76 5f 63 bd 47 e2 d7 3d 33 c3 05 3e
       0.040998925 -0.05551096 0.10541206 0.13062744
000230 59 37 bc 3d 0f 6f 5b 3d 8a 9a 20 3e c4 5f 2f bd
       0.09190244 0.05357271 0.15683952 -0.04281594
000240 9e 65 b6 3d a0 87 f2 bd 2b 52 53 bb bd 90 b3 3d
       0.08906101 -0.11842275 -0.003224502 0.08767841
000250 51 1e df bd 75 fd 40 3d d5 36 97 bc c7 0c 84 bd
       -0.10894454 0.047116715 -0.018458763 -0.064477496
000260 d6 dc 5a 38 ce 79 94 bc d1 5e ed bc 54 a5 19 3d
       5.218092e-05 -0.018124487 -0.028975876 0.037511185
000270 45 27 1e bd 71 21 ef 3d af d5 9f bd 45 92 0e 3e
       -0.03861167 0.116763 -0.07804429 0.13922985
000280 ee 24 9d 3d 19 02 b4 bc 51 64 cb 3d 89 cd 54 3d
       0.076730594 -0.021973656 0.09931243 0.051953826
000290 b8 17 94 bd b7 6e d9 bd 8c 2d b4 bc f2 88 89 3d
       -0.072310865 -0.1061682 -0.021994375 0.06715573
0002a0 84 3e 9a bc 05 99 03 3e 83 4b 8b 3d d9 ba c3 bd
       -0.018828638 0.12851341 0.06801512 -0.09557123
0002b0 7b e6 27 3d a2 82 51 3d f5 0d eb bd 5a b4 33 bd
       0.040991288 0.05114997 -0.114772715 -0.04387317
0002c0 3d b0 24 3d 98 61 aa bc 67 24 1e bd 81 d4 e6 3d
       0.040207136 -0.02079849 -0.038608935 0.11271001
0002d0 51 84 4e 3d 48 0d ef bc 2d a2 26 bd 42 0e 1a bd
       0.050419156 -0.029181138 -0.040682007 -0.037611254
0002e0 07 5e b1 bd 8a 17 87 3d 5e c2 f0 3d 9d 19 ab 3d
       -0.086605124 0.065962866 0.117558226 0.08354495
0002f0 dd f6 19 bd 55 a3 6f 3d 18 2f ab 3a 94 5c 93 3d
       -0.037588943 0.058505375 0.00130603 0.07195392
000300 55 1c e4 3d 42 b6 0d be 50 4d b1 3c ca 89 92 3d
       0.111382164 -0.13839057 0.02164331 0.071551874
000310 42 16 a6 bd ec fe ea bd 3d 33 b3 bd cf bc 2d be
       -0.08109714 -0.11474404 -0.08750007 -0.16966556
000320 ad 27 4f bd b9 3c 96 3c a6 46 01 be ab 40 2c be
       -0.050574947 0.018339502 -0.12624606 -0.16821544
000330 47 50 ff bd 86 34 17 be 87 73 60 bb fb 34 b2 bd
       -0.124664836 -0.1476613 -0.0034248547 -0.087015115
000340 a2 6e 4b 3c 79 bf d2 3d 4b 7e e2 3d 94 fa d5 bd
       0.012416514 0.10290427 0.11059245 -0.104481846
000350 13 1a 13 3e 35 fd 69 bd 45 0a 1d 3b 4d 94 09 3d
       0.14365415 -0.057126243 0.002396242 0.033588696
000360 e6 61 52 bd ee a4 c1 bd a2 43 91 3d 81 74 b5 bc
       -0.051362894 -0.09455286 0.07092978 -0.02215028
000370 4b ea 95 bc 49 12 a9 3b ea 0a a3 bd 3c 69 98 bd
       -0.018300196 0.0051596505 -0.07961066 -0.07441947
000380 e5 1d 23 bd 1e 87 c5 bc 23 d4 4a 3d e0 8d 50 3b
       -0.03982343 -0.02411228 0.049518716 0.0031822845
000390 86 1f b6 bc fd c9 d4 3b 7d a0 a8 bd 1d e2 27 3c
       -0.022231828 0.0064938054 -0.08233736 0.010246781
0003a0 22 3f 36 bd 51 8a 18 3d d5 9c 0b 3e 4b ff c9 3d
       -0.044493802 0.037241284 0.13634045 0.098631464
0003b0 c9 74 a7 bd 9f dc 08 bd 03 96 27 3e 26 dd 4d bc
       -0.08176572 -0.033413526 0.16365819 -0.012564933
0003c0 af b4 ed 3d a9 f9 ae bb ca 2f 0a bd 68 1e dd 3d
       0.11606728 -0.0053398204 -0.03373698 0.10796815
0003d0 3d 79 9a 3d c5 13 ab 3d 94 fb 47 bd 72 23 ae 3d
       0.075426556 0.0835338 -0.048823908 0.085028544
0003e0 e8 fb b9 3c 89 68 e5 3d 69 c0 84 3d b4 5e a9 3d
       0.022703126 0.11201579 0.06482012 0.08270016
0003f0 c1 f6 a5 3d c0 f9 92 bb 07 f0 9e 3c 5b 5c 0c 3e
       0.08103705 -0.004485339 0.019401563 0.13707106

conv2.bias f4 [10]
000000 b5 dd 28 3e fa f4 e2 3d b8 e7 19 3e 39 15 21 3e
       0.16490825 0.11081882 0.150298 0.15730752
000010 22 95 f9 3d 1f a1 97 bc d6 af 91 bd 4b c7 6b 3c
       0.12186648 -0.018509446 -0.07113616 0.014390777
000020 d2 eb 72 bc a7 c2 23 bd
       -0.014826732 -0.039980557

conv3.weight f4 [20, 10, 3, 3]
000000 94 c7 1e bd 18 c0 32 bc 59 db 8b 3c 61 61 1e bd
       -0.03876455 -0.0109100565 0.017072367 -0.038667087
000010 12 be 0c bd 7b f9 77 3d 58 7f 07 3d ed 94 0e bd
       -0.034360953 0.060540657 0.03308043 -0.034809995
000020 a0 a8 af 3d 36 e3 bf 3c 5f a8 08 3d 7f 70 5d 3d
       0.085770845 0.023423772 0.033363696 0.054062363
000030 e3 09 09 bd 51 52 3f 3d e1 86 81 bd 18 8e 4e bd
       -0.033456694 0.046709362 -0.06324554 -0.05042848
000040 23 63 03 bd 01 d6 e4 3c 92 e4 ea bc 9a db be 3d
       -0.032076966 0.027934076 -0.028673444 0.093192294
000050 68 06 a9 3d 37 ce 72 3d eb 75 0e 3b 4d 40 c8 3c
       0.08253175 0.059278693 0.0021737765 0.024444724
000060 05 31 ae bd e4 6d 11 bd e9 af ba bd 08 96 6d 3c
       -0.085054435 -0.03550519 -0.091155834 0.014501102
000070 1e d5 ba 3c 88 7c 2e bd a1 96 58 bd fa c8 0e bd
       0.0228067 -0.04259923 -0.052878026 -0.034859635
000080 cc 68 8d bd 37 fc 95 3d 81 17 60 3d aa 86 81 bc
       -0.06904754 0.07323497 0.054709915 -0.015811283
000090 2f 8c 57 bd ed 48 f2 bc 3a 3c 02 bd 1e b2 6a bd
       -0.052623924 -0.02957579 -0.031795718 -0.057298772
0000a0 ff 7e 93 bd 75 ed 70 3d c4 0d 57 bd 01 39 99 3c
       -0.07201957 0.058820207 -0.052503362 0.01870394
0000b0 da 4f 9a bd 95 52 5a 3d 8c c6 97 bd f4 e3 ec 3d
       -0.07534762 0.053301413 -0.07410917 0.11566916
0000c0 b3 67 5e bd 27 d7 5d 3c 09 64 9a bd 8b d9 35 bd
       -0.054298114 0.013540066 -0.075386114 -0.04439692
0000d0 35 47 12 3d d5 0a e0 3d f3 7a f4 3d cd d9 ea 3d
       0.03571244 0.10939566 0.11937513 0.114673235
0000e0 89 35 0f 3e af 60 18 3e d3 a3 08 3e 5c ce b5 bb
       0.13985266 0.14880632 0.13343744 -0.0055482816
0000f0 94 d3 29 3d 09 c6 cd bc f6 c3 dc 3d d5 7f 95 bd
       0.041461542 -0.025118845 0.10779564 -0.07299773
000100 5d ef 9d 3d a5 bf 7a bd 17 6e d1 3c a7 65 47 bd
       0.077116705 -0.061217923 0.02556519 -0.048680928
000110 10 4b b8 bd 75 ee 14 3d 80 45 b3 3d 55 55 5d 3c
       -0.08998692 0.036360223 0.087534904 0.013509114
000120 66 b0 52 bb 3e 32 65 bd 4a 7e 1a 3d 15 c8 66 3d
       -0.0032148599 -0.055956118 0.037718095 0.056343157
000130 05 aa f7 3c c4 31 eb bc e0 e5 92 bd f0 6d 67 bd
       0.030232439 -0.028710254 -0.071727514 -0.05650133
000140 0c 8e 1d bd c8 c2 96 3c f5 d6 89 bd 85 4b 47 bd
       -0.038465545 0.018403426 -0.06730453 -0.048656005
000150 35 1e c8 3b cb 52 d1 3d 19 46 da 3d 68 fa c2 3d
       0.0061071166 0.1022087 0.10657901 0.095204175
000160 c9 54 e6 3d ef d8 d4 3d 36 5d 4d bd 14 15 a5 bd
       0.1124664 0.10392939 -0.05013772 -0.08060661
000170 71 34 10 3e 38 c8 a0 bd b8 5a ae bc 0f 39 7c bd
       0.14082505 -0.07850689 -0.021283492 -0.061577853
000180 3a e8 2f be 65 26 02 3d 9b 23 ab 3d df 81 b2 3a
       -0.17178431 0.031774897 0.083564006 0.0013619027
000190 33 b9 f2 3d 9e 84 0c bc 83 d4 80 bb 2e e7 94 bc
       0.1185173 -0.00857654 -0.0039315834 -0.018176641
0001a0 bf 2f 3f 3d 7a cd 3e bd 56 56 98 bc f4 a3 2d bc
       0.046676394 -0.046582676 -0.018595856 -0.0105981715
0001b0 31 77 1e 3c dc f3 a9 3c 08 af 27 3d ba be 67 3d
       0.009671972 0.020746164 0.040938407 0.056578375
0001c0 67 bb 41 3d c9 dc 44 bc c8 96 d1 bd c5 d8 1c be
       0.04729786 -0.01201553 -0.10233837 -0.15317066
0001d0 1a 38 b4 bc fb 93 4c bd 46 8e 95 3d 7f eb 35 3d
       -0.021999408 -0.049945813 0.07302527 0.04441404
0001e0 d8 e0 6e 3d c8 92 1c 3d 4a 89 5d 3d 12 bf e0 bd
       0.058319896 0.03822592 0.054086007 -0.10973944
0001f0 35 7d cd bd a7 6f a1 bd 4b 53 eb 3d 17 ae 04 3e
       -0.10033647 -0.07882624 0.11490496 0.12957035
000200 1a ca fa 3d d0 ab 84 bd 79 f8 94 3d 17 60 9a 3d
       0.12245579 -0.06478083 0.07273955 0.07537859
000210 ac af fc bc 46 91 5e 3d 29 d0 7c bd 7b b4 2f 3e
       -0.030845486 0.054337762 -0.061721954 0.17158692
000220 da 93 e5 3d 86 21 02 3d 13 b7 d5 3d 69 72 3c 3b
       0.11209841 0.03177025 0.10435309 0.0028754717
000230 6d e7 06 be cd 52 f0 bd de 30 f2 bd 0e 0c dd bd
       -0.1317422 -0.11734543 -0.11825727 -0.10793315
000240 a9 c0 38 3d a6 1c a7 3d 23 01 52 3d a7 f4 71 3c
       0.04510561 0.08159761 0.051270615 0.014767802
000250 03 2b 61 3d 22 f6 a9 3c 22 e6 31 3c 4c 33 f6 3d
       0.05497266 0.020747248 0.010858091 0.12021503
000260 cf 55 c8 3d 53 c4 04 3d 8e 85 08 3c de ac de 3d
       0.09781992 0.032413792 0.008332623 0.108728155
000270 8d 23 ff 3d fa 83 88 3d 90 c5 5d bd 40 f5 7c 3b
       0.12457953 0.066657975 -0.05414349 0.0038598329
000280 c3 dc ac b8 b0 93 d8 3b a4 be 8f bd 0e c8 66 bd
       -8.242719e-05 0.0066094026 -0.07018784 -0.05634313
000290 7f f8 fc 3c bc 49 96 bd 0a c1 9e bd 3a 9d 51 bc
       0.03088021 -0.073382825 -0.07751663 -0.012793833
0002a0 a3 9e 8c 3d 6a 3f 6a b7 18 b5 b3 3d 65 60 b1 3d
       0.06866195 -1.3962252e-05 0.08774775 0.08660964
0002b0 bb 88 ba 3c 91 d1 0e bd cf 96 95 bc b3 41 05 3e
       0.022770276 -0.034867827 -0.018260388 0.13013344
0002c0 f9 1b da 3d 28 c7 18 3e 86 74 d6 3c 61 82 bf b9
       0.106498666 0.14919722 0.02617861 -0.000365275
0002d0 9f 3e 93 bd 21 84 78 bc ce 63 e7 3c 22 ed 98 bc
       -0.071896784 -0.015168221 0.028245833 -0.018667761
0002e0 61 c3 fe bd a8 3f 11 3d 4c 61 2d bd b0 38 50 bd
       -0.12439609 0.035461098 -0.042329118 -0.05083531
0002f0 76 30 aa bd 33 3d d4 3d 19 93 7b bd 3a 5d d5 bb
       -0.083100244 0.10363235 -0.06141958 -0.0065113576
000300 82 94 ac bc 0f f2 96 3d 95 d4 99 3d db f7 a9 3c
       -0.021066908 0.07370388 0.0751125 0.02074807
000310 44 ca f9 3d 13 a3 0a bd 14 ed 7b bc c7 72 85 bd
       0.12196782 -0.033846926 -0.015376348 -0.06516033
000320 54 2b 6e bd 82 ac a5 bd e8 25 f7 bd 3f ea a5 3c
       -0.05814679 -0.08089544 -0.12067777 0.020253299
000330 66 f6 e5 3c eb 4f 88 3d e3 00 22 bd 0b 1a 6c 3d
       0.028071593 0.06655868 -0.039551627 0.057642024
000340 d5 30 87 ba ce ad 16 3d 8a 5d 06 be 33 45 8b 3d
       -0.0010314236 0.036786847 -0.1312162 0.06800308
000350 d6 54 d2 bc 0d 4a 01 bd f6 ac 61 bc b7 54 a6 bd
       -0.025675219 -0.03156476 -0.013774147 -0.08121627
000360 1f 55 ba bd af d4 84 bc 2c 93 b6 bd 0c f7 df 3c
       -0.09098267 -0.016214697 -0.089147896 0.02733948
000370 2e e1 15 be 41 65 18 3c c8 77 11 be 7a 71 80 bd
       -0.1463668 0.009301485 -0.14205849 -0.06271644
000380 5b a5 20 be 98 c8 25 bd 83 c0 1d bd 86 2f ed 3d
       -0.15688078 -0.040474504 -0.03851367 0.1158133
000390 1c 04 51 bd 59 99 31 bd 21 94 d4 3d 4d 78 ff 3c
       -0.05102931 -0.043359134 0.10379816 0.031185294
0003a0 44 b6 13 bd 42 76 04 3e 1a 0a d3 3d dc 53 79 bd
       -0.036062494 0.12935737 0.10304661 -0.06087099
0003b0 c4 01 b6 bd 64 73 01 3e 16 98 bf 3d 1d 5b b0 3b
       -0.088870555 0.12641674 0.0935518 0.0053819553
0003c0 89 0b c5 3d a9 7c f9 3d 75 83 02 3d 66 85 d6 3d
       0.09621341 0.1218198 0.03186365 0.104746625
0003d0 b9 5e f4 3d 00 f6 42 3c 9a 54 7b bd cc 12 a8 bc
       0.119321294 0.011899471 -0.06135998 -0.020516776
0003e0 60 98 f4 3d d3 f4 9e 3c 12 84 c6 3d 48 32 08 3e
       0.11943126 0.01940385 0.09693159 0.13300431
0003f0 bb 11 59 3d 7e 89 a8 bd b3 72 84 3b fe 27 c2 3c
       0.052995425 -0.082293496 0.0040419935 0.02370071

conv3.bias f4 [20]
000000 c6 21 c7 bd 57 b3 84 bb cc eb ab bc e2 c6 e3 3d
       -0.09723239 -0.0040496993 -0.02098646 0.11121918
000010 50 16 a1 3d 4b 14 9e 3d 7e d8 c6 3d 8f 59 b6 3d
       0.07865584 0.07718714 0.09709261 0.08903801
000020 b1 d7 fd 3d ca ec 34 bd 3e d3 e9 bc 87 58 96 3d
       0.123946555 -0.044171132 -0.028543111 0.07341104
000030 ba 1d cb 3d 7c e0 2e bd e8 9a a6 bd 08 5e 02 3d
       0.09917779 -0.042694554 -0.08135015 0.031827956
000040 be 0a 32 3d 01 ca a5 bc 70 01 a2 bc 93 67 fb bd
       0.043467276 -0.020237925 -0.019776076 -0.122756146

conv4.weight f4 [25, 20, 3, 3]
000000 fb 01 cc bc 1e 4b 24 3d d0 99 90 3b 6d 35 7d bd
       -0.024903288 0.0401107 0.004412867 -0.06181853
000010 b5 41 fa bc a3 8e d5 bc f6 68 ed 3c c3 b7 85 3d
       -0.03054891 -0.026068991 0.028980713 0.065291904
000020 ea 3f e0 3d fc 2b d4 3d c2 76 cd 3d 24 af f4 3c
       0.10949691 0.10359952 0.10032417 0.02986867
000030 14 cb 84 bc 0d 66 fc bc 78 4d 33 bd b5 b1 60 3d
       -0.016210116 -0.03081038 -0.04377505 0.054856975
000040 c5 68 ab bb a5 8d f4 3d 4e 1a 94 bd c1 49 a5 bc
       -0.0052309954 0.11941079 -0.0723158 -0.02017677
000050 bb 1c 53 3d 9f 50 ab bd 8f cc 9f 3d c0 fa b3 3d
       0.05154107 -0.08364987 0.07802688 0.08788061
000060 31 30 42 3d 35 a6 05 3e f7 d0 97 3d b4 be 40 bd
       0.04740924 0.13051684 0.07412904 -0.04705687
000070 31 07 65 3d ad c8 a8 3d 4c 26 b2 bc 52 04 f9 bd
       0.05591506 0.08241401 -0.021746777 -0.12159027
000080 5b d8 5a 3d 78 00 44 3d 63 bd ea 3c bc 36 87 3d
       0.05342899 0.04785201 0.02865476 0.06602237
000090 d2 f8 1f 39 70 1b a8 bc 1e dc 4b 3d 40 07 84 bd
       0.00015256114 -0.020520896 0.049770467 -0.06446695
0000a0 21 0f a4 bd 81 8d 58 bd 1f 1f ee 3d 12 49 2e 3d
       -0.08010698 -0.052869324 0.1162703 0.042550154
0000b0 b3 f8 9a 3d ce 31 a3 bd a1 2e 6a 3c dd e9 b2 3c
       0.07566967 -0.07968484 0.014293344 0.02184003
0000c0 a0 34 27 3c 3f a9 96 bd d3 59 a8 3c a5 70 a8 3d
       0.010205418 -0.073565 0.020550644 0.0822461
0000d0 f9 69 51 bd bd 55 3a 3d 66 2d d7 3d 29 d2 8e 3d
       -0.051126454 0.045491923 0.10506706 0.069736786
0000e0 f0 0a 97 bb 16 6a 8d 3d db 8b de 3d 9e 3a a2 3d
       -0.004609458 0.06905 0.10866519 0.079213366
0000f0 b5 0e 35 3d 5b 58 64 3d 7b 78 c3 3c 3f db e9 3c
       0.04420348 0.055748325 0.02386116 0.028546927
000100 75 b3 4d bd e3 1d 4a 3d d5 70 ed 3c 93 11 0f bd
       -0.05021997 0.04934491 0.028984467 -0.03492887
000110 e0 d1 63 38 2a b7 6b bd fe aa fa bd 01 f4 09 3d
       5.431648e-05 -0.057547726 -0.122396454 0.033679966
000120 f0 a7 50 bd 14 81 c6 ba 79 8c 73 3c fc 58 0f bd
       -0.050941408 -0.001514467 0.014865034 -0.03499697
000130 09 8b ed bd 8f 69 28 bc cc 8c 95 3d 7e 9a 18 be
       -0.115987845 -0.010279073 0.073022455 -0.14902684
000140 bf 24 17 be 67 ca c5 bc 59 f6 0c bd fa fe c0 bc
       -0.14760111 -0.024144365 -0.034414623 -0.023559082
000150 8c 2f 56 bd 07 cd 72 bd 2c 0a 89 3c 7c ba a0 3b
       -0.052291438 -0.05927756 0.016728483 0.004905043
000160 d6 18 ec bc 8d ec 4b 3d ad 28 59 bd de b7 0f bd
       -0.028820436 0.04978614 -0.053017307 -0.03508746
000170 23 96 c6 3d 8e ab 34 bd 69 d3 24 be 3a 18 cf bc
       0.09696605 -0.04410892 -0.16096272 -0.025280107
000180 01 3d 3f 3e 82 cd 10 bc ab b4 c7 3a 0f 91 34 3d
       0.18675615 -0.008838059 0.0015236338 0.04408365
000190 d7 7a ed bd 81 e0 14 bc 53 c8 30 3d 65 ed 33 bd
       -0.115956955 -0.009086729 0.043159794 -0.04392757
0001a0 62 98 6d bd 6a c2 3d bd d7 f4 74 bd 5a f2 50 bd
       -0.05800665 -0.046327986 -0.05980381 -0.051012374
0001b0 e1 59 84 bd 0c eb 82 bc f7 c9 b5 3d 11 84 a6 bc
       -0.064624555 -0.01598122 0.08876412 -0.020326646
0001c0 3f 6c af bd 74 dd 8b 3d a1 e3 31 bd a6 cf 73 bd
       -0.08565568 0.06829348 -0.043429974 -0.0595242
0001d0 ba cb 30 bd 56 60 58 3d 87 1d bc 3d 9b e3 8c 3d
       -0.04316304 0.052826248 0.091853194 0.0687935
0001e0 e3 7e 01 be 41 bf 1e bd aa 13 60 3d 4c f7 3b 3d
       -0.1264606 -0.038756613 0.054706253 0.045890138
0001f0 26 5d 82 3d 8c db 5b bc 2f 99 0c bc 60 da be 3d
       0.06365423 -0.013419043 -0.008581444 0.093189955
000200 25 4a 21 bb 64 6c fe 3c d5 38 a4 3a df 43 9f 3c
       -0.0024610844 0.031057544 0.0012529144 0.019441543
000210 1b e0 90 3c 8f 52 4a 3d 79 e5 7c bb b7 6e 9a 3d
       0.017684987 0.04939514 -0.0038588925 0.075406484
000220 eb 6c dd 3c 7a 1c 97 bb 74 3e dd 3d 6c 7b 84 3c
       0.027029475 -0.004611549 0.108029276 0.016172133
000230 23 6a d1 bc fa 78 11 3e cd 30 81 3d bf 0e df 3d
       -0.025563305 0.14206305 0.06308136 0.108914845
000240 8a 62 be bc f1 66 be bb 11 3e 81 3d 45 1e 00 be
       -0.023240346 -0.0058106114 0.06310666 -0.12511547
000250 ff 00 8a bd 8b d8 d5 bc ea f4 a1 bd bd 93 49 bd
       -0.06738471 -0.026104232 -0.07908042 -0.04921316
000260 c8 fb 1d 3d f1 79 cf 3c d7 f7 0e bd c5 91 aa bb
       0.038570195 0.0253267 -0.034904327 -0.0052053654
000270 6a 64 63 3b 3d 23 d4 bd 65 58 ce 3c e7 12 9a 3c
       0.0034697303 -0.10358284 0.025188634 0.018807841
000280 9a 57 22 3d 30 76 7a 3d d5 4e 53 bd c5 b8 f1 bc
       0.039634325 0.06114787 -0.051588852 -0.02950705
000290 53 f2 34 3d bc 79 b5 bc 53 8b 0d 3b cc 08 7e bc
       0.04417641 -0.022152774 0.0021597936 -0.015505027
0002a0 7f ac c9 3d c7 44 3f 3d 82 4b a0 bb 87 c2 b8 3d
       0.09847354 0.04669645 -0.0048918137 0.09021478
0002b0 c7 53 b7 3d 4d 22 4b 3c 48 5a 8a bd 2e 1a d2 bc
       0.08951526 0.012398315 -0.06755501 -0.02564725
0002c0 39 54 3a bd a8 e1 88 3d ec a2 c9 3d c5 d5 31 3d
       -0.045490477 0.066836655 0.09845528 0.043416757
0002d0 79 c7 1c 3e e8 ab 01 3d ef 76 f8 bc c2 7b 8f 3d
       0.15310468 0.031658083 -0.03033015 0.07006027
0002e0 e7 71 c1 3b c2 e9 ee 3c 5e 77 d4 3d 86 d6 d4 3d
       0.005903471 0.029164199 0.1037433 0.103924796
0002f0 c6 14 2f 3e 9d 96 a8 bc 4b 30 c6 bc a9 fa e4 3c
       0.17097768 -0.02057963 -0.02419295 0.027951555
000300 f0 87 6b 3d 00 0b 18 bd e5 32 a1 bd f8 dd 05 3d
       0.057502687 -0.037119865 -0.078710355 0.03268239
000310 ff 20 ee 3c 21 b9 24 3d cf 66 64 bc 78 0e 28 3c
       0.029068468 0.040215615 -0.013940527 0.010257356
000320 0b b6 35 bb 8c 60 d7 bc c7 e7 c7 3d 96 c0 8d bb
       -0.0027726914 -0.026291154 0.09761005 -0.0043259365
000330 88 87 82 3d e6 b2 a0 3c 8e 14 09 3e 95 39 50 3d
       0.06373507 0.019616555 0.13386747 0.050836165
000340 13 f6 1f bd fe 0d b4 bd 82 d5 10 3d 5c 9d 23 3d
       -0.039053034 -0.08791731 0.035359867 0.03994499
000350 d9 75 8f bd 2d de 9c 3d cc 44 3b 3d c7 f3 bb bc
       -0.070048995 0.07659564 0.045719907 -0.02294339
000360 0c 2d 30 3d 23 b6 8d 3c 67 3e 8d bc 0e 6c 13 3c
       0.04301171 0.017298764 -0.01724167 0.00899793
000370 9d 5c 9f 3d 82 05 82 3d 0e 50 93 3d 94 58 8c 3d
       0.077813365 0.06348707 0.071930036 0.068528324
000380 6a 6a 2d bd c4 54 18 3d 38 1c 0f bd 3c 20 ba bd
       -0.042337812 0.037190214 -0.03493902 -0.090881795
000390 4e de f3 3c 15 87 7a bc bc 00 90 bc 58 42 8d 3d
       0.02976909 -0.015290995 -0.017578475 0.0689742
0003a0 e9 f5 b5 3d 2a 6b a3 bd 20 69 e3 bd 0f a7 84 3d
       0.08884794 -0.07979424 -0.111040354 0.064771764
0003b0 7b 75 cd 3d fc 3b 56 bd 7e d7 1b 3c 47 3c 03 ba
       0.10032173 -0.0523033 0.009511827 -0.00050062354
0003c0 7e 79 2b 3d 39 d5 c3 3d c6 55 7a bc bf d2 64 3d
       0.04186391 0.09562153 -0.015279239 0.055865046
0003d0 17 a6 cd bc 01 c5 3c bd f7 db 2e 3d 58 53 90 bd
       -0.025103612 -0.046086315 0.042690244 -0.070471466
0003e0 7d 3e c0 bc 08 81 b8 bd 6a c3 9f bd d1 28 b6 bd
       -0.023467297 -0.09008986 -0.07800944 -0.08894504
0003f0 fc 44 54 bd 1b 69 a5 bd 7b 1e 50 bd 77 b3 cb bc
       -0.0518236 -0.08076688 -0.05081032 -0.024865849

conv4.bias f4 [25]
000000 95 05 a5 3d 96 3c 45 bd 6e 81 cb 3c 0c c4 57 bd
       0.08057705 -0.048153482 0.02484199 -0.0526772
000010 a0 df 23 bc 6f 7d e0 3c 77 7e 0d 3e 68 f7 0b 3d
       -0.010002047 0.027403561 0.13817774 0.03417149
000020 af 91 87 3d 6a 41 c4 bd 0e 8c ac 3d c8 cd 9d 3c
       0.06619584 -0.09582789 0.08425151 0.019263163
000030 ba 1b 82 3d 16 c2 d5 3d db 19 c3 bd c2 aa d3 3c
       0.06352945 0.104374096 -0.09526416 0.02583826
000040 e5 fe bd bd 46 b7 9c bc 70 1f 92 3d a9 ae 77 3d
       -0.09277133 -0.01913036 0.071349025 0.060469303
000050 36 9e 0c 3d a5 09 11 be 04 b7 db 3d d5 4e dc 3c
       0.03433057 -0.14163835 0.10728267 0.026893059
000060 7c c5 fe 3d
       0.12440011

conv5.weight f4 [16, 25, 3, 3]
000000 e0 87 bf 3c c2 09 36 bd 1b f2 40 3c 23 3d 5c bd
       0.02338022 -0.0444429 0.011776472 -0.053769242
000010 fa 39 14 3d 34 25 90 bb 58 49 6f bc 97 3d fd 3d
       0.036188103 -0.004398966 -0.014604889 0.12365263
000020 1a 93 e5 b6 9b 9f 90 3c 6e 0a 7b 3c de 37 f7 2d
       -6.8418567e-06 0.01765423 0.015322311 2.8105459e-11
000030 b5 6e 49 3d f9 cd 90 bc a1 16 45 ab 50 aa d6 3d
       0.049177844 -0.01767634 -7.0019863e-13 0.10481703
000040 a2 66 5f 3d a7 b9 33 b5 ad 15 7a bc 7f 36 37 3d
       0.054541238 -6.6952856e-07 -0.015263957 0.044729706
000050 f9 dd 79 bc eb c7 8b 3d 11 26 24 3d 1a 0b d3 bc
       -0.015250676 0.06825241 0.040075365 -0.02576213
000060 75 af 62 3d b7 f9 e0 3b e1 d5 b3 b6 8c c9 f6 3c
       0.05534311 0.006865706 -5.3595145e-06 0.030125402
000070 9c af e1 3c 7b 20 ba 3b 46 01 60 bd 78 97 25 bc
       0.027549557 0.0056801415 -0.054688714 -0.010106914
000080 ba b6 46 38 31 67 b1 3d 6f 98 7b bc 06 e2 bb 2a
       4.7377056e-05 0.0866226 -0.015356167 3.3374708e-13
000090 e1 56 22 bd e3 86 1b 3d 5e bf 57 bc 15 89 cf bc
       -0.039633635 0.037970435 -0.013168184 -0.02533392
0000a0 59 11 75 bd 85 4b 25 ba 7f f6 e6 3c af 05 6f bc
       -0.059830997 -0.0006305504 0.02819371 -0.014588757
0000b0 c5 ff fa b7 52 fe ee 3b 3f 82 76 3c 25 c1 b6 b2
       -2.9921424e-05 0.007293501 0.0150457015 -2.127542e-08
0000c0 54 b0 b4 3c 44 1d 96 3c a9 6b 04 b4 3c 88 4a bd
       0.022056736 0.018324502 -1.2332625e-07 -0.04944633
0000d0 42 9c 4c 3c b0 ec cd 36 06 e7 0a bb 33 8f 2a 3b
       0.012488427 6.13703e-06 -0.002119483 0.0026025295
0000e0 1a 05 d3 b4 61 8b 3c 3c e4 9e 66 bd 78 c3 55 25
       -3.9305525e-07 0.01150784 -0.056303874 1.8541032e-16
0000f0 58 85 29 3d 03 34 da 3c 56 81 a0 22 43 87 57 bd
       0.041386932 0.02663613 4.3505027e-18 -0.05261923
000100 1c 74 9b bc b4 9e 03 ba a5 b3 87 bc 97 a8 83 3d
       -0.018976264 -0.0005020902 -0.016565153 0.0642864
000110 3e 91 f2 3b 07 bd f4 3c 93 2a 99 3d 89 f1 fc b6
       0.007402568 0.029875292 0.074788235 -7.5383036e-06
000120 c6 69 c0 bc b1 6e 83 3c 17 28 25 bb 40 67 ef bc
       -0.023487937 0.016043993 -0.0025200897 -0.029224038
000130 1e 29 a4 bb 82 96 06 bc ad 25 3a bc e6 e5 a2 3c
       -0.0050097844 -0.008214595 -0.011361522 0.019885015
000140 e5 77 fd b5 32 12 8a b9 73 69 5c bc c2 c3 e8 17
       -1.8884863e-06 -0.00026334968 -0.013452875 1.5042065e-24
000150 7c c7 51 3a 90 e5 15 3d 2c dd 0c 2f 27 c2 95 3c
       0.0008002443 0.03659588 1.2811502e-10 0.018281056
000160 d2 80 b0 3c 7a a5 1b 17 f6 02 d8 b9 10 76 b2 bc
       0.021545801 5.029206e-25 -0.00041200937 -0.021784812
000170 2f ab 90 3c 6d 9c 80 bb 6e 81 b4 bd 55 9c 44 bc
       0.017659752 -0.0039248974 -0.08813749 -0.012000163
000180 e3 96 9b bd 20 93 9a bc b7 58 74 b8 0c 51 dd bc
       -0.07597139 -0.018868983 -5.8256755e-05 -0.027016185
000190 e4 81 09 bd 92 d4 86 bc f3 c5 03 3c 08 47 8d 3d
       -0.03357114 -0.016458783 0.0080428 0.06898314
0001a0 a0 09 3a 3c 39 b5 9b 3d b2 0c cf 3d 3f 9a f1 35
       0.011354834 0.07602925 0.10109843 1.8000791e-06
0001b0 c7 d5 cc 3c 5f 9c 2d bc f7 e6 48 bc 74 4e 81 bd
       0.02500428 -0.010596364 -0.012262098 -0.06313792
0001c0 37 81 d9 bc ef ec 87 bb e7 0d d0 3c 94 e0 22 bd
       -0.026550872 -0.0041481177 0.025397254 -0.039764956
0001d0 1f c7 40 36 b5 a8 16 3c 6e a6 6e bc db 80 5e 3b
       2.8726133e-06 0.009195496 -0.014566047 0.0033951316
0001e0 78 6a b2 3d 56 1f 5c 3d f7 11 1b 3c 14 3f fc 3a
       0.087117136 0.05374082 0.009464732 0.0019244873
0001f0 a9 42 18 3d 25 13 42 37 22 b6 11 3d f0 46 d8 3a
       0.037172947 1.15677585e-05 0.035574086 0.0016500633
000200 9f ca 08 3a bf 5b 1f 3d 67 df 92 3d 7e fb 9d 37
       0.0005218181 0.038905855 0.07171517 1.8832969e-05
000210 43 64 aa 3d a8 47 ba 3d 48 6b 1c b7 08 09 a9 37
       0.08319905 0.090956986 -9.323303e-06 2.0150575e-05
000220 89 b1 bc 3c 4d eb bd b9 ef b9 85 3d 27 47 ad 3d
       0.023033874 -0.00036224202 0.06529605 0.08460837
000230 54 a9 cb 3b 72 78 5d bc c9 3d 0a bc 53 9b b6 b0
       0.006215254 -0.013517486 -0.008437582 -1.3286389e-09
000240 bc be ef 37 0c e6 05 b8 90 66 90 ad 94 c2 94 3d
       2.8579838e-05 -3.192392e-05 -1.6416452e-11 0.07263675
000250 df 26 b6 3d 58 08 2f b8 fa 36 1b 3d c0 f6 3f bd
       0.08894133 -4.1731022e-05 0.037894227 -0.04686618
000260 62 be 8e b0 a0 4b 75 3c d3 13 cb 3b 4f b7 37 bb
       -1.038597e-09 0.014971644 0.0061974316 -0.0028032844
000270 dd b0 e6 bc 1c b7 d2 bd 0b 27 eb bb 1a 2e 3a 3d
       -0.028160507 -0.102888316 -0.007176285 0.045454122
000280 4f af 01 3d 44 d9 81 31 11 c4 47 3c e5 59 98 3c
       0.031661328 3.7790944e-09 0.012192742 0.018597553
000290 f5 e2 73 b9 4d 89 2f bd 2b 22 1d 3d 81 07 6d bb
       -0.00023258834 -0.04285555 0.038362663 -0.0036167803
0002a0 15 fd 71 3d d1 9c eb 3a 0b f7 9c 2f 87 c6 0d 3d
       0.05907925 0.0017975812 2.855177e-10 0.03461316
0002b0 c2 38 28 3d 93 68 48 3a 9e e6 9a 3d df 6e 94 3d
       0.041069753 0.00076449773 0.07563518 0.072477095
0002c0 ba 53 cf 3a 09 c9 5f 3d 70 f5 94 bd b8 d0 dc a6
       0.0015817799 0.05463508 -0.07273376 -1.532214e-15
0002d0 a1 92 33 3b 4b a2 a1 3b 89 82 30 ba a8 d8 74 bd
       0.002740063 0.004932677 -0.00067333184 -0.059776932
0002e0 f2 2c b9 bb 73 2b e0 bb a5 89 59 3d d4 a0 bb 3c
       -0.00565111 -0.006841117 0.053109784 0.022903837
0002f0 c3 8b df b4 8f 46 90 bc f0 d6 8d 3c ba db fd 36
       -4.1638677e-07 -0.01761177 0.017314404 7.565567e-06
000300 b4 66 46 3d 75 73 ac bc ab 1e 00 b3 cb 34 78 3d
       0.04843779 -0.021051148 -2.9830215e-08 0.060597222
000310 7e 26 c5 3d 28 bf 82 15 a4 11 a9 bc 29 24 88 3c
       0.096264824 5.2808173e-26 -0.020638295 0.016618805
000320 42 7e 1f bc 07 f6 c2 bc 24 f7 91 bd ef ba ba ba
       -0.009734692 -0.023798956 -0.071272165 -0.0014246384
000330 b4 b7 54 3d 7f d1 16 bd 44 f4 81 28 19 bf 17 bd
       0.051933005 -0.036820885 1.442781e-14 -0.03704748
000340 cf 40 53 bd 65 85 9f bc 6e 9c 3e bd cb 4a 9f bc
       -0.05157548 -0.019472787 -0.0465359 -0.019444844
000350 6c b6 44 3c 83 c6 0d bd da 03 c4 3b 38 88 c9 b9
       0.012006383 -0.034613144 0.0059819045 -0.00038439198
000360 f7 ef 61 bc 96 5a b4 bc 4d ea 39 bc 95 3e 38 3d
       -0.013790122 -0.022015851 -0.011347366 0.044981558
000370 ec 7c 2e bc a9 4a f1 3b 34 20 97 bd 2e 8f 97 bd
       -0.010649901 0.0073636365 -0.07379189 -0.07400356
000380 33 07 16 b7 c0 ef 41 3c 0e df 82 3d 89 94 4a bd
       -8.942373e-06 0.011836946 0.063902006 -0.04945806
000390 00 bc 12 bc 05 26 ab bb 0d 5f a0 3a f2 21 67 3d
       -0.0089559555 -0.005223038 0.0012235359 0.056428857
0003a0 9d b8 7e 3c 46 ff ea bb 5a 58 a1 ba 9a 37 c9 3c
       0.015546945 -0.0071715442 -0.0012309656 0.024562646
0003b0 96 73 bb bc 4a c1 26 bb 1a 40 63 3d e4 0e fb 3b
       -0.022882264 -0.00254448 0.055481054 0.007661687
0003c0 6b 8c a2 3b bb 87 b6 3d 6b bd 8c 3b b6 67 6a 3b
       0.004960587 0.08912607 0.0042950413 0.0035767383
0003d0 6f fd f0 bc 55 8c 1b bc 36 34 1d bd da e0 96 bc
       -0.029417722 -0.009493907 -0.03837987 -0.018417764
0003e0 80 07 93 3d 0f ae 8a 3c fb a4 09 bd 4f 38 00 3d
       0.07179165 0.0169287 -0.033604603 0.0313037
0003f0 b1 03 0b 3a b4 67 05 bd cd 1b 85 3c da fa 7f 3c
       0.0005302979 -0.032569602 0.016248608 0.0156237725

conv5.bias f4 [16]
000000 9b 4f 41 bd c2 4a d2 bc 39 94 53 ba 00 f2 cf bc
       -0.04719506 -0.025670413 -0.0008071098 -0.02538395
000010 31 c6 46 3d ce 0b ce bc 81 c3 e2 3d 91 2e 68 3d
       0.048528854 -0.025152113 0.11072446 0.056685034
000020 06 3f f8 bc e3 56 2d 3e 65 e9 b4 3c 19 3a de 3d
       -0.03030349 0.16927676 0.022083947 0.10850925
000030 5b fd 2b bd 52 1c 91 bd a0 1d 9c 3d 66 b5 82 bd
       -0.041989665 -0.0708548 0.07622838 -0.06382255

classifier.1.weight f4 [10, 16]
000000 97 49 6c be 56 09 d3 3d 85 86 3b 3e 2c ae 46 be
       -0.23074947 0.10304515 0.18313034 -0.19402379
000010 d2 ed 1e 3e ab ad 7c bb 1f ea b8 bd 58 af 9d bd
       0.15520409 -0.0038555663 -0.0902903 -0.0769946
000020 83 59 38 bd 42 50 8b 3e f9 4a 0b bd cf 67 15 3e
       -0.04500724 0.2720967 -0.034007046 0.14590381
000030 f1 fb 51 be 55 cd da bc 35 c1 22 3e 93 20 51 be
       -0.20506264 -0.026709238 0.15894015 -0.20422582
000040 5c 55 0e 3e 57 c4 2b 3e 6e d9 0a 3e 2e 45 45 be
       0.1389975 0.16774116 0.13559505 -0.19264671
000050 d1 f5 87 bc 5e 14 44 b8 ff 00 a6 be 79 f8 00 3e
       -0.016596707 -4.674901e-05 -0.32422635 0.12594785
000060 73 84 54 bc aa 01 11 be 97 fd 75 3d 71 95 92 be
       -0.0129710315 -0.14160791 0.060056295 -0.2862964
000070 e0 7a a4 3d f2 90 0d 3e df 3e 64 be d0 c6 32 3e
       0.08031249 0.13824823 -0.22289608 0.17458653
000080 6a ec 05 3d 9d 09 97 bd 2d 0b b4 bd 5e 98 72 3e
       0.032696165 -0.073748805 -0.08791194 0.23690936
000090 62 2a 4a be dd f3 9c 3d f9 58 8a 3c 9c f7 11 3e
       -0.1974273 0.07663701 0.016888129 0.14254612
0000a0 67 de 13 3e fc 08 84 bd 70 00 87 bd 92 df ea 3d
       0.14440309 -0.06447026 -0.0659188 0.11468424
0000b0 bb 41 e3 bd 99 d2 08 3e 59 fa 3b be d5 3c 16 be
       -0.110965215 0.13361587 -0.18357219 -0.14671643
0000c0 94 ba 00 3d 80 32 e2 3d fe d6 ac bc 27 e2 05 3e
       0.031427935 0.11044788 -0.02109861 0.13074552
0000d0 39 5e 39 3c f5 e4 ab 36 59 96 e7 bd 98 09 55 bd
       0.011313968 5.1228512e-06 -0.113079734 -0.052011102
0000e0 7e 05 2b be 96 e3 23 be 77 a6 74 be c2 b3 b7 bc
       -0.16701314 -0.16004786 -0.23891626 -0.022424582
0000f0 e7 0f 6a 3e 48 e8 99 be 7c f1 c6 bd 83 77 5b 3e
       0.22857629 -0.3006003 -0.09714028 0.21432309
000100 d1 27 f9 bd 05 f0 0d be a7 84 3b be 58 0a 86 bd
       -0.121657975 -0.13861091 -0.18312322 -0.06544942
000110 a9 f9 6f be 59 8c 89 3c f4 e8 f9 3d 22 1a 1a 3e
       -0.23435082 0.016790556 0.122026354 0.15049031
000120 d8 25 ec bd 5c 7b 6f 3e 30 ed 33 3e eb 15 b3 3d
       -0.115306556 0.23386902 0.17570949 0.08744415
000130 69 df 81 3d 5b b9 00 bd 72 61 63 be 19 dc 16 be
       0.0634144 -0.03142677 -0.22205141 -0.14732398
000140 1a 04 b3 bd 34 6f 1f be 49 cb f3 3d d0 0a 5e 3e
       -0.08741017 -0.15569764 0.11904008 0.21683812
000150 b5 cd 0d be 99 ee 23 3d 66 43 e2 3d 38 31 97 bd
       -0.13848002 0.040022466 0.110480115 -0.073824346
000160 9f 3b 7c 3e c9 0a 2c be 49 ff f0 3c df 3c 07 3d
       0.24632119 -0.16800989 0.029418604 0.033017036
000170 6c 43 7f bd ce db 87 bd c5 fe fb bb 0f db 6a bc
       -0.062320158 -0.06633721 -0.007690283 -0.014334454
000180 aa 1d 74 3e 27 c4 17 be 26 74 da 3b dc db 0b be
       0.23839441 -0.1482092 0.006666678 -0.13658088
000190 9d 5d c7 3d 60 22 14 3d 64 c2 93 bc 84 2c 8f 3c
       0.09734652 0.036165595 -0.018037029 0.017477281
0001a0 67 f3 0b 3d 30 a7 4f bd 41 38 b9 3d 20 84 12 3e
       0.034167673 -0.05069655 0.09043933 0.14308214
0001b0 6d cb 81 be d4 42 30 be c6 81 6a be 56 b1 79 3e
       -0.25350514 -0.17212993 -0.22901067 0.24384055
0001c0 49 5c 69 be 1b 49 45 3e 7f c9 2e 3d 90 0c 8a bd
       -0.2278911 0.19266169 0.04267263 -0.06740677
0001d0 eb 6e 59 3e 1b 19 c1 3b 38 fb c1 3d bc b1 7b 3d
       0.21233718 0.0058928854 0.09471744 0.061448798
0001e0 4a 5b 29 3e 89 37 e1 bd 9b da 37 3d a5 38 c4 3d
       0.1653873 -0.109969206 0.044886213 0.095811166
0001f0 cf 92 27 3e d7 d4 0e be 6f 3d 69 be e1 64 88 be
       0.16364597 -0.1394838 -0.22777341 -0.26639464
000200 a7 e9 35 be d6 29 f7 3d 17 53 56 3d ac 57 45 be
       -0.17764913 0.120685264 0.052325334 -0.19271725
000210 06 39 4d be 96 df 8f 31 91 78 99 be be 79 0a 3e
       -0.20041284 4.1872665e-09 -0.29974797 0.13523003
000220 b4 b8 ff bd 7f 2c ea 3c f1 4f 5c bd a1 21 c1 bd
       -0.12486401 0.02858567 -0.053787176 -0.09430242
000230 0e f5 1f be 4c 82 de bb 52 4d 59 3e c3 dd ea 3c
       -0.15620825 -0.006790435 0.21220902 0.028670197
000240 c3 dc 0c 3e 5b f9 d9 3d 44 f9 cc bd 54 6c 41 be
       0.13756089 0.10643264 -0.10008481 -0.1888898
000250 a9 3c 4f 3c 96 d2 01 bc 9a 61 08 be 77 57 36 be
       0.01264874 -0.007923743 -0.13318482 -0.17806803
000260 c9 ae dd bd ad bf a9 be 7c 8b 49 3e 9e df 68 be
       -0.10824353 -0.3315405 0.19682115 -0.22741553
000270 51 ad a9 bd d2 cb 3f 3e 4d ad 07 be 2a 48 03 be
       -0.082850106 0.18730095 -0.13249703 -0.12820497

classifier.1.bias f4 [10]
000000 95 8a 93 bc b2 82 b4 bd ff a6 82 3e 7f e4 08 bc
       -0.018010417 -0.08813991 0.25518033 -0.008355259
000010 bf be aa 3d 77 d9 6e be 2b 70 75 3e 62 8c 93 bd
       0.08337163 -0.23325144 0.2396857 -0.0720451
000020 62 7a 31 3e c1 b3 77 be
       0.17331842 -0.24189664
