Cifar/reek_weights_trial_80iter_final2/Times0.pt (torch, 47937 bytes, 12 tensors)

conv1.weight f4 [8, 3, 3, 3]
00000000: 89b2 2bbe 2b4f d53d 804c 04be a939 013e
00000010: df47 0b3d 0938 bb3d ddaf 2ebe a5cc 29be
00000020: 3762 5dbd 40e3 153e d89d bebd d7ab 0c3e
00000030: 3d3e 2cbe 7714 65bc 1446 d2bd 5b30 27be
00000040: 6d94 4e3d f340 e83d c93c 5c3e 90e1 563e
00000050: ea24 1d3a 1722 703e 0a13 793e 7dec 843e
00000060: 10a1 803e 5dbf 6d3d f4d8 5c3e 8acb f2bd
00000070: 6bd8 c6bb 1ac3 c33d f0fb f03d 4c90 21be
00000080: 3b9a d63d 4c40 863e e8d6 5fbe 3b23 a6bd
00000090: dad0 2fbd 16ad 0abd 90e9 33bd 8a68 143e
000000a0: 62fc 01be ae32 a93d b389 b13e 7728 b6bd
000000b0: e9ac 83bd a788 26be a423 a8bd d43c c53d
000000c0: b674 e93c dada 3abe 4ea1 c3bd 8d1c 5c3e
000000d0: 99d6 f3bd 3420 293e 93bc a7bd d785 ccbc
000000e0: 8a09 7cbd 21d7 8f3d 53ef 8f3d bfa2 b03d
000000f0: 4e34 35bc e74c 7f3a ede8 5abd a023 f0bd
00000100: 4dfe 6abe 7e3a 48be 0a03 343d a5e8 e5bd
00000110: ad39 aabc 9866 00be 37ea 86be 5485 7bbd
00000120: 8baa 4d3d a432 22be 725f 3bbe 5ea1 1dbe
00000130: fcf0 54be f4c1 cabc 2a1c 2fbe c749 2bbe
00000140: 18ff 48be c704 d33d e170 5f3c 3072 33be
00000150: 3e9a 033e dbeb 2fba 20a1 52be 279c 133e
00000160: 65c2 8ebd c36f 84bd d467 76bd 63d0 aa3d
00000170: f19b 0d3e 4678 913d 9889 04be 0d76 013c
00000180: a950 113e 33d6 b2bb 47ed c8bd 4730 1e3d
00000190: 83cf 33bb 34c9 08be 9775 653e 7778 b1bc
000001a0: 75eb c0bd 995d 623d 9eec 84bd 2be4 0cbe
000001b0: cab5 c3bd b7b3 993d e39e c83d 5c44 403e
000001c0: fbab 713e 1e2c 833e c434 34be e46b 3e3b
000001d0: 1518 3abe c2f9 29be 5229 4b3e 5c61 ba3d
000001e0: 2f6c 193c fbeb 13be 4fa1 a63d 3708 3abe
000001f0: bdbc 93be 2937 c43c d35f 493d b098 c93d
00000200: 8d42 fd3d 08b5 813d 98b2 883d 75b0 4e3d
00000210: 02c7 883d 2e2b 83be 7903 9dbd 9ee3 1bbe
00000220: a73e 07be b604 793d e8a5 bd3c f9fc f23d
00000230: 63c6 ba3d 3bc6 a33b 4b2e a6bc 8c49 76bd
00000240: c88f 283e d9f6 2cbe cc6a f83d 3451 9fbc
00000250: 5c5b 64bd 0600 19bd e9d2 8fbc 8aa9 183e
00000260: 36c8 5ebe 2459 da3d 9736 ef3d 2de4 3f3e
00000270: f305 513e e3e6 493e c565 1f3e 873d 373e
00000280: ec36 da3c 17f9 d1bd b49e 963d cc09 0a3e
00000290: bb21 533e ffa5 eabd 4ed9 0cbc f66f 3abb
000002a0: bfcf 6fbe c8ec 2dbe a473 91be 41a4 57bd
000002b0: 11df 80bd 5ec3 0a3e ffcf da3d 58d5 ad3d
000002c0: a618 31bd f77d 5e3c 952f 51be 778f eebc
000002d0: 4f42 2c3e 4a0e 043d 7287 a9bd c22f 2b3e
000002e0: 139e f03d 1c91 cb3d 6dc4 4c3d debc 943d
000002f0: a67f 15be 113b 1b3c 7c0e 89bd a051 213e
00000300: ed23 1d3d 9481 afbd d2ad fe3d 5091 e2bd
00000310: 70f7 143e 4c3d 333e f6d5 6e3e cdd2 0c3e
00000320: eeae 963d 7749 32bd 11cf 8b3b 36cf edbd
00000330: 762a ac3d 3845 653e 1486 fd3d d1ad a13d
00000340: 20ff 22bc 8821 4bbd 3bbf 473e ea29 83bc
00000350: 39ff a4bb 2e01 793e 7240 6e3d 1580 c9bd
-0.16767325 0.10415491 -0.12919807 0.12619652 0.03400409 0.09141547 -0.17059274 -0.16581972
-0.054048743 0.1463747 -0.0930745 0.13737427 -0.16820617 -0.01398193 -0.102672726 -0.1632704
0.05043452 0.11340513 0.21507563 0.20984483 0.00059945753 0.23450504 0.24323669 0.25961676
0.2512288 0.058043826 0.21567136 -0.11855228 -0.0060682795 0.09558697 0.11766803 -0.15777701
0.10478636 0.2622093 -0.21859324 -0.081121884 -0.042923786 -0.033856474 -0.043923914 0.14493003
-0.12693933 0.082616195 0.3467537 -0.08894437 -0.06429464 -0.16263066 -0.08209923 0.09630743
0.028498035 -0.18247548 -0.09552251 0.21495266 -0.11906166 0.16516191 -0.081902646 -0.024966164
-0.061532535 0.070234545 0.07028069 0.08624791 -0.011059834 0.00097389374 -0.05344479 -0.11725545
-0.2294857 -0.19553563 0.04394821 -0.11226014 -0.020779455 -0.12539136 -0.26350567 -0.06140645
0.05021147 -0.1583963 -0.18298128 -0.15393588 -0.20795053 -0.024750687 -0.17100587 -0.16727363
-0.1962856 0.103036456 0.013637752 -0.17524028 0.12851807 -0.00067108654 -0.20569277 0.14415036
-0.069706716 -0.06466629 -0.060157612 0.08340528 0.13829018 0.071030185 -0.12943113 0.007901681
0.14190926 -0.0054576634 -0.09810882 0.03862026 -0.002743692 -0.13358003 0.22408138 -0.021663887
-0.0941991 0.055265043 -0.06490444 -0.13758914 -0.09556158 0.07504981 0.0979593 0.18776077
0.23600762 0.25619596 -0.17598253 0.0029056007 -0.18173249 -0.16599181 0.19839981 0.09100601
0.009364172 -0.14445488 0.08136236 -0.18167196 -0.28854933 0.023952084 0.04916365 0.09843576
0.12366209 0.06333357 0.06674689 0.05046125 0.06678583 -0.2561888 -0.07666678 -0.15223548
-0.13207494 0.06079551 0.0231504 0.11864657 0.091198705 0.004997996 -0.020285746 -0.060128734
0.16461098 -0.1689104 0.12129745 -0.0194479 -0.05575119 -0.037353538 -0.017556624 0.14908424
-0.21756062 0.106615335 0.11680334 0.18739386 0.20412426 0.19716983 0.15566166 0.17894565
0.026637517 -0.10252588 0.07354489 0.134803 0.20618336 -0.114574425 -0.008596731 -0.0028448082
-0.23419093 -0.16984856 -0.2840854 -0.05264688 -0.062925465 0.13551089 0.10684203 0.08487958
-0.043236397 0.013579837 -0.20428307 -0.029121144 0.1682217 0.03224019 -0.08277787 0.16717437
0.117489 0.09939787 0.049992014 0.07262586 -0.14599475 0.009474532 -0.06692216 0.15753794
0.03836434 -0.08569637 0.12435497 -0.110628724 0.14547515 0.17503852 0.23323807 0.13752289
0.07357584 -0.043527093 0.0042666276 -0.11611788 0.08406536 0.22389686 0.12379089 0.07894481
-0.009948522 -0.049592525 0.19506542 -0.016011197 -0.0050353077 0.24316856 0.05816693 -0.09838883

conv1.bias f4 [8]
00000000: 5c76 4e3e bdeb 1f3e c769 0a3e 65a7 e93d
00000010: 9229 463e c0db 2ebe 8ccf d03d 661a 0abd
0.20162338 0.15617271 0.13516913 0.11408881 0.19351795 -0.17076015 0.101958364 -0.03371658

conv2.weight f4 [10, 8, 3, 3]
00000000: 5e8a a8bd d319 6c3c 3cc0 a5bd ee97 90bd
00000010: 1ef8 da3d 1542 2a3d 176d 90bd 175d 3bbc
00000020: caff 0b3d 2dd3 853d 5cc2 8bbd 1719 72bd
00000030: e763 d2bd 13ca 82bd 42ec e83d f3f2 8a3d
00000040: 1e72 4cbd ca16 aa3c 722e 673c 2c9c b13d
00000050: c036 16bd 619f 7ebd be6b e3bc 9140 693d
00000060: 7a15 b03d fb9e 3d3e 05d3 a73d 77fc 15be
00000070: 796d 55bd 0160 353d aa36 bbbd a6d7 18be
00000080: 6775 a0bd 3d09 d5bd 6cb0 26bc 73ea fcbd
00000090: 962b cd3d 8036 33bb a2d6 c93d 6dd0 0d3e
000000a0: ffa6 e53d 621d 16bd c6eb 173e 3ee7 5fbc
000000b0: ad33 1e3e 7204 293d cd41 323d 8bc4 f83d
000000c0: 8d8c 6f3d 414a 0fbd f254 003d 5cc9 cc3d
000000d0: acb6 52bd 4d17 b03d 9b2c 313e 80c2 103e
000000e0: 531e 103e 6614 f43c 603c 8abd d9ea 97bd
000000f0: 5864 423d 8788 8e3d db03 383e d749 a83c
00000100: 4d4f 4cbd 0d93 193d 8797 813b 572a 7f3d
00000110: 8baa cdbc 0664 dfbd 33c9 ebbd 80ea 51bd
00000120: de8b 063d a5ed 9d3d 3b0f 7abb db8b fd3c
00000130: 9750 03bd e253 e23a ed33 673c f563 06be
00000140: 46ae cbbd 3098 1b3e 692f 1f3e 2317 cf3d
00000150: 06f2 59bd 7875 b03d 03ec cb3d 95d4 023d
00000160: bbe4 cd3c a53c aa3d 78e0 12be b05c e33d
00000170: dc99 8c3d 5e0a cebd 161b c23d e812 b83d
00000180: b8f1 90bd f15d 0bbd 815c b8bd 176a 4e3e
00000190: 570c 2a3b bd65 7d3d 8030 b13d ad19 9f3d
000001a0: 0cc1 8d3b 2b10 003e 83a4 103e 8b31 543d
000001b0: 4915 013e 64ef 98bd c381 023d 4932 813d
000001c0: dea2 d3bc 5d3f 543d 5f4b 0f3e f3bc f7bd
000001d0: 6924 ff3a 8dda af3d 7443 be3d 749b 393d
000001e0: 587a 86bc aa33 ac3d 40d6 54bd dbcb 913b
000001f0: fb5b aebd 4c1a 443d 7186 603d 41f8 fb3d
00000200: 7ccf f6bd 70d0 5cbb 322a 80bd 4c59 4fbd
00000210: 9399 e13d 8cd6 13bb 5739 cebd eb5e 5ebc
00000220: 3410 a2b8 60ee b6bd 8a69 a63c f156 c2bd
00000230: b72a cabd cae7 2d3d cc56 1abd df80 d53a
00000240: 6ae7 ce3d debc a5bd e792 66bd e297 c6bd
00000250: 3ae8 5dbd c623 3b3d 63ac d1bc 198b dcbd
00000260: 54fe 6e3d f4ce c0bc 43d0 423d b776 183e
00000270: c5d6 0f3e 22c2 f53d 1af5 0c3d aa56 233e
00000280: f650 e23c 7d59 a43d 037b f2bd 64fa a8bd
00000290: c1f5 27bc 1c05 ca3d 86d7 cd3d 8fa2 38bc
000002a0: b601 36bd ce1a 5fbd 437c d43d 7f39 66bb
000002b0: 8e79 1dbd eb0e a3bd cd95 28bd 8c66 6abd
000002c0: eb48 9ebd af69 443b facf a4bd 07f0 cfbd
000002d0: 8431 293c a77e 7d3d 0a2f 153e 4686 113e
000002e0: 38f6 163e a630 793d 6892 9b3c ebcc dfbd
000002f0: d18c f6bd d831 143e 2aed db3d 5536 143e
00000300: 6e4c 303d b5d3 cc3b 0272 5fbd 5c89 a3bd
00000310: b383 0dbc c9b9 a0bd 7899 233e 1cca ee3d
00000320: 0cad d13d 5293 2e3e 14f2 fc3d fa7a 253c
00000330: 97d6 89bd 4346 b33b b20f 8f3d 4835 00bc
00000340: 1668 7e3d 00dc a03d 9855 013d 29ba febc
00000350: c1e6 87bd 1b1f c6bc 71cf a73c e66d 8e3c
00000360: e2bc e1bd 19ba 9a3d f7c9 683d 0d17 fabd
00000370: ead0 553d 81db 393d fd08 b7bd 2178 ebbd
00000380: 7f9f adbc 9e4e e83d f5b6 8abd da07 57bc
00000390: bd65 fe3c 5280 83bd de06 6dbd 7e80 b83b
000003a0: c3ef 1f3e 3d63 913c 9d0b d73d 7aac d93d
000003b0: b00a f8bd b263 90bd 8c9d 03bc fdd3 9f3d
000003c0: 2353 49ba e02f e03c 0a26 dbbd 082a b73d
000003d0: 6217 093e b2df 2c3c 4320 073d 8b0a 73bd
000003e0: abe6 d03d 5fc3 e13d fb6f ee3d 6cbd 643c
000003f0: ac2d a63c e81d 473d d998 843c 3624 f7bd
-0.082295164 0.014410454 -0.080933064 -0.07060228 0.10691856 0.041566927 -0.07052057 -0.011435769
0.034179486 0.06534419 -0.068241805 -0.05910596 -0.10272961 -0.06386199 0.113731876 0.0678462
-0.049913518 0.02076282 0.0141101945 0.086723655 -0.036673307 -0.062163714 -0.027761336 0.05694634
0.08597846 0.18517677 0.08194546 -0.14647089 -0.052106354 0.04428101 -0.09141286 -0.14926013
-0.07834893 -0.10402153 -0.010173898 -0.12349405 0.10018079 -0.0027345717 0.09855391 0.1384904
0.112134926 -0.036649115 0.14836034 -0.013665972 0.154494 0.041264005 0.043519784 0.121468626
0.05848365 -0.034982923 0.03133101 0.09999344 -0.05144374 0.08598194 0.17302172 0.14136696
0.14074068 0.029794883 -0.06749797 -0.074178405 0.047458977 0.06959634 0.1797022 0.020543022
-0.049880315 0.037493754 0.003954831 0.062296238 -0.025105735 -0.1090775 -0.11512985 -0.051249027
0.03284823 0.07711343 -0.003815605 0.030950477 -0.03205928 0.0017267431 0.014111501 -0.13124068
-0.099453494 0.15194774 0.1554543 0.10111835 -0.053209327 0.086161554 0.09957125 0.031941015
0.025133481 0.08312348 -0.1434344 0.11101663 0.06865284 -0.10060571 0.094778225 0.08987981
-0.07077354 -0.034025136 -0.09002019 0.20157658 0.0025947297 0.061864603 0.08651829 0.07768569
0.0043259915 0.12506168 0.14125256 0.05180506 0.12605776 -0.07467535 0.03186203 0.06308419
-0.025834497 0.05181824 0.13993596 -0.12096586 0.0019465807 0.08586607 0.092902094 0.045314267
-0.01641576 0.08408292 -0.051962137 0.0044493503 -0.08513638 0.04787664 0.054815713 0.1230321
-0.12051293 -0.0033693574 -0.06258048 -0.05062227 0.1101562 -0.00225583 -0.100695305 -0.013572435
-7.72778e-05 -0.08932185 0.020313997 -0.09489239 -0.098714285 0.04245738 -0.037680432 0.0016289017
0.101027325 -0.08092664 -0.05629244 -0.09696938 -0.054176547 0.045688413 -0.025594896 -0.10768718
0.058348015 -0.023536183 0.047561895 0.14889036 0.14046772 0.119999185 0.034413435 0.15951028
0.027626496 0.08024881 -0.11839869 -0.08250883 -0.010251463 0.09864256 0.100508735 -0.011269226
-0.044435225 -0.054468922 0.103752635 -0.0035129485 -0.038446 -0.0796183 -0.041158486 -0.057226703
-0.07728752 0.002997022 -0.08047481 -0.101532035 0.010326747 0.061888363 0.14568725 0.14211378
0.14742362 0.06083741 0.01899071 -0.10927757 -0.12038577 0.14472139 0.10738595 0.14473851
0.04304164 0.0062508234 -0.054552086 -0.079851836 -0.008637357 -0.07847936 0.15976512 0.11659643
0.10238084 0.17048386 0.1235086 0.010100121 -0.06730383 0.0054710223 0.069854155 -0.007825203
0.062110983 0.07854462 0.03157577 -0.031094627 -0.0663581 -0.024184754 0.020484658 0.017386388
-0.11022355 0.075550266 0.056833234 -0.12211428 0.05220119 0.04537535 -0.08937261 -0.11497522
-0.021194218 0.1134312 -0.067731775 -0.013124431 0.031054372 -0.064209595 -0.057867877 0.005630552
0.15618806 0.017747516 0.10500262 0.106286004 -0.121114135 -0.07050265 -0.008033168 0.078041054
-0.000767993 0.027366579 -0.10700615 0.08943564 0.13387826 0.01055138 0.03298975 -0.059336226
0.102002464 0.11023592 0.11642452 0.013961177 0.02028545 0.048612505 0.016186165 -0.120674536

conv2.bias f4 [10]
00000000: 5ee8 dbbc 3ab6 9d3c 5f79 eebd 67c9 b53d
00000010: 8408 0c3d a3c0 a5bd 49d9 de3d 58db 17bc
00000020: 3cd4 31bb 3db7 483d
-0.0268442 0.019251931 -0.116442434 0.08876305 0.03418781 -0.08093383 0.108812876 -0.009268604
-0.0027134558 0.049002875

conv3.weight f4 [20, 10, 3, 3]
00000000: bd29 553c 94f1 133d 9326 203d 8d00 ba3d
00000010: 53e5 243e b52d 113e 9f64 e83d d40c 943d
00000020: 6a4e 0ebd 616d 9a3d 13c7 c13d d42d b6bd
00000030: 1a55 44bd 36fc d4bd cd95 0cbd cef6 b93c
00000040: ccf5 afbd 38d7 55bd f3c7 f33d bc46 903d
00000050: ce35 053c 57ab 973d 8de8 cb3d ea28 db3c
00000060: f2e9 ba3d 4f11 223c e5ce 973c 6878 eabb
00000070: 3535 b6bd e7c8 d0bd ae31 8abd 2911 68bd
00000080: aed6 b1bd d38f f5bd 907b a5bd 4e44 afbd
00000090: edd0 fa3c 55e7 07bd dbdb 083d f928 7ebd
000000a0: 8880 c63c 2763 523d f923 b3bd 5df8 44ba
000000b0: a45f 563d 88c9 9cbd c62a 073d 2c94 2e3b
000000c0: 000a 3b3d 4098 673d fb8e 1abd d8d8 013e
000000d0: 83be eb3d c4d2 fd3c dced 0c3c 1d55 2bbd
000000e0: a03e 88bd ecd7 d83a acf8 51bd b743 99bb
000000f0: bb21 7e3c 66f6 b2bd 8817 11bd 736b 2fbc
00000100: 8d6e 023e 7054 013e eed5 dd3d 57b0 a63d
00000110: 9970 083e 47a2 a73d 58f4 8e3c 341e 2e3e
00000120: a72f d8bd 3c01 8dbd 4f07 83bd 35ca 15bd
00000130: a381 a2bd ce96 693c 55f3 d33d 5f44 163d
00000140: f1ec 483d 41b2 983d 54b7 19bd def7 2abd
00000150: 91d6 51bd 6bfa df3d adcc 943c abc9 87bd
00000160: 98a7 9f3d 0388 653c cbb6 233e 5afb fe3d
00000170: e21c 563d 1ff7 323d f9b6 913d 9e96 ea3c
00000180: 636b 18bd 24b8 30bd 1db0 943d fc10 a8bd
00000190: 3e9c 3fbd ca7e 103e 81b4 13be 63a7 80bd
000001a0: 18c6 383d 25db 23be 07c2 62bd f099 003e
000001b0: 9fcf 91bd 567a 903d 95f3 47bd 7c83 583d
000001c0: 6e39 d4bd 21d2 8bbd 34d3 7dbc c724 01be
000001d0: 404e 61bd 4707 c5bc 2722 95bd 90c2 65bd
000001e0: b710 a73d 5dfb 9bbc 25ab 9f3b 1ccc 02b9
000001f0: e9ab ffbc eea4 abbd 8d1e aa3c c767 6dbd
00000200: 4dfd 693d c01b cfbd 3cc0 eabd 098c 23bd
00000210: c361 08bd df06 903d f12e 38bd 4ead f33c
00000220: 68d8 31bd 7d51 dd3c 702b bb3c defc 1ebd
00000230: b121 22bd 4fe9 f73c b1e6 803d 4335 1b3d
00000240: 96be a63d e640 303e 467d 2a3e ff15 60bb
00000250: 78cf f13d 5f7e 4e3e 103e b03d f199 233e
00000260: 8e75 433e f7b0 243e bd26 bbbc a3b7 debc
00000270: 41d6 1fbc ca0d da3d 6f95 063b eba7 1d3d
00000280: 9384 903d 2ded 67bd c070 e03d d22c 6ab8
00000290: 8ef0 2bbc 0893 72bd ef44 a83c 54a2 9c3d
000002a0: db17 3e3c 1276 3abd 0dba 39bd 91c3 e9bc
000002b0: e5a5 0f3e eace ce3d 573b 1bbd 6758 063e
000002c0: ae4f 983d 7754 de3d 1eab 973d 4014 e53d
000002d0: 1e50 083d ac30 963b 8096 673d 82a7 923d
000002e0: 841a 6a3d 2f8f cabd d71b c83d e4e9 4ebc
000002f0: b860 6ebd d384 cfba 8e0b 463e dbe4 ea3d
00000300: 387b 393d 8414 113e 2d75 693d c795 1fbd
00000310: e935 febc 57f8 913c 47d3 68bd 83ea 943d
00000320: c465 ef3c e2ab fd3c ea60 213d c365 b8bd
00000330: 531b 08bd f9a5 cfbb cfcc 16bd 0acf e03c
00000340: 7018 283d 12e0 2b3e 5f6d 103e 046d 71bc
00000350: 5ee6 753c f9d6 c03d 1a92 75bc c10a ba3b
00000360: 7c88 09bd f53e 9fbc b2c7 903d b69f 75bd
00000370: 5b51 203e e74e 203e 06ca 8b3d cd41 d8bc
00000380: c2ce 88bd 90fe 08bd 8e94 1aba 426b babd
00000390: 551c d53d acad 363d 1ae9 0c3b a31b 763d
000003a0: 8f4d a83d c5b6 04bc 4c27 093e 5c74 cb3d
000003b0: 5c62 043e 43c3 183d 7145 583e 2624 d73d
000003c0: 9907 053e f389 6c3d a628 e93d e796 023d
000003d0: 00af 78bd dce6 ed3c 1d2a 3b3d 224a 1d3d
000003e0: 7920 e9bd 5a65 39bc 880d d9bd 127f afbc
000003f0: 2ab5 233d 8f69 ed3c 4bfc 843d d5a7 033d
0.013010439 0.03611906 0.039099287 0.09082136 0.16103105 0.14177592 0.11347317 0.07229009
-0.03474275 0.075403936 0.094617985 -0.0889546 -0.04793272 -0.10399668 -0.03432255 0.022700693
-0.08591804 -0.0522072 0.11903372 0.070447415 0.008130504 0.07405727 0.09956465 0.026752908
0.09126653 0.009891822 0.018531272 -0.007155467 -0.08896867 -0.10194569 -0.06747757 -0.05665699
-0.08683525 -0.11990323 -0.08080208 -0.0855795 0.030617202 -0.0331796 0.033412796 -0.062050793
0.02423121 0.05136409 -0.087470956 -0.00075138157 0.052337304 -0.076556265 0.032999776 0.002663861
0.045663834 0.05654168 -0.037734013 0.12680376 0.115109466 0.03098429 0.008601632 -0.041829217
-0.0665257 0.0016543842 -0.051262543 -0.0046772617 0.015510972 -0.08738403 -0.03542283 -0.01070677
0.12737484 0.12629867 0.108318195 0.08139103 0.13324203 0.08185249 0.017450497 0.17003709
-0.10555964 -0.06885001 -0.063978784 -0.036569793 -0.079348825 0.014257146 0.10349146 0.036686298
0.04905409 0.07455874 -0.03752835 -0.04174029 -0.051230017 0.10936435 0.018164003 -0.06630262
0.07795638 0.0140094785 0.15987699 0.12450285 0.05227364 0.043692704 0.071149774 0.028636273
-0.037211787 -0.04314436 0.072601534 -0.082063645 -0.046779864 0.14110866 -0.14424326 -0.062819265
0.045110792 -0.16001566 -0.05536082 0.12558722 -0.07119679 0.07054584 -0.048816282 0.05285977
-0.10362516 -0.06827188 -0.015492249 -0.12611686 -0.055006266 -0.024051322 -0.07281905 -0.056093752
0.08157485 -0.019040758 0.004872697 -0.00012473803 -0.031209903 -0.08381067 0.02076652 -0.057960298
0.057126332 -0.10112715 -0.11462447 -0.03992847 -0.033296358 0.070325606 -0.04496664 0.029745724
-0.04341927 0.027016396 0.022847861 -0.03881537 -0.039582912 0.030262617 0.06294001 0.03789259
0.0814182 0.17212257 0.1664935 -0.0034192798 0.1180715 0.20165394 0.086055875 0.15976693
0.19087812 0.16083132 -0.02284562 -0.027187174 -0.009755672 0.10647161 0.0020535847 0.038490217
0.070565365 -0.056622673 0.10959005 -5.583169e-05 -0.010494364 -0.05922225 0.020540683 0.07648149
0.011602367 -0.045522757 -0.045343447 -0.028535636 0.14028127 0.100980595 -0.037898388 0.1311966
0.07437073 0.10855954 0.07405685 0.11185503 0.03327953 0.004583439 0.056540012 0.07160856
0.057154194 -0.09890591 0.09770935 -0.012629006 -0.058197707 -0.0015832431 0.19340345 0.11469432
0.045283526 0.14167982 0.056996513 -0.0389612 -0.031031566 0.017818613 -0.056842115 0.07271292
0.02922333 0.03096575 0.039399065 -0.090037845 -0.033229183 -0.006336924 -0.036816414 0.027442474
0.04103893 0.16784695 0.14104222 -0.014735464 0.015008537 0.09416003 -0.014988447 0.0056775515
-0.033577427 -0.0194392 0.07069339 -0.059966765 0.15656035 0.15655099 0.06825642 -0.026398564
-0.06680061 -0.033445895 -0.000589677 -0.09102489 0.104057945 0.04459922 0.0021501244 0.06008495
0.08217918 -0.008100216 0.13393897 0.09934303 0.12928146 0.03729559 0.2112024 0.10504942
0.1299118 0.057748746 0.11384706 0.031882193 -0.060713768 0.029040746 0.04569446 0.038400777
-0.11383147 -0.011315668 -0.10598284 -0.021422897 0.039967693 0.028980998 0.064934336 0.03214248

conv3.bias f4 [20]
00000000: 6479 7c3d 0aeb b93d a981 4c3e ab07 033e
00000010: ba6a e1bd f005 90bd 31e9 1e3d 2f60 a5bd
00000020: 1bbc e63c 7fdd f3bd d6d1 cebd 8215 2f3e
00000030: 0ed9 cbbc 30ad 5c3c 6f09 af3d 2314 89be
00000040: 8c79 113d 863a 413e 8c60 b23c 4284 fc3d
0.061639205 0.09078033 0.19971336 0.12795894 -0.110066846 -0.070323825 0.038796607 -0.08074986
0.028165868 -0.119074814 -0.10098617 0.17098048 -0.024883773 0.0134690255 0.08546721 -0.26773176
0.035516307 0.18869981 0.021774553 0.12329914

conv4.weight f4 [25, 20, 3, 3]
00000000: dc8f 0e29 44d5 c8b7 b1cc a039 2ae9 49b3
00000010: 6592 9db7 512d 6bb3 1477 86b3 929d f8b2
00000020: 7e25 28b4 6129 f723 557e 73ae 6a11 a5b7
00000030: adea 52b7 de3d c7b0 7407 ffad 4d73 77b5
00000040: 2885 5c38 5e2c 689b e55b cbb4 d11c cab7
00000050: 3f9d b7b8 6a66 88b3 74d9 c6b6 4504 27b6
00000060: 1e29 21b7 490f c8b6 59e0 cfb8 4c74 b8aa
00000070: 8e7a 8236 c355 e335 1d4c 82b2 baa9 aab8
00000080: 35b1 75af 5eda 09b6 472d 46b5 6607 622e
00000090: 7aa6 36aa c947 2eb8 2361 cbb9 4277 14b5
000000a0: e7c3 93b7 936a 4639 eaf5 a9b4 b76b acb6
000000b0: eacb d0b3 e4ca 472d 631a ebb7 3ad8 c1b7
000000c0: a3bd 42b4 eb71 d5b4 7872 52b7 e01a 84b5
000000d0: 9ec9 a8b5 735c 5530 0ba6 5a32 87be efb4
000000e0: 2361 b6af a9e7 9eb2 4564 d9b6 65b2 76b2
000000f0: bbe1 1c35 6872 86b5 a787 a0b4 7181 f9b7
00000100: 7e13 02ba 3057 06ba 6bdb 05b6 357f e8b6
00000110: 605e dcb7 6797 9fb6 b3d7 2cb6 ebca 8daf
00000120: 72b3 391e 164e 34ba a3d8 853a 008c 17b7
00000130: c040 e0b8 913f dfb9 7188 55b7 31d2 2bb7
00000140: 67d8 6cb7 51f9 7ca9 3cf7 27b9 cd8d fbb7
00000150: e023 9bb2 7e44 88b8 0465 c1b8 2397 52b4
00000160: 8633 5538 1086 fcb5 93b9 40a6 b318 b9ae
00000170: ca4f e6b2 717e c737 81b0 1938 237f 20af
00000180: 3553 75ab 6f87 d9b6 b2e2 32b2 edae 1cb8
00000190: c7d1 f7b2 4c8d 6137 e76e 60b5 8d1b 57b4
000001a0: 26d6 4b2e bad6 fdb5 24dc 84b3 9a5b 98a8
000001b0: d5bf a3b7 0ba3 02b8 fa62 2fb9 54f2 07b3
000001c0: e055 15b8 0f29 b0b7 83ab aeb6 0005 0db8
000001d0: 9927 8837 119c 7c34 bf03 c1b5 8c47 5eb5
000001e0: 0747 14b8 2c9a dab7 f46a 8aaf 98da 52ae
000001f0: a21f adb6 c82d eab1 ab48 47a2 1af0 ec35
00000200: 8bbf 45b0 e548 48ab 0916 a4b4 e49c 81ad
00000210: 46b0 d125 9185 7eb6 8767 ff32 60a7 8517
00000220: 9ff6 5db9 6f08 20ba b07a 1c38 7039 1bb8
00000230: 1ce6 c0b9 732c a6b6 bf90 9237 df38 3fb3
00000240: 89d1 9d1b 086c 0039 45e4 26b8 d733 36b6
00000250: bf98 1db5 df2e e5ab 4ee9 58b6 1214 03ae
00000260: 6e2d 9cb3 8a14 8093 ca53 8e38 ac11 59b1
00000270: 6924 0db2 7c53 96b5 5b98 8832 6518 04ab
00000280: 6e02 d8b5 375e 10b6 d51e c828 dd62 fbb6
00000290: 723a f2b6 0f1f f125 b162 d1b5 ead0 a4b4
000002a0: 1d2f 1f37 17c0 22b2 74db abb5 1893 b636
000002b0: a15c a5ae 5c1c fcac 335c 1db8 0264 0039
000002c0: 7902 ccb4 efdb 0eb6 67c8 16b7 176d 9d38
000002d0: 7604 5f3d 40d5 153d 9c17 323a 42f0 993c
000002e0: 20c3 a6bc 9b67 8b3d 9ed7 2f3d e94a 42bd
000002f0: 470f 413d 9064 993d 5a32 6a3d 6a34 1abc
00000300: 5acb 313d b5fd 0f3c 3ce3 5b3d 1e84 df3d
00000310: d468 e6bc c09e 18bc 961a b63c cafa a2ba
00000320: d451 8ebd f4c1 b83d cc1f d8ba 8a91 05bb
00000330: 61ee 9a3b 7fe9 963d da30 d93d b54e 6abb
00000340: 3a95 27bd 892f cabd 11de 493d e8bf 8bbd
00000350: f9f3 91bd 92c5 d3ba c7f7 ae3b 5dab c33b
00000360: d754 65bd a3a4 e8bc 2a38 89bd 3cf4 84bc
00000370: f097 31bd 9452 4abd 2622 93bd 1600 0fbd
00000380: 0ca9 0ebd 1d60 ceba 271b d5bd 51cb e3bd
00000390: d76b 8abb 2c32 25bd bb7f 38bb 8028 4e3c
000003a0: 5be5 63bb ed97 ad3d 0767 c2bc 00e7 c9bd
000003b0: 36c5 a6bd 70ce 89bd 7d8d 903d 70da 3b3c
000003c0: bc8b 36bd bde1 c33c c2e2 cc3d 9f65 9a3d
000003d0: 5557 493d f079 7f3d 8142 8d3d 5788 2d3d
000003e0: 9ee0 593d 63d9 823d 02d7 5e39 7443 363b
000003f0: 18c8 5a3b 20f0 83bd bcb6 373d 1902 8b3d
3.1655112e-14 -2.3941167e-05 0.00030670085 -4.701102e-08 -1.8784029e-05 -5.4756416e-08 -6.2615214e-08 -2.8942654e-08
-1.5659859e-07 2.6797318e-17 -5.536401e-11 -1.9677642e-05 -1.2571615e-05 -1.4496739e-09 -2.8993453e-11 -9.2182455e-07
5.25761e-05 -1.9204926e-22 -3.787856e-07 -2.4093695e-05 -8.755409e-05 -6.3516225e-08 -5.9261747e-06 -2.4887424e-06
-9.605921e-06 -5.962244e-06 -9.912317e-05 -3.2765663e-13 3.888569e-06 1.6937778e-06 -1.5168604e-08 -8.137846e-05
-2.2345577e-10 -2.0541697e-06 -7.3826635e-07 5.1393022e-11 -1.6222605e-13 -4.1551688e-05 -0.0003879155 -5.530784e-07
-1.761499e-05 0.00018922453 -3.165763e-07 -5.138539e-06 -9.7228465e-08 1.1356891e-11 -2.802647e-05 -2.3108081e-05
-1.8136647e-07 -3.9757228e-07 -1.2543627e-05 -9.842588e-07 -1.2575654e-06 7.7620327e-10 1.2727024e-08 -4.4655846e-07
-3.3174627e-10 -1.8498968e-08 -6.478777e-06 -1.4359647e-08 5.844301e-07 -1.0017075e-06 -2.9901022e-07 -2.9743389e-05
-0.0004962011 -0.0005124686 -1.9946262e-06 -6.9289476e-06 -2.626999e-05 -4.756195e-06 -2.575555e-06 -2.5791932e-10
9.830927e-21 -0.0006878091 0.0010211657 -9.032898e-06 -0.00010693213 -0.00042581235 -1.2727557e-05 -1.0241333e-05
-1.4117081e-05 -5.6171488e-14 -0.00016018463 -2.9987563e-05 -1.8060689e-08 -6.497743e-05 -9.221773e-05 -1.9612757e-07
5.0831142e-05 -1.881448e-06 -6.686488e-16 -8.4172135e-11 -2.6811808e-08 2.3781527e-05 3.6642425e-05 -1.4597083e-10
-8.715696e-13 -6.4828705e-06 -1.0412508e-08 -3.735621e-05 -2.884998e-08 1.3443943e-05 -8.3607887e-07 -2.0033458e-07
4.6347058e-11 -1.8912463e-06 -6.186772e-08 -1.6915116e-14 -1.9520443e-05 -3.114626e-05 -0.00016726172 -3.1652533e-08
-3.5604346e-05 -2.0999954e-05 -5.2055707e-06 -3.3621676e-05 1.6230902e-05 2.3526106e-07 -1.4380711e-06 -8.280556e-07
-3.53521e-05 -2.6059417e-05 -2.5178049e-10 -4.7942622e-11 -5.1594843e-06 -6.815501e-09 -2.7008e-18 1.7653249e-06
-7.194038e-10 -7.1155435e-13 -3.0563413e-07 -1.4735275e-11 3.6375168e-16 -3.7926695e-06 2.9732986e-08 8.637175e-25
-0.00021168076 -0.00061047723 3.730756e-05 -3.7008373e-05 -0.0003679254 -4.95236e-06 1.7471959e-05 -4.4522377e-08
2.610888e-22 0.00012247276 -3.9790077e-05 -2.7150288e-06 -5.870933e-07 -1.6284438e-12 -3.232231e-06 -2.9803778e-11
-7.27258e-08 -3.2331996e-27 6.7866946e-05 -3.1587701e-09 -8.215559e-09 -1.1200168e-06 1.5901767e-08 -4.6929675e-13
-1.6093961e-06 -2.1512512e-06 2.2217832e-14 -7.491892e-06 -7.218966e-06 4.1827882e-16 -1.5600436e-06 -3.0699385e-07
9.488108e-06 -9.473317e-09 -1.2804362e-06 5.4411466e-06 -7.5197855e-11 -7.1654193e-12 -3.7517584e-05 0.00012244287
-3.799976e-07 -2.1287667e-06 -8.9873565e-06 7.506663e-05 0.054447614 0.036580324 0.0006793679 0.018791322
-0.020356715 0.068068705 0.042930238 -0.04743472 0.04713371 0.07489884 0.057176925 -0.009411911
0.04340682 0.008788516 0.053683504 0.10913871 -0.028126158 -0.009315193 0.022229474 -0.001243436
-0.06949201 0.090213686 -0.0016488968 -0.0020380937 0.004728124 0.073687546 0.10605021 -0.003575248
-0.040913798 -0.09872348 0.049284045 -0.068237126 -0.07126612 -0.0016156903 0.005339596 0.005971356
-0.055989113 -0.028398817 -0.067001656 -0.016229741 -0.04335779 -0.04939516 -0.07184248 -0.03491219
-0.034829184 -0.0015745197 -0.104055695 -0.11122764 -0.0042242813 -0.04033105 -0.0028152305 0.012582898
-0.0034774158 0.08476243 -0.023730768 -0.09858513 -0.08143084 -0.06728828 0.07058237 0.011465654
-0.044566855 0.023911351 0.10004188 0.07538914 0.049155552 0.062372148 0.0689745 0.042366352
0.053192727 0.063891195 0.00021251666 0.0027811201 0.0033383425 -0.064422846 0.044852003 0.067875095

conv4.bias f4 [25]
00000000: e553 dfb8 4f42 993d 9225 163e c083 a6bd
00000010: 4d00 933c 7522 73bd e620 833d dc23 b3bd
00000020: 561b b93d 28f3 a73b 80f0 003d 9a53 813d
00000030: df4e e83d de0a 353e fd79 0cbe bc68 8bbd
00000040: 8e83 b33c 0399 eb3c 165b a93d aeb8 9fbd
00000050: 4ee5 813d d626 4c3d e21f 23be d3f2 1dbe
00000060: ebdb ab3d
-0.00010649095 0.074833505 0.1466277 -0.08130598 0.01794448 -0.059359033 0.06402759 -0.08747074
0.09038417 0.005125422 0.03147936 0.06314774 0.113431685 0.17679927 -0.1371841 -0.06807086
0.021913316 0.028759485 0.082693264 -0.07798897 0.063425645 0.049841724 -0.15930131 -0.15424661
0.083915554

conv5.weight f4 [16, 25, 3, 3]
00000000: bf2b 8faf ad72 23ac 4627 ce22 0864 ff13
00000010: 8cfb b12d 60ad 9125 0b07 fb26 21af 5cad
00000020: 0d24 c20f 12ab 9e35 c6d3 a8bc f49a 44bc
00000030: 8a44 b5ba 1625 b6bc 937f c43c 0b26 0838
00000040: 5aa1 43bd 8ec9 f7bc bb88 96af 1776 18bd
00000050: 22a3 8cbd e284 3bbc 6319 9fbd 133f 94ba
00000060: 6c41 1d3c 1002 6c3d 6de8 debc f673 fd95
00000070: 978e 28bd 9e1e 91b9 3d04 b2ba f80b c23d
00000080: fe95 a93d 2ceb 0fbb 4e1c 7dbd 5e2d d5bb
00000090: 8a8a 6ab7 673c 57bd 1138 86bd 26df a8bb
000000a0: c312 833c ad14 bf3c 233a b1bb 881d e2ba
000000b0: 5afa 9ebc 72d7 492f b973 81bd 11cf 3b3c
000000c0: 0239 763a 8618 0d3d 7e13 3f3c b37f 21bb
000000d0: 9465 7f3d 4641 b43c 183e 4534 c232 6bbb
000000e0: e590 0c3a ef0f a7bb 68ed 86bd 45d0 ef3c
000000f0: c3ef a4bb 3f9f b0bd 0f92 0cbd fba9 21b4
00000100: b661 5dbd 68a0 dcbc 0d85 b739 7aac 503d
00000110: 933d cd3d 6af5 9dba a625 ad3c 46a7 4d3d
00000120: c3b0 a9ab 4531 ff3b 6aaf cb3b 716d a1ba
00000130: beb2 23bd c573 38bd e577 03ba 4400 4f3d
00000140: 78e8 4a3d 5664 d691 4311 303d 2f2a 8cbd
00000150: 014e edbc e421 2a3d fe3c 0c3c 163f babb
00000160: 8d66 acbd 7232 1b3d 35e2 d223 ecb1 0ebd
00000170: 4e00 c5bc a8bf c6ba 564b 3a3d 31b4 a3bb
00000180: 8f9a 723b ac78 d63d 9656 383d 556b 802f
00000190: 1291 52bd ed4e 823c 5406 ccba b372 853b
000001a0: 9e3c 8d3c 40c7 613b 79a6 0ebd a524 b83b
000001b0: 401e 04a7 010a 0e3d f19e 753c e0cb eb03
000001c0: 3b73 18be 11b8 5ebd 4b7d 9008 6a2b f8bd
000001d0: 803e 5cbd a57a d822 9fab 113d 901b 9f3c
000001e0: 58fe 39bb 8f72 873d 742b 2d3d 0c1e 923a
000001f0: 0705 72bd d06e 78bd 1e7a 6b9c 9a19 77bd
00000200: a5c3 2c3d 3c80 eeb7 8eca 543d d717 1abd
00000210: 96e0 973a 8c0b 473e c138 213e bc91 c7a9
00000220: ab52 29bd b799 5abd 0619 4bbc 9533 7a3d
00000230: 3438 2cbd 1d94 fabb bb95 213d 5b69 8ebb
00000240: c854 0cb7 2164 ccbc 3c81 e1bc f61c 5c3a
00000250: 0698 74ba 8a54 35bd 0c30 543a 5c1e cb3d
00000260: 99d2 433d a19d 19a9 b4ed 53bd 7b82 ed3c
00000270: 3489 03bb b77f 89bc 7565 1ebd c1f5 5db9
00000280: 1391 f53d 2da9 a8bc 76e2 0825 57a2 c93b
00000290: 0c4c 203d 11bf afbb f911 83bd c584 103d
000002a0: 70b6 973a 7e12 3e3d 5b50 cf3c fdbf 0b29
000002b0: 3c42 16bd e032 ed3c 38d0 ecb9 7cb0 323c
000002c0: c98e 20bc e1d9 e7ba 4b9d 8a3d 09a0 9f3d
000002d0: 2195 7f27 4001 073d 4218 903c f92c 5bbb
000002e0: 8a43 18bd 4b6b ef3c 21d0 09bc e71e 35bc
000002f0: aa32 afba e6fa 91af 9f7e 5fbd 02ba 59bd
00000300: 9b25 31bc 2178 803d 5418 a93c 20f1 74bc
00000310: d839 00bd d641 7cbb 2578 b627 5869 6d3c
00000320: a7f9 2d3d 57a6 7838 af66 6a3c a56e ad3c
00000330: 549c af39 dd62 783d 8a2e 843d ed59 1233
00000340: ad4d 08bd 6394 be3c ef8d bc38 3d56 6a3d
00000350: f796 043d 6117 ceb9 8843 fb3d f64f a43d
00000360: 858c 9d15 9c91 e2bb 517b 8e3c 4c79 8cbb
00000370: cbec 80bd d782 3fbc cddb a5bb 9d63 8f3c
00000380: 0404 d2bc 5d4b 0224 2af8 13a0 1e50 232f
00000390: fed4 5a28 ca3c 95a4 1127 1835 dce0 2735
000003a0: e463 1910 be51 40ad 03be eebb 02cc 21bd
000003b0: e452 23bd cd7c cd3b fd86 cd3c 8e36 c73b
000003c0: 69c6 92bd f4ce 7dbd 215f 203c 2071 3dbd
000003d0: 3bc0 0c3d 6ab1 50bd 5756 423d ac40 863c
000003e0: 4d43 243c f409 70bb 4c0a 20bd 3194 253c
000003f0: c86a ef3c 2318 2e3d 59b3 c584 6bd0 a73d
-2.6042632e-10 -2.322735e-12 5.5877994e-18 6.446969e-27 2.023428e-11 2.5270974e-16 1.7418533e-15 -1.2544439e-11
1.9143763e-29 1.1821705e-06 -0.020608794 -0.011999834 -0.001382963 -0.02223448 0.023986613 3.2460357e-05
-0.0477613 -0.030247476 -2.7381994e-10 -0.037221994 -0.068670526 -0.011445256 -0.07768514 -0.0011310301
0.009598117 0.057619154 -0.027210439 -1.0236884e-25 -0.04115161 -0.00027679367 -0.0013581585 0.09474939
0.08280562 -0.0021960242 -0.06179457 -0.0065056523 -1.3979743e-05 -0.05254784 -0.065536626 -0.0051535545
0.016000157 0.023325289 -0.0054085418 -0.0017251233 -0.019406486 1.8357385e-10 -0.063209005 0.011462943
0.000939265 0.034447215 0.011662362 -0.0024642765 0.06235273 0.022003781 1.8369644e-07 -0.0035888408
0.0005362167 -0.005098335 -0.065882504 0.029274115 -0.0050334646 -0.08624124 -0.03431898 -1.5056132e-07
-0.054048263 -0.026931956 0.0003500361 0.050945736 0.1002151 -0.0012051289 0.021136116 0.050208353
-1.2057233e-12 0.007787856 0.0062159793 -0.0012315941 -0.039965384 -0.04503228 -0.0005015119 0.050537363
0.049538106 -3.3825084e-28 0.042985212 -0.068439834 -0.02896786 0.041536227 0.008559464 -0.00568379
-0.084179975 0.037889905 2.2864048e-17 -0.03483765 -0.024047997 -0.0015163319 0.045482002 -0.0049958457
0.0037018394 0.10472235 0.04500445 2.3359328e-10 -0.05140788 0.015906775 -0.0015565851 0.004072511
0.017240819 0.0034451038 -0.03482673 0.0056196027 -1.8335078e-15 0.03467751 0.014991508 1.3858866e-36
-0.14887707 -0.05437476 8.696141e-34 -0.121176556 -0.053770542 5.8676772e-18 0.03556406 0.019422323
-0.002838036 0.06613647 0.04227777 0.0011147871 -0.059086826 -0.060652554 -7.791281e-22 -0.06032715
0.04217877 -2.8431525e-05 0.051950984 -0.03762039 0.0011587318 0.19437999 0.15744306 -8.862656e-14
-0.041338604 -0.05336925 -0.012396103 0.06108435 -0.042045787 -0.007647051 0.039449435 -0.0043460554
-8.36439e-06 -0.024950089 -0.027527444 0.00083966495 -0.00093305146 -0.044270076 0.0008094318 0.099179
0.047808263 -3.4109546e-14 -0.051740363 0.028992882 -0.0020070793 -0.016784532 -0.038670976 -0.00021167753
0.11990561 -0.020588482 1.1872848e-16 0.0061533856 0.039135024 -0.005363353 -0.063999124 0.03528287
0.0011574756 0.046404354 0.025306871 3.1030723e-14 -0.03668426 0.028954923 -0.00045168563 0.010906335
-0.009799668 -0.0017688834 0.067682825 0.07794196 3.5469202e-15 0.032960176 0.017589692 -0.0033443554
-0.037173785 0.029225966 -0.008411438 -0.011054731 -0.001336654 -2.655362e-10 -0.054564115 -0.053155906
-0.0108121885 0.06272913 0.020641483 -0.014950067 -0.031305164 -0.003849139 5.064541e-15 0.014490448
0.042474415 5.9282724e-05 0.014306708 0.021170923 0.00033495075 0.06064116 0.06454189 3.407506e-08
-0.033277202 0.023264116 8.990976e-05 0.05721115 0.032370534 -0.000393088 0.1226874 0.08023064
6.3633496e-26 -0.0069143306 0.017392786 -0.0042869207 -0.06295165 -0.0116889095 -0.0050616027 0.017503554
-0.02563668 2.8253092e-17 -1.2533495e-19 1.4853227e-10 1.2147616e-14 -6.472143e-17 5.668126e-07 6.253956e-07
3.0250883e-29 -1.0932087e-11 -0.0072858348 -0.039501198 -0.039873973 0.006270981 0.025088781 0.0060795015
-0.0716675 -0.061964944 0.0097883055 -0.046250463 0.034363013 -0.050950445 0.04744562 0.01638826
0.010025811 -0.0036627026 -0.03907232 0.010106132 0.029225722 0.042503487 -4.6479182e-36 0.081940494

conv5.bias f4 [16]
00000000: 895a 36be bfab af3d b87f 17bd f2dc bebd
00000010: acd6 863d 22c4 b9bd af90 003c fca7 453d
00000020: 97e5 323e 4f0a a93d 4b36 2a3d 50dc a63d
00000030: fa36 e5bd 4d00 773c bd57 01bd af54 1ebe
-0.17807974 0.0857768 -0.036987036 -0.09319486 0.06583914 -0.090706125 0.007846995 0.048255906
0.17470394 0.08253919 0.041555684 0.0814749 -0.111921266 0.015075755 -0.031577814 -0.15461992

classifier.1.weight f4 [10, 16]
00000000: 4061 59bd 409b ac3c f358 ad3c 7e50 0abe
00000010: 7613 0b3d 952a 943d 2912 cebd 56ac 543e
00000020: b886 2f3e 6670 963e 6727 6fbe d93d 0fbe
00000030: 71a0 0a3e 2271 68bd d390 d9b6 d4d1 d53d
00000040: b091 803d b373 9bbe 4e85 33be 599d 233e
00000050: 3f76 593d 53ce 38be 5d56 783d ba53 a9bb
00000060: e1a9 49be bf1a 96bd 301b 253e e81d 303e
00000070: f1d0 833e dd4e 873d e598 8dba ef7d f2bc
00000080: cd07 54be 627a 0fbd 8cb2 94bd 22df 113e
00000090: cc48 ae3d 97ee 853d e728 9ebc b8f6 d9bc
000000a0: fffd 093e 4f24 a93d f179 863e 1339 92bd
000000b0: 3abf 24be fe3d a53d 45bd 453d 4201 1ebe
000000c0: 712d 34bd 404a 18bc 9c5f 84be cc31 583e
000000d0: 7613 8d3c 8201 3c3e 9258 f43c 457b dabd
000000e0: 9fb8 0e3e 5995 09be 4e59 c1bd 8cf8 a9bb
000000f0: c2fb ef3d 558f 653d 875e 98bd be57 5f3d
00000100: 23d8 7abe 6628 143e 135d 3abe 804b 3dbe
00000110: 5e20 1c3c 2faf 39be b647 c5bd 3fcf b83b
00000120: 13d7 2e3e 0ad6 bf3c 120c 57be e6cb 9f3e
00000130: 3301 403e 35c0 2bba c6e8 472c ed0e aabd
00000140: 64bb a53d 4cda 593d c5fa 1a3d 9ae9 ae3c
00000150: 22be 28be f2e2 6a3e 6112 063e 84ee f0bd
00000160: 3c88 5e3e 42e2 15bb 661e d8bd e737 48be
00000170: 672e f23d c712 4e3e 6ef3 083c 9bdc 6fbd
00000180: ebbd 903e fa61 f33d fe3f 15bd 8622 363e
00000190: 900b e0bd 89f6 b7be bc4c b9ba 9dc4 cf3b
000001a0: 7cfa 4abe 9d93 b4bd 44d8 cebd b91c 313e
000001b0: b128 49be a4a9 3e3e 04cc 113c 673a cebd
000001c0: f370 0fbd a2f5 783e b28b b03d 00df 0f3e
000001d0: 3d53 65be 4611 643e 09f3 a6bc 4d21 3c3d
000001e0: 6e44 69be e831 b23b e433 27be 4531 b03d
000001f0: 436e cdbd dec0 93bd 3719 4a3c 0094 af3e
00000200: 8b76 d73d b79d e83c 090c 7dbe 004c 52be
00000210: 934e 0c3e 6fe9 753e 69b0 393d 9bff 493e
00000220: a123 69bd 8fd0 823e 6420 2f3c a8a6 58be
00000230: 464b 313d 1f2f 04bc 4c48 413b 37cd 843c
00000240: 42b7 373e 68ce d53d c5af 9dbe 30ab 69bd
00000250: c5ff 3cbe 5d9e 883d d3cf 6fbd e1a5 013e
00000260: ef2c 09bd 8f8b 6bbb 8e17 0b3d af40 36be
00000270: 753c 543e 15d2 38be 1acc 72bd 73ce 7a3e
-0.05307126 0.021070123 0.021160578 -0.13507268 0.033954106 0.072346844 -0.100620575 0.20768866
0.17141235 0.29382628 -0.23354875 -0.13988437 0.13537766 -0.056748517 -6.4839637e-06 0.10440412
0.06277788 -0.3036171 -0.1753132 0.15977992 0.053091284 -0.18047456 0.060629237 -0.0051674517
-0.1969371 -0.0732932 0.16123652 0.17198908 0.25745347 0.06606839 -0.0010803012 -0.029601065
-0.20706101 -0.035028823 -0.072606176 0.14245275 0.08509979 0.06539648 -0.019306613 -0.026606902
0.13475798 0.082588784 0.2626491 -0.07139792 -0.16088572 0.08068465 0.048276205 -0.15430167
-0.04398865 -0.009295046 -0.25854194 0.21112746 0.017221194 0.1835995 0.02982739 -0.10668043
0.13937615 -0.13435878 -0.09440862 -0.0051871 0.11717941 0.056044895 -0.07439905 0.054527037
-0.24496512 0.14468536 -0.18199567 -0.18485832 0.009529201 -0.18133233 -0.096328184 0.00563994
0.17074232 0.023417491 -0.21000698 0.3121025 0.18750457 -0.00065517734 2.8408816e-12 -0.08303628
0.080923826 0.0531867 0.03783681 0.021351624 -0.1647878 0.22938135 0.13092948 -0.11764243
0.21731657 -0.0022870456 -0.10552673 -0.19552575 0.11825257 0.2012435 0.008358819 -0.058559995
0.28269896 0.11883922 -0.03643798 0.17786607 -0.10939705 -0.3593028 -0.0014137249 0.006340577
-0.19822115 -0.088172175 -0.10099843 0.17296113 -0.19644429 0.186194 0.008898739 -0.10069733
-0.035019826 0.24312451 0.08620395 0.14049911 -0.22395034 0.22272214 -0.02037956 0.045930196
-0.2278001 0.005438078 -0.16328388 0.086031474 -0.100307964 -0.07214521 0.012335113 0.34292603
0.10520657 0.028395517 -0.24711622 -0.20536804 0.13701849 0.24014829 0.045334253 0.19726412
-0.056918744 0.25549743 0.010688875 -0.21157324 0.043284677 -0.008067875 0.0029492555 0.016211135
0.17941001 0.104397595 -0.30798164 -0.057048023 -0.18456943 0.066708304 -0.058547806 0.12660934
-0.033490118 -0.0035941338 0.03395801 -0.17798112 0.20726188 -0.1804889 -0.059276678 0.24492817

classifier.1.bias f4 [10]
00000000: aaf4 07be 8e70 4abd dbcc eebd a716 3e3a
00000010: 4494 83bd ea89 14be 1f2b 1ebe af3b 38be
00000020: a49d c4bd 9f55 b8bd
-0.13276926 -0.049423747 -0.11660167 0.00072513 -0.06424764 -0.14505735 -0.15446137 -0.17991517
-0.0960038 -0.09000706
