Cifar/reek_weights_trial_80iter_final2/Times7.pt (torch, 47937 bytes, 12 tensors)

conv1.weight f4 [8, 3, 3, 3]
00000000: d550 4a3d c459 073e d6e8 8f3d f581 983c
00000010: cb4f 6e3d e46e 5cbe ce3c 7a3d 792a 9abc
00000020: c3f1 febd 1ace 06be b89a 003e 4267 e53b
00000030: 65a3 593e 96fa d53c 649a 4e3d 67bd 793e
00000040: 6017 42be 788a df3d 7041 7cbd e602 04be
00000050: 5c22 d4bd 99d8 b23d 1dd1 a4bd 9d40 04be
00000060: ece2 52bc d43d 9dbc c838 2dbe 152b e83c
00000070: b43d 8a3d 7393 12bd 2ed1 8dbd 8495 8a3c
00000080: 9220 66bd b5db 0d3e 12b5 b33d d671 36be
00000090: 0a46 b23d db9b 223d cf34 ab3b 8429 08be
000000a0: 10f9 65bc 8c11 b33b f497 773e 5fe4 88be
000000b0: d9d9 15bb 186b 31bd 2a3e 073e e148 31be
000000c0: 185d 873d 1196 963d 604f 5cbd 680a 9c3e
000000d0: 8c89 18be 8a39 d0bd e501 713e e250 913e
000000e0: 4b8f 983d a85f 28be 17ac e13d c13d 41be
000000f0: faa6 d53b 4144 01bd 7af8 aabc d326 383e
00000100: 1aa8 813e fe41 fcbd ec66 51be 1c18 d33d
00000110: 9d17 2dbe 2031 1cbe b6d2 b3bd 8b8e ffbd
00000120: 9bad 8cbd 8e09 133e 162f e63c 99d1 eb3c
00000130: 9478 0fbe 54e3 dd3d bfb9 2dbd 3b97 9d3c
00000140: 6382 0ebe 70dd 293e a467 103e 9ea2 14be
00000150: dfc4 29bd c959 383d 9e12 8d3d 1850 9b3d
00000160: ca1e 26be 0c8c 96be e020 a83c 28d8 1b3e
00000170: 9313 793e 9265 10be 705f 01be 8c97 c7bd
00000180: 512f bf3d 71b5 a43d 6ece adbd 30c9 ac3d
00000190: f6ed 013e e585 733e f7c1 ffbd 1231 e93d
000001a0: f5bc 63be 313b 42bb 63ab 6fbe 6cc1 3cbd
000001b0: 4a11 dc3d af19 903c bdf3 34be 6ccb 82be
000001c0: e819 45be bc6e 28bd 2982 843d ecc7 7fbe
000001d0: dacf 343d 169e b23d 0451 58bd af6a 003d
000001e0: 5159 0bbe 01e6 14bd 7574 363e fd6a b3bc
000001f0: d7a7 843d 13aa 9d3d 8ccc 043e 15ac 713d
00000200: 95ec 973c 750b 4f3e b507 c93d 696f d2bc
00000210: a948 ec3d 3f88 bb3d 5a7e 8fbd ee02 01be
00000220: 0506 7bbe 6ca3 1cbe 212d 5cbe 0faf 83bd
00000230: 3e5c 86bd 49f3 3f3d 77f3 bf3d 5a41 b2bd
00000240: 17b4 22bd 5fce 8bbd efd7 f2bd 912c 01be
00000250: 8804 4abe d6be ed3c 1bac 65be 0778 c13d
00000260: 9931 d8bd 2c70 0abd 9cc4 67be dfde 53be
00000270: a72b 1bbe 65cf 3ebe 0d12 63bd 884a afbd
00000280: 70ef 403d d9b7 90bc f6e5 a83d 59ad 8cbd
00000290: 4839 07bd b9ba 8bbd 5459 c63d b274 893c
000002a0: b150 52be 1250 f6bd 891c 103e 18f2 6fbc
000002b0: b9f7 d5bd 3935 76be 9863 6bbe acf2 df3d
000002c0: 6c41 b0bd a32c 223e 9e09 b2bd 36f5 af3d
000002d0: 3f8c 503d 0101 92bd d772 693d 5d35 3cbe
000002e0: ed0f 1f3e dde9 d7bd 7cc1 463e 6bde 91bd
000002f0: f569 1ebd e403 41be 7a88 ffbb c041 963e
00000300: 11d4 aabc 5270 6dbc 997b 88bc e9a0 bc3d
00000310: 96fb 393e 3516 00be cf9a 5fbe 5e8c 30bd
00000320: daae 9ebd 9160 57be 2d34 723d 5776 4b3e
00000330: 4161 173e 9180 0bbe 2e03 6bbe ee11 15be
00000340: 46fb 0f3e 7da0 3b3e 273b 66be 9743 8ebc
00000350: b511 0e3e 7e21 28bd 4b05 203e 3544 d03c
0.049393494 0.13217837 0.07026832 0.018616656 0.058181565 -0.21526676 0.061093144 -0.01881908
-0.12448456 -0.13164559 0.1255902 0.0070008347 0.21253736 0.026120465 0.050440207 0.24388658
-0.1895423 0.10915083 -0.061585844 -0.1289173 -0.10358116 0.08732719 -0.08047698 -0.12915273
-0.012871485 -0.019194521 -0.16916192 0.028340856 0.0675005 -0.03578515 -0.069246635 0.016916998
-0.056183405 0.13853343 0.08774771 -0.17816862 0.08704765 0.039699417 0.005224801 -0.13297087
-0.014036432 0.0054647382 0.2417906 -0.26736733 -0.0022865443 -0.043315023 0.13207307 -0.17312957
0.06609553 0.07352842 -0.053786635 0.3047669 -0.1489622 -0.10167225 0.23535879 0.2838202
0.07449206 -0.1644274 0.11019152 -0.18871213 0.0065201493 -0.031559233 -0.020870436 0.1798356
0.25323564 -0.123172745 -0.20449418 0.10307333 -0.16903539 -0.15253115 -0.08780424 -0.1247836
-0.0686905 0.14359114 0.028098624 0.028786467 -0.1401084 0.10834375 -0.04241347 0.019237151
-0.13916926 0.16588378 0.14102036 -0.14515159 -0.041447517 0.0450075 0.068883166 0.07583636
-0.16222683 -0.29403722 0.020523489 0.15219176 0.24323873 -0.14101246 -0.12634063 -0.09745702
0.09335197 0.0804242 -0.08486639 0.08436811 0.12688431 0.23781545 -0.12488168 0.113863125
-0.2224005 -0.0029637332 -0.23405223 -0.0460829 0.10745485 0.017590372 -0.17671104 -0.25545824
-0.19248164 -0.04112123 0.064701386 -0.24978608 0.044143535 0.08721559 -0.052811638 0.03135174
-0.1360829 -0.03635216 0.17817862 -0.021901602 0.064773254 0.07698455 0.12968653 0.059002
0.018545428 0.20219214 0.09815923 -0.02568789 0.11537296 0.09156846 -0.070065215 -0.12598774
-0.24514015 -0.15296715 -0.2150159 -0.06429874 -0.065605626 0.046862874 0.09372609 -0.08703871
-0.03972253 -0.068264715 -0.11857592 -0.12614657 -0.19728291 0.029021662 -0.22428934 0.094467215
-0.10556335 -0.03379838 -0.22633594 -0.20690487 -0.15153371 -0.18633802 -0.055437136 -0.085591376
0.047103345 -0.01766579 0.082469866 -0.06869001 -0.033013612 -0.06822724 0.09685007 0.016779277
-0.20538594 -0.12026991 0.14073385 -0.014645122 -0.1044764 -0.2404374 -0.22987211 0.10934958
-0.08606228 0.1583734 -0.086932406 0.08591692 0.050915 -0.07129098 0.056994285 -0.18379731
0.15533419 -0.10542653 0.19409746 -0.07122501 -0.038675267 -0.1884914 -0.0077982517 0.29347038
-0.020853074 -0.014492111 -0.016660498 0.09210379 0.18162379 -0.12508471 -0.21836399 -0.043102615
-0.07748194 -0.21032931 0.05913179 0.19869362 0.14783193 -0.13623263 -0.22950432 -0.14557621
0.14060697 0.1832294 -0.22483502 -0.017366214 0.13873942 -0.041047566 0.15627019 0.025423149

conv1.bias f4 [8]
00000000: 7ba9 2f3e 6294 8b3d 84e4 12be 4ff6 1abe
00000010: 6393 5f3d 8ff0 b0bd f7e9 08be 4c0c c33d
0.17154495 0.06815411 -0.14344984 -0.15133022 0.05458392 -0.08639633 -0.133705 0.0952383

conv2.weight f4 [10, 8, 3, 3]
00000000: 06ed 683b cb45 9ebc 4335 2bbe 7125 893c
00000010: a0d8 d8bd cea3 2cbe d376 e8bd 9ff2 09be
00000020: aee0 53bd 0ab5 dbbd b08b 80ba 153a 233d
00000030: 6fe0 383d 2e67 8dbd a0a3 5dbd 1fb5 48bb
00000040: a8d3 883d 9b7e 8a3d 10be c13d 9b6f b23d
00000050: f7e5 f4ba 0910 5a3d 00fe 07bd b999 bfbd
00000060: 80e9 5d3d 413a 143e a0cf 263e 5a8c 523d
00000070: b1b5 b3bd fa1c 11bd 1a5e 9bbc 5823 c03d
00000080: 2f4c c23b a40f 9dbc 6547 043d e932 053e
00000090: 5b26 c53d 99ed dc3d 0034 31bd 5f8f 403d
000000a0: bb9d 293d 4e78 3ebb 4c22 1abc e67d 143e
000000b0: ac62 b0bc 6682 1e3e 5742 8b3d 703f 133e
000000c0: d576 10bc 4ef0 13bd 869a c83d 2023 8dbd
000000d0: 89e6 8ebd f49c 8ebd 8e1b 3bbc 6766 08bd
000000e0: d3f3 2abd 3002 bf3c 84ef a5bd 71ac 9cbd
000000f0: eb75 92bd e4d6 953d 33e3 b83c d751 dcbc
00000100: 4f19 943d 7ff7 cd3c 14fa c7bd 7c08 a3bd
00000110: b7bb d2bd ddc3 033d 994f 6bbc f3a7 853d
00000120: af10 51bd db30 0c3e 64c4 5c3d 0eaa f73d
00000130: e76b e5bd 528d f73d 86bf 993b 9be6 293d
00000140: 01b4 d03d 4d2d d83c 6c00 303e 7ada c6bb
00000150: 6c92 cf3d 276b 583c 4b4e ff3d 3a6e 873d
00000160: 46dc acbc 8537 63bc 4d8f f13c 6821 f83d
00000170: f7e7 37bb eed6 fc3d 3d5b 7fbd 81cb cc3a
00000180: d46b 9bbc 16e0 a13d e315 953d baaf cc3d
00000190: e80c 56bd 476f debc a9fb 43bd 805d 8abd
000001a0: f559 143e 0683 ac3d 0b13 a8bd ef5a 7cbd
000001b0: 849d 53bd 3cb8 08be e997 57bd 068f c83d
000001c0: 19b2 fabd d05a 1fbc f7c3 c83d afc3 f1bd
000001d0: 2107 d2bd b1a9 41bc d8ec 023e 583e 123e
000001e0: 1beb 1dbb 5b88 78bd d215 643d 3639 4f3d
000001f0: 02c1 213c 5e25 c1bd 9e87 833d 7cc7 ed3d
00000200: 7d1d c5bc e8d2 983d 7b42 0d3e 2f48 eb3c
00000210: 7a8c a1bd ac30 b7bd 2a7a bfbd 2664 b73d
00000220: 117b d9ba c540 2f3e 5f9e 48bd a7b9 e63d
00000230: d15a d03d 0dfa cebc b6c8 9a3d 3417 2f3c
00000240: 7ca3 0f3e 2d37 ac3d 3574 d4bd 0199 b33d
00000250: 53e1 9bbd b2b5 753d 5c67 a7bd 4507 36bd
00000260: 8a6a e2bd 388c 513e 2076 913c 4f6a 00bd
00000270: 0faa 613e 1ae1 d13d 6dab 173d bb49 813d
00000280: ab9e 2cbb 4a80 3b3e ead4 aa3d 0e38 e23d
00000290: 6285 893d b702 143d 6692 7f3d 11fd 103e
000002a0: e246 463e f1d6 3b3d 879e 0abd faba 903d
000002b0: 723f 093e 546d 21be de3c 1f3e 6048 74bc
000002c0: ebae 333d a627 91bb 787d 573d d21f 943d
000002d0: c1dd a23d 4794 afbc 7300 c1bd 271e c4bb
000002e0: 4e62 a3bb 86df 89bd a97a 393d 9f41 e0bd
000002f0: c7fd ebbd 28ca 6f3d cfa8 fe3c 2f28 c2bd
00000300: 01cd 703d e008 0b3e 45f5 153d a82a 02be
00000310: 41d4 083e 4b12 983c d21c f23c 9178 2a3e
00000320: 591a a7bc 7bb5 e73d 7d8b 343e cdaa b43b
00000330: 6636 59bd 88c1 a03d 4b84 14bd 9bd1 383e
00000340: 183b 873d 75bf d93d 767e 1bbd 93eb d43d
00000350: 728e b13d cc65 6c3d c791 123e e141 b93d
00000360: 24af b53c 5ec0 f53c 4e18 013e 6868 07bd
00000370: 0e58 a83d 16d5 063e b46e 213d 9acb 3cbc
00000380: ee34 7fbd 7138 103d 858f 863d 918b e93d
00000390: ca57 d93d 87e9 6c3c 94ef a83d 1071 453d
000003a0: bb4b 2a3e 0e53 cf3c d8c3 8a3c d2d0 c7bd
000003b0: 8c7d 9ebd bd81 73bd 0d2a 8c3c f262 d9bd
000003c0: 23b6 a0bd 01b6 24bd 7616 9bbd 484e 5f3d
000003d0: c7db 4d3d ce73 2b3d 0651 c2bd 55a9 b53d
000003e0: 79ac 9cbc 4f24 d7bd 636b 9c3d ba10 963d
000003f0: 5ba1 00be 5f12 07bd 8419 67bd 61d1 7bbc
0.0035541668 -0.01932039 -0.16719536 0.016741486 -0.10588193 -0.16859362 -0.11350789 -0.13471459
-0.051727943 -0.1072789 -0.0009807255 0.039850313 0.04513591 -0.069044456 -0.054111123 -0.0030625535
0.06680995 0.06762429 0.0946008 0.08712693 -0.0018684258 0.05323795 -0.033201218 -0.09355492
0.05417776 0.14475347 0.1629014 0.05140338 -0.08774889 -0.035428025 -0.01896577 0.09381741
0.005929492 -0.019172497 0.03229465 0.13007702 0.09626456 0.10787506 -0.04326248 0.04701173
0.04141019 -0.0029063406 -0.009407591 0.14501151 -0.021531425 0.1547943 0.06799763 0.14379668
-0.008817394 -0.036117844 0.09795098 -0.06891465 -0.06977565 -0.0696353 -0.011420144 -0.033300783
-0.041736435 0.023316473 -0.081023246 -0.07650078 -0.07151397 0.07316378 0.022569275 -0.026894493
0.0723139 0.02514243 -0.097644955 -0.07960603 -0.1028971 0.03216921 -0.014362239 0.065261744
-0.0510413 0.13690512 0.05389823 0.12092982 -0.11202221 0.120875016 0.004692021 0.04147969
0.10190583 0.026388789 0.17187661 -0.006068525 0.1013535 0.013209141 0.12466105 0.06612821
-0.021101128 -0.013868217 0.029487276 0.12115747 -0.0028061846 0.12345682 -0.06234287 0.0015624614
-0.018972315 0.07904069 0.07279565 0.09994455 -0.052258402 -0.02715267 -0.047847424 -0.06756115
0.14487441 0.08423428 -0.08206757 -0.06161016 -0.05166389 -0.1335153 -0.052635107 0.097929046
-0.12241001 -0.009726241 0.09803002 -0.11804902 -0.10255266 -0.011820243 0.12785661 0.14281595
-0.0024096433 -0.060676914 0.055684872 0.05059167 0.009872677 -0.09430955 0.06422351 0.11610314
-0.024061913 0.07462102 0.13794892 0.028720943 -0.07888122 -0.0894483 -0.09349473 0.08954649
-0.0016592463 0.17114551 -0.04897916 0.11265879 0.10173572 -0.025265718 0.07557814 0.010686684
0.14027208 0.084089614 -0.10373727 0.087694176 -0.076113366 0.05998773 -0.08174011 -0.044440527
-0.11055477 0.20463645 0.017756522 -0.031351384 0.22037528 0.10248013 0.03702872 0.06312891
-0.002633969 0.18310657 0.083413914 0.11045848 0.06714894 0.0361354 0.062395476 0.14159037
0.19362977 0.04585928 -0.03384259 0.07066913 0.13403109 -0.15764362 0.15550563 -0.014909834
0.043867987 -0.0044297753 0.05260989 0.07232632 0.079524525 -0.021433009 -0.09423914 -0.0059850398
-0.004986084 -0.06732087 0.045282993 -0.10950016 -0.115230136 0.0585424 0.031086354 -0.09480321
0.058789257 0.13577604 0.03661086 -0.12711585 0.13362218 0.01856341 0.029554758 0.16647555
-0.020398306 0.113139115 0.17631336 0.005513525 -0.053030394 0.07849413 -0.036258977 0.18048708
0.06603068 0.10632221 -0.0379624 0.10396495 0.086697474 0.05771427 0.14313422 0.090457685
0.02217824 0.029998954 0.12606928 -0.033058554 0.0821992 0.13167223 0.039412215 -0.011523152
-0.062306337 0.035210077 0.06570343 0.11403573 0.106124476 0.014459974 0.08248821 0.048203528
0.16630451 0.025308158 0.016939089 -0.09756626 -0.0773879 -0.0594499 0.017109895 -0.106145754
-0.0784724 -0.040212635 -0.075726435 0.054518014 0.050258424 0.041858487 -0.0948811 0.08870188
-0.01912521 -0.10504972 0.0763767 0.07327409 -0.12561552 -0.032976504 -0.056420818 -0.015369744

conv2.bias f4 [10]
00000000: 8b6e 9a3d b40a fd3c b560 003d 875d 8a3c
00000010: dd6d 123e 15c9 97bc 7b8f 553e 9e5b 00bd
00000020: fe18 6a3c 33c9 b4bd
0.07540616 0.030888893 0.031342227 0.0168903 0.14299722 -0.0185285 0.20855515 -0.031337373
0.014288185 -0.08827438

conv3.weight f4 [20, 10, 3, 3]
00000000: 9771 bc3d 712a a6bb db03 2b3e fa78 ef3d
00000010: 52ec 2d3e 3f1a db3d 1445 053e 2b10 e13d
00000020: 693f 003e b99a bc3c 4e26 ab3c f18b 3e3d
00000030: 9b50 4fbd 40d0 c3bd 12dc a0bc c48c 6b3d
00000040: dea1 2c3d f95d e93d cb51 14bc 5bf1 6abd
00000050: f0c2 56bd c084 acbd 4cf1 cdbc f987 95bd
00000060: c47e 81bd 6d26 a9bc 9cc5 b9bd 4ccc 2a3d
00000070: 8d46 5abd 97e0 5c3d 67f3 e6bd 8039 c0bc
00000080: e0b3 84bd 3628 84bc 1ed8 953d dfc7 1cbd
00000090: 8202 b33d 2436 b83d eff5 6d3d 88fe 823c
000000a0: c481 123e 1d3f f43d 44fc 143e 7421 3d3d
000000b0: d697 1c3e e76d a5bd f4c5 803b 85fc 653d
000000c0: f816 8dbc 0da6 a93d 7e57 64bd 5644 4cbd
000000d0: c9d5 503b 6a44 f93c 9dfc 8dba 0298 383d
000000e0: 97a1 91bd 5baa aa3d c28a 9ebd 85cd 873d
000000f0: 1558 7c3d c5bc 523d e832 4b3d dd2c 81bd
00000100: bb9d 1cbc d62d ccbc f39a 93bd 1c99 92bd
00000110: ff5a 63bd a8cf 45bd 4695 54bd fd80 16bd
00000120: 6857 6a3c b510 79bb 7cd2 bebd b3e1 abbc
00000130: 3f42 b23d b0b6 98bb 0ee2 a13d 6a42 283d
00000140: 322d afbc 4d66 533d 1f2e f13d 701a 6e3d
00000150: d1c2 003d 585f f13d 9b2e 9d3d 3dd8 c23d
00000160: 5a63 5fbd a727 e7bc a3d5 a03d 3ea1 8b3d
00000170: 864c 213e a83f fe3d 7381 843d 9fa0 dc3c
00000180: 4fc0 b63d 672e ed3c 1585 633c 07f4 3a3c
00000190: 128f ff3d 4c8e 76bc 7cfe 8b3c 6162 073e
000001a0: 3320 d2bc 6f04 f3bc 0d67 043e 6df8 8f3d
000001b0: 15a6 86bc ca7e 0d3d 82d2 273e 0979 293e
000001c0: c979 013e 92be c93a 104d c93c e7e3 d03c
000001d0: 3dbc 023d db49 d93c c9ff 4f3c a7e7 233d
000001e0: bd42 7d3d d231 81bd b7f7 b43c e416 173d
000001f0: 0973 9abd 0cea 09bd 8f81 8d3d bcd2 3e3e
00000200: 6aa2 523d 8454 f13d 2096 b93c facf 273c
00000210: 5a44 223e 746d e03d d90f 5c3d 39a6 013e
00000220: da3e 5d3c d0d9 0b3e e571 f73c 063f 283e
00000230: 310d 9c3c 5db4 793c 5a60 acbc c329 153d
00000240: 8b35 8bbc d687 4cbd 0bee 80bc caca 21bd
00000250: 0145 c4bc be57 b7bd a124 8cbd de61 4ebc
00000260: 29e1 72bd 80c2 c33c 1630 79bd 6092 5f3d
00000270: efe4 74bd 21d5 cbbb 574c 93bc 2d2c fe3d
00000280: 35e8 2c3d 57ba 86bd d77e 063e 19bb ff3d
00000290: 3bc1 a03d 04ae 823d 7866 013c b495 773d
000002a0: 2b41 633c 6cdd 6e3d e53c 2cbd fb3b 0f3e
000002b0: 7577 833c c173 223e f2f0 073e caae 283e
000002c0: 3a03 eabc b324 873d 8f5e f13d 2d55 28bd
000002d0: 846b 003e 1dcc 6ebd 8e4d 133e b5c7 4d3d
000002e0: ad54 ab3d b935 15bd 7bf7 1b3e d597 2a3e
000002f0: 4612 153e 8871 d3bd f0f8 0a3d 0d91 86bd
00000300: 4e32 b1bd 6113 aabc 80e0 25bc 2d77 5fbd
00000310: c278 92bd dcf9 273d 102e cfbc 8a5d 59bd
00000320: 8306 12bd 752e 0fbd 5eda f4bd cac7 64bd
00000330: 2c33 9dbd 28c0 aa3b 229e 2d3d 4e93 65bc
00000340: 0d6c ca3d 48db 6dbd 701e ec3a 2473 b7bd
00000350: 4e6d 3f3d 05e9 fcbc 836e 053e 2825 f43d
00000360: 7696 393d efeb 153e 5d2f 163e 1690 cc3d
00000370: 0575 b3bc cbe9 cf3c 6be2 9b3d 8c5b 843c
00000380: 3030 223e ff2d 463c 75f8 a6bd 276a 413d
00000390: 5004 f8bc 9774 2ebd 59be 04bd 0312 5cbd
000003a0: 5114 a23d de76 03bd 66e3 ff3d acd0 fd3d
000003b0: 3cc0 243e cf28 413e 7929 423e 4a84 183e
000003c0: 4a79 533e 17a8 553e e6f0 d83d c476 aa3d
000003d0: fb6e 033c 6841 03bd 9c42 833d f4d3 173d
000003e0: 585a cfbc bf25 a0bd 9b4b 573c 6bfe 863d
000003f0: 52e6 5b3d e352 8abd aaa0 203d 1bcb 74bd
0.09201353 -0.0050709774 0.1670069 0.11692996 0.1698468 0.106983654 0.13014632 0.10989412
0.12524189 0.023022996 0.020892289 0.046520177 -0.05061398 -0.09561205 -0.019636188 0.05750729
0.042146556 0.11394877 -0.009052704 -0.05735908 -0.052432 -0.084237576 -0.025139473 -0.07301325
-0.06323007 -0.020648206 -0.09070894 0.04169874 -0.05328994 0.053925123 -0.11276894 -0.023464918
-0.06479621 -0.016132455 0.07316612 -0.03827655 0.08740713 0.089947015 0.05809587 0.01599051
0.14307314 0.119261004 0.14549357 0.04617448 0.15292296 -0.08077603 0.003929848 0.056149025
-0.017222866 0.08283625 -0.0557475 -0.049869858 0.0031865707 0.03042813 -0.0010832731 0.04506684
-0.07110899 0.08333274 -0.0774131 0.066309966 0.06160744 0.051449556 0.049609095 -0.06307385
-0.00955909 -0.0249242 -0.072072886 -0.071581095 -0.055506703 -0.04829374 -0.05190017 -0.036744107
0.014303066 -0.0038004343 -0.093174905 -0.020981645 0.08704042 -0.00466045 0.07904445 0.041078962
-0.021383855 0.051611234 0.11776375 0.05813068 0.03143579 0.117857635 0.07674905 0.095139004
-0.05453811 -0.02821715 0.07853248 0.06817864 0.15751848 0.12414485 0.06470003 0.026932059
0.08923399 0.02895279 0.01388671 0.01141072 0.1247846 -0.015048575 0.017089121 0.13221122
-0.02565012 -0.0296652 0.12929936 0.07029805 -0.016436616 0.034544744 0.16388896 0.16550077
0.12644114 0.0015391877 0.02457288 0.025499297 0.0319178 0.026524475 0.012695261 0.040015843
0.061831225 -0.063083306 0.022090776 0.036887065 -0.075414725 -0.03367047 0.06909477 0.18635076
0.05142442 0.11783698 0.022654593 0.010242457 0.15846387 0.109583765 0.05372605 0.12661065
0.0135037545 0.13657308 0.030205676 0.16430292 0.019049259 0.015240756 -0.021042038 0.03641678
-0.016993305 -0.04993423 -0.015738508 -0.039500035 -0.023958685 -0.08952282 -0.06842924 -0.012596576
-0.05929676 0.023896456 -0.060836874 0.054582953 -0.05978864 -0.0062204753 -0.017980738 0.124107696
0.042213637 -0.0657851 0.13134323 0.12486858 0.07849356 0.06380847 0.007897966 0.060445502
0.013870518 0.058316633 -0.04205026 0.13987724 0.016048172 0.15864469 0.13275507 0.16472927
-0.028565992 0.06598797 0.11785614 -0.041096855 0.12541014 -0.058300126 0.14385054 0.050239284
0.0836576 -0.036428187 0.15231125 0.16659482 0.14557752 -0.10324389 0.03392881 -0.06570635
-0.08652173 -0.020761194 -0.010124326 -0.054557014 -0.07151939 0.04100977 -0.025290519 -0.05306772
-0.03565074 -0.034956414 -0.11955713 -0.055854596 -0.07675776 0.005210895 0.042387135 -0.014012171
0.0988389 -0.05807045 0.0018014442 -0.08957508 0.0467351 -0.030872831 0.13030438 0.119211495
0.045309506 0.14640783 0.14666505 0.0998842 -0.021906385 0.025380036 0.07611545 0.016156934
0.15838695 0.012095927 -0.08152858 0.047220375 -0.030275494 -0.042591657 -0.032408092 -0.053728115
0.07914031 -0.032095782 0.12494545 0.123933166 0.16088957 0.18863223 0.18961133 0.14894214
0.20651737 0.20864902 0.10592823 0.08323434 0.008022065 -0.032044798 0.06409189 0.03706737
-0.025311634 -0.078196995 0.013140584 0.06591495 0.053686447 -0.06754091 0.03921572 -0.05976401

conv3.bias f4 [20]
00000000: c6e3 2f3d 9a70 a8bd 0bb5 2d3e c942 b33d
00000010: f4ba d3bc 4b14 20bd 99f6 de3d 082a ad3c
00000020: 6acb d6bd 2774 243e a7aa 393e 2966 c8bc
00000030: dcfa 253d 7413 2d3a 1bde 483d 9268 e9bc
00000040: 250e d0bd bb67 fd3c 8d7e 2cbd 9dd1 153e
0.04294183 -0.08224602 0.16963594 0.08752973 -0.025845982 -0.039081853 0.108868785 0.021138206
-0.10488017 0.16059934 0.18131505 -0.024462776 0.04052244 0.0006602325 0.04903994 -0.028492246
-0.10158948 0.030933252 -0.042112876 0.14630742

conv4.weight f4 [25, 20, 3, 3]
00000000: 181f bf3c 8104 9dbc a3f8 1d3d 7a25 d8bd
00000010: 2058 04bd 4b9a db3c d1a2 f4bd 4e1a 0bbe
00000020: 84f5 b0bd 5084 a03d d7fa 343c 531c 37bc
00000030: 7f6e 25bc b345 94bd 5c25 bfbb 6d9d 763d
00000040: c512 b7bb 136b 4f3d 7bb5 d1bd 1c86 adbd
00000050: 9859 eebd 652c 57bd 8648 d2bd f2cb 17bd
00000060: cfda 08be d0dd 4cbe 0f62 30be a5bb 8a3b
00000070: 804d 5ebd 825f 973d ab35 0fbd a3a6 363b
00000080: 1b82 5a3d f442 4abd c965 44bd af1a 38bc
00000090: 6efe 58bc 490d 05bd 3983 9f3d c5a9 2d3c
000000a0: 04d7 9cbd c8fd 2bbd 4972 a13d 4a7a 253d
000000b0: 2c01 873d 4962 7a3d 57dd 323c 8af3 cb3d
000000c0: ae08 43bc b68e f8bc 1e31 943d 482a 47bd
000000d0: deec 6c3d e78a 383d ea08 b13d dec2 6abd
000000e0: 30a7 ca3c ce9f c13c e1b3 2a3d 9eff 3f3d
000000f0: 0742 9f3d fee3 9abc afe8 82bc 302e 0bbd
00000100: a919 5bbd d662 21bd 72c2 5c3b fd0a 9c3d
00000110: a5bf cb3b 7f34 abbc 6651 7ebc 520a 063d
00000120: e1d0 053e b72a 4ebd 34df 903c 02c9 c43d
00000130: 2cb6 dcbc 0900 5f3d 3fa3 d03d 2470 483d
00000140: f7c7 3b3d eefa 77bd 7c9c 8d3d d980 e03b
00000150: 971a a3bc b858 f7bc c0a1 a0bd 6ea5 373d
00000160: 3cd9 c03c bbc9 3cbd 03f0 04be aff1 90bd
00000170: 9dee d7bd e432 bdbd 08c6 cebd 4261 85bd
00000180: 94fc 38bd 2ce5 f63c dedc 603c 78a6 7cbc
00000190: f6df 903c 1d5a ae3d f773 6d3d 04ae a7bc
000001a0: 460d bd3c b02b dd3c 7c77 943d 3025 c93c
000001b0: 66d9 8c3c af92 f3ba c017 6f3d 830c 2abc
000001c0: 1f2f e7bc 3b3c 9dbd f44f f6bb ca68 b03c
000001d0: d18c de3a d0ae baba bad3 6aba 9942 b3ba
000001e0: 1d8b 753c eb25 373d 2196 5f3d 44a5 9c3d
000001f0: f630 ae3d 19ab f2bc 6cd6 11bd bfb8 963d
00000200: 61cf d53c d508 c23d 8a72 003d b40b 253c
00000210: 2cfe a03c 8c32 c43d c7ea bc3d 851b 833d
00000220: f797 b63d 814a 47bd dc2a 18bd 70ba a43c
00000230: 4dd8 0cbd 967a 883d 2720 e9bc 0e27 b03b
00000240: c2ef 6a3c f9ae 443d f170 bb3d aeb1 dc3c
00000250: ab2c 6dbd 43c2 953d 3d9b 1f3d dad1 443d
00000260: 4286 823c 6c36 113d 1852 7fbd 9dab 8a3d
00000270: 3c39 cc3c ee7a 62bc 3159 a1bd c91c bfbd
00000280: 96fc 913c 05e4 44bd 7ec2 373d f00a a43d
00000290: a9b6 93bb e8d0 773d a34b 663c f222 52bc
000002a0: c8bc dfbc 636e 1f3d c312 de3c 01e2 96bd
000002b0: 31bd 8e3c fa01 793c 6a9c 2dbd d479 5fbd
000002c0: 4c12 8abd bca6 a1bd 1eac 1bbd 465f 96bd
000002d0: 2706 873d 0c8b a03d ea0a 973d c22a 3e3d
000002e0: af55 133e f0ae a13d 395f 263d 89f6 ef3d
000002f0: 36fa df3d c4d0 593d 1bef 583d 5d43 a43d
00000300: f6a1 ef3b c108 34bd 9683 2c3c cee5 843b
00000310: 1e08 073c 7c50 c33c ddb9 4d3c 6254 6e3d
00000320: 80f4 163c 966f 183e 1e28 f03d f7ca 1e3e
00000330: b271 323e 4273 063e 8034 363e c893 a23d
00000340: 0dae 9e3d 7009 953d d878 d53c 9bc4 383d
00000350: 5d26 343d 1fda d43d f714 9f3d 3d0d e63c
00000360: 57f7 193d ef2b 863d b12d 2d3d 823b 18bd
00000370: da3b 8c3d cdb8 4abb 7d56 cabc 4e24 c03c
00000380: 5c65 02ba 5060 e83c ba51 37bc cfa9 4c3c
00000390: 8fce dfbc 513c f8bc e035 0c3d b125 21bd
000003a0: 82a7 d73b 3d97 b43c d260 1bbb 6fab a53d
000003b0: b50d ab3b d041 50bd a510 16bd 9955 d83c
000003c0: 41b3 33bc c0ed 4f3c 3ad6 31bc 7761 0f3d
000003d0: 0837 03bd 3136 703d 6499 62bd 4d7f 53bd
000003e0: fdd4 003d 0dc8 25bd 810c e2bc 233b 24bc
000003f0: e3a2 243d ddc1 b03c 657f 223d d1e1 1d3d
0.023330256 -0.019167187 0.038567197 -0.10554023 -0.032310605 0.026806971 -0.11945117 -0.13584253
-0.086405784 0.078377366 0.011046133 -0.011176187 -0.010097145 -0.072398566 -0.005833311 0.060208727
-0.0055869543 0.050639223 -0.10239693 -0.08472845 -0.116381824 -0.052532572 -0.10267739 -0.03705973
-0.13364719 -0.2000649 -0.17224906 0.0042337948 -0.05427313 0.073912635 -0.03496329 0.002787032
0.053346734 -0.049380258 -0.047948632 -0.011236831 -0.0132442545 -0.032483373 0.077887006 0.010599558
-0.076581985 -0.04199007 0.07883126 0.040399827 0.065920204 0.06112889 0.010917029 0.09958561
-0.011903925 -0.030341487 0.07235931 -0.048624307 0.05784308 0.045054343 0.08644278 -0.057314746
0.024737924 0.023635771 0.041675452 0.046874635 0.077762656 -0.018907543 -0.015980093 -0.033979595
-0.05349127 -0.039400898 0.0033685234 0.07619283 0.006217914 -0.020899056 -0.015522337 0.032724686
0.13067962 -0.050333705 0.017684557 0.09608652 -0.026942335 0.054443393 0.10187387 0.04893507
0.045845 -0.06054204 0.06914613 0.0068512973 -0.01991014 -0.030193672 -0.07843351 0.0448355
0.023541085 -0.046090823 -0.12982182 -0.070773475 -0.10543559 -0.09238222 -0.10096365 -0.06512691
-0.045162752 0.030138575 0.013724534 -0.015420549 0.017684918 0.085132815 0.05797192 -0.02046872
0.023077618 0.02699837 0.07249352 0.024553865 0.017193507 -0.0018583144 0.05837226 -0.01037896
-0.028220711 -0.07677504 -0.0075168554 0.021534342 0.0016979222 -0.0014242772 -0.00089579413 -0.0013676464
0.0149867805 0.044713896 0.054586533 0.076487094 0.08505432 -0.029622601 -0.03560488 0.07359456
0.026099863 0.09474341 0.031359233 0.010073591 0.019652449 0.095799536 0.09224468 0.06401733
0.08915704 -0.048655037 -0.03715025 0.020108432 -0.034385968 0.066640064 -0.028457714 0.0053757494
0.014339389 0.04801843 0.09152401 0.026940193 -0.057903927 0.07312443 0.038966406 0.048051693
0.01593316 0.03545229 -0.06233415 0.06771014 0.024929635 -0.013823254 -0.0787834 -0.09331662
0.017820638 -0.04806902 0.044863217 0.08009899 -0.004507859 0.060501963 0.014056119 -0.012825714
-0.027311698 0.038923632 0.027108556 -0.073673256 0.017424198 0.015198225 -0.042385496 -0.054559544
-0.06741771 -0.0789313 -0.03800594 -0.07342391 0.0659297 0.07839021 0.073751286 0.046427496
0.14388154 0.07894695 0.040618155 0.11716945 0.10936396 0.05317761 0.052962404 0.08020661
0.0073130084 -0.04395366 0.010529419 0.004055715 0.008241681 0.023842089 0.01255652 0.058185942
0.009213567 0.14886317 0.11726402 0.15507112 0.17426184 0.13129905 0.17793465 0.07938343
0.07748041 0.07277191 0.0260586 0.045109373 0.0439819 0.10393166 0.077676706 0.028082484
0.037589397 0.065513484 0.042279903 -0.037166126 0.06847353 -0.0030932904 -0.024699444 0.023454811
-0.000497421 0.028366238 -0.011188919 0.012491657 -0.027320175 -0.030302199 0.034231067 -0.039342586
0.006581248 0.022044772 -0.0023708832 0.08089339 0.00522014 -0.050844014 -0.036636967 0.026408004
-0.01096803 0.012690961 -0.010854298 0.03500506 -0.032034904 0.05864543 -0.055322066 -0.051635075
0.03145312 -0.040473986 -0.027593853 -0.010023865 0.040194403 0.021576816 0.039672274 0.038545433

conv4.bias f4 [25]
00000000: 25eb 02be 2eaf 4e3c 6bc2 83bd bf6d 043e
00000010: 2b21 adbb ce72 c8bd f651 a43d 976f 0dbd
00000020: 00ee 813d 3069 123d c7c2 13bd 0571 083c
00000030: 78c6 b53d 458b 77bb b3b8 d53d cbae b33d
00000040: 329c 4d3d 152b 5abd d110 e03b 20aa c9bd
00000050: 047c 553d 020a d8bc 409f e0bc 555e f23d
00000060: 5d72 673d
-0.12785013 0.012615008 -0.06433567 0.1293249 -0.005283495 -0.09787522 0.08023445 -0.03453025
0.06344223 0.035744846 -0.036074426 0.008327727 0.088757455 -0.003777222 0.10435619 0.087735735
0.050197788 -0.053263742 0.006837942 -0.09846902 0.052120224 -0.02637196 -0.027419686 0.11834399
0.05650555

conv5.weight f4 [16, 25, 3, 3]
00000000: b7d5 6eba ed47 7dbc 189d f23c 7818 43ba
00000010: 171c 833d 2d47 913c 175b 67af 5b7e 30bd
00000020: 53cd 843c 8611 0aba a06a 1a3d e6b3 e53c
00000030: a906 26bb b65c 723b 2e48 42bc e150 8e2e
00000040: f6c7 46bc 6a62 eebc ba58 a832 acc3 a23b
00000050: 96db 5cbb b20a 822f 2fca 413b 6c83 0fbc
00000060: 347a 0d2f b72c 1c0f c9a0 912b cd68 43bb
00000070: b2f5 6ebd c04e bdbd ba05 b3bb a2eb dabc
00000080: a482 00bd 1052 3a13 697a 1fbb 6974 5bbc
00000090: d7a4 49bb 2d3e 623c 6342 913d ef3b 5dbb
000000a0: cb4c d0bd f3fb 11bd 72c9 3526 500d c8bc
000000b0: dae9 94bb c7c8 a8b9 f220 f93d ba82 d8bc
000000c0: 76ad 90bb 33fb 2dbd 4379 88bc 7d90 dcb4
000000d0: bfd1 febc 7257 4bbd 38fe 81ba badd d13c
000000e0: 2992 023d 3d8b 88b0 e54e ae3d 3e2b cb3d
000000f0: 2824 5526 4b3e 18bb 3706 05bd 1cc1 99ba
00000100: 301e b0bc c77b 003e c3c0 00bb 249c b53d
00000110: 0ac0 f63d e724 5ab1 0c8b 72bd 1b65 c7bc
00000120: 182c 6dbb f54f e9bc 9622 18bc 195d 62bb
00000130: 5597 53bd 2d33 4ebd ca06 cb23 06c6 953c
00000140: 7367 a73c e11b 20bb 89cd 87bd 3bd9 853d
00000150: 2459 51bb 153f 093c f7b3 adbd 4029 86a6
00000160: d3bb 58bd 45d2 453c 2ae8 97bb 754c 17bd
00000170: 0781 b13c df02 9abb 3eb5 763b 7f9f d43d
00000180: 420b 91b2 5c30 28bd 8893 79bd 3f98 f4b9
00000190: 9f7b 823d cd1c fb3c f89f d6b9 5001 b73d
000001a0: 4730 033e edf1 27b3 5786 41bd 0db2 3dbd
000001b0: 1c5c 10bb ce3c 6dbb 805c c23b 40d5 f8ba
000001c0: 06ef e03c 3d66 de3c a888 f436 7bdd 4ebd
000001d0: f091 aabb 54c4 5ebb 1384 3ebd ba63 1bbb
000001e0: 31fc 5eba bd1f a3bc a575 ccbd fd8b 7231
000001f0: 73c0 bebc 6bd4 d1bc 3e1b 00bb 28e5 b1bc
00000200: 3dac a2bd ed96 06bb 73d4 ecbd 670c bcbd
00000210: 5de8 0a2b 236d 75bd d543 a8bc e213 09bb
00000220: 3bbc bd3d 26d9 9a3d b304 30bb 1b5d 94bc
00000230: da55 163a 790a 3bad 25d8 f4bc 8d1f 3bbd
00000240: 3e6f 15bb 8c6b 7dbd c793 4a3d f8b4 2cbb
00000250: 03f1 f1ba c563 84b6 e656 a8a0 e2aa 9cbd
00000260: e8e1 fbbc 920f ec36 3071 42bc 3865 6cbc
00000270: 969f 8788 0f29 d83c 9192 a43c 876b d1b6
00000280: 1993 d026 64c6 8bb4 130e 21bb 340f d6bb
00000290: 5bbd 06bd a9a1 75ba 2c09 a73d 1267 403d
000002a0: 9063 0f16 fabc 503c 436a 7bbc ed26 6abb
000002b0: 39a0 3c3d 1811 4cbb cac4 6cbb 5cfa 433d
000002c0: 60d0 2dbc a57d 4a37 5ac2 e0bc a628 8ebd
000002d0: 5ff8 45bb 8e9e 58bc 982b 013d a634 b9ad
000002e0: 5ed7 9c3d 4774 fd3d aa95 d682 e8a5 d8bb
000002f0: be7b 26bc 8ee7 44bb e959 733d 5b8e 563d
00000300: 56ac 41bb 5217 14bc 71fd 443b 161f 39ad
00000310: 8808 34bd 61ae f9bc 59d2 07ba d78f 263d
00000320: b8d3 b9bc b1b5 dcba 0181 e33d 9db7 5c3d
00000330: a885 e7a6 739d 70bc 87e4 cb3b 6bbe 2dbb
00000340: ae1b 8cbd afc7 9b3d ae5f 20bb 4202 b6bd
00000350: 4e2b f3bc fab5 8eac be11 353c 0b07 153c
00000360: 8268 5dbb 73af 703d 34f1 113d 5a07 d9ba
00000370: 4277 5cbb fc02 8ebc 02c3 8b2b 4d3f 9f39
00000380: 119f 183c c670 943d e1ba e6bc fe52 86ba
00000390: adb7 693c bf7d 763a 5937 07bb b5ea a8bc
000003a0: 222a 313c f791 03b7 a28e f83c 83d1 893c
000003b0: 079a cebb 2dcf f03b 9ac0 a23c a13b bebb
000003c0: 55f8 22bd 20ae 0bbd a577 cea3 4954 e4bb
000003d0: c8c7 0ebc eec7 0235 3918 903c b077 653c
000003e0: a762 9793 c9c8 aaa5 23a6 0eb2 06f6 ec30
000003f0: 73c4 30bd 1b5a 82bd 03ea 3bbc f07a 97bd
-0.00091108255 -0.015459043 0.029615924 -0.0007442306 0.06401842 0.017734135 -2.1041689e-10 -0.043089252
0.016211187 -0.00052668934 0.03769934 0.028039884 -0.002533356 0.003698153 -0.011858029 6.4717794e-11
-0.012132635 -0.029099662 1.9598122e-08 0.0049671736 -0.003370022 2.3654462e-10 0.0029569974 -0.008759361
1.286729e-10 7.7000056e-30 1.0347497e-12 -0.0029817105 -0.058339782 -0.09243536 -0.005463329 -0.026723687
-0.03137459 2.351696e-27 -0.0024334437 -0.013394454 -0.0030768418 0.013808769 0.070927404 -0.0033757647
-0.10170897 -0.035640668 6.307e-16 -0.02442041 -0.004544479 -0.00032193048 0.12164487 -0.026429523
-0.0044152094 -0.04247589 -0.016659385 -4.1083322e-07 -0.031105874 -0.04964394 -0.0009917682 0.025618423
0.03187767 -9.934876e-10 0.08511142 0.09920357 7.394822e-16 -0.002323049 -0.03247663 -0.0011730525
-0.02149877 0.12547217 -0.0019646145 0.08867672 0.12048347 -3.1744152e-09 -0.059214637 -0.024340203
-0.0036189612 -0.02848051 -0.00928559 -0.0034540354 -0.051657993 -0.050341774 2.201218e-17 0.018282901
0.02043507 -0.002443068 -0.066309996 0.06535574 -0.0031944 0.008376856 -0.08481591 -9.309299e-16
-0.052913498 0.012074058 -0.0046358304 -0.03693815 0.02166797 -0.0047000493 0.003764465 0.10381984
-1.6885341e-08 -0.041061744 -0.060931712 -0.0004665274 0.06371235 0.030653382 -0.00040936447 0.08935797
0.12811385 -3.9102748e-08 -0.047247257 -0.04631238 -0.0022027558 -0.0036199572 0.005931437 -0.0018984452
0.027457725 0.02714836 7.2876755e-06 -0.05050419 -0.0052053854 -0.0033991532 -0.046512675 -0.0023710565
-0.00085062074 -0.019912595 -0.099833764 3.529521e-09 -0.023285126 -0.025613984 -0.0019547488 -0.021715716
-0.07943008 -0.0020536736 -0.11563959 -0.09182053 4.934992e-13 -0.059918534 -0.020540157 -0.0020916392
0.09264418 0.07560949 -0.002685827 -0.018110802 0.0005734839 -1.0632045e-11 -0.029888222 -0.045684386
-0.0022801901 -0.061870143 0.049457338 -0.0026352983 -0.0018458668 -3.9455213e-06 -2.8517812e-19 -0.07649781
-0.030747369 7.0351607e-06 -0.011867806 -0.014428429 -8.162535e-34 0.026386766 0.02008942 -6.241203e-06
1.447277e-15 -2.6035116e-07 -0.002457504 -0.006532574 -0.032895427 -0.00093700975 0.08156046 0.046973296
1.1582864e-25 0.012740368 -0.015345159 -0.0035728768 0.046051238 -0.0031138118 -0.0036128038 0.047846183
-0.0106087625 1.2069392e-05 -0.027436424 -0.06941347 -0.0030207855 -0.013221396 0.031535715 -2.1055446e-11
0.076582655 0.12375694 -3.1530377e-37 -0.0066115744 -0.010161338 -0.0030045244 0.059411917 0.052381855
-0.0029552183 -0.009038763 0.003005829 -1.0522935e-11 -0.04395345 -0.030478658 -0.00051811856 0.04066452
-0.022683963 -0.0016838816 0.1110859 0.053886045 -1.6065073e-15 -0.014685976 0.006222311 -0.0026511203
-0.06841217 0.07606446 -0.0024471092 -0.088871494 -0.029683735 -4.056086e-12 0.011051593 0.009095917
-0.0033784215 0.05876107 0.03563042 -0.0016557977 -0.003364042 -0.017335407 9.93067e-13 0.00030374006
0.009315268 0.07248072 -0.028165283 -0.0010248122 0.014264983 0.0009402893 -0.0020632355 -0.02061973
0.010813268 -7.842194e-06 0.03034145 0.016823536 -0.0063049826 0.007348916 0.01986723 -0.005805448
-0.03978761 -0.034101605 -2.2385236e-17 -0.0069680554 -0.008714624 4.871971e-07 0.017589675 0.0140055865
-3.8215038e-27 -2.9626356e-16 -8.303263e-09 1.7241184e-09 -0.0431561 -0.063648425 -0.011469367 -0.07396495

conv5.bias f4 [16]
00000000: dcfc 6fbd a4ea d9bd 1d9e 8fbc 7d35 a1bd
00000010: 18e9 913c 6fff 9abc 7957 17bd 9623 9ebd
00000020: 3941 c83c 0a68 d03c 5d09 6c3c ae95 47bd
00000030: 45b8 82bd 1262 68bd 9f8b 6f3d 5463 94bc
-0.058590755 -0.10640457 -0.017531449 -0.0787153 0.017811343 -0.018920628 -0.036948655 -0.07721631
0.024445163 0.025440235 0.014406529 -0.04872673 -0.06382803 -0.056734152 0.058482762 -0.01811377

classifier.1.weight f4 [10, 16]
00000000: a2b9 1dbe f3d8 89bc 3137 7bbe 8fe9 85bd
00000010: 8364 6b3e 2826 a5b6 5fee 483d 8d9f 27be
00000020: 52ab 8b3d 4c94 553e 5da0 11be 3c9d 033e
00000030: 7f05 5b3b ab47 5ebe 0ca5 f2bd 2d1c 15be
00000040: f10d 073e 7ca7 293e 2db1 0e3e dd8b 0c3d
00000050: 67ff 613e e925 19bb ff45 bf3d 36e5 3e3e
00000060: 485c 91be c53e 19be dd86 133e 91ba 0b3e
00000070: 1c5a b03d 620c 20be 2db3 b33d 1f55 ccbd
00000080: 932a 14be 704c b0bc e4db 423e f64d 83be
00000090: 7f2e a03d 8798 4d9a f3a1 51bc 326a fdbd
000000a0: a61e 0f3e 6e4b 53be 40a2 49bd 6480 113d
000000b0: e759 4dbe 56a7 41be b371 743e af30 8f3d
000000c0: dfaf a23d 51a9 76be 5e6f 6abc 1664 86bd
000000d0: a2e7 2dbe 5067 dbb6 9f5d 24be aab0 b7bd
000000e0: 6702 3c3e fc1d 1ebe b7d2 8ebd fe21 fa3d
000000f0: 9b6a 483e ce28 1abe 1d03 d93d 522f 173e
00000100: c6b6 46be 6566 2ebe 1d55 3e3e 72ec 4bbe
00000110: 211a d83d 6709 4ebd 906b 5ebe 7b0a 033e
00000120: 6612 a33d 3ee8 1bbe 0abf 24be c26a fcbd
00000130: b0b3 f73d bef5 c1bd 1457 ba3c 8929 f93d
00000140: 6302 ab3d 6cf8 9abe 89ce 2f3e 0878 a23d
00000150: e32b 2d3e 9370 16b8 ccaf 6abe d655 d0bd
00000160: 6c2c ba3c 6d4e d6bc dbdd 873e 5f0c ecbd
00000170: 8365 65be e92e cf3c 4fbb a9bd 3db2 48bd
00000180: 03a6 50bc 0259 443c d76a 853e 233a 833d
00000190: c58f 813d b5e7 703d a4a5 41be 6de6 873e
000001a0: a72c 42be ce88 323d b036 a23d 323b ec3d
000001b0: 92a0 8abe dfd1 3f3e 0bf3 7abe b4e1 133b
000001c0: 9e06 85be 25e1 3d3d 8bbc ba3d bd40 423e
000001d0: 2cda 543e 966e 023a fef9 04be 3b16 2bbe
000001e0: a6cf 44be 1614 113d b7d4 323e 896c 193e
000001f0: 76f7 f9bd e025 953e 4442 34bd a110 633c
00000200: d2bd 443e bc60 65bd 5523 933c d279 50bd
00000210: e3b9 643e 594f b2bc d000 d13c 01df 99be
00000220: c51c f6bc 955c 5d3d 7811 583d e1e4 003e
00000230: fb28 a83d aff7 81be 500d 16be 0cda 2dbe
00000240: e7fd 523d dc74 6b3e 9893 243e afc2 913e
00000250: 3a04 023e d190 7d38 b0ab 583d 1bca 4f3b
00000260: 1661 67be a0d3 3abe e555 9cbe 9d2f 073e
00000270: 5d36 e43d bc68 bcbd 6289 ebbd 3097 8ebc
-0.15402845 -0.016827082 -0.24532773 -0.065386884 0.22987561 -4.921825e-06 0.049055453 -0.16369458
0.06819786 0.20857352 -0.1422133 0.12852949 0.0033420024 -0.21707027 -0.118478864 -0.1456153
0.13188912 0.16567796 0.13934775 0.03431307 0.22070085 -0.0023368543 0.093395226 0.18642125
-0.28390718 -0.14965351 0.14406915 0.13645388 0.08610937 -0.15629724 0.087744094 -0.09977173
-0.14469366 -0.021520823 0.19029194 -0.25645417 0.078213684 -4.2516217e-23 -0.012794959 -0.12373771
0.13976535 -0.20634243 -0.049227 0.035522833 -0.20053826 -0.1891149 0.23871498 0.069917075
0.07943701 -0.24088027 -0.014308779 -0.06562059 -0.16982892 -6.5387358e-06 -0.16051339 -0.08969243
0.18360291 -0.15441126 -0.069737844 0.12213515 0.19571917 -0.15054628 0.10596297 0.14764145
-0.1940566 -0.17031248 0.18587156 -0.19914415 0.10551859 -0.050301936 -0.2172072 0.12796967
0.079624936 -0.15225312 -0.160885 -0.1232505 0.120948195 -0.094707 0.0227466 0.12166125
0.083500646 -0.30267656 0.1716863 0.079330504 0.16911273 -3.586763e-05 -0.22918624 -0.10172622
0.02272626 -0.026160443 0.2653645 -0.11525797 -0.22402005 0.025290923 -0.082876794 -0.048998106
-0.012734893 0.011984112 0.26058075 0.06407573 0.0632625 0.058814723 -0.18910843 0.26542988
-0.18962346 0.0435875 0.07920587 0.11534728 -0.2707563 0.18732403 -0.24506776 0.002256495
-0.2598161 0.046357293 0.09117993 0.18970008 0.20786351 0.0004975585 -0.1298599 -0.16707699
-0.19219837 0.035419546 0.17463957 0.14982809 -0.122054026 0.2913046 -0.04400851 0.013858945
0.19213036 -0.056000456 0.017961184 -0.050897427 0.22336535 -0.021766352 0.025513083 -0.3005295
-0.030043015 0.05404337 0.052751034 0.1258731 0.082109414 -0.2538428 -0.14653516 -0.1697771
0.05151167 0.22993797 0.16071928 0.28468844 0.12696925 6.045477e-05 0.05289811 0.0031706158
-0.22595629 -0.18244791 -0.30534282 0.13201757 0.111431815 -0.09199664 -0.11500813 -0.017406076

classifier.1.bias f4 [10]
00000000: 3c51 403d 898b 8bbe e63e 223b 8d18 7abe
00000010: 0d78 52bd adee efbd 6bae c3bc 9bfe 9cbd
00000020: 2858 a5bc 450f e6bd
0.04695247 -0.27254894 0.0024756729 -0.24423428 -0.05138402 -0.11715446 -0.02388688 -0.0766575
-0.020183638 -0.11233381
