Cifar/reek_cifar_3Models_grad_and_weights/CifarModel1.pt (torch, 147295 bytes, 4 tensors)

conv1.weight f4 [16, 3, 3, 3]
000000 2a d3 06 3e d8 f8 10 3e c6 21 c2 bc 70 89 42 3e
       0.1316649 0.14157426 -0.023697745 0.18997741
000010 43 ba d3 3c 81 44 78 3d 5b 07 9b bc 3a 26 1a 3e
       0.025845652 0.060612205 -0.018924406 0.15053645
000020 41 a8 28 3e 9f aa 39 be 8c 4e f1 3d e8 d1 15 3d
       0.16470434 -0.18131493 0.1178256 0.036577135
000030 19 bf fc 3d c2 f3 88 3d 33 2e b8 3d 4e cb 2e 3c
       0.123411365 0.06687118 0.08993187 0.010668589
000040 4d 31 1a 3e f3 4f d3 bb b7 4c 1b be af b0 61 bc
       0.1505787 -0.0064487397 -0.15165983 -0.013775035
000050 b5 c0 d8 bd 6f 22 97 bd d8 d9 90 bd 27 7e bd 3d
       -0.10583631 -0.073796146 -0.070728004 0.09252577
000060 c3 76 28 be a7 bf fa bd 78 95 f8 bd b1 99 8c bd
       -0.16451554 -0.12243586 -0.12137884 -0.06865252
000070 fe a4 0d 3e 72 61 3e be 56 f6 7f 3e e0 93 21 be
       0.13832471 -0.1859186 0.24996313 -0.15779066
000080 1e 95 06 3e f3 8e 3c bc 27 99 b9 bd 7e 92 41 3e
       0.13142821 -0.011508691 -0.090624146 0.18903539
000090 27 03 3e 3d 26 18 66 3e 11 fb 83 bc 24 6a 6f 3c
       0.046389725 0.2247015 -0.016110929 0.014612708
0000a0 1a cb 15 3d 5a 13 9f bd d5 f7 93 3c f2 57 db 3d
       0.036570646 -0.07767363 0.018062511 0.107101336
0000b0 ea 4c 16 3e 6d b2 0b be ee 27 e1 3d 32 45 8c bd
       0.14677778 -0.13642283 0.10993944 -0.068491355
0000c0 60 24 be 3d c9 ab 49 be 17 d4 90 be f2 fe 55 be
       0.09284282 -0.19694437 -0.28286812 -0.20898035
0000d0 31 7c 8c be 09 84 f9 3d 6b 01 03 3e cc 90 ad bc
       -0.274385 0.12183387 0.1279351 -0.021187209
0000e0 3c 27 0e be 3f 55 cd 3d 7a 15 07 3e cd 61 9b be
       -0.13882154 0.10026025 0.13191786 -0.30348054
0000f0 f5 62 17 3e 2e 83 10 be ce df 1f be 0b 47 01 3e
       0.14783843 -0.14112541 -0.15612718 0.12624757
000100 66 ab 94 3c 72 77 63 be e3 e5 ba 3e a5 15 9b bd
       0.018148135 -0.22213534 0.36503515 -0.07572488
000110 ad 0b 8c be 9d 7f de 3d 52 d2 52 3e c6 9f 18 be
       -0.27352658 0.10864184 0.20588043 -0.14904699
000120 6f fa ad 3e 23 47 32 be 6b 2f a4 be 09 71 f2 3c
       0.33980128 -0.17409949 -0.32067427 0.029594915
000130 86 1e 89 bd 9d 9f b5 bc 3b ad 85 3e 09 20 5a 3e
       -0.06695275 -0.022170836 0.26108727 0.21301283
000140 f1 b6 76 be 95 90 9c bd 71 52 45 3c 3d be cf bc
       -0.24093224 -0.07644764 0.012043581 -0.025359267
000150 f3 5a 0c 3e a7 e8 15 be 9d 6e 47 3e b1 4f 92 bd
       0.1370657 -0.14639531 0.1947579 -0.07144106
000160 86 7a 1c be dc 12 09 3e ae c6 0c 3e 5a 4a dd bd
       -0.15281114 0.133861 0.13747665 -0.10805197
000170 3f 13 47 3e 4e 69 4b 3e b1 10 51 be 8b 7d 0e 3d
       0.19440936 0.1986439 -0.20416524 0.034787696
000180 89 34 8c 3e 40 1e d6 bd 5b bd 43 3d 3c 89 f5 bd
       0.2738383 -0.104549885 0.047788005 -0.11989066
000190 5f 00 44 be ac 93 c5 3d 5e 30 ff 3c 86 13 58 be
       -0.19140767 0.09647307 0.031150993 -0.21101198
0001a0 d3 08 f6 3d 03 76 54 bd 16 d1 5c be b3 6a 47 bc
       0.12013402 -0.051870357 -0.21564135 -0.012171435
0001b0 bd dc 0d be f7 cc 87 bd 79 ee 91 3e 7b ab 99 bc
       -0.13853736 -0.06630891 0.28502253 -0.018758526
0001c0 86 2d 24 3d 8f 24 64 bd d2 ce 23 be 58 23 81 bd
       0.040082477 -0.055698927 -0.15996864 -0.063055694
0001d0 33 ef 1c 3e fd 77 48 be 00 f6 93 bd 39 5e 52 bd
       0.15325622 -0.19577022 -0.07224655 -0.05135939
0001e0 d2 d8 b6 bd 33 b5 dd bd bd c1 c5 3d d8 8c 40 be
       -0.08928074 -0.10825577 0.09656093 -0.18803728
0001f0 b4 be 0e be 11 5d 2a 3c eb da 8e bd d7 96 f2 bd
       -0.13939935 0.010398165 -0.06975349 -0.11845177
000200 e2 8c 63 3e 11 38 b7 bd b7 22 26 3e d1 9b 3b 3e
       0.22221711 -0.08946241 0.1622418 0.18321158
000210 72 6d 34 be 79 d3 28 3e 6c b3 bd 3d 84 f0 4f be
       -0.17619875 0.1648692 0.09262738 -0.20306593
000220 ae 4d 91 be ef e9 93 be 8b 19 83 bd 16 91 2b be
       -0.28379577 -0.28889415 -0.06401356 -0.16754565
000230 c9 40 da 3b 2c f6 8e be 52 7b 87 bb a7 ca 77 be
       0.006660555 -0.2792219 -0.004134574 -0.241984
000240 1d 21 25 bc d0 d3 97 3d 8c b3 22 3e 65 f9 5a 3e
       -0.010078696 0.07413447 0.15888804 0.21384199
000250 97 ef 6a 3e d6 82 17 bd 8d 1a bf 3d 5d b6 66 bd
       0.22942959 -0.03699001 0.09331236 -0.05632626
000260 6b 07 4f 3d 54 18 f2 bd ac 70 59 3e bb 84 b3 bd
       0.050544184 -0.118210465 0.21234387 -0.08765551
000270 9f 03 2a 3e a8 10 07 3e 51 24 2e 3e 70 01 62 bd
       0.16602944 0.13189948 0.17006041 -0.055177152
000280 d1 b2 55 3e 87 8f e1 3d 2f 2e 02 3d 47 87 29 be
       0.20868994 0.11013704 0.031782325 -0.1655551
000290 3f 48 86 3d 8c ce ba bd 85 59 17 be 15 23 dd 3d
       0.065567486 -0.09121427 -0.14780243 0.10797707
0002a0 4c 7d 99 bd 38 9e 5f be fd b9 40 be 50 f4 82 3d
       -0.074946016 -0.218377 -0.18820949 0.06394255
0002b0 fb 36 35 3e 35 67 09 3c ff a1 d5 bd 2f b7 6c bd
       0.17696755 0.008386423 -0.10431289 -0.057791885
0002c0 65 8b fc bd 81 15 cf ba 9d 8d 9e 3d 79 58 61 be
       -0.12331275 -0.0015799255 0.07741854 -0.22006406
0002d0 32 22 2f 3e 61 a6 6d 3e 2c dd 12 3e 3f 01 1a 3c
       0.17102888 0.23208 0.14342183 0.009399711
0002e0 33 f8 3e 3e 7f 83 3d 3e dc 1c 90 3d 0e 44 20 bd
       0.18649368 0.18507193 0.070367545 -0.039127402
0002f0 80 81 28 bd 21 d2 9e bb cf c8 e7 bd 22 f2 43 be
       -0.041139126 -0.0048468267 -0.11317598 -0.19135335
000300 3a 3a 45 3e f2 ee a9 3e e8 dc 1b bd 43 ee 41 be
       0.19260493 0.33190113 -0.03805247 -0.18938546
000310 ea d6 94 bd 99 b4 d6 3d 3d ca 70 3d 92 15 67 3c
       -0.07267554 0.10483665 0.05878662 0.014104264
000320 81 9f 8a be 57 17 1d 3d 5d e0 bb 3e 12 3d 9c 3d
       -0.27074817 0.038352337 0.36694613 0.07628836
000330 07 d8 03 be 6b f8 3b be 93 1a 75 3a 68 89 38 be
       -0.12875377 -0.18356483 0.0009349968 -0.18021166
000340 a8 54 ef bd 76 e0 83 bc aa 2c 4b 3e c5 e0 6a 3e
       -0.11686069 -0.016098242 0.19841257 0.22937305
000350 44 64 3a be 62 e3 4a be 4c f4 c1 bd 6c 39 85 3e
       -0.18202311 -0.19813302 -0.09470424 0.26020372
000360 4b 03 27 3e db a3 02 3e 02 c5 0e 3e b1 71 50 be
       0.1630985 0.12757818 0.1394234 -0.2035587
000370 ce 81 84 be 85 d2 9b 3c 23 90 fd bd 67 ea 30 bd
       -0.25880283 0.019021282 -0.123810075 -0.043192293
000380 a6 2e 70 be 00 7b 90 3e fc 3d b2 3e a5 7f 33 3e
       -0.23455295 0.28218842 0.34812915 0.17529161
000390 52 a5 62 be ea 67 8b be fa b2 52 be 41 3d 1b 3e
       -0.22133377 -0.27227718 -0.20576087 0.15160085
0003a0 c0 fd 12 3e e0 77 3f 3e 92 9d 37 3e c3 0f 3a 3e
       0.1435461 0.18698072 0.17931202 0.18170075
0003b0 7d b1 59 3d 01 10 7b be d6 0b 77 be 8f 77 6c be
       0.05314778 -0.24517824 -0.24125609 -0.23092483
0003c0 f8 ff 82 3d 6a 85 50 bd 6d 2a 92 bc a2 da 17 be
       0.063964784 -0.050908484 -0.017842496 -0.14829496
0003d0 0e ff 63 3d 14 b1 12 be 4b 9c 25 be f4 54 39 3e
       0.05566316 -0.14325362 -0.16172902 0.18098813
0003e0 70 aa 34 bd 88 f1 f5 3d 8d fa 0b 3d 7f d0 e5 bd
       -0.044107854 0.12008959 0.03417449 -0.11221408
0003f0 36 53 d7 bd 91 0b d7 bc cb f1 b1 bd f3 de 76 be
       -0.10513918 -0.026250632 -0.086886965 -0.24108486

conv1.bias f4 [16]
000000 a7 59 62 3d 44 fc 94 3e eb e6 6e be f3 08 95 3e
       0.05526128 0.29098713 -0.23330276 0.2910839
000010 13 d0 b2 be 5a e0 5e 3d 2f 27 14 be cf f7 a5 bd
       -0.34924373 0.054413177 -0.14468072 -0.08103906
000020 22 cd cf bd 0f 2f 53 3e b1 f9 83 be 87 77 20 3e
       -0.10146548 0.2062342 -0.25776437 0.15670596
000030 5b a2 84 3e bf ef ac be 47 66 67 bd 51 45 6a 3e
       0.25905117 -0.33776662 -0.056494024 0.22878005

fc1.weight f4 [10, 3600]
000000 65 01 08 bc 71 d2 da bc b4 cd 2a bc 05 2c 8e bc
       -0.008301114 -0.026711674 -0.01042502 -0.017354975
000010 29 33 14 bc d7 54 29 3c f9 26 cd 3c 0e b5 ae 3c
       -0.009045401 0.010335169 0.025042998 0.021326568
000020 e5 11 07 3c 95 7c cc 3c 61 99 a1 ba c9 79 5f bc
       0.0082440125 0.02496175 -0.0012329036 -0.013639876
000030 27 64 2a bc 0a ae 33 bc 23 36 82 bc 08 ac e5 bc
       -0.010399855 -0.010966787 -0.015894955 -0.028036132
000040 f8 a3 65 bc 3e 4e bf bc d7 72 67 bc ca 93 0d bc
       -0.014016144 -0.023352738 -0.014126501 -0.008641193
000050 2d d2 b0 3c 39 d6 e7 3c 65 14 f8 3c 7c c6 f6 3c
       0.021584595 0.028300392 0.030283162 0.030123942
000060 9d fb f4 3c 38 d0 2a 3b 39 48 dc bb 14 69 d0 3b
       0.029905135 0.002606405 -0.006722477 0.0063601825
000070 c5 71 74 bc f4 4f 84 bc 67 97 bc bc 44 4e 98 bc
       -0.014919703 -0.016151406 -0.023021413 -0.018592007
000080 44 a6 d2 bb f9 71 c4 3b 88 94 1d bb 23 29 bf 3b
       -0.006428512 0.005995032 -0.002404483 0.0058337613
000090 b8 2f a0 3b af 6f e3 b9 d0 24 bd 3c 58 b5 65 3c
       0.004888501 -0.00043380025 0.023088843 0.0140202865
0000a0 a0 b6 a6 3c 04 89 7e 3c 99 ef 03 bb 3d bf bd bb
       0.020350754 0.015535597 -0.0020131825 -0.0057906196
0000b0 9d ac a5 bb 54 81 ef 39 ff 71 df ba 1c 68 50 3a
       -0.0050559775 0.0004568199 -0.0017047523 0.0007950084
0000c0 2d 60 fa 3c 9b a1 04 3d 7a 9e d6 3b d9 c6 ff 3b
       0.030563438 0.03238068 0.0065496536 0.007805687
0000d0 86 4b 5b 39 62 0f 82 bc 1b 83 b9 bb 79 0b 94 3a
       0.00020913602 -0.015876476 -0.005661381 0.0011294923
0000e0 42 ec b3 3b 77 81 cd 3b 21 29 6c bb dc c3 f5 b8
       0.0054908106 0.006271537 -0.0036035257 -0.00011718992
0000f0 24 a0 af 3c f6 e9 aa 3c fd 73 ba 3c 08 6a b5 3c
       0.021438666 0.020863514 0.022760386 0.022145286
000100 50 8a 1f 3d 12 fc ba 3b d2 2a f2 bb e5 1c f3 bc
       0.038950264 0.0057063187 -0.0073903585 -0.029676864
000110 01 41 b0 bb 98 e4 ff bc 42 8e 39 3c 2d 6c 82 bb
       -0.005378843 -0.031236932 0.011325421 -0.0039801807
000120 ce 4c df 3b a1 1e a5 3c d2 49 f8 3c 44 8f 47 3d
       0.0068145758 0.020156207 0.030308638 0.048720613
000130 2b f0 3b 3d da 9a d0 3c 9d 54 57 3d 3a 1b 48 3d
       0.04588334 0.025464464 0.052570928 0.04885409
000140 7c fe 2b 3d 52 9f c9 3c 40 d0 8f 3c 66 cf dc bb
       0.041990742 0.024612103 0.017555356 -0.006738591
000150 6b 61 0f 3c 45 a3 b2 3c c9 ba 4f 3c d6 f7 91 3b
       0.008751254 0.021806369 0.01267881 0.004454593
000160 64 c5 4c b9 48 0f fa 3c 06 d0 5c 3d aa 7b 8f 3d
       -0.0001952849 0.030524865 0.053909324 0.07006009
000170 73 63 22 3d 08 d0 68 3d 7c 2f 25 3d 27 d2 13 3d
       0.039645623 0.05683902 0.040328488 0.03608909
000180 76 fe 2e 3d d8 2a 3d 3c ab e7 94 3c 93 b4 d5 3c
       0.04272314 0.011545859 0.018176874 0.026087081
000190 0e 54 ed 3c f8 e9 6e 3c 9d 4f 0e 3c a9 f4 84 3c
       0.028970744 0.01458215 0.0086859735 0.016229944
0001a0 f0 32 d6 3c 6e b5 90 3d 75 92 72 3d ba 0a 42 3d
       0.026147336 0.07065855 0.059221704 0.04737351
0001b0 87 54 8c 3d 1f 8f 64 3d 12 bd 72 3c ff ca be 3b
       0.0685206 0.055800553 0.014815586 0.005822539
0001c0 af eb 8d 3b 3f 28 c9 3a 1e 99 f5 bb 3f f9 91 bb
       0.004331074 0.0015347077 -0.0074950596 -0.0044547613
0001d0 4d 82 9c bb 05 e9 67 bb 09 6a af b9 74 32 b3 3c
       -0.0047762753 -0.0035386693 -0.00033457603 0.021874644
0001e0 fc a8 5b 3d d0 c7 31 3d 09 7b 4f 3d b2 e0 12 3d
       0.053627953 0.043403447 0.050654445 0.035858817
0001f0 f6 7d a7 3c 09 e2 73 3c 7e db b0 3c 87 18 2f 3b
       0.020445805 0.014885434 0.021589037 0.00267175
000200 94 24 c9 bb 72 12 b5 3b be fa d7 bb d5 24 81 3c
       -0.0061383937 0.0055258805 -0.00659117 0.015764633
000210 dd 9e 27 3d 1e 43 0f 3c 2c ee 0a 3d 86 8a ba 3d
       0.04092299 0.008744029 0.033918545 0.091084525
000220 12 21 7e 3d e0 e3 54 3d 42 b5 ca 3c e9 9f dc 3b
       0.062043257 0.05197513 0.024744634 0.00673293
000230 45 5c 50 3c 3e e4 3a bb 22 0a 52 3c a3 c2 5a 3c
       0.012717311 -0.002851739 0.012819799 0.013352069
000240 c8 19 cb bb 7d a5 85 bc b9 d7 98 3b ba 36 d6 3c
       -0.0061981417 -0.016314263 0.004664388 0.026149143
000250 ef 8b 19 3d f6 38 10 3d 8a 52 c7 3d a4 d7 74 3d
       0.037486967 0.035210572 0.0973254 0.059775963
000260 4b 21 03 3d 5b 94 6a 3c a6 13 a5 bc 9e a9 36 bc
       0.032014173 0.014317597 -0.02015097 -0.011148838
000270 6d 80 3d bc 5f f4 9a bc 73 77 f4 bc b8 9c 95 bc
       -0.011566264 -0.018915353 -0.029842114 -0.018263206
000280 2e a0 f5 bb 1a 98 4f 3c 94 03 ab 3c d1 e9 dd 3c
       -0.0074959015 0.012670541 0.02087573 0.027089031
000290 e5 0d 05 3d 60 e0 aa 3d 9e 2b 25 3d da 17 42 3b
       0.032483954 0.083435774 0.0403248 0.0029616267
0002a0 d7 c2 37 bc cc 88 15 bd 44 43 ab bc 03 d5 ba 3a
       -0.011215887 -0.036507413 -0.020906098 0.0014254156
0002b0 46 2e cb bc b5 ea a7 bc fb 10 cf bc 0d cd 0a bd
       -0.024802338 -0.02049766 -0.025276652 -0.033886958
0002c0 9e 56 7a bc f5 53 f7 bb 0b f7 16 3d 6b aa 3d 3d
       -0.01527944 -0.0075478503 0.036856692 0.0463051
0002d0 e4 ef 2c 3d 7d ec cc 3c 2c b3 92 bc 86 8b 0e bd
       0.042220965 0.02501511 -0.017907701 -0.03480103
0002e0 7f 48 e3 bc 60 43 1b bc 7d 70 bf bc 78 66 e6 bc
       -0.02774453 -0.009476513 -0.023369068 -0.028125033
0002f0 1c 60 19 bd d9 76 01 bd 03 c8 0a bd 67 b9 97 bc
       -0.037445173 -0.031607483 -0.033882152 -0.018521024
000300 bb d6 51 3c 9e 04 8f 3c 80 d7 59 3d 53 a6 60 3d
       0.012807543 0.017458256 0.053184032 0.05484612
000310 08 ef de 3b e3 a8 10 bc e0 c0 3f bc 46 93 c5 bc
       0.006803397 -0.008829328 -0.0117037 -0.024118077
000320 63 eb 86 bc 2f 0c dd bc dc d0 02 39 23 d6 b6 bc
       -0.016469663 -0.026983349 0.00012475572 -0.022318905
000330 63 af a2 bb d2 f6 31 bc f0 09 f7 bb 84 70 de 3c
       -0.0049647554 -0.010862069 -0.0075390264 0.027153261
000340 e4 92 e1 3c f3 58 ed 3c 41 3e fc 3c d4 8a 0b 3d
       0.027535863 0.028973078 0.030791404 0.034067944
000350 86 51 1f bc a0 26 b1 bb 4d 05 f4 bc 48 13 b8 bb
       -0.009724027 -0.005406216 -0.029787684 -0.005617533
000360 b1 49 5c bc 10 55 b2 bb 69 d2 82 3c 51 8b 98 3c
       -0.013445304 -0.005442269 0.015969472 0.018621119
000370 69 61 a9 3c 3e c9 9c bb ab 63 ad 3c ec 6b 30 3d
       0.020676332 -0.004784732 0.02116569 0.043071672
000380 5c da 46 3d 47 21 c5 bc 78 f5 64 bd 15 4c 17 bd
       0.048548087 -0.02406372 -0.05589816 -0.03693779
000390 5f 6e 25 bd ca 7e 05 bd 18 b8 85 bd 54 d8 70 bd
       -0.04038846 -0.03259162 -0.06529254 -0.058800057
0003a0 7a ec d0 bc 6d f6 dd bc 70 3b 34 bd 53 b1 9e bc
       -0.025503386 -0.027095044 -0.044001997 -0.019371664
0003b0 59 91 c0 bc c0 c2 27 ba 90 b6 40 bd 55 2d 6e bd
       -0.023506807 -0.00063995644 -0.047049105 -0.0581487
0003c0 c3 45 19 bd 5a 19 6e bd 9b 38 41 bd 35 03 37 bd
       -0.037420046 -0.058129646 -0.047173124 -0.044680793
0003d0 a3 df 65 bd dc bd 6e bd 07 9d bb bc 54 e7 d8 3b
       -0.05612148 -0.058286533 -0.022902025 0.0066193733
0003e0 db 9a 14 3d 00 1b 3b 3d 8d 8a 8e 3c d2 7b 11 3d
       0.036280494 0.045680046 0.01740005 0.035518475
0003f0 7c dc 06 3d 84 50 74 bb 4a c1 1e bd 74 ad 37 bd
       0.032925114 -0.0037279436 -0.038758554 -0.044843152

fc1.bias f4 [10]
000000 03 b5 87 bd db 48 13 be 4a ac 05 3e f1 86 c1 3d
       -0.06626322 -0.14383261 0.13054004 0.09449566
000010 57 bb 03 3e eb 31 8c 3d 03 68 7c bd 32 bc 93 bd
       0.12864433 0.068454586 -0.06162263 -0.0721363
000020 d4 4b 10 3e 6e 05 33 be
       0.14091426 -0.1748254
