Cifar/reek_cifar_3Models_grad_and_weights/CifarModel2.pt (torch, 190785 bytes, 12 tensors)

conv1.weight f4 [16, 3, 3, 3]
000000 6d 83 9b bc 86 ec 45 bd 14 11 13 3c ff 04 27 3e
       -0.018983567 -0.04832127 0.00897624 0.163105
000010 b9 95 8a be 82 8d 30 3e bd f2 d4 3d c2 be 17 be
       -0.27067354 0.17241481 0.10397861 -0.14818862
000020 da ce 5b 3d 31 ba df bb 01 f5 a0 ba fa e1 e9 3c
       0.053664066 -0.0068276157 -0.0012280048 0.028550137
000030 f9 55 4b 3d c6 ef a2 be 68 1e 11 3e d5 e3 eb 3d
       0.049642537 -0.31823558 0.14171755 0.11518065
000040 b7 35 d4 bd ae 3b ad 3c 13 2b a3 3d cc 8a b0 bd
       -0.10361808 0.021146622 0.079672 -0.086202234
000050 67 21 3d 3d 5d e9 e5 3d 75 71 0e bb 0b ee 07 bc
       0.046174433 0.11226151 -0.0021735106 -0.0082965
000060 09 72 54 3e cc ea 68 be d7 f4 08 3c a1 7f 54 3e
       0.20746626 -0.22745818 0.008359156 0.20751812
000070 b3 51 65 3e 78 a1 de bd cf 31 65 bd 0b 2d 5c 3e
       0.22394447 -0.108706415 -0.055955704 0.21501558
000080 b4 ac 03 3e 2d 85 b9 3d 39 9c 0c bd fc 36 65 3d
       0.1285885 0.090586044 -0.034328673 0.05596064
000090 d4 21 f6 bd 65 94 90 ba 23 82 12 3c 25 65 17 be
       -0.12018171 -0.0011030553 0.00894216 -0.14784677
0000a0 b8 5e fb bd f9 f5 f1 bd 37 d4 8d be 0c a2 e4 3d
       -0.122739255 -0.11814494 -0.2770097 0.111637205
0000b0 17 72 14 be 65 ee 7a be 49 f7 2a 3e 04 11 4d be
       -0.14496647 -0.24505003 0.16695894 -0.20026022
0000c0 e4 c0 e6 bc 66 ef 77 3e 0d 89 86 3d dc 9a 3d be
       -0.02816815 0.24212417 0.06569109 -0.18516105
0000d0 9f 2a a6 3c 92 b5 12 3e 88 68 4b be f8 9b 26 3e
       0.020283995 0.14327076 -0.19864094 0.16270435
0000e0 40 d2 15 3e d0 dd 67 be 63 06 71 be 1a da eb bd
       0.14630985 -0.22643209 -0.23537593 -0.11516209
0000f0 87 cc c0 3a f9 14 b5 bd ca cc 1a bd a5 29 cf bd
       0.0014709391 -0.08841891 -0.03779296 -0.10115365
000100 80 3c cf bb d1 6d a4 3e 6b 45 9e bc a9 d7 50 be
       -0.006324351 0.32115033 -0.01932021 -0.20394768
000110 36 95 78 3d 63 3e 57 3e 71 1e be bc 15 ce e8 bd
       0.060689174 0.21019892 -0.023207875 -0.11367432
000120 9a b9 12 3d 3c 33 f3 3d 9c 16 20 3e 70 07 33 be
       0.035821535 0.118750066 0.15633625 -0.17483306
000130 88 93 90 bc aa 9f bf bd 14 3f 6a 3e 86 2e 43 be
       -0.017648473 -0.093566254 0.22875625 -0.19060716
000140 01 16 f1 bc 78 a0 29 3d 68 16 0f 3e 30 05 69 bc
       -0.029429438 0.0414128 0.13973391 -0.014222428
000150 aa 8e de ba b8 6c 38 be 67 d5 20 be fa 17 8d 3e
       -0.0016979773 -0.18010223 -0.15706407 0.27557355
000160 05 ff 06 be 61 79 2f be bd f9 12 be 3e c9 74 3d
       -0.1318322 -0.17136146 -0.1435308 0.059762232
000170 ce 49 83 3e ba b7 42 3e 58 43 59 be 30 8d 3a be
       0.25642246 0.19015399 -0.21217096 -0.18217921
000180 85 90 2f 3e c1 db 15 bd 57 d3 1f 3e bb d3 c6 bd
       0.17144974 -0.036586527 0.15607964 -0.09708353
000190 85 1a f3 bd 7c 25 b1 bc 44 9e 82 3e a5 cc 81 be
       -0.118702926 -0.02162432 0.25511372 -0.25351444
0001a0 9c 9c 04 bd 02 50 87 3e 3d b7 9a bd 51 e6 5e bd
       -0.032375917 0.2642823 -0.07554481 -0.054418866
0001b0 33 be 29 3d 02 af 33 3d 1f 96 58 be 2c ac 31 3e
       0.041441154 0.043868072 -0.21151017 0.17350835
0001c0 44 fa e3 bd 67 7b e1 bd de fc 49 3e 92 b1 00 be
       -0.11131719 -0.11009865 0.19725367 -0.12567738
0001d0 55 53 90 bd a2 12 d2 3d 4c 86 57 be 03 9e 49 3d
       -0.07047144 0.1025746 -0.21047324 0.049222957
0001e0 ec 1d da 3d f3 07 cb bd 30 27 c0 3d c9 40 09 3e
       0.106502384 -0.099136256 0.093824744 0.1340362
0001f0 77 16 11 bb 63 bb 20 3e b2 f4 9a bc b6 4b a4 3d
       -0.0022138634 0.15696482 -0.018915508 0.08022253
000200 32 2b 92 be 93 33 12 3e 10 b1 a6 3d 6e 17 08 be
       -0.2854858 0.14277487 0.08139241 -0.13290188
000210 67 cc 7e 3e c3 26 7a 3e 4a 46 15 be 0d f3 0c be
       0.24882661 0.24428849 -0.14577594 -0.13764592
000220 de ec 07 be 99 be ac 3d b5 df 23 3d 88 02 e2 bd
       -0.13273951 0.08434791 0.040008266 -0.11035639
000230 91 d9 3b 3e ab 39 3a be 07 b0 1a 3e 72 42 08 3e
       0.18344714 -0.18186061 0.15106212 0.13306597
000240 e5 04 8a be b7 55 3c be ac d8 11 3e 3f 94 6b be
       -0.2695686 -0.18392073 0.1424281 -0.2300577
000250 18 74 c5 3d fd f9 c4 bc ad d5 0b be a5 72 1d 3e
       0.09641284 -0.024044985 -0.1365573 0.15375765
000260 0d ff db 3d 89 1f da 3d e4 82 24 be 1e fb 35 3d
       0.107420065 0.10650546 -0.16065556 0.044428937
000270 1e 4c 3f be 32 af 1a 3e f6 1c 52 3e 2a a9 11 be
       -0.1868138 0.15105894 0.2051886 -0.14224687
000280 0e a8 fe 3d dc 26 86 3d f0 29 8d be 0e dd 84 3d
       0.12434398 0.065503806 -0.27571058 0.06487475
000290 b6 57 12 3e 8c 29 85 be b4 30 20 3e f0 33 30 3e
       0.14291272 -0.2600826 0.15643579 0.17207313
0002a0 87 f1 01 3a 6c ea 07 3e b9 6c 2e be 78 72 04 bd
       0.000495695 0.13273019 -0.17033662 -0.03233573
0002b0 12 03 38 3e 34 3f cc bd 6e 42 59 be cc 6c 1a 3d
       0.17969921 -0.099729925 -0.21216747 0.037701413
0002c0 e1 fb 04 3e e7 3d 35 be 6c ce 51 3e 87 cb e9 3a
       0.12986709 -0.17699395 0.204889 0.0017837145
0002d0 9f a6 8b be 9c eb b0 bd bd 65 2b 3e 27 36 c5 bc
       -0.2727556 -0.08638689 0.16738029 -0.024073673
0002e0 24 6a 76 bc 42 f4 cc 3d 7d c4 1f bc 6b ce 83 3e
       -0.015039954 0.10007526 -0.009751436 0.25743422
0002f0 03 01 e6 bd 9d 99 42 bc 0f 39 75 3e 38 83 3b 3e
       -0.11230662 -0.011877445 0.23947547 0.18311775
000300 3a 97 63 3d bc ef 16 be 1b 1b 3f be 9e aa 3a be
       0.055564143 -0.14739889 -0.18662684 -0.18229148
000310 61 7e 01 3e d8 83 bc 3d a3 7f 01 3e a5 35 84 bb
       0.12645866 0.09204835 0.12646346 -0.0040347152
000320 13 a0 16 3e 4e 50 81 bd 92 b6 c5 bd 98 36 0a be
       0.14709501 -0.06314145 -0.09653963 -0.13497388
000330 8a 43 12 be 37 27 9c bd 67 a6 68 be af 2e 9c 3d
       -0.14283577 -0.07624667 -0.22719727 0.07626092
000340 9c c0 9b 3d fb be 47 3d c5 a7 f4 3b 7b ae 06 3e
       0.07605097 0.048766118 0.0074662887 0.13152497
000350 a3 6e 95 3d 6f 82 97 bd 5d 15 aa bc d7 c8 9c bd
       0.07296493 -0.07397925 -0.02076214 -0.07655495
000360 cd e1 3d be be 36 75 3e 6d 78 16 be 72 21 16 be
       -0.18543167 0.23946664 -0.14694376 -0.14661196
000370 1a 90 ef bd 97 8b 7e be fe 3b 20 3e 2c f5 22 3e
       -0.11697407 -0.24857937 0.15647885 0.15913838
000380 ba e0 df 3d b7 98 26 3d a4 9e e4 3d 35 e9 23 3e
       0.10931535 0.040672984 0.11163071 0.1600693
000390 01 09 2f bd ab 4c 44 bd d8 19 23 be 1c a4 e0 3c
       -0.042733196 -0.04792468 -0.15927827 0.027422003
0003a0 b5 bc 11 3e 9b 0e 49 3d 42 19 7a bd e2 38 96 3e
       0.14232142 0.049086194 -0.061059244 0.29340273
0003b0 7b 50 84 bd cd 0a 25 be 9d dc 09 3e fc 91 1c be
       -0.06460663 -0.16117401 0.13463064 -0.15290064
0003c0 57 f3 eb bd 61 45 59 3d 3c 6e 5e bd 62 7a b8 bd
       -0.11521023 0.05304468 -0.054304346 -0.09007718
0003d0 9d c8 fb bd 77 41 6a be 29 7a 2b 3d 7f 42 7d bc
       -0.12294123 -0.22876535 0.041864548 -0.015457748
0003e0 8b 29 9f bd 1f 58 4c 3e 3e 1c 57 3d db ed 98 3e
       -0.077715956 0.1995549 0.05251717 0.2986897
0003f0 71 a4 ce bc c2 8f 3d be 20 23 96 be ae a2 21 bd
       -0.025224896 -0.1851187 -0.29323673 -0.039461784

conv1.bias f4 [16]
000000 db 75 e9 3d e1 ea 6d bc 0c d6 b0 bd 8c 77 c0 3d
       0.11399432 -0.0145213315 -0.08634576 0.09397802
000010 80 5c 30 bd 54 7a 1e bd 18 b1 b1 bb c0 2d 44 bd
       -0.043056965 -0.03869088 -0.0054227225 -0.047895193
000020 a0 26 33 bc 88 71 ff bc f0 78 8c ba 18 31 32 be
       -0.010934502 -0.031182066 -0.0010717195 -0.1740154
000030 1e 25 9c bd f8 f4 b6 3d 74 84 8a 3e c0 a6 7c 3e
       -0.07624267 0.08933443 0.2705418 0.24672985

conv2.weight f4 [32, 16, 3, 3]
000000 73 15 24 3e 8f 4f 4e 3d a0 2d 20 bd 89 44 6b 3d
       0.16023807 0.05036884 -0.03910601 0.057438407
000010 00 b3 42 3d 5a 2a 98 3c 44 af e5 3d 01 b6 4e 3e
       0.04753399 0.018574882 0.1121507 0.20186616
000020 cd 22 42 3d 43 8a a7 3d a7 1b ba bd 73 b9 72 bd
       0.04739647 0.08180668 -0.090873055 -0.05925889
000030 fe 39 9a 3d 3a 62 c4 3c e0 15 00 3d 7c d2 64 bb
       0.075305924 0.02397262 0.03127086 -0.0034915498
000040 f1 04 e5 3a 27 60 b5 bc a5 11 8b 3d d6 32 ca bd
       0.0017472786 -0.022140576 0.06790475 -0.098729774
000050 98 e9 77 3c ad ef aa 3d ed 5f 27 3d 38 1e 66 3d
       0.015131377 0.08346496 0.040862966 0.056181163
000060 cc 6b ed 3c 90 05 0c 3d aa d3 93 3c a2 a8 f6 bc
       0.028982066 0.034184992 0.018045265 -0.030109707
000070 7a aa 8f 3d 48 53 84 bd 35 59 d0 bc 45 48 6a 3d
       0.07014938 -0.06461197 -0.025433162 0.057197828
000080 af 19 39 bd ba cc de bc 2f b5 76 3c 79 bb e1 3d
       -0.04519051 -0.02719723 0.015057846 0.11022086
000090 9a 29 df 3d 07 5b 9b 3d 24 95 35 3d 82 1f 94 bc
       0.10896607 0.075857215 0.044331685 -0.01808143
0000a0 fb c8 aa 3d fd 3e c4 bc 1c f2 89 3d 6f b5 00 bc
       0.08339115 -0.023955816 0.06735632 -0.007855757
0000b0 ae ce 6c 3d 2d c3 c8 bd 2a d1 f5 3d 96 a8 a8 bc
       0.057814293 -0.09802852 0.120027855 -0.0205882
0000c0 e4 7b c7 bd ff c0 b5 3d 4a 7e 84 3b 56 af ca 3d
       -0.09740427 0.08874702 0.004043375 0.09896724
0000d0 e2 1c 58 bb d1 b1 99 3d b9 20 1d bb a1 c3 f2 3d
       -0.00329762 0.07504619 -0.0023975803 0.118537195
0000e0 5b 9e be 3d b7 a1 88 bb 94 e1 e2 3d b0 2b 96 3d
       0.09307548 -0.0041696685 0.11078182 0.073325515
0000f0 b3 5e ee 3d fc f6 a8 3c bb 37 ad 3d fd 2a be bd
       0.11639156 0.020625584 0.08457895 -0.09285543
000100 3e 72 93 bd 05 dc 4d bd d8 ae 47 bb e6 07 53 3d
       -0.07199524 -0.050258655 -0.0030469205 0.051521204
000110 1e 1d ed bc a1 05 59 bc a0 5a 81 bd d7 92 ba bd
       -0.028944548 -0.013245971 -0.063161135 -0.09110039
000120 5d a2 18 be 4f 90 11 be 29 0a 12 3d 1a c4 b4 bd
       -0.14905687 -0.14215206 0.03565422 -0.08826466
000130 49 53 13 3d 22 c7 0d bd 91 95 e7 bd d8 73 8a bd
       0.0359681 -0.034613736 -0.113078244 -0.06760377
000140 e9 4c b0 3b 48 75 9c bd 98 f4 d7 bc a8 8d c8 3c
       0.005380262 -0.07639557 -0.026361749 0.02448161
000150 04 27 06 bc 0b d2 90 bc cb 5a 3a bd a3 76 99 bd
       -0.008188013 -0.017678281 -0.045496743 -0.07493331
000160 a2 69 88 bc 1a 79 c9 bc 9e bd 3c 3d d4 6d 01 3e
       -0.016651932 -0.024593879 0.04607927 0.12639552
000170 1b c4 1c 3d 09 24 1a 3e 70 9d c4 3c 97 3f ff bb
       0.03827296 0.15052809 0.024000853 -0.007789563
000180 09 33 3b 3d 31 1a 1a 3c 19 06 99 3d 2f 40 ef 3c
       0.045702968 0.009405659 0.07471866 0.02920541
000190 da 70 7c 3d 00 34 08 bd 6e 45 d8 3c d6 00 70 3d
       0.06163106 -0.033252716 0.026400294 0.058594547
0001a0 10 1b 97 bd 4a 13 0a 3d 9f 4b 91 bc d3 1c e6 bb
       -0.07378209 0.0337098 -0.017736254 -0.007022479
0001b0 c6 85 55 bd 24 8e 3d 3c 20 43 7c 3c 4f 39 9a 3d
       -0.05212953 0.0115695335 0.015396863 0.07530462
0001c0 39 ea 93 bd 8e d5 1c 3d 39 0a 62 3d 77 e5 9d bd
       -0.07222409 0.0382896 0.05518553 -0.077097826
0001d0 0c c7 79 bc 5e 38 b5 bc 1e ef cc bd 2e c2 07 be
       -0.01524521 -0.022121605 -0.100065455 -0.13257667
0001e0 7e c2 f6 bd a3 4f 13 be 5b f3 b5 bd 73 05 e1 bd
       -0.12048815 -0.14385848 -0.08884307 -0.109873675
0001f0 48 bf 1e be 55 63 7a bc 39 0d 55 3d 42 af 54 3c
       -0.15502656 -0.015282472 0.052014563 0.012981238
000200 a5 f4 65 bd b0 66 1f bd 9e ce 95 3c 04 36 75 3d
       -0.056141514 -0.03891629 0.018287 0.059865966
000210 4d 6f 9e 3d 3d 36 c1 bc 0f 2c b5 bc 30 ea ee bc
       0.07736073 -0.023585433 -0.022115735 -0.029164404
000220 46 35 b8 3d ca 18 ab 3d fe 79 b9 3d cc 67 63 bd
       0.08994536 0.083543375 0.09056471 -0.05551891
000230 6a ff eb 3c 41 d3 c4 3a 36 82 37 bb 3e 49 e0 3c
       0.028808314 0.0015016572 -0.0028001196 0.027378675
000240 32 e7 86 3d d4 01 02 3e 9d b6 2e 3e be 5d 30 3e
       0.06587066 0.1269601 0.17061849 0.1722326
000250 86 d1 4c 3e d6 68 fe 3d bf 4c 2a 3e 29 f1 2b 3d
       0.20001802 0.124223396 0.16630839 0.041978035
000260 f8 14 c6 3c 10 16 84 b9 a0 fc c2 bc 0c 8f 4c 3d
       0.02417992 -0.0002519344 -0.023802102 0.049941108
000270 23 be cf bb 34 8a 84 bd e2 43 5a bc e2 a9 06 bc
       -0.0063398047 -0.06471673 -0.013321849 -0.008219214
000280 f7 ff 28 3d a2 7e 05 be 06 68 58 bd 50 80 1a 3d
       0.041259732 -0.13036588 -0.05283358 0.037720025
000290 4c 2d 8c 3d 62 36 cf bd 7f 8f b3 bd 06 1e 51 3c
       0.06844577 -0.101177946 -0.08767604 0.012763506
0002a0 b7 cd b4 3d 99 53 a6 bb bb 14 91 3d f0 1c 98 bd
       0.088282995 -0.0050758836 0.07084032 -0.074273944
0002b0 84 c4 26 bd f2 4e 9d 3d 1c df 23 3d 9d e5 86 bc
       -0.040714756 0.07681073 0.040007696 -0.01646691
0002c0 94 28 4a 3d 09 47 54 3d 8a 0e 09 bb b8 b2 8f bd
       0.049355105 0.051825557 -0.0020913207 -0.0701651
0002d0 86 7d d9 3b 6a c3 a7 bd ff 9e 4c 3c 44 e2 64 bc
       0.006637278 -0.08191569 0.0124890795 -0.013969962
0002e0 23 ab 30 3b 99 e3 c2 bd 7a d4 e7 bc 70 5f 29 bd
       0.0026957474 -0.09516067 -0.028299559 -0.041350782
0002f0 ec 1f 03 be 77 b7 e4 bd 25 82 0c 3e 22 7c d1 3c
       -0.12805146 -0.11167806 0.13721521 0.025571886
000300 22 39 9b 3d 3a 14 d2 3d 5d 67 cc 3c ef f9 8f 3d
       0.075792566 0.10257764 0.024951631 0.07030093
000310 c7 28 5c bd 74 cf e8 bd 8b e2 0e 3d e4 de 05 3e
       -0.053749826 -0.113676935 0.034884017 0.13073307
000320 a5 7b 22 3d 03 1f a0 3d 08 9b f0 3d b1 18 95 3b
       0.039668698 0.07818415 0.1174832 0.0045500626
000330 f7 27 49 3d 46 11 9c 3d c5 3d 52 3c af a3 d7 3d
       0.04911038 0.07620482 0.01283211 0.10529267
000340 68 44 4c bd 9f 5c fe bc 86 bc 14 bc 3e 7e 6b 3c
       -0.049869925 -0.031050025 -0.009078151 0.01437336
000350 6a 8c 6f bd f0 0e c6 3c 70 55 25 3d 26 ad 8c 3d
       -0.05848352 0.024177045 0.040364683 0.06868963
000360 e0 66 3d 3d 8b dc 47 3d 59 56 85 3d 65 c1 8c 3d
       0.046240687 0.04879431 0.0651061 0.068728246
000370 d6 2d 0e 3e 9f 10 7a 3d e5 dd 90 3d a7 78 f1 3d
       0.13884673 0.061051007 0.07073573 0.11790591
000380 3c 21 ac 3d a1 e8 c0 bd 62 24 c2 3d 92 ec b5 bb
       0.084047765 -0.094193704 0.09479596 -0.005551883
000390 b7 92 90 bc e0 91 93 bd 84 da 10 3d 93 05 ad bc
       -0.017648084 -0.07205558 0.035364643 -0.021120822
0003a0 3f 9c f1 3c 41 61 e1 bc b7 0d c3 3d 5c f2 2e 3e
       0.02949345 -0.027512195 0.095241 0.1708464
0003b0 67 3e d8 3d 79 fd fa 3d 0b 7d 6b bb e3 e6 56 3e
       0.10558777 0.12255377 -0.0035932686 0.20986514
0003c0 7e da f3 3d 45 6b 11 3e 26 e7 22 bc 9a db a0 bd
       0.119069085 0.14201076 -0.009942805 -0.07854386
0003d0 f4 2e 97 3c 5f 7c 88 bc 2e 8a b8 bd 56 00 85 bd
       0.018455006 -0.016660867 -0.09010731 -0.06494205
0003e0 b7 ec cf bc 61 ee 65 bd 8b 30 02 bd 10 9c a8 bd
       -0.02538143 -0.05613554 -0.031784575 -0.082328916
0003f0 af 54 0b bd 55 ce 91 3d 2d fb 9e 3d 42 22 97 bd
       -0.034016307 0.07119433 0.07762752 -0.07379581

conv2.bias f4 [32]
000000 8f 28 3e 3d 2a ad 55 3c f9 21 f5 3d dd e7 9f bc
       0.0464254 0.013041774 0.119693704 -0.01951974
000010 54 69 70 3d c1 f2 23 be a8 9e f1 3c 81 c5 3b bc
       0.0586942 -0.16010572 0.029494599 -0.011460663
000020 4e 43 ed bd f5 d8 0c be 00 af 0d be 80 4b 5e 3d
       -0.11585103 -0.13754638 -0.13836288 0.05427122
000030 41 7e da 3d 54 16 de 3d e1 f2 ff bd 64 1a 5b 3e
       0.10668612 0.108441025 -0.12497497 0.21396786
000040 88 45 e7 bd 1d 72 ae 3d ac 1a 91 3c 9b 98 78 3d
       -0.11292559 0.08517859 0.017712913 0.06069241
000050 e9 67 dd bd 85 ac 83 bd 2f 8a 61 3d 24 a8 99 3e
       -0.10810835 -0.0642939 0.055063423 0.30011094
000060 48 91 a5 bd 18 5c 04 be e4 65 0f be 53 7f 8c bb
       -0.08084351 -0.12925756 -0.14003712 -0.004287639
000070 b8 80 2b 3d 3d 83 71 3e 07 99 08 3d c3 81 b1 bd
       0.041870803 0.2358522 0.033349063 -0.08667328

conv3.weight f4 [64, 32, 3, 3]
000000 20 55 28 bd 2b d4 29 bd bb ea da bc fc 45 ba bd
       -0.041096807 -0.041462105 -0.026723256 -0.0909538
000010 56 dc 28 be fa a8 80 bd de 62 2d bd 36 3b bc bd
       -0.16490301 -0.0628223 -0.042330615 -0.09190981
000020 0f be 7d bc 94 90 f9 bc 5c 9a a0 3c 5d 54 19 3c
       -0.015487208 -0.030464448 0.019604854 0.009358493
000030 63 4b 1f bd 43 57 8c bd 2c 9e ca 3d bc 57 b2 bd
       -0.038890254 -0.06852581 0.0989345 -0.0870814
000040 f8 25 f7 3a eb 44 22 3e 49 69 0d 3d 99 fc c5 3b
       0.001885592 0.15846603 0.034524236 0.006042075
000050 15 bf 8a bd 92 01 82 3d da fe da bc a0 73 bb bd
       -0.06774727 0.06347956 -0.02673285 -0.09152913
000060 8f 52 21 3c bd 2d 60 3d 61 ae 00 be 1c 33 01 3e
       0.009846344 0.05473112 -0.1256652 0.12617153
000070 1f 86 3e 3e e8 c8 3b 3e 24 34 14 3d 44 1b ff 3d
       0.1860585 0.18338358 0.036182538 0.124563724
000080 5b 3f f0 3c 5a 09 be bc cc 72 8b 3b 44 3a 27 bc
       0.029327085 -0.023197819 0.004255628 -0.010206763
000090 71 3a 17 bd 0c 50 96 3c 9d b4 a8 3c 78 5b 40 3d
       -0.03692097 0.018348716 0.020593936 0.04696223
0000a0 25 51 b6 bc 79 f2 23 bd 36 ce 0f bc 6e 1b 08 be
       -0.02225549 -0.04002616 -0.008777192 -0.13291714
0000b0 3c b8 e7 bd e8 9a 19 3d 63 60 10 bd 08 bf 8c bd
       -0.11314437 0.037501246 -0.03524817 -0.06872374
0000c0 67 86 12 bc ed 74 78 bd 4a 79 b4 bd 85 54 e0 3d
       -0.008943177 -0.060658384 -0.088121966 0.10953621
0000d0 dd e6 3c bc 06 ef 1b bd 15 d2 b4 bd fe c6 a9 3d
       -0.0115296515 -0.038069747 -0.088291325 0.08289908
0000e0 21 3c 23 3e d7 63 f8 bd 5f 5c a7 3b 08 e3 17 3d
       0.15940906 -0.12128418 0.005107447 0.03708175
0000f0 b6 25 59 be ea 78 fb bd 75 bc b3 3d ad 90 9f bd
       -0.21205792 -0.12278922 0.0877618 -0.077912666
000100 f2 c5 7e 3d a9 68 5d 3d 36 3c 51 3b 3f 59 02 bc
       0.062200494 0.05405489 0.0031926758 -0.007955848
000110 34 7d 1e 3e 83 8e 94 bc 7f 1a 54 bd 7f c7 ce 3d
       0.15477449 -0.018134361 -0.05178308 0.100966446
000120 dc bf 9f bb 1b 51 96 3c e3 e8 10 bd 01 70 51 bd
       -0.0048751663 0.018349221 -0.035378348 -0.051132206
000130 ff 40 3b bd 9a b4 a1 3a 8b be 3f bd cd c0 60 bb
       -0.045716282 0.0012337149 -0.046812575 -0.0034294606
000140 36 a0 a1 3d 40 35 a8 bc 5e 43 e6 3c ec 08 9c 3d
       0.07891886 -0.020533204 0.028108295 0.07618889
000150 bc a7 a9 3c 9b 1f 35 3d 02 fd c9 ba 2d ec 5c 3c
       0.020709865 0.044219594 -0.0015410485 0.013484043
000160 a4 09 5b bd 84 a4 21 bc 2b 92 88 3d 42 ac af 3d
       -0.05347599 -0.009865884 0.06668504 0.085777774
000170 76 c0 b9 3b ee 8b a8 bd f5 f2 a0 3d 73 07 a0 3d
       0.005668695 -0.082298145 0.078588404 0.07813921
000180 d1 3b 7c 3d 08 92 9b 3d 6c 9a ba 3d b2 c1 ad 3b
       0.061580483 0.075962126 0.09111485 0.0053026313
000190 13 eb 1b bc 5d 28 07 bc f2 74 bc bc 56 f1 e4 bd
       -0.009516495 -0.008249369 -0.023004983 -0.11178844
0001a0 8e bb 26 3d 39 df 7c bd d3 d4 0b bd ed 69 91 bc
       0.04070621 -0.06173632 -0.034138512 -0.017750705
0001b0 73 60 39 bd 7f 40 88 3d f9 67 c7 3d df 99 c0 3c
       -0.045257997 0.06652927 0.09736628 0.023510871
0001c0 39 cb 77 bc 50 9a 9b 3d 33 dc 23 bc eb c9 a5 bd
       -0.015124136 0.07597792 -0.01000123 -0.080951534
0001d0 f3 71 1f bc 37 e1 90 3c ad 0f b5 bd 6e 99 b8 bd
       -0.009731757 0.017685516 -0.088408805 -0.090136394
0001e0 b8 e5 0a bd 66 eb ee bd 39 17 a8 bd 23 3f f1 3c
       -0.033910483 -0.116659924 -0.08207554 0.029449051
0001f0 b2 4e bd 3b c6 1f 10 3c 3b d7 a5 3c 32 ac da 3d
       0.0057772035 0.008796638 0.020244231 0.10677375
000200 96 b8 c0 3d 1e ff bd 3c d3 db a3 3d 62 73 8d 3d
       0.09410207 0.023192938 0.080009125 0.06906773
000210 5a 58 41 bd c8 74 a5 bd 1b 34 89 bc e9 61 4c 3d
       -0.0472034 -0.08078915 -0.016748479 0.049898062
000220 a0 3a 85 3d 2d fb f1 3d 2c 19 b2 bc 83 51 44 3d
       0.065053225 0.11815486 -0.021740519 0.047929298
000230 54 6e c8 3d 04 65 2f be 27 26 7c bc 97 bf f6 3d
       0.097866684 -0.17128378 -0.015389956 0.120482616
000240 c9 e3 8b 3d 4c e6 06 ba 3c 54 2d 3d fb 8a f0 3d
       0.06830556 -0.0005146011 0.04231666 0.117452584
000250 78 2d 10 3d 94 e0 58 bd 5b 46 9c 3d e5 58 57 3c
       0.035199612 -0.05294855 0.07630607 0.013143753
000260 47 b8 8d bd 71 75 31 3d 53 63 25 3d ff 5b 8a 3d
       -0.06919914 0.04332489 0.040377926 0.06755828
000270 e7 eb 4b bd 93 b3 40 bd 9c 0a 6b 3d d8 2e a3 bc
       -0.04978552 -0.047046255 0.057383165 -0.019919798
000280 03 92 98 bd c4 ac d1 3c 66 6f d4 bd 68 38 a6 bd
       -0.074497245 0.025595076 -0.1037281 -0.081162274
000290 43 03 3b 3d e3 02 12 be 52 6f e8 bc 15 6e 22 3d
       0.045657407 -0.14258914 -0.028373394 0.039655764
0002a0 0f 3e 14 be 5d 66 ad bd b6 26 52 3d 44 9a 6b 3d
       -0.14476798 -0.0846679 0.05130645 0.057520166
0002b0 4a d2 16 3e 3b c9 28 3e a1 0e 90 3d 5f 68 9a 3d
       0.14728656 0.16483013 0.0703404 0.075394385
0002c0 5c 72 84 3d e0 8d fa 3c fe c3 9f 3d 7c dd 8c 3d
       0.06467125 0.03058523 0.078010544 0.06878182
0002d0 18 00 42 3d 07 f2 9a 3d 75 86 f3 3d e4 c8 60 bd
       0.04736337 0.07565694 0.1189088 -0.054879084
0002e0 15 86 6d 3d ce b6 59 bd ac 70 53 bd b3 69 ff bd
       0.0579892 -0.05315285 -0.051621124 -0.124713324
0002f0 52 41 d2 bd 82 4a 42 3c 13 52 33 3c 69 de a1 3d
       -0.10266365 0.011858584 0.010944861 0.079037495
000300 27 e3 b6 bd f1 35 e0 3c 98 0b 05 3e 5f b3 18 be
       -0.089300446 0.027369471 0.12992704 -0.14912175
000310 1f 80 46 bd 34 4c b6 3d 79 ab 7e bd 1a 84 85 bd
       -0.04846203 0.08901253 -0.062175248 -0.06519337
000320 99 ae 44 3d e9 2c bc bd 7a 36 7d 3c 25 9b f0 3d
       0.04801807 -0.091882534 0.015454883 0.117483415
000330 a8 ae 59 bd c0 9a e4 3c 64 e8 28 3e 9b 90 3a 3a
       -0.05314508 0.027905822 0.164949 0.0007116885
000340 0a dd 08 bd c7 86 6f bd 09 22 0c 3e ef 9c ae 3d
       -0.033413924 -0.058478143 0.13684858 0.085260265
000350 18 66 dd bd ad 22 a6 3d 92 6f 79 bd 20 73 24 be
       -0.108104885 0.08112083 -0.060897417 -0.16059542
000360 f8 3b 37 3d 83 b3 53 bc fe 9b 40 3d 6b de 08 bd
       0.044734925 -0.012921217 0.047023766 -0.03341524
000370 89 ad 95 bc 45 da 53 bd 56 41 13 3e 18 f0 a1 3d
       -0.018271225 -0.05172183 0.14380392 0.079071224
000380 08 6f 62 bd eb 71 4a bd ef 61 01 bd f5 81 8b 3d
       -0.05528167 -0.049425047 -0.031587537 0.06811897
000390 12 8c 60 bd ca e9 6f bd 91 bd f2 3b 67 5c 82 3d
       -0.05482108 -0.058572568 0.007407852 0.063652806
0003a0 e7 5c a0 3c 2a c1 8f bc ab 38 0b be d0 fe 5a 3c
       0.01957555 -0.017548162 -0.13595836 0.013366416
0003b0 4c b1 83 3d 25 36 26 be dc 5c 72 3a a9 f2 24 3e
       0.06430301 -0.16231592 0.00092454045 0.16108193
0003c0 45 95 21 be 4f 03 43 3d 22 ab 32 3e 4a 5b 87 bd
       -0.15779598 0.047610577 0.17448094 -0.06609209
0003d0 6c d8 53 bc c2 01 fa 3c ea 74 52 be 5a 23 45 bd
       -0.012930017 0.030518416 -0.20552412 -0.048129417
0003e0 33 e9 8b 3d 26 a0 0c be fe 56 0f 3d f9 52 14 3e
       0.068315886 -0.13732967 0.03499507 0.14484777
0003f0 d3 90 2f bc e9 c6 18 3d cc c7 93 3d 6b 5d d0 bd
       -0.010715681 0.03729907 0.072158426 -0.10174068

conv3.bias f4 [64]
000000 d9 1b 96 3d 4f 98 46 3e 92 8d f3 bd 12 d8 28 be
       0.0732953 0.19394039 -0.11892237 -0.16488674
000010 01 1d 1b 3e c6 17 90 bc 12 79 46 bd 0e 98 06 82
       0.15147783 -0.017589461 -0.048455305 -9.888403e-38
000020 83 9d a6 bd 17 62 b6 bd 91 66 e5 3c 8b ce 25 be
       -0.08135512 -0.08905428 0.028003009 -0.16192071
000030 6f e3 98 3d b2 97 f7 bc 69 28 73 3d 9a 74 b2 3d
       0.074652545 -0.030223701 0.05936471 0.08713646
000040 dc d9 d8 3d 98 31 99 be 6b 7b a3 ba 05 49 b8 3d
       0.105884284 -0.2992065 -0.0012472695 0.08998302
000050 51 5b 2a 3e e2 71 d8 3d 61 1d bb 3d b1 20 38 bd
       0.16636397 0.105685964 0.09136463 -0.044953052
000060 a1 7d cb bd 4f 1f 51 3e 83 30 09 3e 72 13 4e bd
       -0.09936071 0.204221 0.13397412 -0.050311513
000070 2d 8d 20 be e8 5c 18 be c0 ee eb bd 99 06 9a 3e
       -0.15678854 -0.14879191 -0.11520147 0.3008316
000080 04 d9 3b bd 36 68 fe 3d e2 16 a8 bd 82 4f e4 bd
       -0.04586126 0.124222204 -0.082074896 -0.111479774
000090 7b 36 8f bd c8 67 81 3e 28 f4 c5 bd 10 6d b7 bd
       -0.06992813 0.2527449 -0.0966571 -0.08956349
0000a0 20 a3 bc 3d 20 8f 89 3d a4 c5 d6 bc 81 d0 56 3d
       0.09210801 0.06716752 -0.02621729 0.05244494
0000b0 54 7e a4 3d 0d f7 a9 3d 60 41 05 bd 70 88 ca 3d
       0.08031908 0.08299074 -0.03253305 0.09889305
0000c0 e1 19 77 bd f6 f1 7a 3d f9 2e 68 3e 50 26 44 3d
       -0.060327414 0.06126591 0.22674169 0.0478881
0000d0 11 1b 56 3e ad bb eb bd 1f 93 aa 3d d0 56 b7 3c
       0.20908763 -0.11510406 0.08328842 0.022380263
0000e0 24 ab 83 bc dc ad e5 3d 2b 96 22 bd 90 22 bf 3d
       -0.016072817 0.11214802 -0.039693993 0.09332764
0000f0 96 ec 34 bd 00 c6 6f 3e ad f5 6d bb 65 24 bd 3c
       -0.04417094 0.23415375 -0.0036309764 0.023088643

conv4.weight f4 [32, 64, 3, 3]
000000 24 70 12 3d 9e 8d aa bd ad a4 7d 3c 34 d1 24 3e
       0.035751477 -0.083277926 0.015481156 0.1609543
000010 11 4e 79 3d 60 72 42 3e a0 68 84 3d f1 8e b3 bb
       0.060865466 0.18988943 0.06465268 -0.0054796864
000020 0f de ed 3d ea 9a 4a 3d e6 d5 15 3c 61 54 2c bd
       0.1161462 0.049464144 0.009145236 -0.042072657
000030 29 b8 cf 3c 60 ec 35 bd 25 85 ea bd ec 6f c8 3c
       0.02535637 -0.044414878 -0.114511766 0.024467431
000040 08 d4 5e 3d ba e1 6b 3d 69 e7 40 3d b4 8d 1e bc
       0.054401428 0.057588317 0.04709569 -0.009677339
000050 93 84 8a bd 60 d3 65 bd 0d a4 32 bd 67 f1 e4 bd
       -0.06763568 -0.056109786 -0.043613482 -0.11178856
000060 aa e6 75 3d 1d 9b c1 3c 3e 21 89 bc 94 a1 b8 bd
       0.06003443 0.023633534 -0.016739484 -0.090151936
000070 b1 ea 71 bd 2a 2e 85 bd 0a 88 91 3d 58 27 52 bd
       -0.05906171 -0.06502946 0.071060255 -0.051307052
000080 ca c4 3c bd 42 e3 c9 3d 8a 49 51 3d 5a 28 9b 3d
       -0.04608611 0.09857799 0.051095523 0.07576056
000090 5b 7a ad 3d ff f4 02 3d 59 d6 88 bd b7 14 ea 3d
       0.08470603 0.031971928 -0.066815086 0.11429732
0000a0 8d 90 59 3c 25 de 89 3c 22 60 21 3d e9 86 31 bc
       0.0132790925 0.01682956 0.03939832 -0.010835388
0000b0 ba dd d1 3c a8 af 29 3d e1 b6 88 3d f5 82 6e 3c
       0.025618423 0.041427284 0.066755064 0.01455759
0000c0 d8 7b ed 3b 99 0f 5e 3c be c6 d6 3b 38 0e 04 ba
       0.0072474293 0.013553523 0.0065544536 -0.0005037519
0000d0 2c bb 02 bd 4c 57 da 3c 36 b3 9f 3c a9 84 c5 bb
       -0.031916782 0.026652955 0.019494634 -0.006027777
0000e0 74 f7 ae 3b ea 4d 49 3b b8 58 63 3c 4e 82 da 3b
       0.0053395573 0.0030716606 0.013876133 0.0066683656
0000f0 6e d8 a6 3d 92 c1 30 3d 5e 9f 0f 3d 4c 71 0c 82
       0.081467494 0.043153353 0.035064094 -1.031809e-37
000100 4e cd 03 82 3e bf 18 02 18 70 03 82 ee 16 09 82
       -9.68328e-38 1.122208e-37 -9.656529e-38 -1.0071751e-37
000110 48 a9 16 82 c3 b3 f8 81 d6 ff 05 82 00 78 0c 82
       -1.1068841e-37 -9.135876e-38 -9.844718e-38 -1.0320014e-37
000120 95 10 73 3c 06 d3 67 bd f1 8e f0 bd b3 ca 81 3c
       0.014835496 -0.056597732 -0.11746014 0.015843725
000130 fe 43 3a bd 54 a4 fb 3c 38 ad d0 3c 4e 44 b0 3c
       -0.045475 0.030718006 0.025473222 0.021516945
000140 6f 51 10 3d 6c d5 7c 3c e5 91 6e 3b ad 8f 05 bd
       0.03523391 0.015431743 0.0036402878 -0.032607723
000150 e2 22 0e bd ca 55 48 bd 96 eb 87 bc 1d 23 78 bc
       -0.034701236 -0.04890994 -0.016591828 -0.01514509
000160 22 b2 d1 bd fb 98 87 bd 48 28 cc bc f3 2f 1a 3d
       -0.10239054 -0.066209756 -0.024921551 0.037643384
000170 b3 c5 2e 3c 2f 2c d0 3a 44 59 c7 3b ff 76 d7 3d
       0.010667252 0.0015882308 0.0060836393 0.105207436
000180 b1 2b 4b 3d fd 40 52 3b 29 b6 8d 3d 74 a1 a9 3c
       0.049602214 0.0032082193 0.0691951 0.02070687
000190 92 0b 08 3c 72 f1 b6 bb 2a 5e b1 bd 42 24 8f bd
       0.00830354 -0.0055829817 -0.086605385 -0.069893375
0001a0 24 ac e9 bc 2d fd a2 bc 8e d9 08 bd 6f 0a 51 bc
       -0.028524466 -0.019896114 -0.0334106 -0.012758835
0001b0 11 9c 74 3d e4 cf 30 3d 3a 44 a8 3a ec 2d 14 3e
       0.05971915 0.04316701 0.0012837716 0.14470643
0001c0 f8 29 8e 3d 22 14 c4 3b 98 1e be 3d ff 66 b8 3d
       0.06941599 0.0059838453 0.09283179 0.0900402
0001d0 5c 92 8a 3d 2f b1 bb 3c 76 6d ad 3d 72 2a ac 3b
       0.06766197 0.022911636 0.08468144 0.0052540833
0001e0 2e 75 85 3c 83 5d 93 3d 0f 97 aa bc ca d0 0e bd
       0.016291227 0.0719557 -0.020823983 -0.034867086
0001f0 49 6c 32 ba 4e 4f 82 bc 8a f8 07 bc 84 74 08 3d
       -0.0006806297 -0.015906956 -0.008299002 0.033314243
000200 d3 9a 09 3d 19 53 ad bd 38 73 c3 bd c4 24 6f bc
       0.033594918 -0.08463115 -0.095434606 -0.014596168
000210 8a 1d bb bc 73 99 32 bc a7 fc 8b 3d 41 d3 77 bd
       -0.022841234 -0.010900843 0.06835299 -0.0605042
000220 96 18 2b bd e6 ce b7 3b b9 22 3d bd 1e 58 c6 bc
       -0.041771494 0.005609381 -0.046175692 -0.02421194
000230 a8 2d 14 bd 4f 32 26 3c ec 3e a8 bd 42 13 87 bd
       -0.036176354 0.01014383 -0.082151264 -0.0659547
000240 95 b8 7a 3d 24 73 bd bb 4a 05 0f 3d b9 e2 aa 3d
       0.061211187 -0.005781548 0.034917153 0.08344025
000250 5e 97 48 bc c5 8d ec 3c 1f d5 bb 3c bc bf 3e bd
       -0.01224312 0.028876195 0.022928772 -0.04656957
000260 ed 0f b9 bd 16 93 b4 bc ce 04 cc bd 41 5a 4b bd
       -0.09036241 -0.022042792 -0.09961854 -0.04964662
000270 a5 b4 28 bd 28 eb 8a bc 7a 6d f6 bb ce 8f 04 3d
       -0.0411879 -0.016957834 -0.007520375 0.032363705
000280 98 b2 2a 3c ce 78 05 3d 05 6a 12 bd fe 5c a0 3c
       0.010418557 0.03258591 -0.03574564 0.019575592
000290 36 bc ca bc 84 e3 8e 3c b0 8a 07 bd ea a1 53 bd
       -0.02474795 0.017442472 -0.033091247 -0.051668085
0002a0 e2 08 90 3d 70 19 9c 3d 8e a1 ac 3d 49 61 ee bc
       0.07032944 0.07622039 0.084292516 -0.029099124
0002b0 cf 57 81 bc e0 36 0c 3d 51 0f 9b bc ac d0 d1 bc
       -0.01578894 0.03423202 -0.018928202 -0.025612198
0002c0 0d b8 82 3c 2d 62 c4 bc de d4 27 bd 58 f6 0c 3c
       0.015956903 -0.023972595 -0.04097449 0.008603655
0002d0 e4 dc b7 bc 47 35 5d 3d e8 11 34 3d 93 0a 1b bb
       -0.022444196 0.054005887 0.04396239 -0.0023657426
0002e0 e7 70 86 3c a3 14 bf 3d 7a 08 97 3b bb cd 46 3d
       0.016411258 0.09330108 0.004609165 0.048536044
0002f0 0c 0f 12 3e 9c 78 4a 3d 23 21 11 bd f7 0a b5 bc
       0.14263552 0.04943143 -0.035431992 -0.022099955
000300 90 c9 bd 3d 17 0b b2 3c 32 e8 6b 3d 3f f5 fa 3d
       0.092669606 0.021733804 0.057594486 0.12253808
000310 3a 8b d5 3d 28 6e b8 3d 24 5e 97 bd 72 b5 e5 bd
       0.10426946 0.09005386 -0.07391003 -0.112162486
000320 f0 d6 c0 bc eb d0 86 3d 30 88 ab ba 80 43 9b bc
       -0.02353999 0.06582817 -0.0013086852 -0.018953085
000330 47 bd 84 3d f2 e3 c3 3d 5c ea b1 3d f8 39 0b bd
       0.06481414 0.095649615 0.08687279 -0.03399083
000340 ae 70 61 bb 42 73 06 bd 4f ac 07 3d aa 76 06 3d
       -0.0034399438 -0.032824762 0.03312331 0.03282801
000350 62 bc 4b 3c 9b 32 4b 3d c6 ec 8f bc cf 89 b1 3d
       0.012435051 0.049608808 -0.017568957 0.08668863
000360 f9 df 01 3c d4 73 d4 3c c5 f3 64 bc 4a ff c4 bc
       0.007926934 0.025934137 -0.013974135 -0.024047513
000370 e9 b5 67 bc 93 80 7b bd 37 a4 e1 ba 5c f9 3a bd
       -0.014142492 -0.061401915 -0.0017215078 -0.045647964
000380 ec cb 73 3d 81 31 3d 3d 7f b6 53 3d 2f 77 e7 3d
       0.059520647 0.04618979 0.051687714 0.11302029
000390 b7 d2 b2 bb 96 f8 24 3c 58 41 8d 3d 9d d7 82 bd
       -0.005457248 0.010069033 0.06897229 -0.06388781
0003a0 15 cf 49 bd 5e e9 50 3d 5e c6 02 bc 8b 8f 2d bd
       -0.049269754 0.051003806 -0.007981865 -0.04237322
0003b0 a0 04 a6 3b cc c3 2e bd 15 c4 14 bd 54 e0 3c bd
       0.0050664693 -0.042667195 -0.03631981 -0.046112373
0003c0 e9 52 66 bc dc aa 30 bb b9 74 76 bc 88 6d 5a 3d
       -0.014057853 -0.002695731 -0.015042477 0.053327113
0003d0 4d 42 57 3c 4b 82 47 3d 58 a3 3a bd 6c 7f 34 3d
       0.013138366 0.04870824 -0.045565933 0.04406683
0003e0 cd ed e2 3c 13 b7 1e bd 50 b8 93 3c e2 7d eb bb
       0.027701283 -0.038748812 0.018032223 -0.0071866373
0003f0 4e d8 06 3d d2 7b 32 3a 93 c5 58 bd 75 aa a2 bd
       0.032921128 0.0006808612 -0.052922796 -0.07942668

conv4.bias f4 [32]
000000 23 d9 a6 3d 46 0e 05 be 32 dc 99 3d 47 1d 28 3e
       0.08146884 -0.12993726 0.07512702 0.16417418
000010 2f 26 b2 bd b5 bb bc bd 09 2e 43 3e 84 d7 85 3d
       -0.08698689 -0.0921549 0.1906053 0.06535247
000020 94 d1 dc 3d e4 51 85 3e 09 1f 26 bd e5 3e 08 be
       0.10782161 0.2603904 -0.04055694 -0.13305242
000030 91 95 08 3d 19 f7 d6 bd 02 37 f5 3d 58 b1 31 be
       0.033345763 -0.10496349 0.119733825 -0.17352808
000040 c9 60 53 3d 05 98 15 3e e7 14 89 3c f7 b7 10 3e
       0.051605973 0.14608772 0.0167336 0.14132677
000050 c6 ef 0d bd 93 59 0f bd 5d 59 9f bd ca 9c 2a be
       -0.034652494 -0.034997534 -0.077807166 -0.16661373
000060 11 f6 58 bd 1e f0 e1 3d 7e 22 9e bc 8f ee 97 88
       -0.052969042 0.11032127 -0.019303557 -9.144067e-34
000070 29 81 a8 3d 56 63 2d bd cc db 3c 9e 15 b1 5f bd
       0.0822776 -0.042331062 -9.99809e-21 -0.054612238

conv5.weight f4 [16, 32, 3, 3]
000000 f2 68 90 8c 70 9f 53 21 d9 5e ac 05 bc c0 ba 8a
       -2.2249875e-31 7.1700595e-19 1.6209644e-35 -1.7983647e-32
000010 2a 0a 14 b4 b8 b8 cb b3 3d fc 8f 03 8b 08 a1 b4
       -1.3787272e-07 -9.486524e-08 8.462696e-37 -2.9994803e-07
000020 3d 07 08 b4 7e cf be 83 1d 5f 7e a2 b1 2f 31 a5
       -1.266862e-07 -1.1214834e-36 -3.4473772e-18 -1.5368461e-16
000030 41 c8 b1 85 d9 9e c6 b2 c0 83 98 af 40 b9 bd 82
       -1.6718562e-35 -2.312247e-08 -2.7742253e-10 -2.7877382e-37
000040 3e 01 66 b3 8f 5e 92 b2 dc 6d de 03 02 13 4a 95
       -5.3552178e-08 -1.7039637e-08 1.307321e-36 -4.080857e-26
000050 c7 36 b3 9c bf 49 29 88 9b 20 d7 ab 4f 17 d2 a7
       -1.1859386e-21 -5.0943276e-34 -1.5285719e-12 -5.831198e-15
000060 cb 0b 2c 02 bb 84 98 b2 f3 8d 21 b3 71 ff c5 83
       1.2639949e-37 -1.7755488e-08 -3.7614836e-08 -1.1637266e-36
000070 52 dd a0 aa 77 83 1b ab 06 51 e2 81 59 db 97 b1
       -2.857528e-13 -5.5249506e-13 -8.313555e-38 -4.4196153e-09
000080 55 dc de b0 55 54 8e 00 18 9c e5 af 77 9d ae ae
       -1.6215248e-09 1.3070893e-38 -4.176577e-10 -7.940575e-11
000090 c7 af b7 83 87 a4 00 a3 3e ac d0 a8 de f0 ae 85
       -1.079613e-36 -6.973734e-18 -2.3167337e-14 -1.6451362e-35
0000a0 6b a2 24 b2 e8 32 8d b1 54 4d 5f 83 d4 80 b1 b1
       -9.582986e-09 -4.1094275e-09 -6.562258e-37 -5.166024e-09
0000b0 cb 5f a6 b0 b9 39 b0 85 89 ff d4 a8 92 c1 66 aa
       -1.2105316e-09 -1.6572164e-35 -2.3647549e-14 -2.0495262e-13
0000c0 1f e6 8e 87 bf 2f 4f b3 b2 5f 6e b4 2a f6 46 03
       -2.1501038e-34 -4.8239368e-08 -2.2200291e-07 5.8469553e-37
0000d0 e9 b4 ce b3 be 4b ec b4 c5 91 06 84 55 bf 9e ac
       -9.62553e-08 -4.4013535e-07 -1.5818558e-36 -4.511872e-12
0000e0 cc c5 b1 ad 1e dc 30 88 3c 88 a6 b3 e6 02 bf b3
       -2.021041e-11 -5.322182e-34 -7.754758e-08 -8.894658e-08
0000f0 68 0f 6a 81 75 1f bb b4 62 71 9c b4 78 08 af 85
       -4.2990066e-38 -3.4854352e-07 -2.913976e-07 -1.6460032e-35
000100 c7 df 03 26 28 96 88 10 b3 cc ac 85 5c fb 1e b3
       4.575303e-16 5.3873894e-29 -1.6249997e-35 -3.701585e-08
000110 87 42 f7 b1 c8 aa 21 80 19 7d 36 b3 c2 68 2c b1
       -7.1962094e-09 -3.091836e-39 -4.2488953e-08 -2.5088842e-09
000120 de 55 c5 83 df 80 c9 89 92 5d ad 05 de 90 af 85
       -1.15983335e-36 -4.851018e-33 1.6303214e-35 -1.6510137e-35
000130 42 11 c3 af 47 3b 71 2c 36 76 1c 03 eb 1f ef b0
       -3.5482556e-10 3.4281065e-12 4.597998e-37 -1.739861e-09
000140 d4 19 cf af 55 5d ba 83 3e 89 01 90 c3 ca 90 9f
       -3.7671433e-10 -1.0953525e-36 -2.5546492e-29 -6.1321813e-20
000150 1e b0 4e 83 4c 7f 6b b0 8f d0 22 b0 cb 69 3e 80
       -6.074013e-37 -8.56734e-10 -5.9231636e-10 -5.731752e-39
000160 97 75 dd 1d 71 fc 87 ad 37 b7 e7 83 7d d0 4a a7
       5.8619798e-21 -1.545983e-11 -1.3619024e-36 -2.8146153e-15
000170 04 9b b1 ac 69 8c a6 83 b7 5a 0c af ab 3d 84 b1
       -5.0478528e-12 -9.78884e-37 -1.2765154e-10 -3.8487165e-09
000180 b8 5e 43 00 a0 f2 10 ac 7c 7a 2f af 7e 24 af 85
       6.186957e-39 -2.0598315e-12 -1.5959672e-10 -1.6470326e-35
000190 15 09 da 27 a7 18 2f 28 33 ce f4 83 55 3e a8 b3
       6.0517e-15 9.719797e-15 -1.4388372e-36 -7.834448e-08
0001a0 f1 ad ed b2 32 95 82 01 67 60 b9 b1 4f 42 cd b0
       -2.766953e-08 4.796854e-38 -5.3951683e-09 -1.4934559e-09
0001b0 23 fb df 03 cc af 87 a3 1a de 6e a6 9d 5e 9f 83
       1.316442e-36 -1.4711182e-17 -8.287384e-16 -9.366902e-37
0001c0 3d 0f 29 af 4d e7 00 ae de 28 ba 03 2a 49 9e ae
       -1.5375874e-10 -2.9309267e-11 1.094148e-36 -7.198005e-11
0001d0 b6 ad 9a ac 0d 4a ad 85 f0 35 e0 ab 45 48 9f ac
       -4.396229e-12 -1.6296044e-35 -1.5931128e-12 -4.5270753e-12
0001e0 cb 1e 1b 8e ba 54 b7 b4 d7 74 cd b4 b8 d7 33 03
       -1.9120051e-30 -3.4148053e-07 -3.8269238e-07 5.2851005e-37
0001f0 75 6b 94 b5 6e b7 a1 b5 42 f6 d2 83 5f 4c e5 23
       -1.1058133e-06 -1.204882e-06 -1.2399229e-36 2.4860574e-17
000200 38 e1 0f 12 af 92 a1 83 d8 ba 6c a9 29 5d 01 aa
       4.5400447e-28 -9.496406e-37 -5.2564588e-14 -1.1489823e-13
000210 a3 24 20 80 76 fa d3 aa eb 30 68 ae e1 cd bd 83
       -2.951879e-39 -3.7654921e-13 -5.279414e-11 -1.1155689e-36
000220 9d e1 a2 0e a4 3a cd 14 a6 b2 07 85 a0 32 a5 aa
       4.015334e-30 2.072284e-26 -6.380482e-36 -2.9345016e-13
000230 ec e9 0d ae fb cc b7 83 cb d6 8b af f7 d9 56 b1
       -3.2267453e-11 -1.08028345e-36 -2.5436572e-10 -3.1264997e-09
000240 ec af e4 0a ef 27 6a 25 17 af e8 a2 c1 ae ad 05
       2.2021776e-32 2.0309795e-16 -6.306911e-18 1.6333036e-35
000250 6a 2f 0d b2 5f 07 1f b3 4b 42 2e 00 06 a1 4f 2f
       -8.218061e-09 -3.7026776e-08 4.248214e-39 1.8883747e-10
000260 69 9e e8 b1 4d a7 bc 03 09 5a 44 26 dc 92 9d 83
       -6.770098e-09 1.1088057e-36 6.812318e-16 -9.261348e-37
000270 65 19 ac 83 e5 bd 14 ad 57 bc 57 b2 7b c5 65 83
       -1.0115082e-36 -8.454991e-12 -1.2557471e-08 -6.752375e-37
000280 48 8a 07 ad 45 04 25 b1 91 a1 bd 83 f2 73 a4 17
       -7.704566e-12 -2.4013087e-09 -1.1145515e-36 1.062752e-24
000290 8b ac b1 21 c6 4a b1 85 e3 1c 10 b2 c2 39 43 b1
       1.2039658e-18 -1.6672467e-35 -8.388471e-09 -2.8409066e-09
0002a0 ba 46 25 83 5a b6 46 af 32 4a 96 ad 82 5f c1 03
       -4.857033e-37 -1.807278e-10 -1.7085975e-11 1.1365448e-36
0002b0 b8 c9 db a5 1e 13 c4 11 6e 11 b0 85 56 cd 86 2e
       -3.8127134e-16 3.093513e-28 -1.6557363e-35 6.1300895e-11
0002c0 a1 ea be 28 18 e9 a9 03 54 b9 85 b2 88 00 70 ad
       2.1195992e-14 9.986443e-37 -1.5567515e-08 -1.36425385e-11
0002d0 da 7e cc 83 9b 2b 95 a1 6a 30 44 22 df 51 a6 83
       -1.2019166e-36 -1.0108175e-18 2.6588583e-18 -9.7754e-37
0002e0 e0 de 7f b1 d1 d3 65 b1 b0 db 38 83 4a 02 84 b0
       -3.7234074e-09 -3.344429e-09 -5.432493e-37 -9.604915e-10
0002f0 e9 68 b3 b1 54 26 ad 85 cc a0 e3 a5 1a 79 05 1f
       -5.2215126e-09 -1.6282921e-35 -3.9487183e-16 2.8264018e-20
000300 7b 73 6a 90 d0 9a 4b b3 21 e8 0c b3 d0 4f c7 02
       -4.6237326e-29 -4.7405422e-08 -3.280741e-08 2.9286232e-37
000310 d8 f5 a3 b4 1f 38 a9 b4 b2 ba c8 03 70 c2 7a 97
       -3.053999e-07 -3.1519536e-07 1.1797807e-36 -8.102477e-25
000320 c1 57 27 aa 48 8b ad 85 8c 57 37 b3 c2 e1 e5 b2
       -1.4863025e-13 -1.6320006e-35 -4.268763e-08 -2.6761771e-08
000330 29 6b 99 02 00 d7 2d b4 e2 44 10 b5 bc b2 e4 0c
       2.2542836e-37 -1.6190097e-07 -5.374442e-07 3.5236534e-31
000340 fc d2 db ad 29 7c f1 aa 7a 32 0a 8e ad 6f 62 b5
       -2.4991113e-11 -4.2896353e-13 -1.7034117e-30 -8.435407e-07
000350 76 ef 42 b4 30 86 cb 03 63 d1 c4 b5 fa e9 9b b4
       -1.8154773e-07 1.1962076e-36 -1.4664078e-06 -2.904124e-07
000360 98 d4 c1 83 19 b1 08 a1 a0 ab f6 9d ce 0a ad 85
       -1.139233e-36 -4.631298e-19 -6.5293114e-21 -1.6272811e-35
000370 0d 36 cd 27 7b 19 65 29 20 6f 6f 03 3f 2e b2 b2
       5.695753e-15 5.0870315e-14 7.0363353e-37 -2.0742958e-08
000380 21 9a 75 b2 01 b5 af 05 d5 ec f5 9d 92 32 22 9b
       -1.4295922e-08 1.6523411e-35 -6.509584e-21 -1.3416666e-22
000390 cd 61 ad 85 70 cd b0 b0 ed 34 52 ae 72 c8 96 82
       -1.6304768e-35 -1.2864074e-09 -4.779548e-11 -2.215557e-37
0003a0 a9 25 97 b3 86 d2 e1 b2 1f 8b c3 03 b9 48 57 1a
       -7.038336e-08 -2.6289182e-08 1.1493011e-36 4.4519703e-23
0003b0 77 64 ad 05 a6 48 c8 86 6e 75 fa af 6f e4 cf ae
       1.6305747e-35 -7.5338386e-35 -4.5558174e-10 -9.453848e-11
0003c0 ce 47 8e 83 50 2e 11 b3 74 0e dc b2 da ab 15 00
       -8.362495e-37 -3.3802564e-08 -2.5617943e-08 1.990194e-39
0003d0 29 c7 2c 80 aa b1 68 80 f9 5e a5 00 ee ce 7b 80
       -4.112207e-39 -9.614625e-39 1.5186927e-38 -1.1369998e-38
0003e0 19 e8 80 80 0e 11 81 80 7d cd 59 00 0f 39 2a 80
       -1.1838204e-38 -1.1852897e-38 8.247074e-39 -3.87756e-39
0003f0 19 13 bd 03 55 8c 6f 26 26 38 4b a8 3f 22 ae 85
       1.1112806e-36 8.310997e-16 -1.1280939e-14 -1.6375461e-35

conv5.bias f4 [16]
000000 6e c4 de a4 b2 99 5b 3d 89 5e 09 82 e3 d3 cc bc
       -9.660992e-17 0.053613372 -1.0092301e-37 -0.02500338
000010 af 60 a8 bd f2 16 f3 8f 95 b5 66 3e d0 08 24 3a
       -0.08221566 -2.3970488e-29 0.22530206 0.00062574167
000020 c0 fe db 3a 24 8a e6 39 7c 16 f7 3d c0 c7 5e 3e
       0.0016784295 0.0004397194 0.120648354 0.21755886
000030 0f 58 b1 3d ab 69 26 3d 59 e0 ea 3c 67 9f 05 3e
       0.08659374 0.040628117 0.02867143 0.13049088

classifier.1.weight f4 [10, 16]
000000 79 55 45 b5 02 c6 35 bd 6b c6 0f 80 3f 1a 21 be
       -7.35126e-07 -0.044378288 -1.448711e-39 -0.15732668
000010 9a 5e 15 be 37 19 5b 95 3c 20 5d 3e 32 ec 30 3a
       -0.14586869 -4.424659e-26 0.21594328 0.0006749063
000020 87 8f 9c 3e d6 49 42 bc e8 82 64 be 67 f4 cd 3c
       0.30578253 -0.011858424 -0.22315562 0.025140954
000030 6b 89 78 3e 96 04 80 3d 6e 5f 45 3e df a8 52 be
       0.24271171 0.06250875 0.19274685 -0.20572232
000040 43 bf c7 b7 9d 72 9e be b2 b4 1d 02 0a a7 24 3e
       -2.3811712e-05 -0.30946818 1.1586395e-37 0.16079345
000050 98 7e 10 3e 80 86 0e 90 61 d5 1a be 41 4c b7 ba
       0.14110792 -2.8108177e-29 -0.1512046 -0.0013984517
000060 24 37 bb bd 9f 32 97 ba 10 47 85 bc e4 ee a7 be
       -0.091413766 -0.0011535472 -0.016269237 -0.32799447
000070 89 fe 03 bc b0 7c d2 3e 71 bc 8c 3d 67 5a 67 be
       -0.008056291 0.41110754 0.0687188 -0.2259308
000080 13 4e 86 b6 df c6 30 3e de 69 4b 80 8e 2b fe 3d
       -4.0026002e-06 0.17263363 -6.92564e-39 0.12410651
000090 bc c8 c1 be f5 e8 2f 24 e8 72 04 3e c4 90 88 39
       -0.3784846 3.8144398e-17 0.12934458 0.000260478
0000a0 ba 83 59 3e 93 2c a3 39 35 ec 4c be 52 27 4d 3e
       0.21241656 0.00031122993 -0.20011981 0.20034531
0000b0 27 bb 2b be f6 f5 1d 3e d8 f8 fb 3c 69 8d 6d 3d
       -0.16770612 0.15425858 0.030758306 0.057996187
0000c0 d9 92 d9 35 83 19 9e 3e a4 d7 ad 00 9e 3a 8b bd
       1.6210498e-06 0.3087884 1.5964898e-38 -0.0679829
0000d0 04 b4 3f be 0b e9 38 a8 3e fc 2a be 32 14 95 b9
       -0.18721014 -1.0264585e-14 -0.16697785 -0.0002843454
0000e0 cc 62 9b bd 10 2c c6 ba ed fb 21 3e 5e d9 8e 3d
       -0.075872034 -0.0015119333 0.15818758 0.06975053
0000f0 2e 63 4b 3d ae 19 92 bd f9 6a 09 3e e2 f7 87 3b
       0.049655132 -0.07133804 0.13419713 0.004149423
000100 37 9e 2b 38 11 4a 41 be a1 5d 9e 80 4b 40 b5 3d
       4.0916926e-05 -0.1887591 -1.4543596e-38 0.088501535
000110 e7 9b 22 be 45 87 d6 a7 7d cd ec 3d 5e ec 61 b9
       -0.15879785 -5.954359e-15 0.11562631 -0.00021545726
000120 46 4c 80 be 76 d2 a2 ba 59 bb 89 3d 45 fb a6 3e
       -0.25058192 -0.0012422341 0.06725187 0.32613578
000130 b5 78 96 3e 81 bf d3 3d c6 06 99 bd 30 07 1f 3d
       0.29388967 0.10339261 -0.07471995 0.038825214
000140 e3 6a ed 37 d9 2a 4c 3e e0 e1 45 80 23 28 93 3d
       2.8302375e-05 0.1993822 -6.417678e-39 0.0718539
000150 75 c5 37 3e c6 60 8a 27 b6 86 ce bc 95 14 7e ba
       0.17946418 3.8407616e-15 -0.02521072 -0.0009692398
000160 c1 50 3c be 80 f9 db b9 d4 98 38 be b0 ad fc 3d
       -0.1839018 -0.00041956827 -0.1802705 0.12337816
000170 81 0b 07 be ec 9f 1b be 25 08 14 be 5a 20 5f bc
       -0.13187982 -0.15197724 -0.14456232 -0.013618553
000180 e8 83 90 b8 4f 5c 79 3c 7b 95 b9 00 ed 8f 66 3e
       -6.8910245e-05 0.015219762 1.704319e-38 0.22515841
000190 c4 f7 bc bc 0c 64 26 1e 5e b9 85 3e 12 02 23 ba
       -0.023067363 8.808656e-21 0.26117986 -0.0006218265
0001a0 22 f6 16 be b5 3c 68 3a 40 b3 97 3e c9 49 ae bd
       -0.1474233 0.00088591437 0.29628944 -0.08510167
0001b0 df 50 8e 3e d7 3a 99 3d 22 71 b1 be ac e7 32 be
       0.27796075 0.07481926 -0.34656626 -0.17471188
0001c0 20 53 6d 37 ab 9e 89 be 05 87 39 80 30 75 6e 3e
       1.4145655e-05 -0.26878867 -5.283059e-39 0.23286891
0001d0 5a 46 d7 bc af 88 72 a5 0c 5a 3a be f8 e7 06 ba
       -0.026278663 -2.1036464e-16 -0.18198413 -0.00051462604
0001e0 d7 c4 2c be 16 f9 03 b9 91 83 8b 3d 09 36 7a 3e
       -0.16871963 -0.00012585925 0.06812204 0.24434675
0001f0 b0 5d 64 3d 1e 58 a4 be 57 08 d0 3d ec ab 9d bd
       0.05575341 -0.32098478 0.10157841 -0.07698807
000200 9e db e3 b6 f7 a8 ac bd 7a 0e fc 01 a1 be c3 be
       -6.790694e-06 -0.08430665 9.2590953e-38 -0.38231376
000210 4e 8e 96 3d bc 48 8b 90 79 55 b0 3e b1 52 d1 ba
       0.07351361 -5.49379e-29 0.3444021 -0.0015970079
000220 da a5 0b be 07 8a c2 3b 82 64 31 3e 30 6d 14 3d
       -0.13637486 0.0059368643 0.17323497 0.03623694
000230 37 00 aa be 8e 4c 47 3e 41 2f ec 3d 4b 41 c8 3e
       -0.3320329 0.19462797 0.115324505 0.39112315
000240 fa b3 08 38 51 80 5e be b4 60 12 81 13 5f 8c bd
       3.2592543e-05 -0.21728636 -2.6885346e-38 -0.068540715
000250 bb 7d 0d 3e 69 bf b0 92 9a 98 5f be c6 40 09 3b
       0.13817494 -1.1154348e-27 -0.21835557 0.002094315
000260 fa b0 a5 3e 2f fe 34 bc de 19 9c 3e 92 b7 dd bd
       0.32361585 -0.01104693 0.30488485 -0.10826029
000270 07 d4 59 be 01 56 d6 3c 9b b5 d1 bd 64 13 8d bd
       -0.21272288 0.026164057 -0.102397166 -0.06888464

classifier.1.bias f4 [10]
000000 6c 40 17 3e 03 2b 22 bd fd de 32 3e ce 64 10 3e
       0.14770669 -0.0395918 0.17467876 0.14100954
000010 89 e8 d0 3e 31 db 00 3d 36 3f 86 bd cf d0 32 3d
       0.4080241 0.031459037 -0.06555025 0.043656167
000020 8e 89 80 bd b2 92 5f bc
       -0.062762365 -0.013645815
