Cifar/batch_based_problems_final_eps_25/1024_model_.pt (torch, 147295 bytes, 4 tensors)

conv1.weight f4 [16, 3, 3, 3]
00000000: ec20 17be d8b7 ac3d c9df 473d befd f23d
00000010: 946e 1f3e 19a3 e33d 8384 afbd d838 38be
00000020: 0f8d f4bd a4a5 22be c985 08bd 4645 813b
00000030: d608 82bc 89e4 28be e993 c7bd 2007 9e3c
00000040: 316d f7bc 244b cf3d 283e bb3d 36f7 cc3d
00000050: 73ca 6d3e 2793 92bc 1605 193e 7139 843d
00000060: d17b e03d 4479 733e bc63 1c3e e6a5 34be
00000070: 90a7 1f3c f8b1 783e 3d85 00be ee6b babd
00000080: 3656 8cbd 34a5 833c 9407 38be c99c 703e
00000090: cbb2 47bc 7289 efbc 7ad8 253e 7d7c f4bc
000000a0: b15a 243b 1f3f 2b3e 01f6 41be 1c56 b8bc
000000b0: a2f1 8f3e 6fcf 7cbe 4458 af3c 2a7d 793e
000000c0: f453 70be 9add 11be b218 7e3e 7b02 05be
000000d0: ea11 adbc f357 883d 607a 26be e84e 3abe
000000e0: 9c81 51be a513 8cbe fde6 32be 0ca0 19be
000000f0: 5871 943c fb28 903b 0d55 b03c 0028 f13b
00000100: d327 7a3d 3654 273e 3c39 40be 638c 00be
00000110: 43ae 50bc fd4c e33d 9c3f 1c3e 0036 843c
00000120: d762 603e b718 8d3d 5faa 62bd cb60 f63d
00000130: 9490 f4bb 1960 abbd 7fb6 e33d 08aa 563e
00000140: 28e1 253e d409 923d 4a66 bdbd bff5 73bc
00000150: 26a5 73bd 98c6 29bd 1374 acbd 71da 98bd
00000160: e8ed 573d 656a 073e 33a5 0f3d dc19 2d3d
00000170: 6481 ac3d 3a11 9abc 780f 4b3e 67b7 c93d
00000180: 15f6 403d cb3b e63d 5697 4f3d f430 b8bd
00000190: 732b 793d 6a20 503c 4a61 fb3d 9399 acbd
000001a0: 84bf 3a3d 1581 f43b 3f16 b2bd d427 303e
000001b0: 97c5 2b3e 6ddd 583e d922 9a3d 75b6 773e
000001c0: afb7 323d 509e 873e f2ae e23d b5cf 293e
000001d0: 5473 f13d e211 05be 6085 9ebd 829b 30be
000001e0: ac30 f0bc 8724 143e 9d8a cebd fa46 90bd
000001f0: d6dc ea3d 83d5 95bd c9dc 4abd 8e45 65be
00000200: 230f e73d a643 ba3c e1e3 4cbe c78e c73d
00000210: 32af 853d 420a 04be 0c66 3fbd 08a1 933c
00000220: 5337 a03e d021 0b3e 9438 683e 10b1 f83d
00000230: ecae 93bd 95c1 53bd 95a9 3ebe 100d 3cbe
00000240: a258 523d 0d26 523e 7714 8f3d ccbe e4bd
00000250: 1bda a7bd 1895 543d 3151 63be 075f 80be
00000260: 3a82 ce3c 1202 083e c43a 9c3e f379 ccbd
00000270: 0930 d73d df06 10be ef5c babd 592d 54be
00000280: c06e 11be bf81 0dbd 0c91 633e 6d0f 853d
00000290: 4344 11be 4077 f83d 7bed 7c3d 9016 6dbe
000002a0: 2f26 073e b140 1c3e e0e3 e0bc f36c 3a3d
000002b0: 5a83 0fbe f8c9 01be 153c 8c3e bb7c eb3d
000002c0: 9fb9 5ebe def9 333e df1f 8bbd 41fb 61be
000002d0: 350d 5e3d 6c76 153e 34ea 47bd 21d9 c3bd
000002e0: c851 1fbe a74e 1bbe 5df5 773e e4be 08bd
000002f0: 37a9 51be de54 413c e6da 0fbe 4fc3 81bd
00000300: 31d1 273d 480e fbbd 2806 11be eba8 b6bd
00000310: f84e 1abe feea 0ebe b5de 0abe 749d 38bd
00000320: 937a be3d 7997 1d3e f021 173d d5e8 1e3d
00000330: 5f0c 993d 25be b93d aae1 42be 143f 0a3e
00000340: bbd6 5b3e 4a11 5a3e afe9 203e b5d0 3f3e
00000350: 3b6b 30bb 0ffb f1bd 613c 60bd 1cf4 663e
00000360: d537 a53d 77b4 c63c 3bed 24be 8a5d e9bd
00000370: 6b77 13be 9e87 eb3d bf3a d0bc cd80 99bd
00000380: a0ad 72bd 005d 8d3d b812 04be 8b57 64bb
00000390: 6952 273e 6bd4 11be 78fe c03d bf25 e83c
000003a0: b47c 01be 19f0 a6bd 4a5c c4bd 2eb5 bbbd
000003b0: 50ee 9c3d 6832 41be 9526 3cbe 6139 40be
000003c0: fc88 f3bd ed10 05bc 1a7a 0cbd ee5b 06be
000003d0: b711 aebd 4895 2ebd ed6d ae3b 58ba 14be
000003e0: 82e0 44bd 9d85 4dbe d1e0 a9bc c8e4 41bb
000003f0: 0ba0 81bc 9470 05be f6b4 fabd 1e79 02be
-0.14758652 0.08433503 0.048797403 0.11864804 0.15569526 0.11115093 -0.085701965 -0.17990434
-0.11940967 -0.158835 -0.033330712 0.0039450256 -0.015873354 -0.16493429 -0.097450085 0.019290507
-0.030203434 0.10121754 0.09142715 0.10008089 0.2322176 -0.017892433 0.14943346 0.064562686
0.10961116 0.23776728 0.1527242 -0.1764141 0.00974454 0.2428664 -0.12550826 -0.09102617
-0.06852381 0.016069986 -0.17971641 0.23497309 -0.012188624 -0.029240344 0.1619586 -0.029844517
0.002507847 0.16723298 -0.189415 -0.022501998 0.2811404 -0.24688505 0.021404393 0.24364153
-0.23469526 -0.1424469 0.24814108 -0.12989227 -0.021126706 0.066574 -0.1625762 -0.18194163
-0.20459598 -0.27358738 -0.17470928 -0.1500246 0.018120453 0.0043994165 0.02152493 0.0073595047
0.061073136 0.16340718 -0.18771833 -0.12553553 -0.01273686 0.11098669 0.1525864 0.01613903
0.21912704 0.068894796 -0.05533826 0.120301805 -0.007463524 -0.083679385 0.11118793 0.209633
0.16199172 0.07130781 -0.09248026 -0.014890133 -0.05948367 -0.04144916 -0.08420577 -0.074635394
0.05271712 0.1322418 0.035069656 0.04226099 0.08423117 -0.018807042 0.1983012 0.09849434
0.047109682 0.11241873 0.050681435 -0.08993712 0.060832452 0.012703041 0.12274416 -0.084277295
0.0455928 0.007461677 -0.08695649 0.17202693 0.16774593 0.21178217 0.07526178 0.24190696
0.043632206 0.2648797 0.110685244 0.1658314 0.11789575 -0.12995103 -0.07740283 -0.17246822
-0.029320084 0.14467059 -0.10085032 -0.07044788 0.11467902 -0.07316115 -0.049526963 -0.22389814
0.11282184 0.022737335 -0.20008804 0.097440295 0.065275565 -0.12894538 -0.04672818 0.018021122
0.3129221 0.13587117 0.22677833 0.12143147 -0.07211098 -0.051698286 -0.18619378 -0.18364358
0.051354058 0.20522328 0.06986325 -0.11169204 -0.08195897 0.0519 -0.22198941 -0.250725
0.025208581 0.1328204 0.30513585 -0.099841975 0.10507209 -0.14065121 -0.09099757 -0.20720424
-0.14202404 -0.034547564 0.222233 0.06497083 -0.14186196 0.1213212 0.061749917 -0.23153138
0.1319816 0.15259053 -0.02745241 0.04551406 -0.1401495 -0.12674701 0.2738959 0.114984
-0.21750496 0.17575786 -0.06793188 -0.22068502 0.054211814 0.14595956 -0.048807338 -0.095628984
-0.15558541 -0.15166722 0.24214692 -0.033385172 -0.20474707 0.011800019 -0.14048347 -0.0633608
0.040970985 -0.12258583 -0.14162505 -0.08918937 -0.15069187 -0.1395683 -0.13561518 -0.045072034
0.09300723 0.15389813 0.0368976 0.038796265 0.07473063 0.0906947 -0.19031397 0.13500625
0.21468632 0.21295658 0.15714143 0.18731959 -0.0026919383 -0.11815464 -0.05474508 0.22554058
0.0806729 0.024255974 -0.16106121 -0.11394794 -0.14401023 0.11500476 -0.025418637 -0.0749527
-0.059247613 0.06902504 -0.12897766 -0.0034842219 0.1634003 -0.14241187 0.09423536 0.028338311
-0.12645227 -0.08151264 -0.09587915 -0.09165417 0.07662642 -0.18866885 -0.18374093 -0.18771888
-0.11891362 -0.008121711 -0.034296133 -0.13121006 -0.084994726 -0.042622834 0.005323163 -0.1452421
-0.04806567 -0.200705 -0.020737084 -0.0029585827 -0.015823385 -0.13031226 -0.12241547 -0.12741515

conv1.bias f4 [16]
00000000: e507 533e e97f 0cbd 29e1 6b3e 0450 833e
00000010: 8750 a93b 7222 593c d4a2 e03c fc4b 14be
00000020: a5b8 e93d 8875 963d 268d 1bbd f203 da3b
00000030: dfef 89be 9a08 b8bd 624e 803e 6c9d 6c3e
0.2060848 -0.034301672 0.2303511 0.25646985 0.0051670703 0.013252841 0.027421393 -0.1448211
0.11412171 0.07346636 -0.037976407 0.0066533023 -0.2694082 -0.089860156 0.250598 0.23106927

fc1.weight f4 [10, 3600]
00000000: 767f 533c 65f9 983b f3cc 453a 3c08 87bc
00000010: 172f 3bbc 1a53 c13b d8c1 c7bb 22cb ffbb
00000020: 43ca 44bc aa0f 4bbc 05e7 29ba 7548 68bc
00000030: 763b 10bc 7de3 053c f0bd 423c 3b28 34bc
00000040: 46e9 9dbb 8f7a 9e3b 8937 8dbb e1a5 093c
00000050: 13e9 1abc 423f fe3b 7148 5dbb b6ed 7dbc
00000060: ac01 043a 994d 02bc 909a 1cbb 2b02 a0bb
00000070: 68b8 f1ba f392 ac3b afb1 243c cf0a 0a3c
00000080: 14e9 0e3a 7a1b 28bc 9803 223c 71c2 133c
00000090: db9e 63bc 639f 75ba 5ffc 353b 85dd adbb
000000a0: 904c 673b 2fa7 b53b da57 0cbb 04a0 40bb
000000b0: d8e8 4e3c 53f5 2dbc 0e53 15bc dd1d 75bc
000000c0: 294c 9dbb 594e 413c 93f2 5cbb 93ac d43b
000000d0: ba19 09ba bd1e 443c dfe3 abba 149f ac3a
000000e0: 70a5 e9b8 4034 633b 7717 3b3c 192a 13bc
000000f0: a8bd 283c bdaa 643b ab2a 24bc 5f8a 1a3c
00000100: e0ec b03b eab7 7aba 683d 503c cfb1 1c3c
00000110: dc28 37ba 4e7f ac3b 8192 4bbb 804c 3c3b
00000120: c21c 223b 58ca 34bb bed8 83bb 9e99 9a3c
00000130: 8833 95bb 89b2 0dbc 0514 fe3b ce69 833c
00000140: 0b3d c3bb 4738 bb3c 6873 2bbb f856 c03c
00000150: ac24 9e3c d9f8 ad3c 3016 993b 36ea 123c
00000160: acec 06bb 9470 133c 8523 0ebc 03f2 8b3c
00000170: 64af 2b3b 6ade 3a3c 874d 0f3a 5edc 413c
00000180: 3fe6 d43c 7067 d53c e23e aa3c 616f d03b
00000190: 0b4c 253c 42da 3a3c af0d 813c 4920 c439
000001a0: 7968 88bb 7c3f 283b 73ba c43c c359 b1bb
000001b0: 69c3 a6ba 9395 f13b 57a2 fd3c 0963 c93b
000001c0: 77a0 ea3c efbf c93c b944 5d3c c18a 963c
000001d0: 8fcc eb3c 0121 003c 3e7c 993c ae07 d43b
000001e0: fb6e 933c ae30 ae3c 3157 d03c 59c8 a33c
000001f0: 4c79 b03c ab92 7b3c 8dba f93c 0937 c83c
00000200: af9d 603c 1ab2 053d 488e 853c 1cf1 883c
00000210: dbf4 963c 2d66 1f3c 1b05 993b 0ea8 8abb
00000220: 5ba8 b43c 3712 5eb9 cd71 173c c9d2 673c
00000230: 119f dd3c bd6c 443c 6187 093c cbb8 123d
00000240: 6d51 fb3c ef3e c5ba a3fb cf3c 5532 9c3b
00000250: cf87 233c 5075 f93b d2e3 e03b 1214 9e3c
00000260: e43b 7f3c 31fb da3c 5cd5 633c ea79 793c
00000270: 0074 153c 2ead 0c3d effa 7f3c 9bb5 e43c
00000280: b71c 993c 40c6 b23b 0871 9f3b f851 a53b
00000290: d0e9 083c f0ed b3bb ad39 3fbc 5c34 0a3c
000002a0: a6d0 54bb cf46 673c 9f41 9b3c 1463 b93c
000002b0: 3773 0d3d bb65 a43c 8bbe f13c b575 d83c
000002c0: c5a4 633c 0b83 043c e8c3 623c 034a 6a3c
000002d0: 41d4 cc3b 895d 15bb c9ed b23b 6e2a d338
000002e0: 171a 073c 62d1 393c b314 733c 2c54 8b3c
000002f0: fce5 873c bc3a 643c 2101 59bb 4f2e 183b
00000300: d09e 893c e6ef a3bb 2447 723c fbd4 52bc
00000310: 93f3 5ebc 91a9 683c 9959 9c3c 4418 c73c
00000320: d1d0 e03c 2011 e43c 75c3 3b3c 1fe8 3b3c
00000330: 5d34 ea3b 36e6 d93b 52a8 4239 e9df 713a
00000340: a664 21bc 710d c43b 9db9 8c3b 303d da39
00000350: 196b 653c 9029 ae3b 6d54 183c a29c d83c
00000360: 8fe9 733c d8b4 2a3c 008b 843c e83f 753c
00000370: a32f 813c 3350 343c 484a 7e3c f11c 02bc
00000380: b6e9 18bc a00c 34bc 0628 e8bc 4815 87bd
00000390: ce29 73bd cff9 34bd c556 65bd ce82 8dbd
000003a0: 22f3 81bd 9e81 9bbd 7e3a 4bbd ccbc 0abd
000003b0: 096d 2bbd e05a e9bc af43 10bd 40a0 1ebd
000003c0: cf33 87bb 348e 01bc 53d7 5ebc b9b4 16bd
000003d0: 78d5 89bc 4865 f6bc ba16 56bd b28c 6cbd
000003e0: ed4f 5bbd e66a 82bd 274b 67bd 01a7 16bd
000003f0: f51a 91bc ceac 62bc 0d71 d8bb 684c fa3c
0.012908807 0.004668402 0.00075454934 -0.016483419 -0.011424801 0.005899799 -0.006096106 -0.0078061977
-0.012011114 -0.012393871 -0.0006481263 -0.014177431 -0.008803239 0.008171913 0.011886105 -0.01099592
-0.004819068 0.0048363875 -0.004309599 0.008401365 -0.009454983 0.0077590058 -0.0033765102 -0.015498569
0.00050356495 -0.007953071 -0.0023895837 -0.004883071 -0.0018441798 0.005266541 0.010052129 0.0084254285
0.00054516015 -0.010260457 0.009888552 0.009018526 -0.013892855 -0.0009369759 0.0027768833 -0.005305948
0.0035293438 0.0055436115 -0.0021414668 -0.0029392252 0.012628756 -0.010617572 -0.00911404 -0.014960733
-0.0048003388 0.011798465 -0.0033713921 0.006490299 -0.0005229969 0.011970219 -0.0013114176 0.0013169968
-0.00011141121 0.0034668595 0.011419169 -0.008982205 0.010299124 0.0034891807 -0.010019938 0.009432404
0.0053993315 -0.00095641485 0.012709953 0.009563877 -0.00069869845 0.0052641993 -0.0031062665 0.002873212
0.002473638 -0.0027586427 -0.0040236404 0.018872079 -0.004553262 -0.008648523 0.0077538514 0.016041663
-0.0059582046 0.022853984 -0.0026161317 0.02347897 0.019304596 0.021236824 0.0046718344 0.008966973
-0.0020587845 0.008999009 -0.008675461 0.017083174 0.002619707 0.011405567 0.00054665696 0.011832325
0.025988696 0.0260503 0.020781938 0.0063609337 0.010088931 0.011404576 0.015753595 0.00037408088
-0.0041628447 0.0025672605 0.024014687 -0.0054123118 -0.0012723032 0.007372567 0.030961199 0.006145839
0.028640969 0.024627654 0.013505154 0.01837671 0.028784065 0.007820369 0.018736001 0.006470642
0.017997256 0.021263447 0.025432201 0.019992994 0.021542214 0.015354793 0.030484462 0.024440305
0.01370947 0.032640554 0.016303197 0.016716532 0.018427303 0.00972895 0.004669798 -0.0042314595
0.022052934 -0.00021178355 0.009243441 0.014149376 0.027053388 0.011988816 0.008394093 0.035820764
0.030678475 -0.0015048663 0.025388544 0.0047667422 0.00998111 0.0076128617 0.006863096 0.01929668
0.015578244 0.026731106 0.013905849 0.0152268205 0.009121895 0.034344845 0.015623792 0.027918627
0.01869045 0.005455762 0.0048657693 0.005045172 0.0083565265 -0.005491011 -0.011671466 0.008435335
-0.0032472997 0.014116003 0.018952189 0.022630252 0.034533706 0.02006804 0.029509803 0.026423315
0.013894265 0.008087884 0.013840653 0.014299872 0.0062508886 -0.0022791347 0.005460475 0.00010069167
0.008245966 0.011341425 0.014836478 0.01700791 0.016589157 0.013930019 -0.0033112245 0.0023220961
0.01679936 -0.0050029634 0.014787469 -0.012868161 -0.013607877 0.014200584 0.019085692 0.024303563
0.027443321 0.027840197 0.011460175 0.011468916 0.0071473555 0.0066497577 0.00018563986 0.00092267856
-0.009850657 0.0059830477 0.0042945878 0.00041625788 0.014002585 0.005315013 0.009297472 0.026441876
0.014887228 0.010419093 0.016179562 0.01496885 0.015769785 0.011005449 0.01552064 -0.0079414705
-0.009333065 -0.010989338 -0.028339397 -0.06595856 -0.05936604 -0.04418355 -0.055990953 -0.06909715
-0.06345202 -0.07593082 -0.04961633 -0.033871457 -0.04185203 -0.028485715 -0.035220798 -0.038727045
-0.004126049 -0.007907439 -0.013601142 -0.036793444 -0.016825423 -0.030077592 -0.052267767 -0.057751365
-0.05354302 -0.063680455 -0.056468155 -0.03678036 -0.01771305 -0.013835145 -0.0066052736 0.030554011

fc1.bias f4 [10]
00000000: 7ef6 26bc 881f 2abd 570c 8c3d e0df 553d
00000010: b486 943d 5519 7cba 2a38 1ebc 6ba4 7bbc
00000020: 93f6 0f3d ed0c 83bd
-0.010190604 -0.041533977 0.06838291 0.052215457 0.07252255 -0.0009616812 -0.009656945 -0.0153590245
0.03514726 -0.0639895
