Cifar/batch_based_problems_final_eps_25/16_model_.pt (torch, 147295 bytes, 4 tensors)

conv1.weight f4 [16, 3, 3, 3]
000000 18 c2 8e 3d 0a 64 77 3d cc 4d 3d bd 0f 78 1a 3e
       0.06970614 0.06039814 -0.04621677 0.15084861
000010 f7 f7 4a 3c 79 a8 08 3d c0 66 b6 bc f0 f6 ea 3d
       0.012388221 0.033363793 -0.022265792 0.11472881
000020 f3 0c 0e 3e 3c 8b 5d be 19 3a 57 3d 04 6e 22 3d
       0.13872127 -0.21635145 0.05254564 0.0396557
000030 37 10 dc 3d 70 39 9b 3d c9 01 b5 3d 51 5f 24 3d
       0.1074528 0.07579315 0.08838231 0.040129963
000040 83 fd 12 3e 69 69 0b 3b 4d ad 26 be 52 18 1d bd
       0.1435452 0.0021272546 -0.16277047 -0.03835327
000050 62 d6 a1 bd 9e 0b 8a bd 68 ee ed bc a8 f2 f6 3d
       -0.079022184 -0.06740497 -0.029044345 0.12058002
000060 e4 d4 01 be 47 ae c7 bd b8 b2 b9 bd 11 1f 80 bd
       -0.12678868 -0.09750038 -0.09067291 -0.062559254
000070 63 54 3e 3e 22 c8 7f be 94 7f 96 3e 8a 2a 47 be
       0.18586878 -0.24978688 0.2939421 -0.19449821
000080 ff 56 94 3d e4 c8 d4 bd 9d 5a 09 be 17 f4 83 3e
       0.07243156 -0.10389879 -0.13413472 0.25772163
000090 00 9c 44 3d 5a 19 82 3e 6c b8 bc bd 1f 12 b6 3d
       0.048000336 0.25409967 -0.09214863 0.08890175
0000a0 25 6c ff 3b 71 c2 f5 bd 3f ea 6e bd 43 22 88 3d
       0.0077948743 -0.119999774 -0.058328863 0.0664716
0000b0 1f 4f 6d 3e af 22 c0 bd 9a 7c 35 3e c2 04 da bd
       0.23174714 -0.09381615 0.17723313 -0.10645439
0000c0 55 48 47 3e 77 f0 3c be 2b 1a 95 be 45 77 79 be
       0.19461186 -0.18451105 -0.29121527 -0.24361904
0000d0 cf b3 8b be a3 a4 6d 3e c1 f1 b5 3d d7 b4 11 bd
       -0.2728562 0.23207335 0.088840015 -0.035572853
0000e0 b4 bc b3 bd 45 95 84 3d 6a 05 1f 3e 64 06 78 be
       -0.08776227 0.064737834 0.15529409 -0.24221188
0000f0 f6 d6 0d 3e 38 c6 e4 bd 09 c1 f1 bd a8 ee 9a 3d
       0.13851532 -0.1117062 -0.11804397 0.07565051
000100 87 6d 1c bd f2 fe 70 be fe 3a a2 3e 30 56 b9 bd
       -0.03819039 -0.23534754 0.31685632 -0.09049642
000110 65 a8 8b be 41 98 b5 3d 97 44 46 3e 90 42 2d be
       -0.27276912 0.08866931 0.19362102 -0.16919923
000120 40 37 b6 3e 1d 53 4c be e7 38 ad be e2 72 83 3d
       0.35589027 -0.1995358 -0.33832476 0.064183965
000130 8f d4 13 bd 64 67 3e bc 58 b3 a0 3e 1a 42 85 3e
       -0.036091384 -0.01162133 0.31386828 0.26026994
000140 ac 86 6d be e5 00 25 bd 0e 85 0f bd aa 87 a2 bc
       -0.23195904 -0.040284056 -0.035039 -0.01984008
000150 ab d7 24 3e b6 e9 00 be 28 c1 78 3e 12 c2 6b bd
       0.16097896 -0.12589154 0.24292433 -0.057558127
000160 3a 03 33 be d9 27 06 3e 22 a5 38 3e ba b5 20 be
       -0.174817 0.13101138 0.18031743 -0.15694323
000170 f9 db 44 3e f0 98 5e 3e a1 27 45 be d3 31 94 3d
       0.19224538 0.21738029 -0.19253398 0.07236066
000180 46 1e 88 3e 9b 0e 1a be a1 7f b1 3c 80 b3 b6 bd
       0.26585597 -0.15044634 0.021667304 -0.08920956
000190 7b 19 74 be dd d2 9b 3d ec 92 78 3d 51 1b 41 be
       -0.23837845 0.07608578 0.06068699 -0.18858077
0001a0 ff 61 1b 3e 64 de 44 bd 8d e7 7a be ed e6 16 bd
       0.15174101 -0.04806365 -0.24502392 -0.03684132
0001b0 21 bf e5 bd 46 17 6d bc 76 0f 90 3e 77 0f db bc
       -0.112180956 -0.014470881 0.28136796 -0.026740773
0001c0 f7 1f d0 3c 99 96 9a bd bd 43 34 be 89 cf e5 bd
       0.025405867 -0.075482555 -0.17603965 -0.11221225
0001d0 82 be f5 3d 89 b5 22 be eb 5b 26 bb 93 cb ae bc
       0.11999227 -0.15889563 -0.0025384377 -0.021337306
0001e0 43 26 a1 bd f9 b7 bb bd bd 27 ef 3d 19 15 38 be
       -0.07868626 -0.091659494 0.11677501 -0.17976798
0001f0 76 fe 1a be 4d 78 8f 3c 8e 2e 78 bd 3a 96 b0 bd
       -0.15136132 0.017513419 -0.060591273 -0.086224034
000200 9b 1c 3a 3e 6f 30 d5 bd f6 1e 1d 3e 00 82 23 3e
       0.18174975 -0.104096286 0.15343842 0.1596756
000210 c3 28 45 be c5 6c 09 3e 81 c0 93 3d 1a 99 3e be
       -0.1925383 0.13420399 0.072144516 -0.18613091
000220 e2 a4 91 be 6c 09 89 be 2d 62 89 bd 0e 30 51 be
       -0.28446108 -0.26765 -0.06708179 -0.20428488
000230 49 b5 53 bb 04 7e 9a be ae ae 2b bd 70 80 8c be
       -0.00323041 -0.30174267 -0.041914634 -0.2744174
000240 b7 6d f3 3c a2 87 c4 3d 5d 8d 4e 3e 34 0a 7e 3e
       0.029715402 0.095961824 0.20171113 0.2480858
000250 47 a7 66 3e be 0c 36 bc c5 59 e3 3d bc d7 53 bd
       0.22524749 -0.011111436 0.111011066 -0.051719412
000260 55 d7 70 3d 7a d2 f6 bd 72 1c 4b 3e 9b e7 a7 bd
       0.058799107 -0.12051864 0.1983507 -0.08198472
000270 96 f9 23 3e 30 2e cb 3d 35 ee 2b 3e 74 7f 90 bd
       0.16013178 0.09920919 0.16790088 -0.0705556
000280 74 66 3e 3e a1 60 c2 3d 08 bd 16 3d 13 ec 0c be
       0.1859377 0.09491087 0.036801368 -0.1376193
000290 33 45 79 3d 6a 6f 0b bd c7 19 d9 bd 72 80 b0 3d
       0.06085701 -0.0340418 -0.1060062 0.08618249
0002a0 98 1f 9d bb dc 2f 2f be 35 ca 33 be 07 86 58 3d
       -0.004795026 -0.171081 -0.17557605 0.052862193
0002b0 24 a7 42 3e fe 34 5c bb 38 c7 73 bd f8 04 e9 bc
       0.19009072 -0.0033600922 -0.05951616 -0.028444752
0002c0 fd da 1b be 68 ac 19 3d 3f c0 a9 3d ce 07 77 be
       -0.15220256 0.037517935 0.08288621 -0.24124071
0002d0 d0 fa 0e 3e 4b ba 66 3e 40 77 e7 3d 75 52 b6 3c
       0.13962865 0.22532003 0.11302042 0.022256115
0002e0 6f 9f 44 3e 50 7c 0c 3e 8d 67 4e 3d 79 54 a5 bd
       0.19201444 0.13719296 0.050391722 -0.080727525
0002f0 bf 41 e3 bd c5 70 12 3d fd 6e ff bd 65 3c 64 be
       -0.110965244 0.035752077 -0.12472341 -0.22288664
000300 17 e1 3e 3e 4c fc be 3e 46 9f 81 bd 00 10 7b be
       0.18640552 0.37301862 -0.06329207 -0.24517822
000310 ae 5e c5 bd db 8c 3f 3e f8 1c ca 3d c6 6d b9 3b
       -0.09637199 0.18706076 0.098688066 0.005658838
000320 e1 d2 97 be df a6 f5 3c 3f d1 d0 3e 6c 5c 36 3d
       -0.29653075 0.029986797 0.40784642 0.044521734
000330 fb c9 40 be 71 f5 5e be 4f f5 8c 3d 20 4e 1e be
       -0.1882705 -0.21773316 0.068827264 -0.1545949
000340 4b 08 0c be c6 a1 2d bd be df 4c 3e d7 ba 81 3e
       -0.13675039 -0.042390607 0.20007226 0.2533786
000350 ca 18 58 be de 08 60 be ff 60 e5 bd 33 b3 9c 3e
       -0.21103206 -0.21878383 -0.11200141 0.30605468
000360 18 6e 10 3e 65 9c aa 3d fe dc a9 3d 98 93 6c be
       0.14104497 0.08330611 0.08294104 -0.23103178
000370 c7 27 8d be 70 89 a7 bc 4c ec 89 bd 78 c0 79 3d
       -0.2756941 -0.020451277 -0.06734523 0.060974568
000380 0a 8d 1d be 8a 6a 81 3e 0a e0 98 3e bf 39 f8 3d
       -0.15385833 0.25276595 0.29858428 0.12120389
000390 71 0f 82 be bd d9 93 be a8 32 77 be 9e 14 5c 3e
       -0.25402406 -0.2887706 -0.24140418 0.2149224
0003a0 e9 9b 86 3e 09 c9 8c 3e 0f 3a 0a 3e 3e 67 02 3e
       0.26290825 0.27497128 0.1349871 0.12734696
0003b0 c9 1a cb 3a ae 04 8b be 9e 8b 7a be 61 bd 81 be
       0.0015495653 -0.27152008 -0.24467322 -0.25339797
0003c0 ba de d5 3d 7e 18 41 3d 4b 2d 52 3d 0c bf f4 bd
       0.10442872 0.0471425 0.051312726 -0.11950502
0003d0 dd 1e 68 3e f0 a8 e1 bd 1a f9 38 be c1 d7 94 3e
       0.22668023 -0.110185504 -0.18063775 0.29070857
0003e0 8c b8 f1 bd ea 63 14 3d d8 76 f2 3d b0 1e 33 be
       -0.11802778 0.036228098 0.11839074 -0.17492175
0003f0 e6 0d ee bd 78 f1 df 3d 5e c6 b7 bd d5 8e 9d be
       -0.11623745 0.109347284 -0.089733824 -0.30773035

conv1.bias f4 [16]
000000 02 35 12 3d 19 58 f8 3d 3f 4d 9d be 82 a4 06 3e
       0.035695083 0.12126178 -0.30722997 0.13148692
000010 19 25 08 bf 9a b2 89 3d c0 eb b6 be 1d 70 23 be
       -0.53181607 0.06723519 -0.35726738 -0.15960737
000020 ba 86 a3 bd 40 0e 5e 3c 46 a7 e7 be 73 5c a8 3d
       -0.079846814 0.013553202 -0.45244807 0.08220758
000030 df 98 a8 3e 81 9b 00 bf 1c fe 25 be 4f 11 3b 3d
       0.3292913 -0.5023728 -0.16210216 0.045670804

fc1.weight f4 [10, 3600]
000000 bc 3e b2 bb fe ec 8f 3b 89 1a 63 3c 32 d0 bc 3c
       -0.0054396074 0.0043922653 0.013861307 0.023048494
000010 53 b7 28 3c a6 56 c3 3b 63 c3 33 3c bd 91 f9 3c
       0.010297614 0.005961257 0.010971877 0.030465001
000020 06 e7 c1 3c e4 28 03 3d cc 36 22 3d ad 9b 34 3c
       0.02366973 0.03202142 0.03960304 0.011023444
000030 cd c4 58 3c e9 11 9f 3c 5d c9 94 3b 4d 4d 61 bc
       0.013230515 0.01941772 0.004540606 -0.01375134
000040 86 81 d4 3b c6 97 56 3c e8 7f ec 3c 54 df e4 3c
       0.006485167 0.013097709 0.028869584 0.027938522
000050 d3 fb 13 3d 4a c4 8a 3c 29 ef a6 3c 3e ca fd 3c
       0.03612883 0.016939301 0.020377712 0.030980226
000060 32 57 5f 3c b5 10 01 3d fb 32 d7 3c 1d 1c 02 3d
       0.013631629 0.031510074 0.026269427 0.031765092
000070 37 cf bc 3b 64 98 5f bc 59 80 86 bb fb 4a 28 3b
       0.0057620066 -0.013647173 -0.0041046557 0.0025679457
000080 85 e9 f5 3c 19 9b 1d 3d 81 8b 16 3d ca 78 8c 3c
       0.030018577 0.03847799 0.036754135 0.01714744
000090 f2 a7 71 b8 a5 9b be bc df 7e 0f bc 03 fa 60 3b
       -5.761529e-05 -0.023267576 -0.008758276 0.0034328706
0000a0 df 6b ec 3c 6d 0c d9 3c 24 e9 58 3c 11 eb 2f 3c
       0.02886003 0.026495183 0.013239179 0.010737197
0000b0 95 c8 47 3b 52 fa fb 3b 97 d3 33 3b 45 dc be 3c
       0.0030484546 0.0076897526 0.002743935 0.023298392
0000c0 98 dc 00 3d 7b 60 0f 3d 2b d0 72 3a 17 e1 a5 3c
       0.031460375 0.03500412 0.0009262587 0.020248933
0000d0 c9 a3 83 3c e5 cf cc 3b b1 3b c4 3c 53 e3 18 3d
       0.01606931 0.006250369 0.023954244 0.03732617
0000e0 0e f6 39 3d 71 0f 24 3d 49 7a b3 3b 15 99 68 3c
       0.04540067 0.04005379 0.005477224 0.014196654
0000f0 d9 d4 cb 3b 10 67 ee 3c 9b cc e8 3c f7 60 e1 3c
       0.006220442 0.029101878 0.028417876 0.027512057
000100 82 ca 6c 3d 13 eb 8f 3d dd 03 93 3d fb 59 26 3d
       0.057810314 0.07027259 0.07178471 0.040613156
000110 80 97 86 3d e9 d3 6a 3d 8a 2e ac 3d b9 82 26 3d
       0.06571865 0.057331 0.08407314 0.04065201
000120 c3 fb 0b 3d 0a d6 bd 3c 32 b4 61 3d e1 41 57 3d
       0.034175646 0.02317335 0.05510349 0.05255306
000130 7d 92 bd 3d bd 43 6e 3d 60 3c 74 3d 7a 37 50 3d
       0.09256456 0.05817007 0.05962789 0.050834157
000140 53 5b 65 3d 55 40 2b 3d 6c 3f c0 3c 19 7e 20 3d
       0.055995297 0.0418094 0.023467742 0.039182756
000150 7f 7d 08 3d 14 99 a0 3d 3c 64 a6 3d 1b 7d 3d 3d
       0.033322807 0.07841697 0.08124587 0.046261888
000160 c9 a4 9a 3c c0 b3 94 3d 99 ec 43 3d e9 7d ca 3d
       0.018877404 0.07260847 0.04783306 0.09887297
000170 7a 0c 92 3d d3 c2 89 3d ab 6f 33 3d f9 3e df 3c
       0.07131286 0.06726613 0.043807667 0.027251707
000180 a1 73 e2 3c 83 7e b4 bc d4 9a 8d 3c f2 1a 9c 3b
       0.027643027 -0.022032982 0.017285742 0.0047639543
000190 22 fa ee 3b 4b a3 1d 3d f3 56 af 3c 72 62 2d 3d
       0.0072930017 0.038485806 0.021403765 0.042330213
0001a0 2b 24 b3 3d 3a 0c af 3d c2 e3 ac 3d bc 5f 6b 3d
       0.08747133 0.08547254 0.08441879 0.057464346
0001b0 8c 87 ae 3d 98 ab 68 3d 18 88 1e 3d b2 73 a6 bc
       0.08521947 0.05680427 0.038704008 -0.02031884
0001c0 97 c3 22 bd 33 a9 3a bd 44 b9 58 bd db cf 93 bc
       -0.03973731 -0.045571517 -0.052911058 -0.01804345
0001d0 32 1a 91 bb ce af a3 3c 16 86 0f 3d b9 25 83 3d
       -0.0044281716 0.019981291 0.035039984 0.064036794
0001e0 a3 95 94 3d 31 60 ac 3d 8f db c6 3d 23 ee e6 3d
       0.072551034 0.084167846 0.09709846 0.1127589
0001f0 7e d5 58 3d 50 e9 01 3d 5a 8f 25 3c ff 80 cc bc
       0.052937977 0.031716645 0.010104978 -0.024963854
000200 67 6f 38 bd 8a 86 37 bd b3 f3 ce b8 dc af 14 bb
       -0.045028117 -0.04480604 -9.868238e-05 -0.0022687828
000210 ff a2 7c 3d d8 a3 9e 3d 8a 6e cf 3d 13 7f c6 3d
       0.061678883 0.077460945 0.101285055 0.09692206
000220 42 45 a6 3d ab 4e b0 3d 1f cc ba 3d 24 69 81 3d
       0.08118679 0.08608755 0.09120964 0.06318882
000230 c3 13 b3 3c 5c f0 e0 3b 2e 8a 07 bd 43 76 eb 39
       0.021860009 0.0068645906 -0.033090763 0.00044910805
000240 78 88 72 bd b0 6d 35 bc c6 5b ba 3c 7b c4 81 3d
       -0.059212178 -0.011073515 0.02274884 0.06336304
000250 23 52 95 3d 62 cb 96 3d f5 30 9a 3d 74 9d 98 3d
       0.07291057 0.07363011 0.07528869 0.07451907
000260 69 5c 72 3d 1d 49 3e 3d d3 e5 72 ba d4 e0 96 bd
       0.05917016 0.046456445 -0.0009265814 -0.07367101
000270 a6 66 84 bd 03 be d7 bd d0 96 72 bd 70 64 24 bd
       -0.06464891 -0.10534289 -0.059225857 -0.040134847
000280 b1 1d 0f bd d3 48 a2 bc f8 c5 49 3b 15 35 50 3d
       -0.034940425 -0.019810116 0.0030788165 0.050831873
000290 9c a8 8f 3d e4 30 8a 3d 48 5d ae 3c b3 c6 e1 bb
       0.070145816 0.067476064 0.021284714 -0.006890142
0002a0 de 02 0f bc d7 cb 32 bd ef fe ae bd f3 2a dc bd
       -0.008728711 -0.043651428 -0.085447185 -0.107503794
0002b0 a2 7e df bd 65 1f b9 bd b9 89 f0 bd 98 4c a7 bd
       -0.10912825 -0.09039191 -0.117450185 -0.08168906
0002c0 c5 48 b7 bc 83 7d 9e bb e4 b4 85 3d c4 40 b4 3d
       -0.022373566 -0.0048367395 0.06528643 0.088014156
0002d0 5a 21 a6 3c 43 ca ef 3b b6 fd ff bc 0c a4 9a bd
       0.020279575 0.0073178126 -0.031248908 -0.07550821
0002e0 ca 9e 9b bd 64 12 a7 bd 46 3b da bd 27 72 cd bd
       -0.07598646 -0.081578046 -0.10655837 -0.100315385
0002f0 af d7 e2 bd 64 04 0a be a2 27 da bd 8d f6 8d bd
       -0.11076295 -0.13478237 -0.106520906 -0.069317915
000300 8d 15 d4 bc 6c 0e 2c 3c 68 00 60 3d 4f 22 99 3d
       -0.025889182 0.010501485 0.054687887 0.07477247
000310 11 29 fc 3c e2 37 95 3b fa 76 fa bc cc 52 70 bd
       0.0307813 0.004553781 -0.03057431 -0.05867271
000320 ad 38 a8 bd c5 fc 9a bd 14 70 31 bd 0a 8f 97 bd
       -0.08213935 -0.07567743 -0.043319777 -0.074003294
000330 3e 30 81 bd 32 3d 8d bd 7a cf 1b bd b9 0d 95 bb
       -0.063080296 -0.06896438 -0.038039662 -0.004548755
000340 68 ce 2b 3d b9 59 81 3d d9 70 6d 3d fd 82 61 3d
       0.04194489 0.06315941 0.057968948 0.05505656
000350 cb 99 14 3c 58 b7 a3 bc d8 74 59 bd a6 a3 2c bd
       0.00906987 -0.019984886 -0.053089947 -0.042148255
000360 6b 46 37 bd 7b 62 5d bd b2 6a 73 bd 36 04 99 bd
       -0.04474489 -0.054048996 -0.059427924 -0.07471506
000370 01 55 52 bd 84 85 39 bd 1d 67 84 bc 80 05 d8 3c
       -0.051350597 -0.045293346 -0.01616245 0.02636981
000380 db 91 27 3d d2 a8 b0 bd 3c 23 07 be 28 5d 00 be
       0.040910583 -0.0862595 -0.13197035 -0.12535536
000390 a9 c5 0a be 4b 0b 0f be cb 55 fc bd 8e 6a 04 be
       -0.13551964 -0.13969152 -0.12321051 -0.12931272
0003a0 b4 1e e8 bd fa 12 0f be f7 d3 d6 bd dd 8e b5 bc
       -0.11333981 -0.13972083 -0.10489648 -0.02216285
0003b0 4e c6 ed bc 73 b9 83 bc b6 1f b1 bd 3e 3f 09 be
       -0.029025223 -0.01607964 -0.086486265 -0.13403031
0003c0 56 10 62 bd ae 64 21 be 46 1a 0f be f1 cc d4 bd
       -0.05519136 -0.15761063 -0.13974866 -0.10390652
0003d0 40 0f ba bd f8 99 a9 bd 70 54 b9 bd ad 8b b2 bd
       -0.0908494 -0.0828132 -0.09049308 -0.08718047
0003e0 35 b7 03 bd cd 29 82 3d e7 88 46 3d c5 39 06 3d
       -0.03215714 0.06355629 0.048470404 0.032769937
0003f0 0d 01 98 3c fb 17 e1 bc fe 8d 65 3b 45 c9 e8 bd
       0.018555189 -0.027477255 0.003502726 -0.11366514

fc1.bias f4 [10]
000000 9e c4 86 bd 97 8f 6f be b0 6c 42 3e 73 1d 14 3e
       -0.065804705 -0.23394619 0.18986773 0.14464359
000010 12 18 41 3e d1 06 de 3d 85 49 1c be 1d f1 b9 bd
       0.18856838 0.10841144 -0.1526242 -0.09079192
000020 62 bd 59 3e b8 91 87 be
       0.2126365 -0.26478362
