Cifar/batch_based_problems_final_eps_25/256_model_.pt (torch, 147295 bytes, 4 tensors)

conv1.weight f4 [16, 3, 3, 3]
000000 d0 5b 02 3e dc 25 d3 3d 73 3f 9f 3e ec 7e 14 be
       0.12730336 0.103099555 0.31103095 -0.14501542
000010 ed d2 40 3e 87 85 85 3e be 66 e5 3d 73 78 85 bd
       0.18830462 0.26078436 0.11201237 -0.065171145
000020 37 87 55 bd 8c 1f 59 be 44 da 2c be 20 f1 10 3d
       -0.052130904 -0.2120344 -0.16880137 0.035386205
000030 9e f2 41 be 0f 78 21 be f2 ce c9 3d ef 1e 9b be
       -0.18940207 -0.15768455 0.09853925 -0.30297038
000040 d3 47 9d 3d ec 70 aa bc fb 65 db bd 74 b1 85 bd
       0.07679715 -0.020805798 -0.107128106 -0.06527987
000050 f0 3b 00 3e fa f4 ad 3d b2 8a fc bd 9a c3 b4 bd
       0.12522864 0.08493991 -0.123311415 -0.088263705
000060 4b b1 97 bd e4 41 53 be 6a 66 5f 3e 45 b2 96 3d
       -0.07406863 -0.20630604 0.21816412 0.07358221
000070 c3 75 85 bd fb 8e 8d 3e a1 87 2c be e4 d1 be 3d
       -0.06516602 0.27648148 -0.16848613 0.09317377
000080 cf 7c d3 bd fb e1 70 3e df e3 43 3b 13 8b 52 be
       -0.1032654 0.23523705 0.002989046 -0.20560865
000090 85 e2 51 be 00 a3 c4 bd ec 2d 85 3e eb db 33 3c
       -0.20496567 -0.09601402 0.26011598 0.0109777255
0000a0 8e a9 9f bd 98 a8 94 3d 0d 72 93 3e f2 bd 95 bd
       -0.07796012 0.07258719 0.2879795 -0.0731162
0000b0 41 d5 89 be 96 bf 55 be 21 ba 02 bd 87 b6 4a 3e
       -0.26920512 -0.20873865 -0.031915788 0.19796191
0000c0 bc 71 05 bd 10 18 0f be 61 36 88 3d 97 5e 90 3d
       -0.03257917 -0.13974023 0.06650997 0.070492916
0000d0 83 8a fb 3d 2d 21 72 be c7 e7 59 3d 1e 65 9e 3d
       0.122822784 -0.23645468 0.053199556 0.0773413
0000e0 05 a8 84 3d bc 93 3d bd 78 c7 97 bd f8 38 e9 bd
       0.0647736 -0.04628347 -0.074110925 -0.11387819
0000f0 60 ca 60 bd a4 11 60 be 0b 14 21 3e 62 16 3f 3e
       -0.0548805 -0.2188173 0.15730302 0.18660882
000100 93 91 91 3d d0 b1 d0 3d 98 5c c9 3d 2d 74 dc bc
       0.07107844 0.10190165 0.09832114 -0.026910866
000110 6f 06 3d 3c b3 5e 81 3e 67 a2 2e 3d f4 a2 74 3e
       0.011537178 0.25267562 0.042635348 0.23890287
000120 6e bb 4e be f9 58 d2 3d 58 e6 e0 bd 46 36 14 be
       -0.20188686 0.102708764 -0.109814346 -0.14473829
000130 42 3a 40 be d5 68 87 be b3 d0 27 be 80 33 5c 3c
       -0.18772224 -0.26447168 -0.16388206 0.013440013
000140 d9 db 4e bd ad 8d ec 3d 33 62 58 3d 67 57 2f be
       -0.05050263 0.1155046 0.052828025 -0.17123185
000150 7b f9 32 be 7c 89 bd bc 45 de 27 be 1a 39 17 bc
       -0.17477982 -0.023136847 -0.16393383 -0.009229923
000160 12 b7 8c bd 2c 61 e7 3c 32 87 2b be 79 68 46 be
       -0.068708554 0.028244577 -0.16750792 -0.1937579
000170 83 65 0f be f5 1c 56 be 35 40 c2 3c dd 8a 62 be
       -0.14003567 -0.20909484 0.023712257 -0.22123285
000180 92 3b 36 be 20 cc ca bd 12 63 8d bd a0 aa 9d bd
       -0.17796162 -0.09902215 -0.06903662 -0.0769856
000190 76 7a 56 bd 6c d2 19 3e 34 b9 06 3e 18 9e 0c be
       -0.05236288 0.15021676 0.13156587 -0.13732183
0001a0 3a 21 fb 3d 1f 56 eb 3d 8c 29 ff bd 7c 6b 04 be
       0.12262197 0.11491036 -0.12459096 -0.12931627
0001b0 a9 fd 2d bd b6 b7 3a 3e 50 5e 3b 3e 96 91 aa bb
       -0.042478237 0.18234143 0.18297696 -0.0052053435
0001c0 74 16 22 be 5c 2f d5 bd 0a 7b 00 be 00 e1 8a be
       -0.15828878 -0.10409424 -0.12546936 -0.27124786
0001d0 fc 74 87 be 32 52 60 bd 17 0c 7b 3e df c9 0d 3e
       -0.2645644 -0.054765888 0.2451633 0.13846539
0001e0 a2 a8 8e 3d cf 4e 13 be 66 60 1e be b4 98 3a be
       0.06965758 -0.14385532 -0.1546646 -0.18222314
0001f0 36 d5 43 bd 87 d9 49 bd f9 99 7b 3e 66 bb 9a 3d
       -0.047810756 -0.049279716 0.24570455 0.07555275
000200 e5 ba 9a 3e 76 f9 ad 3d 70 fb bd ba e1 65 41 bc
       0.30220714 0.084948465 -0.001449449 -0.011804075
000210 52 02 4b 3a 02 bc 50 3d 52 0b b0 bd ac 57 16 be
       0.0007744181 0.05096055 -0.08595909 -0.14681882
000220 60 da 48 bd 49 ea ce bd 28 66 42 3c 99 a2 b8 bd
       -0.049036384 -0.1010328 0.011865176 -0.09015388
000230 09 23 62 3c 7a 60 09 3e 57 94 1d 3e 20 d3 1d bd
       0.013802298 0.13415709 0.15388618 -0.038531423
000240 81 f5 5a be de 8f 6b be 89 b2 e2 3d 22 3c c5 bd
       -0.21382715 -0.230041 0.11069209 -0.0963061
000250 8e c2 a7 bd c0 59 3d 3d 98 a3 55 be d6 55 4e bd
       -0.08191405 0.04622817 -0.20863187 -0.05037483
000260 d7 81 11 3e ff 2b cc bd 58 be 27 bd 5d 6e 38 3e
       0.14209686 -0.09969329 -0.04095301 0.1801085
000270 50 e7 4b be a3 6e 84 3e b9 1c 75 3e b8 eb 0e 3e
       -0.19912457 0.2586566 0.23936738 0.13957107
000280 2f e6 95 3d b3 0c 47 3e c4 e5 62 3e 89 eb b4 bd
       0.07319295 0.19438438 0.22157961 -0.08833987
000290 36 10 c3 bd 00 d8 04 bd 16 61 0e be c3 ab 0a 3d
       -0.09524576 -0.032432556 -0.13904223 0.03385521
0002a0 1a 6c 0c 3e f1 17 7a be 07 1f 2e 3e 93 b0 1a 3e
       0.13713112 -0.24423195 0.17004023 0.1510642
0002b0 1c c1 cf bc 0e 3a 14 3c eb 99 cd 3d 77 94 7f be
       -0.025360636 0.009047044 0.10039123 -0.24958979
0002c0 73 d6 27 3e 04 ff 07 be f8 5c 8b be 75 8a ee 3d
       0.163904 -0.13280874 -0.27219367 0.11647502
0002d0 50 e8 53 3e 3c 0f 09 be fa 6b d7 bd 9b 2a d3 3d
       0.20694089 -0.13384718 -0.10518642 0.10310861
0002e0 c5 0b 50 be 12 9e dc bd c7 4d cb 3d 46 04 a1 bc
       -0.2031699 -0.10772337 0.09926944 -0.019655358
0002f0 e4 23 0b 3e 38 84 37 be 74 f2 cd bd 3a 9b 19 3e
       0.1358791 -0.17921531 -0.1005601 0.1500062
000300 f9 c5 1c 3e 31 07 a3 bd 8e b0 4e 3e d1 c4 8d 3d
       0.15309896 -0.07960356 0.20184538 0.069223054
000310 67 e2 da 3d 06 65 67 be 49 32 d3 bd 9e 68 b9 3c
       0.10687714 -0.22597131 -0.103123255 0.022632893
000320 32 de 7e bc df e2 4a be db f8 ba 3c 6b bf 2f 3e
       -0.015555905 -0.19813107 0.022823742 0.17162864
000330 3d 9b b6 3c 46 e2 00 bd 88 0d 7d be f8 2a 0d be
       0.02229082 -0.03146579 -0.24712193 -0.13785923
000340 5b 0c 04 be e5 8e d4 3d 5b 74 73 3d f3 f1 0e 3d
       -0.12895338 0.103788175 0.059437137 0.03489871
000350 01 2b b4 3c 94 21 91 3e f2 9e b5 3d bb e1 1c be
       0.021993162 0.2834593 0.08868207 -0.15320484
000360 d3 1c c3 3d 7c db e6 3d 48 84 90 3e 91 04 3a bd
       0.09526982 0.11272332 0.28225923 -0.04541451
000370 ad 88 4f 3e dc f7 14 3e 5e 7d 73 3e c2 d7 f9 3d
       0.20266981 0.14547676 0.23778293 0.12199356
000380 fe 25 14 3e 20 fa 8f 3d 86 32 4b be d3 e1 c8 bd
       0.14467618 0.070301294 -0.19843492 -0.098086976
000390 ff 08 e5 bd d7 0c c7 3c ed 95 b7 3c 3c 47 94 bd
       -0.111833565 0.024298115 0.022410357 -0.072401494
0003a0 0b b1 ff bd 0f c9 72 3d 19 37 8e 3d 98 09 59 bc
       -0.1248494 0.059273776 0.06944103 -0.013246916
0003b0 ef cb 39 be a5 a8 33 be e6 e5 6e bd 9c ba 20 be
       -0.181442 -0.17544802 -0.058324717 -0.15696186
0003c0 d1 94 a4 3c 76 3a 19 be e0 92 a4 bd f7 75 64 bd
       0.020090492 -0.14963707 -0.08035827 -0.055776563
0003d0 a1 cb 67 be 30 71 4b be 82 8a 2b 3d 78 ff 76 be
       -0.22636272 -0.19867396 0.04188014 -0.24120891
0003e0 4a a5 70 be 6c 8c 9a 3d e2 9f 9f bc cd db 76 be
       -0.23500553 0.075463146 -0.019485418 -0.24107285
0003f0 6c 3e f9 bd 54 22 d5 3c 11 53 f2 3c 78 6c 32 be
       -0.12170109 0.026017345 0.029580625 -0.1742419

conv1.bias f4 [16]
000000 9e c5 9e be 41 4b 4f be 58 cd 54 3e fd 61 a4 bc
       -0.31010145 -0.20243551 0.20781457 -0.020066256
000010 0e 26 de bc ee 0a 8b bd 53 53 1e bd 9c 01 78 3e
       -0.027117755 -0.06789194 -0.038653683 0.24219364
000020 e3 fb 8b 3e d8 35 81 3e 9b 8d 89 3e 5b c4 3e bd
       0.27340612 0.25236392 0.2686585 -0.046573978
000030 28 d9 8f be 2d 5a 1a be c0 09 41 3e 02 f9 97 3d
       -0.28095365 -0.15073462 0.18851376 0.07420541

fc1.weight f4 [10, 3600]
000000 2a f9 89 bd 1a 12 3f bd a8 28 84 bd 6b bc 70 bd
       -0.067369774 -0.046648122 -0.06453067 -0.05877344
000010 42 78 a4 bd 67 da b6 bd e2 ac 95 bd 47 48 90 bd
       -0.0803075 -0.08928376 -0.073083654 -0.07045036
000020 c5 52 92 bd 8b c8 88 bd cd 08 9b bd ae 6e 72 bd
       -0.07144693 -0.066788755 -0.07570038 -0.059187584
000030 0d 4a 8b bd 9b 6a 7e bd 65 2c 4b bd 51 42 12 bd
       -0.068012334 -0.062113386 -0.049602885 -0.035707776
000040 50 69 25 bd 46 d6 32 bb fc 58 32 bc 32 ec 32 bc
       -0.040383637 -0.0027288361 -0.010885473 -0.010920571
000050 f4 84 f8 bc ca 09 14 bd 40 5a 04 bd 31 3f 47 bd
       -0.030336834 -0.036142148 -0.03231263 -0.04864425
000060 ff 18 7b bd a9 b4 85 bd 00 70 3d bd 78 b7 1c bd
       -0.061303135 -0.06528599 -0.04624939 -0.038260907
000070 0d 71 f4 bc 04 a9 1e bd 56 f1 8b 3b 55 32 bd 3c
       -0.029839063 -0.038735405 0.004270713 0.02309529
000080 25 f7 88 3a 22 b8 41 3c 7c 1a 0b 3b 3e 13 30 3b
       0.0010449631 0.011823686 0.0021225503 0.0026866938
000090 6b 6f 05 bc 31 c2 c5 bb 0e 73 e7 bc c1 6c 28 bd
       -0.00814424 -0.0060351123 -0.028253105 -0.04111934
0000a0 87 09 da bc 8f d1 23 bd 44 e5 24 bc cc fb 2c bc
       -0.026615871 -0.039994773 -0.010064427 -0.01055808
0000b0 27 48 51 3b a1 82 3c 3d f6 94 04 3d ce 24 60 3d
       0.0031933875 0.046023015 0.032368623 0.0547226
0000c0 86 d6 94 3c 54 1c bc 3b a6 76 e5 bb 41 d3 d6 bc
       0.018168699 0.0057406817 -0.0070026694 -0.02622378
0000d0 40 2d aa 3c d6 07 84 bc d7 a8 71 bc b4 46 0e bd
       0.02077353 -0.016117018 -0.014749727 -0.034735397
0000e0 42 6a 76 bc 31 01 88 3c 85 e5 81 3c 53 8e 56 3c
       -0.015039982 0.01660213 0.015856514 0.013095456
0000f0 ff 5f 87 3d 47 25 81 3d af d7 30 3d f2 bc 94 3c
       0.06610107 0.06305938 0.043174442 0.018156502
000100 d2 8b 60 3c e3 1d a8 bc ca cc 85 bc 0e 74 4b 3b
       0.013705211 -0.020522064 -0.016333003 0.0031044516
000110 8b 57 a0 bb 98 e4 a6 bc e0 07 74 bc 7a e2 03 bd
       -0.0048932484 -0.020372674 -0.014894456 -0.032198407
000120 be 5d 25 ba 8a 7a e8 3c 78 4c 23 3d fe 12 41 3d
       -0.0006308219 0.028378744 0.03986785 0.047137253
000130 d1 2c 5b 3d 3c 76 19 3d 76 36 b1 3c 5c c1 e2 3b
       0.053509537 0.037466273 0.021632414 0.006920023
000140 d0 fe 46 bc 10 ac 03 bd 01 60 b8 bc 86 4b aa bb
       -0.012145713 -0.032146513 -0.022506716 -0.0051969914
000150 57 48 22 bb 62 b4 d5 bc 4b bc 00 bc 42 fd 6f 3c
       -0.0024762356 -0.02608699 -0.007857393 0.014647784
000160 60 59 3a 3b 79 f7 15 3d 89 31 90 ba 3e ca f6 3c
       0.002843462 0.03661296 -0.0011001091 0.030125733
000170 97 a4 1a 3d 4d b9 d5 bb af 78 2e bc b2 73 93 bc
       0.03775462 -0.0065223337 -0.01064889 -0.017999504
000180 83 4b 44 bd 75 11 10 bd 1f 70 d7 bc db ac 6d bc
       -0.047923576 -0.0351729 -0.02629858 -0.014506544
000190 8c fb aa bb 6c 3a e5 bc e7 73 9c bc 00 1d 82 bc
       -0.005217975 -0.02798196 -0.019098235 -0.015882969
0001a0 2b 63 25 bc c9 8e ec bc f9 7b 1e bb c6 f9 9a 3c
       -0.010094444 -0.028876679 -0.002418278 0.01891793
0001b0 12 20 65 bc 50 a8 9f bc 2d a8 4d bd aa 8f 6f bd
       -0.013984697 -0.019489437 -0.050209213 -0.058486618
0001c0 36 ae 15 bd fb 6b ae bc a7 6e ba bc c9 80 0c bd
       -0.036543094 -0.021291723 -0.022757841 -0.034302507
0001d0 8a 3a af bc 48 de 8e bc 3e e1 cd bc 38 de 0d bd
       -0.021390218 -0.017439976 -0.025131818 -0.034635752
0001e0 c6 60 96 bd 4b d8 c7 bc a4 67 29 3b 21 5e 30 3a
       -0.07342677 -0.024395129 0.0025849128 0.00067278935
0001f0 b7 fe 27 bc 7f f8 cd bc e0 0f b8 bc 3c 7e cf bc
       -0.0102536 -0.025142906 -0.022468507 -0.025328748
000200 25 7d 2d bc 42 67 89 bc 8a 69 f8 bc d8 be 0f bd
       -0.010588919 -0.01677287 -0.030323762 -0.035094112
000210 cf 67 39 bd 1d 3e 17 bd 8e 85 87 bd a4 48 e2 bd
       -0.045265015 -0.03692447 -0.066172704 -0.11049011
000220 9a a4 7c bd 2e 32 f5 bc 17 ee ba bc ea d6 6d bd
       -0.061680414 -0.029931154 -0.022818608 -0.058066286
000230 22 2a 17 bd ee 7a 10 bd 15 2b 41 bd 28 e4 c2 bc
       -0.036905415 -0.035273485 -0.047160227 -0.023790434
000240 5e d8 83 bc b1 6e 26 bd d5 ec ec bc 03 1f 98 bc
       -0.016094383 -0.040632907 -0.028921524 -0.018569475
000250 30 d3 44 bd e9 66 a3 bd 79 39 1a be f2 a6 a3 bd
       -0.048052967 -0.07978613 -0.15060987 -0.07990827
000260 e5 a7 7f bd c7 31 80 bd c9 18 1d bd 4c 65 cf bc
       -0.062415976 -0.06259494 -0.038353715 -0.025316857
000270 fe 0f f0 bc 06 a0 2c bc 3d 8e 20 b9 9a 6c 18 bb
       -0.0293045 -0.010536199 -0.00015311777 -0.002325809
000280 62 d8 50 bc 94 86 2d bd 73 3a d4 bc 6c f6 76 bd
       -0.012746902 -0.04236467 -0.025906777 -0.0602936
000290 81 e5 e6 bd 36 ee 2a be 90 db 00 be c6 62 e9 bd
       -0.11274243 -0.16692433 -0.12583756 -0.11395793
0002a0 5f 28 b0 bd 77 45 5e bd bc 80 6f bd dd 48 eb bb
       -0.0860145 -0.054265466 -0.05847238 -0.007180317
0002b0 38 d4 ce 37 e8 68 91 bc 6d 47 80 ba 87 56 90 bc
       2.4655936e-05 -0.017750219 -0.0009786912 -0.017619384
0002c0 f6 f2 eb bc 1a 3d 15 bd 9b ce 49 bd b7 3b 01 be
       -0.028802376 -0.036435224 -0.0492693 -0.12620436
0002d0 d5 7e 29 be 71 56 db bd 42 69 f0 bd 4f ef ba bd
       -0.16552289 -0.10709847 -0.11738826 -0.09127676
0002e0 3d d0 90 bd 0c 1c a7 bd 06 6f 2b bd 10 6b 07 bd
       -0.07070968 -0.081596464 -0.041853927 -0.033061087
0002f0 36 7e 20 bc 5c 77 ad bc 61 c3 af bc 56 00 27 bd
       -0.009795716 -0.021175079 -0.021455469 -0.040771805
000300 6f aa 3a bd 28 52 53 bd 2b 05 da bd a1 13 f1 bd
       -0.045572694 -0.051592022 -0.10645517 -0.11771322
000310 72 71 de bd ce c4 d9 bd 7e 9e c7 bd 12 cf a3 bd
       -0.10861482 -0.10633241 -0.09747027 -0.0799848
000320 01 d9 92 bd ea 22 6b bd 47 be 60 bd 1e 60 43 bd
       -0.071702965 -0.057406344 -0.054868963 -0.047699086
000330 23 67 1b bd a0 c6 26 bd f7 07 3c bd 64 26 46 bd
       -0.037940156 -0.040716767 -0.045906033 -0.048376456
000340 87 66 5e bd 73 e5 b4 bd 63 50 7f bd 0e 6c 6f bd
       -0.054296996 -0.088328265 -0.062332522 -0.05845266
000350 cc 49 ac bd 5e 98 97 bd 81 22 bb bd c4 fa 92 bd
       -0.08412513 -0.074021086 -0.091374405 -0.07176736
000360 47 70 9c bd 28 cc 83 bd f1 b5 2d bd 5a 02 79 bd
       -0.07638603 -0.06435424 -0.04240984 -0.06079326
000370 2a bd 62 bd 62 58 e9 bc 7f 94 26 bd 9b b4 8a bd
       -0.055356182 -0.028484527 -0.04066896 -0.06772729
000380 37 fd 7b bd 89 6a ab bc 0e 6b a8 bc 5a 23 50 bd
       -0.06152078 -0.020924823 -0.02055886 -0.050814964
000390 5f 7f 3b bd c1 50 89 bd 6c 62 8d bd 3f 3b ad bd
       -0.045775767 -0.06704856 -0.06903538 -0.08458566
0003a0 f3 8d bd bd 46 c6 ee bd 98 60 92 bd 8f 6f b7 bd
       -0.0925559 -0.116589114 -0.0714733 -0.08956825
0003b0 df da 77 bd 9d 46 88 bd 26 b2 b3 bd e1 f9 05 bd
       -0.060511466 -0.066540934 -0.087742135 -0.032709006
0003c0 e9 06 c4 bb de 5d b1 3c 67 9b 41 3d 23 e0 e4 3c
       -0.005982269 0.021651205 0.047267344 0.027938908
0003d0 ed d4 d0 3a b8 d0 ef bc ce 6b d6 bc 71 b7 1d bd
       0.0015932597 -0.02927433 -0.026174452 -0.03850502
0003e0 4c 0c b1 bd 2c 5f 85 bd f4 fb 98 bd e1 70 16 bd
       -0.086449236 -0.06512293 -0.07469931 -0.036728743
0003f0 e5 48 b8 bd 1d 93 4f bd 6c 17 a8 bc 3a 88 09 3d
       -0.089982785 -0.050677408 -0.02051898 0.03357718

fc1.bias f4 [10]
000000 ed 5e 0f bb 4e 6d a8 bd ef 35 9d 3d cf ca 8d 3d
       -0.0021876649 -0.08223973 0.07676303 0.06923448
000010 b7 2c b9 3d 6b 39 e1 3c 3d 4c 27 bd 22 49 13 bc
       0.09041732 0.0274932 -0.04084419 -0.008989604
000020 2d 30 7e 3d ea b0 e6 bd
       0.062057663 -0.112642124
