Cifar/batch_based_problems_final_eps_25/4096_model_.pt (torch, 147295 bytes, 4 tensors)

conv1.weight f4 [16, 3, 3, 3]
0.070562825 0.0018612355 -0.051480323 0.08780207 0.08073678 0.10777985 -0.03336698 0.06915579
-0.08606751 0.031225821 0.12165104 0.009032664 -0.20155485 -0.04783924 0.05110712 -0.11179921
0.1822573 0.029329907 -0.043732177 -0.15232874 -0.10357239 -0.23078366 0.14189485 0.14151226
-0.08100417 0.1806171 -0.20067094 -0.16166408 0.03396146 0.011605517 0.08087247 0.094513915
0.089216635 -0.06908022 0.15809576 0.13261734 -0.16087753 0.04836513 -0.003364543 0.15137269
0.19596282 0.15905902 0.067475766 0.0047189477 0.13682075 -0.018925862 -0.154344 0.08325223
-0.0059853233 0.15861651 -0.017873295 0.098391086 0.10980847 0.07343004 0.12151324 0.12772462
0.20640485 -0.098784134 -0.15799735 -0.024594864 -0.04856661 0.06859165 0.12376431 0.1929142
0.21003169 0.18569954 -0.16776559 0.11021044 -0.05569049 -0.07891643 -0.08855834 -0.00902255
-0.16322704 -0.16474602 -0.018737646 -0.06448534 -0.18109436 -0.117770486 0.1191883 0.02394107
0.13533124 -0.033976097 -0.15618171 -0.20520523 0.16593604 -0.09402951 -0.20820422 -0.20031534
0.058293268 0.118278064 0.18931156 0.11753847 0.094250605 0.005169051 -0.15882708 -0.12458236
0.12855728 -0.12946858 -0.092815496 -0.017375374 0.10166065 0.1509754 0.18456624 -0.08761362
-0.034632023 0.21808502 -0.010946658 0.11367524 -0.22425427 -0.18673237 -0.19123594 -0.18561663
-0.16373222 -0.0038310168 -0.21418846 -0.0324709 -0.027359491 -0.006973554 0.04189885 -0.060622644
0.1939741 0.035539042 0.20188348 0.073321514 0.03259522 -0.1378156 0.15010661 0.15004194
-0.09222938 0.21409588 0.14402579 0.018659879 -0.07664435 0.06943507 0.1795877 0.018245272
0.08183412 -0.052775647 0.0015224229 0.17876728 0.0684432 0.14831945 0.05287699 -0.06639694
-0.12882535 0.18053971 -0.010662959 -0.12101345 0.070692085 -0.13364314 0.13815668 0.13013087
-0.00799769 0.022317607 0.011596328 -0.090047255 0.04521607 -0.013611383 0.17105876 -0.017387735
0.14143975 0.201062 0.16236478 0.0023811222 -0.14509377 -0.0034679745 0.14751641 -0.21856129
-0.071737476 0.13644879 0.011782277 0.21535563 -0.06802289 0.056476537 0.1907997 -0.047970343
-0.21714571 -0.031001639 0.13205756 -0.20436879 0.097490385 0.09793946 -0.17656277 -0.12632751
-0.116478264 -0.030218743 0.13027869 0.11628344 -0.028668825 0.042049434 -0.19485803 0.04397199
0.00044955412 -0.14161782 -0.0859029 0.13714515 0.10869675 -0.060452715 -0.069329 -0.044032462
0.2022201 0.02135271 -0.10444014 0.19163963 0.06369406 0.014997698 0.2151575 -0.022975497
-0.1999269 -0.06639177 -0.16431813 -0.07540893 0.015033689 0.14895025 0.15867177 -0.14226866
-0.17323047 -0.11238616 -0.08982414 -0.14860597 -0.13936526 0.14604123 -0.21807536 -0.07748486
0.09410129 -0.21983601 0.03756891 -0.2167285 0.022868467 -0.11014518 -0.15589815 -0.043233536
-0.21306975 -0.20073366 -0.12924802 -0.106390625 0.15625592 -0.18552049 0.04020497 -0.07949425
0.16219851 -0.20153438 -0.030605672 0.0521024 -0.123438105 -0.063936196 0.15211034 0.076256186
-0.12567556 0.11961408 0.055578686 -0.15273361 0.18695453 -0.046834845 0.19099887 0.21186097
00000000: 3e83 903d b3f4 f33a 08dd 52bd 92d1 b33d
00000010: 5359 a53d afbb dc3d d0ab 08bd 8da1 8d3d
00000020: 2a44 b0bd 4bcd ff3c 2e24 f93d bdfd 133c
00000030: 6564 4ebe 14f3 43bd b355 513d fcf6 e4bd
00000040: a8a1 3a3e 4645 f03c 8320 33bd 11fc 1bbe
00000050: c31d d4bd 8d52 6cbe e24c 113e 97e8 103e
00000060: 84e5 a5bd b0f3 383e af7c 4dbe 458b 25be
00000070: 2c1b 0b3d 1125 3e3c 77a0 a53d 8390 c13d
00000080: 36b7 b63d ee79 8dbd dbe3 213e d7cc 073e
00000090: 14bd 24be 841a 463d aa7f 5cbb 7101 1b3e
000000a0: 7aaa 483e 5ee0 223e bc30 8a3d 67a1 9a3b
000000b0: bd1a 0c3e 690a 9bbc 5b0c 1ebe 2580 aa3d
000000c0: 8820 c4bb 5e6c 223e 046b 92bc 4481 c93d
000000d0: 43e3 e03d 7d62 963d efdb f83d 3eca 023e
000000e0: cb5b 533e 564f cabd 0fca 21be 2b7b c9bc
000000f0: c8ed 46bd c779 8c3d 2478 fd3d 4d8b 453e
00000100: 8c12 573e 0528 3e3e beca 2bbe 03b6 e13d
00000110: b61b 64bd f09e a1bd 135e b5bd 51d3 13bc
00000120: fd24 27be 2eb3 28be b17f 99bc e410 84bd
00000130: cd70 39be a731 f1bd ff18 f43d 1020 c43c
00000140: 4694 0a3e 852a 0bbd 19ee 1fbe 5221 52be
00000150: 23eb 293e 8b92 c0bd 7d33 55be 771f 4dbe
00000160: ecc4 6e3d c53b f23d e4da 413e 02b8 f03d
00000170: 7606 c13d 2461 a93b 91a3 22be 0925 ffbd
00000180: 85a4 033e 6993 04be 0d16 bebd cd56 8ebc
00000190: 7533 d03d 4c99 1a3e effe 3c3e c56e b3bd
000001a0: 4fda 0dbd ae51 5f3e 9d59 33bc 90ce e83d
000001b0: e9a2 65be c536 3fbe 5bd3 43be 4912 3ebe
000001c0: 6ba9 27be cc11 7bbb 3854 5bbe 3500 05bd
000001d0: 0321 e0bc 6982 e4bb 219e 2b3d 734f 78bd
000001e0: 25a1 463e 6391 113d 8bba 4e3e 9729 963d
000001f0: 9182 053d 881f 0dbe 8cb5 193e 98a4 193e
00000200: c2e2 bcbd f33b 5b3e 7f7b 133e 9adc 983c
00000210: b7f7 9cbd f933 8e3d d7e5 373e 1c77 953c
00000220: a698 a73d 472b 58bd 098c c73a c50e 373e
00000230: f32b 8c3d 0ee1 173e 8b95 583d 1efb 87bd
00000240: cbea 03be 67df 383e b1b3 2ebc e6d5 f7bd
00000250: 03c7 903d bfd9 08be f278 0d3e 0741 053e
00000260: be08 03bc 6ad3 b63c 86fe 3d3c b26a b8bd
00000270: 7c34 393d 4702 5fbc 072a 2f3e b970 8ebc
00000280: 95d5 103e 32e3 4d3e f442 263e 9a0c 1c3b
00000290: 7693 14be f546 63bb 8b0e 173e 88ce 5fbe
000002a0: 19eb 92bd 3bb9 0b3e 740a 413c 3086 5c3e
000002b0: 964f 8bbd f153 673d ff60 433e 8d7c 44bd
000002c0: 725b 5ebe 26f7 fdbc 193a 073e 0d46 51be
000002d0: 0aa9 c73d 7c94 c83d dfcc 34be 005c 01be
000002e0: 288c eebd 4c8d f7bc c767 053e 0326 ee3d
000002f0: e2da eabc 073c 2c3d dd88 47be f91b 343d
00000300: 22b2 eb39 4304 11be dced afbd c76f 0c3e
00000310: 679c de3d 449d 77bd 5dfc 8dbd 625b 34bd
00000320: c912 4f3e e1eb ae3c b6e4 d5bd 2e3d 443e
00000330: 0872 823d e8b8 753c 3f52 5c3e 1c37 bcbc
00000340: a3b9 4cbe 69f8 87bd 0343 28be ff6f 9abd
00000350: dd4f 763c 6a86 183e da7a 223e e0ae 11be
00000360: 5463 31be b72a e6bd b8f5 b7bd 2a2c 18be
00000370: c4b5 0ebe d58b 153e 264f 5fbe 62b0 9ebd
00000380: 2db8 c03d b11c 61be dbe1 193d 13ee 5dbe
00000390: a756 bb3c cc93 e1bd c4a3 1fbe a615 31bd
000003a0: f52e 5abe 208d 4dbe 9859 04be 54e3 d9bd
000003b0: 8d01 203e 15f9 3dbe f7ad 243d e2cd a2bd
000003c0: 5e17 263e 075f 4ebe bfb8 fabc 5469 553d
000003d0: 1ecd fcbd fbf0 82bd d0c2 1b3e 342c 9c3d
000003e0: 18b1 00be 3af8 f43d 7aa6 633d 3366 1cbe
000003f0: 0271 3f3e e5d5 3fbd 3595 433e 15f2 583e

conv1.bias f4 [16]
0.08263979 0.0713561 -0.04764811 -0.09771222 0.15002115 0.17442918 0.03452479 0.12749799
0.058088087 0.10470096 -0.17236431 -0.107894875 -0.030505873 -0.059673656 0.10170902 -0.14294718
00000000: 0d3f a93d 2623 923d aa2a 43bd 581d c8bd
00000010: 259f 193e 909d 323e de69 0d3d d58e 023e
00000020: c6ed 6d3d 756d d63d 4580 30be fdf7 dcbd
00000030: 74e7 f9bc 5d6c 74bd d24c d03d bf60 12be

fc1.weight f4 [10, 3600]
-0.012725244 -0.010703783 -0.022856636 -0.028305937 -0.015457772 -0.03632846 -0.027902145 -0.022370763
-0.03217785 -0.038920045 -0.013556144 -0.03892381 -0.030571193 -0.019172257 -0.034507874 -0.018126717
-0.021986451 -0.03389075 -0.033099685 -0.03151409 -0.019703595 -0.017655395 -0.024711179 -0.01361893
-0.011174104 -0.00985516 -0.02929894 -0.027569355 -0.025362698 -0.021310369 -0.008235059 -0.025522659
-0.012033208 -0.0077708303 -0.020513473 -0.036554936 -0.017564815 -0.032756116 -0.026769537 -0.022770045
-0.0037908084 -0.017060095 -0.027589528 -0.019548407 -0.0006647838 0.0013053438 -0.023398088 -0.006692798
-0.025055017 -0.0270902 -0.03408206 -0.015109468 -0.02309217 -0.035065304 -0.010291078 -0.031037739
-0.022908704 0.007011823 0.009288293 0.0011719876 0.00840401 -0.024159407 -0.008036283 -0.0070289182
-0.0076468093 -0.010054991 -0.03898422 -0.016495332 -0.025305992 -0.017769534 -0.009322448 -3.2402181e-06
0.009505921 0.016075969 -0.00011350958 0.008018875 -3.339697e-05 -0.011225144 0.0022763072 -0.015817808
-0.021903066 -0.039514545 -0.020313859 -0.025581473 -0.032880686 -0.001164112 0.009111696 -0.0033036352
0.0059341006 -0.009800765 0.003564293 -0.014439518 -0.0065710316 0.0019171821 -0.01566364 -0.027729414
-0.035024893 -0.036456816 -0.03190715 -0.0056044403 0.00020723147 -0.009357685 0.0039805537 -0.0022652938
0.01431833 -0.021213323 -0.019228807 -0.00046761593 0.0003898774 -0.011431383 -0.009608564 -0.006132969
-0.017553683 -0.027446555 -0.01903433 0.0066598305 0.01713326 -0.008075942 0.0036227207 0.013833391
-0.022845358 0.0034850752 -0.018150825 0.0050364533 -0.0075417184 -0.014420354 -0.019583654 -0.007729642
-0.0176052 0.0047689867 -0.0087691955 -0.008802317 0.012170974 -0.018984415 0.010382467 -0.03185404
-0.025951883 -0.02054382 0.0032731586 -0.0015444385 -0.021743532 -0.01701192 -0.0054557133 -0.004836872
-0.0057071354 -0.0104592 -0.017280143 -0.00926051 -0.017678572 -0.027242642 -0.015993193 0.0022123219
-0.0075598657 -0.013328387 -0.02067079 -0.0141882505 0.0012411578 -0.0033208 -0.0022156776 -0.013981813
-0.0012345655 -0.00021344329 0.0033712084 -0.017512985 -0.017873868 -0.014458044 -1.3541404e-05 0.003247818
-0.003172755 0.006061594 -0.010661119 -0.00041827196 0.0016442485 -0.014454608 -0.02168828 -0.005718298
-0.015803799 -0.016209997 -0.00093880814 -0.0052974345 0.0024624928 -0.0060547623 0.0025076084 0.002357842
-0.014402184 -0.0058616567 -0.0069904667 -0.015426247 -0.02020571 -0.00819975 -0.023305517 -0.00959717
-0.02929305 -0.011018266 -0.013899011 -0.019515349 0.0065061115 -0.01572562 -0.02373851 -0.016176222
-0.0103293145 -0.0027863411 0.00022504738 -0.025875257 -0.008534849 -0.016571524 -0.009496433 -0.021806102
0.0058435774 -0.019196045 0.0061956053 0.018301504 -0.001874404 -0.0090700425 -0.019059503 -0.016816054
-0.019583758 -0.0051966896 -0.024500044 0.0042067277 0.0008371508 -0.0033633788 -0.010813667 -0.016861346
-0.011259966 -0.008045293 -0.012045369 0.008696093 -0.0110595 -0.0019270687 0.008444968 -0.013974845
-0.0072565 -0.001508416 0.0038690087 -0.01193059 0.004008978 -0.0003690046 -0.008620466 -0.0054542716
0.009816734 0.005196802 -0.0144338505 0.00741698 -0.010782814 0.0022812781 -0.011393279 -0.0040135253
-0.0120098265 0.004903128 -0.015520075 -0.020844342 -0.01467432 0.00023743101 0.008212281 0.005729104
00000000: 8b7d 50bc eb5e 2fbc d73d bbbc dae1 e7bc
00000010: 9842 7dbc 27cd 14bd 0a93 e4bc e442 b7bc
00000020: eccc 03bd a06a 1fbd 971a 5ebc 936e 1fbd
00000030: 7070 fabc 230f 9dbc 2158 0dbd 7b7e 94bc
00000040: ee1c b4bc 07d1 0abd 8993 07bd eb14 01bd
00000050: 6f69 a1bc 0ca2 90bc 196f cabc ef21 5fbc
00000060: 9713 37bc 8977 21bc 5504 f0bc 21d9 e1bc
00000070: 6fc5 cfbc 1593 aebc 57ec 06bc e514 d1bc
00000080: ef26 45bc 73a2 febb df0b a8bc a1ba 15bd
00000090: 16e4 8fbc 472b 06bd ca4b dbbc 3f88 babc
000000a0: 366f 78bb 9dc1 8bbc 6f03 e2bc fb23 a0bc
000000b0: e344 2eba 1218 ab3a 59ad bfbc 424f dbbb
000000c0: 2e40 cdbc 44ec ddbc a199 0bbd b48d 77bc
000000d0: ca2b bdbc a3a0 0fbd e99b 28bc db42 febc
000000e0: 09ab bbbc 6fc3 e53b ed2d 183c 619d 993a
000000f0: f9b0 093c f3e9 c5bc 9daa 03bc d752 e6bb
00000100: 1692 fabb b0bd 24bc ebad 1fbd 3821 87bc
00000110: 834e cfbc 6a91 91bc 2ebd 18bc 8672 59b6
00000120: b9be 1b3c c0b1 833c fe0b eeb8 9961 033c
00000130: b913 0cb8 abe9 37bc 192e 153b 5994 81bc
00000140: 0f6e b3bc 01da 21bd 4069 a6bc 3d90 d1bc
00000150: e6ad 06bd 1e95 98ba 3949 153c cd81 58bb
00000160: d872 c23b 6393 20bc ea96 693b ba93 6cbc
00000170: cf51 d7bb f549 fb3a 0951 80bc cc28 e3bc
00000180: 4376 0fbd be53 15bd 12b1 02bd 74a5 b7bb
00000190: 464c 5939 fa50 19bc 4e6f 823b 5375 14bb
000001a0: 6e97 6a3c 90c7 adbc bb85 9dbc 592a f5b9
000001b0: 7568 cc39 b24a 3bbc 3d6d 1dbc 13f7 c8bb
000001c0: becc 8fbc 99d7 e0bc e2ed 9bbc b53a da3b
000001d0: 0d5b 8c3c f550 04bc 2b6b 6d3b 72a5 623c
000001e0: 3026 bbbc dc65 643b 0ab1 94bc d508 a53b
000001f0: 8520 f7bb 5943 6cbc e66d a0bc f048 fdbb
00000200: c838 90bc 2945 9c3b acac 0fbc 9837 10bc
00000210: c468 473c 3485 9bbc 391b 2a3c 6279 02bd
00000220: 0b99 d4bc 834b a8bc 7d82 563b c26e caba
00000230: 7e1f b2bc 955c 8bbc d7c5 b2bb a07e 9ebb
00000240: ec02 bbbb 105d 2bbc 168f 8dbc 65b9 17bc
00000250: a7d2 90bc f62b dfbc 2804 83bc 9afc 103b
00000260: c0b8 f7bb 4f5f 5abc ca55 a9bc d675 68bc
00000270: 58ae a23a c7a1 59bb e734 11bb f913 65bc
00000280: 25d1 a1ba bfcf 5fb9 7eef 5c3b 6477 8fbc
00000290: 386c 92bc 6fe1 6cbc e32f 63b7 58d9 543b
000002a0: ffed 4fbb 56a0 c63b f9ab 2ebc 834b dbb9
000002b0: d383 d73a 05d3 6cbc 9fab b1bc 8f60 bbbb
000002c0: f876 81bc d4ca 84bc 591a 76ba 1a96 adbb
000002d0: c661 213b 0767 c6bb b056 243b 0686 1a3b
000002e0: 23f7 6bbc 2413 c0bb 4910 e5bb 5fbe 7cbc
000002f0: 7286 a5bc 3f58 06bc 36eb bebc 733d 1dbc
00000300: faf7 efbc f585 34bc adb8 63bc a7de 9fbc
00000310: 3831 d53b 04d3 80bc 4477 c2bc ff83 84bc
00000320: 493c 29bc 0c9b 36bb b2fa 6b39 59f8 d3bc
00000330: c0d5 0bbc 01c1 87bc ed96 1bbc b6a2 b2bc
00000340: 7b7b bf3b 0641 9dbc 8104 cb3b 09ed 953c
00000350: 90ae f5ba 849a 14bc ad22 9cbc d2c1 89bc
00000360: 1e6e a0bc fe48 aabb 51b4 c8bc 97d8 893b
00000370: 3d74 5b3a 226c 5cbb cf2b 31bc ce20 8abc
00000380: b87b 38bc 68d0 03bc f059 45bc 0f7a 0e3c
00000390: e832 35bc b295 fcba c35c 0a3c c0f6 64bc
000003a0: efc7 edbb 0bb6 c5ba 328f 7d3b 8578 43bc
000003b0: bf5d 833b f676 c1b9 db3c 0dbc bfb9 b2bb
000003c0: 5ed6 203c ef49 aa3b f57b 6cbc 230a f33b
000003d0: 66aa 30bc 7f81 153b e0aa 3abc e483 83bb
000003e0: ddc4 44bc 6baa a03b ea47 7ebc c1c1 aabc
000003f0: 8f6c 70bc e7f6 7839 ce8c 063c 35bb bb3b

fc1.bias f4 [10]
0.011725142 -0.019466845 0.042249672 0.0064062057 0.044552464 0.017289473 -0.014651123 -0.01320323
0.015256464 -0.04002987
00000000: cf1a 403c ef78 9fbc fe0d 2d3d 26eb d13b
00000010: a57c 363d a7a2 8d3c 440b 70bc 5c52 58bc
00000020: 3ff6 793c 5cf6 23bd
