Cifar/batch_based_problems_final_eps_25/64_model_.pt (torch, 147295 bytes, 4 tensors)

conv1.weight f4 [16, 3, 3, 3]
000000 37 eb 85 3e e1 c8 3f be 4a ad 63 be aa 2b e9 3d
       0.26156017 -0.18728973 -0.22234073 0.113852814
000010 e8 13 82 bb 56 c8 92 bd f0 0b 6b be f2 2a 39 3e
       -0.003969658 -0.07167117 -0.22953773 0.18082789
000020 0c 3e 8d 3d 3c 7c 08 3e 44 5e 83 bc 4e 56 95 3d
       0.068966 0.13328642 -0.01603616 0.07291852
000030 06 5e 28 bd fb 95 21 be 2d 6e 44 3d 90 28 10 be
       -0.041105293 -0.1577987 0.047956634 -0.14077973
000040 cd 4c d9 3d 01 95 e2 bd b4 b4 cd 3d 53 c9 1a be
       0.10610352 -0.110635765 0.10044232 -0.15115862
000050 0a f7 20 bd f3 d5 04 bc ff 6d e9 3d ad 16 f4 3d
       -0.039298095 -0.00810765 0.11397933 0.119183876
000060 dd 2b 52 be a8 38 3c 3e ff b7 11 3e 20 eb b7 bd
       -0.20524545 0.18380988 0.14230345 -0.089803934
000070 fc e2 b1 3d cf f1 15 3e 02 79 94 be b2 df 0d bc
       0.08685872 0.14643024 -0.28998572 -0.00865929
000080 ab e6 d5 3d 15 1e 90 be 8e cc 03 3e db 1b 50 3d
       0.10444387 -0.2814795 0.12871 0.050807815
000090 3a 4b 95 be e9 63 1f bc 46 ff 9c 3e d2 e4 5b be
       -0.29158956 -0.00972841 0.30663508 -0.21474007
0000a0 fc 46 8c 3d 0e fa 98 3d af b9 b7 be f4 cd 0f 3e
       0.06849477 0.07469569 -0.35883853 0.14043409
0000b0 c7 cd a3 3e 63 61 71 be 7c d0 47 bd 06 22 f7 3d
       0.31992933 -0.23572306 -0.04878281 0.12067036
0000c0 67 71 d1 bd 6b a2 3b bd 5d 07 b3 3d d8 73 63 be
       -0.10226708 -0.04580919 0.08741639 -0.2221216
0000d0 0d b3 85 3e b8 87 48 3e c6 11 ae 3c 6a 3d d3 3c
       0.26113167 0.19583023 0.02124871 0.02578612
0000e0 a6 af f7 3d 49 ad ee 3d 22 f8 0d 3d 96 ad d5 3d
       0.12094049 0.11654145 0.034660466 0.104334995
0000f0 a8 06 e0 3d ef 13 22 3e ef c3 7f 3e b9 4c 0e 3d
       0.109387696 0.15827917 0.24977086 0.034741137
000100 b0 9f 81 bd dd 37 27 3b e2 c7 9f bc a4 eb 57 3a
       -0.06329286 0.0025515475 -0.019504491 0.00082367123
000110 30 e1 a6 bd e1 fb c3 3d 64 cd e0 3d 12 f1 b0 bd
       -0.0814842 0.095695265 0.10976675 -0.086397305
000120 a8 3b 3a bd 75 f4 3a be 28 e4 5d bc ae b1 17 be
       -0.04546705 -0.18257315 -0.013543166 -0.14813873
000130 1f e2 de 3d fa 67 5f 3d 2f 8f e9 bb 8f b7 5c be
       0.10882973 0.05454252 -0.0071276645 -0.21554397
000140 10 4e 37 bd 42 0a 67 3d d4 15 bb 3d 49 8d 39 be
       -0.04475218 0.056406267 0.09135023 -0.18120302
000150 c5 e6 6c 3e fc 29 29 be d1 c3 de bd 53 90 18 3e
       0.23134907 -0.16519922 -0.10877193 0.14898805
000160 09 84 95 bc 8e 0c 4d be cc c3 8a 3e ef e7 31 be
       -0.018251436 -0.2002432 0.27102506 -0.17373632
000170 39 ce 2c bd dc 40 6c 3e 6a a8 f7 3d 1e 40 8b be
       -0.042188857 0.23071617 0.12092669 -0.27197355
000180 e5 5f 75 3e 78 82 32 3e 39 09 99 be 39 74 0d 3e
       0.23962362 0.17432582 -0.2988985 0.13813867
000190 57 98 b0 3b 56 56 a4 be f8 c1 60 3e 9c 60 4f 3d
       0.005389254 -0.3209712 0.21948993 0.050629243
0001a0 ed 7a 83 be 28 56 fc 3d a8 70 25 3a c1 54 e4 bd
       -0.25679722 0.123211205 0.00063110376 -0.11148978
0001b0 df e5 f9 3c e4 d8 0c 3e cc eb 1c be 3e 2c d0 3d
       0.030505119 0.13754612 -0.15324324 0.101646885
0001c0 27 81 e2 bd a0 3f bb 3d c4 9c 4a be 5e b8 32 3d
       -0.1105979 0.09142995 -0.19786364 0.043632858
0001d0 97 13 b3 bc e8 90 d3 bc 64 1c 1c bc 56 c0 50 3e
       -0.021859927 -0.025825933 -0.009528253 0.2038587
0001e0 7b db 0d bc 7f f2 58 3e 82 41 e5 bc da 6c 85 3d
       -0.008658285 0.21186255 -0.027985338 0.065149024
0001f0 ff 5d 15 3e 6f 0f aa 3d d7 c7 13 be 6d af cc bd
       0.14586638 0.08303725 -0.14431702 -0.09994397
000200 82 79 da bc c8 db 70 bb ef 05 34 be 36 0f 24 3d
       -0.026669268 -0.0036752094 -0.17580388 0.04005357
000210 a6 09 81 be 45 a0 bd bc aa 25 ca bd f4 9d e2 3d
       -0.25202674 -0.023147712 -0.09870465 0.110652834
000220 77 25 a8 3d 21 c6 4d 3d fd e0 9d 3e f3 2b d8 bd
       0.08210271 0.05023778 0.30835715 -0.10555258
000230 4c cd 03 3e 4c 38 9d be 52 a9 e7 bc c0 c0 52 be
       0.12871283 -0.30707014 -0.02827898 -0.20581341
000240 93 98 9f 3e 6a 50 39 3e ce 28 39 3e 86 50 69 bd
       0.31171092 0.18097082 0.18081972 -0.05696156
000250 59 0f 24 be 4b 33 52 3d 8d 38 41 be de 03 3d be
       -0.1602148 0.051318448 -0.18869229 -0.18458506
000260 b3 bc 2c be 1e 23 23 3e e4 b1 54 3d 72 34 18 3e
       -0.16868858 0.15931365 0.051927462 0.14863756
000270 d4 d5 4c 3e 0c a7 16 bd a4 0c 12 be c6 96 82 be
       0.20003444 -0.036780402 -0.14262635 -0.25505656
000280 a2 59 c4 bc 4a 56 1f be 8d af a8 3d 20 eb c8 3c
       -0.023968522 -0.1556026 0.08236609 0.024526179
000290 5f 39 64 be d9 0b 47 be 8d c8 bb 3c 4c 61 1d 3d
       -0.2228751 -0.19438113 0.022922779 0.038422868
0002a0 55 dd 40 be 32 62 b2 bd 76 e6 fb bd 6f e1 a8 3b
       -0.18834431 -0.087101355 -0.12299816 0.005153827
0002b0 d8 0f 9a 3d 1d 8e ce 3d 22 76 d8 bd 4c f1 72 bb
       0.07522553 0.100857 -0.10569407 -0.0037070094
0002c0 9b 72 ac 3d a4 04 c7 3c 43 1f 0a be 08 61 85 bc
       0.08420297 0.024294205 -0.13488488 -0.01628162
0002d0 a0 1c e9 3d 9e ca 85 3e c6 07 81 3e 21 c5 2a 3e
       0.11382413 0.26131147 0.25201243 0.16676761
0002e0 18 78 52 3e 16 cd 4c 3e 4e 03 2e 3d c2 9c 14 be
       0.20553625 0.20000109 0.04248362 -0.14512923
0002f0 c4 32 2c bd a7 a8 81 be f8 44 4b be 49 13 cc bb
       -0.0420406 -0.25323984 -0.19850528 -0.006227885
000300 63 69 31 be c5 cc 12 be b9 9a e6 3d 55 a8 98 bc
       -0.17325358 -0.14335926 0.1125998 -0.018634954
000310 39 79 54 be 55 d3 2e be 42 72 86 3c 07 d0 29 3e
       -0.20749368 -0.17072804 0.016411904 0.16583262
000320 db d1 d9 bc 1b c7 4e 3d e5 45 8d 3c d0 37 47 3c
       -0.026589325 0.05048285 0.017245242 0.012159303
000330 29 3a 4b be 2a 71 c0 bd e1 10 99 bd db de bb 3d
       -0.19846405 -0.09396584 -0.074739225 0.09173366
000340 f3 d1 5f 3e 82 81 19 bd 39 fd 8b bc 29 35 f3 3c
       0.21857433 -0.037477024 -0.01708852 0.029688435
000350 af e6 13 3e bc ac 07 3e 61 e0 b1 3d 43 4c 13 bd
       0.14443468 0.13249487 0.08685375 -0.0359614
000360 b5 15 ec bc 45 4f ac 3e 0f 02 cd 3d a6 05 7d bd
       -0.028818944 0.33654228 0.10010158 -0.061772965
000370 2d 1c 63 3e 30 ad 68 3e df dd 0e be f2 b5 89 3e
       0.22178717 0.22722316 -0.13951825 0.26896626
000380 9d d8 81 3e 73 dc 5d be 06 0e 8d bd 4b 9a 25 bd
       0.25360575 -0.21666126 -0.068874404 -0.04043035
000390 1d 23 6e be 65 7f 01 3d 01 44 59 be 25 82 82 be
       -0.23255582 0.031615634 -0.21217348 -0.25489917
0003a0 81 76 82 be 9a 01 fd bc 78 50 1d bc e8 55 4d bc
       -0.25481036 -0.030884553 -0.009601705 -0.012532689
0003b0 b8 0f e7 3d 23 da d2 bd ec ba 0f bd ad 58 d1 bc
       0.11282295 -0.102955125 -0.035090372 -0.02555498
0003c0 e6 bb fd 3d e1 c9 c5 bd fc 57 3c 3d 0a 48 65 3d
       0.123893544 -0.09657646 0.045982346 0.055976905
0003d0 88 19 d0 3d d0 e1 3c bd 51 e3 18 3e ae 0b 64 bd
       0.1016112 -0.04611379 0.14930464 -0.0556752
0003e0 65 a7 a5 3d 54 fc 07 be 16 c5 0a 3e ff 10 10 bd
       0.080885686 -0.1327985 0.13551745 -0.03517246
0003f0 26 c2 95 bd 1d c3 06 be 83 20 42 bd a0 25 54 be
       -0.073124215 -0.13160367 -0.047394287 -0.20717478

conv1.bias f4 [16]
000000 4b 5c 92 3e ba a1 11 be e3 88 1f 3e 59 88 02 3d
       0.2858604 -0.1422185 0.15579562 0.031868313
000010 d6 79 d4 3e 4e 2c 1c be 8e 2e 9f be c9 0c 75 bc
       0.41499203 -0.15251276 -0.31090206 -0.0149566615
000020 8d 3a 42 be 27 fd a4 be fb 4c d2 bd bb 66 64 be
       -0.18967648 -0.3222439 -0.10268589 -0.22304814
000030 98 64 90 3d ee c5 b5 3d aa 92 1f 3d 52 c8 49 bd
       0.07050437 0.08875643 0.03895823 -0.049263306

fc1.weight f4 [10, 3600]
000000 19 de 7f ba 77 4d 6e 3a 94 b2 c5 bc 2c 1e a8 bc
       -0.0009760573 0.00090905227 -0.024133004 -0.0205222
000010 58 b4 6a bc c7 f3 a5 bc d1 17 a3 bc 68 36 ad bc
       -0.014325224 -0.020257844 -0.019908817 -0.021144107
000020 dc 9d 03 bd a2 64 4e bd 95 a7 a9 bc 28 51 cb bc
       -0.03213297 -0.05038894 -0.020709792 -0.024818972
000030 e4 5a 3a 3a 3a f8 88 bc 2e c1 e4 3b cf bb 2f bb
       0.00071088807 -0.016719926 0.0069810366 -0.0026814824
000040 c3 dd 3f bc 60 48 b8 bc b7 61 c0 bc 8a ec c8 bc
       -0.011710587 -0.022495449 -0.023484094 -0.024526853
000050 83 26 fe bc f2 42 91 bc 78 25 05 bd be b7 c5 bc
       -0.031024223 -0.017732117 -0.032506436 -0.024135467
000060 49 5c 0b bd c6 a7 a9 bc 03 92 a7 bc ff e8 20 3c
       -0.034023557 -0.020709883 -0.020455366 0.009821176
000070 e6 d5 32 3c 63 42 9b bc bc 6f 62 3c 2b 3e f1 3a
       0.010915255 -0.018952554 0.013820585 0.0018405368
000080 6f 32 8d bc 16 e6 50 bc 7e 31 94 bc f3 ee cc bc
       -0.017235963 -0.012750169 -0.018090006 -0.025016284
000090 3e 67 0a bd d3 8b 1d bd 7f 97 4f bd 84 62 64 bc
       -0.033789866 -0.038463425 -0.050681587 -0.013939504
0000a0 76 d6 b5 bc 1d 05 d5 bc 0c 97 9b bc ed 0a fa 3a
       -0.02219699 -0.026003415 -0.018992923 0.0019076742
0000b0 9e 2c 6a 3c b3 21 0a 3d d6 8a 3f 3c 8c b7 9d 3b
       0.014292864 0.033723544 0.011690816 0.0048131403
0000c0 98 e5 d8 bc aa fa bc bc 22 5c 08 bd 5a 14 50 bd
       -0.026476666 -0.023068745 -0.03329099 -0.05080066
0000d0 8f 58 d0 bc c0 82 1d bd 21 87 c7 bc f7 10 14 bd
       -0.025432853 -0.03845477 -0.024356427 -0.03614899
0000e0 fe 57 d0 bc 03 cc 8b bc be 24 53 bc 3c 49 3d 3c
       -0.025432583 -0.017065054 -0.012887178 0.011553105
0000f0 bb 9e 91 3c 7b 7b ac 3c c1 09 01 3d eb c4 7d 3b
       0.017775884 0.021054974 0.031503443 0.0038722109
000100 46 33 fd bc cb 8b fd bc 99 92 ca bc fa 44 21 bd
       -0.030908238 -0.030950448 -0.024728106 -0.03937242
000110 52 a4 c0 bb 7e 1a 4d bd 74 d9 88 bb 6a 4f 7d bc
       -0.0058789635 -0.050074093 -0.004176313 -0.015460828
000120 3c 70 6e bc ae 14 58 bc 92 bb f1 3c 25 77 11 3d
       -0.014553126 -0.013188524 0.029508386 0.035514016
000130 0d 91 bf 3c a8 b7 da 3c 2a 4c 02 3d 9a 90 66 3a
       0.023384595 0.026698902 0.031810917 0.0008795351
000140 fe 39 f9 bb cd 38 14 bd 46 55 f8 bc ce 1d 29 bd
       -0.00760579 -0.036186982 -0.030314099 -0.04128819
000150 98 87 19 bd 56 c2 05 bd d3 97 3d 38 4a 3c 29 3a
       -0.037482828 -0.032656036 4.520251e-05 0.0006455822
000160 78 0e 70 3a 2e 53 d1 3c 80 87 48 bc 49 a3 fa 3a
       0.00091574294 0.025552358 -0.012239337 0.0019122149
000170 79 20 91 3c b6 57 91 3a ad 9f ca 3c 12 64 d1 bb
       0.01771568 0.0011088762 0.024734342 -0.006390103
000180 a3 b7 3d 3c f3 fd 11 ba 52 a2 9b bc 4e d6 9e bb
       0.011579427 -0.00055691524 -0.018998299 -0.0048473245
000190 89 b9 bf bc 07 60 b2 bb 96 55 bf bb b8 a4 46 bc
       -0.0234039 -0.0054435763 -0.00583906 -0.012124233
0001a0 f8 0c 58 3b e1 38 e1 bb 32 80 6b 3c fe 85 93 3c
       0.0032966714 -0.0068732356 0.014373826 0.018008228
0001b0 2e 03 0b 3c f1 fc de 3c 55 fe fb 3c 58 3b bf 3c
       0.008484645 0.027220221 0.030760923 0.023343727
0001c0 3b 36 e9 3b f2 da b8 3c 1f f9 42 3c 52 7e 9d bb
       0.0071170605 0.022565339 0.011900215 -0.0048063183
0001d0 94 12 b1 3b f7 bd 6a bc 73 29 06 39 c1 2a 7f 3c
       0.005403826 -0.014327518 0.00012794677 0.015574158
0001e0 a6 12 ba bc a2 83 91 3c 06 ae 70 3c 5d 69 b2 3c
       -0.02271397 0.017762963 0.014689928 0.021778757
0001f0 9c 99 02 3d 9a 73 e0 3c 79 ad 1f 3d 8d 32 91 3c
       0.031884775 0.027398873 0.038983796 0.0177243
000200 bf 55 1b 3d 6f 63 25 3d ae c7 fe ba 6e 30 c9 bc
       0.03792357 0.04037803 -0.0019438171 -0.024559226
000210 b1 1c af ba 60 95 53 bb a6 73 87 bb 0a 6a 31 bc
       -0.0013359991 -0.003228508 -0.0041336594 -0.010828504
000220 4a 5f 64 bb 33 9a 94 3c 71 3d 2d 3d 4f 3b 27 3d
       -0.0034846836 0.018139934 0.042294923 0.040828045
000230 da 82 01 3d 0b 57 cf 3c 65 30 79 3c 8d 47 5e 3c
       0.03161893 0.02531006 0.015209292 0.013566864
000240 09 ca 89 3c 45 8d 94 3c e2 97 3a bb 89 0c e2 ba
       0.01681997 0.018133769 -0.0028471877 -0.0017246167
000250 2c 06 61 bb 75 62 18 bc 5d 4a 6b bd 5a e0 e1 bb
       -0.0034335954 -0.009300818 -0.057443965 -0.0068932
000260 a6 cc 13 3b 65 d5 7b 3b 58 e5 31 ba 31 eb c9 3c
       0.00225524 0.0038426754 -0.0006786189 0.02464828
000270 39 74 13 3d ae 11 ce 3c 67 59 14 3d 0a 86 d3 ba
       0.03599951 0.025154915 0.036218073 -0.0016137969
000280 7c ab 08 3d bc 76 fd 3b 0d 71 e9 bb 2e 3f ba bc
       0.033366665 0.0077351015 -0.0071240724 -0.022735205
000290 56 09 86 bc 2b 4c 14 bd 66 17 7a bc 94 a8 95 bc
       -0.016361874 -0.036205452 -0.015264368 -0.01826886
0002a0 a8 c9 59 bc 4c b2 14 3d 6e 14 a7 3c 14 18 b6 3c
       -0.0132927075 0.03630285 0.020395484 0.022228278
0002b0 14 b0 b2 3c d3 27 6a 3c ec 9d 89 3c 1c d6 81 3c
       0.021812476 0.014291721 0.016798936 0.015849166
0002c0 c7 8f 08 3c 83 83 67 3b 3b 3a 17 bd 61 34 2a bd
       0.00833506 0.003532619 -0.036920767 -0.04155386
0002d0 4f 69 61 bd 26 f4 07 bd 6e 90 f2 bb f8 30 27 bc
       -0.05503207 -0.033191822 -0.0074024713 -0.010204546
0002e0 25 c6 6f 3c ce ee ce ba 6a 42 d6 3b ae e6 a4 bb
       0.014634644 -0.0015787722 0.006538679 -0.005032382
0002f0 a6 f3 14 3c 7f 16 e5 3c 72 11 a5 3b d1 71 d3 3b
       0.009091293 0.027964829 0.00503748 0.006452777
000300 2b 7e e5 bc e0 6b 40 bd 97 e9 85 bd 2a 09 89 bd
       -0.028014263 -0.046977878 -0.06538694 -0.06691201
000310 2b 29 21 bd 1c 7e 28 bd bd bc 9a bc 74 44 55 bb
       -0.0393459 -0.041135892 -0.018888826 -0.0032542022
000320 72 1e 47 3b 0b f5 32 3c 9e 8e 40 3c e7 a5 27 3c
       0.0030383137 0.010922681 0.011752753 0.010232425
000330 84 2b 11 3b de 68 cc bc a2 06 03 bd 4e 40 48 bd
       0.0022151181 -0.024952348 -0.031988747 -0.04888945
000340 4a ce 8b bd 3f 8d 9f bd 83 a4 84 bd 29 ec 4d bd
       -0.06826456 -0.077906124 -0.064766906 -0.050274048
000350 1e f8 06 bd 89 3b 8e bc 79 9e 3d 3b 9d 45 6b bc
       -0.032951467 -0.017362373 0.0028933568 -0.014359859
000360 19 f2 76 bc d0 a3 0b bc dc b7 d8 bc 28 6f 3c bc
       -0.015072369 -0.008522943 -0.026454858 -0.011501111
000370 70 b2 a2 bc 26 77 68 bd 15 9d 5e bd 04 f1 90 bd
       -0.019860476 -0.056754254 -0.054349024 -0.0707722
000380 65 56 cc bd e2 09 47 bd 4f ca 68 bd 68 92 c7 bd
       -0.09977416 -0.04859341 -0.05683356 -0.09744722
000390 0b f0 d2 bd c5 29 07 be 2e 50 fb bd ba 17 e5 bd
       -0.10299691 -0.13199528 -0.122711524 -0.11186166
0003a0 ce 56 e8 bd 70 60 f8 bd 4b cd bb bd 45 95 9c bd
       -0.11344682 -0.12127769 -0.09170016 -0.076456584
0003b0 45 ea e1 bd f3 43 9e bd c7 6a 50 bd a8 82 cf bc
       -0.110310115 -0.07727804 -0.05088308 -0.025330856
0003c0 5e 1d 18 bd 45 3b 1f bd c7 35 49 bd 9a 7b 27 bd
       -0.03713738 -0.038874883 -0.04912355 -0.04088936
0003d0 f5 42 99 bd c4 f6 e5 bd 33 57 87 bd 44 0f 9f bd
       -0.07483474 -0.112287074 -0.06608429 -0.077665836
0003e0 f8 d5 a0 bd c2 2e 2e bd 41 39 7f bc 54 6a 6d bd
       -0.07853311 -0.04252506 -0.015577615 -0.05796273
0003f0 50 89 b6 bb a2 40 30 3c a7 14 ca 3b e0 b5 18 3d
       -0.005570568 0.010757597 0.0061670127 0.037282825

fc1.bias f4 [10]
000000 34 dc e5 bc 13 09 d3 bd 9f 71 e7 3d 93 9a 8f 3d
       -0.028059103 -0.10304465 0.113009684 0.070119046
000010 6f 53 ea 3d b2 67 f0 3c da fc ae bd 69 a7 a4 bc
       0.11441695 0.02934632 -0.08544321 -0.020099359
000020 dc 48 e6 3d 82 25 01 be
       0.112443656 -0.12611964
